program/deep_learning/16 - Recurrent Neural Network/model/damped_sine/weights_100.pth (torch, 2736 bytes, 9 tensors)

rnn.weight_ih_l0 f4 [9, 1]
-0.11101036 -0.29769138 0.7355897 -0.26424006 -0.28351736 0.40216213 0.068291135 -0.558397
-0.51566255
00000000: 6659 e3bd 016b 98be 9b4f 3c3f 794a 87be
00000010: 3029 91be 32e8 cd3e 39dc 8b3d 1bf3 0ebf
00000020: 7602 04bf

rnn.weight_hh_l0 f4 [9, 3]
0.033461273 0.41254118 0.4356454 0.41889375 0.39272958 0.22470956 0.23477666 -0.032059647
0.2339224 -0.009428914 -0.28771445 0.4536336 -0.40605584 -0.2363204 0.4091506 -0.90757054
-0.52010953 0.6843772 0.31459588 0.48017 -0.011453442 0.021912597 0.38502955 -0.27374896
-0.5265439 -0.1868873 0.0034800875
00000000: b00e 093d 9938 d33e ea0c df3e 3e79 d63e
00000010: da13 c93e 431a 663e 4b69 703e fa50 03bd
00000020: 5b89 6f3e bb7b 1abc 4f4f 93be aa42 e83e
00000030: 8de6 cfbe fafd 71be 307c d13e 8b56 68bf
00000040: e625 05bf 5833 2f3f b612 a13e d8d8 f53e
00000050: 38a7 3bbc 0c82 b33c 9822 c53e d328 8cbe
00000060: 95cb 06bf 625f 3fbe 2e12 643b

rnn.bias_ih_l0 f4 [9]
0.14320439 0.47027197 0.38746625 -0.7612627 -0.6415381 -0.8213258 0.7869601 0.36239663
0.22765742
00000000: 2ca4 123e 7dc7 f03e fa61 c63e 1de2 42bf
00000010: d73b 24bf 6842 52bf 3876 493f 0d8c b93e
00000020: 071f 693e

rnn.bias_hh_l0 f4 [9]
0.20484649 0.006709226 -0.29539075 0.31745142 0.14846635 -0.560603 0.5260584 0.53804237
-0.28814217
00000000: 47c3 513e 11d9 db3b 753d 97be fe88 a23e
00000010: 9007 183e ae83 0fbf c3ab 063f 25bd 093f
00000020: 5f87 93be

rnn.weight_ih_l1 f4 [9, 3]
0.15401198 -0.181311 -0.69436675 0.49994877 -0.23481625 0.8533326 0.33348516 0.70765024
0.58008003 -0.28688154 -0.06728038 -0.20434037 -0.5456795 -0.4888569 -0.12275901 -0.06593232
-0.9782369 0.28527167 0.2074312 0.17522123 0.17717725 -0.24987239 -0.27787524 0.89939183
-0.16622584 0.61263365 0.87575465
00000000: 51b5 1d3e 97a9 39be 05c2 31bf 49f9 ff3e
00000010: ac73 70be 0174 5a3f 91be aa3e 9128 353f
00000020: 2080 143f 23e2 92be 4cca 89bd 9a3e 51be
00000030: a7b1 0bbf 744b fabe 1369 fbbd 8607 87bd
00000040: bc6d 7abf 210f 923e d868 543e 326d 333e
00000050: f46d 353e 8cde 7fbe aa45 8ebe 8b3e 663f
00000060: 1b37 2abe 8fd5 1c3f 7531 603f

rnn.weight_hh_l1 f4 [9, 3]
-0.20035145 -0.15520334 -0.38536102 0.11140435 -0.36257645 0.24044321 -0.28665593 -0.6445726
0.8635127 0.22193983 0.46931213 0.16271235 0.007782603 0.10348346 -0.44161186 -0.09907591
0.65525836 -0.51105917 0.59036136 0.52909935 0.52492696 0.47341165 0.35445717 0.720998
-0.63782614 -0.07450544 0.47321346
00000000: ee28 4dbe a0ed 1ebe 0a4e c5be f727 e43d
00000010: 9fa3 b9be bf36 763e 91c4 92be b602 25bf
00000020: 2b0f 5d3f 3244 633e ae49 f03e 119e 263e
00000030: 3505 ff3b 23ef d33d f31a e2be 50e8 cabd
00000040: 03bf 273f c6d4 02bf ec21 173f 0e73 073f
00000050: 9d61 063f 0363 f23e 697b b53e 5393 383f
00000060: 9348 23bf 4f96 98bd 0949 f23e

rnn.bias_ih_l1 f4 [9]
0.43740734 0.47269183 -0.04027054 0.14296252 0.09623776 -0.17053108 0.27682784 -0.2775259
-0.05688197
00000000: dbf3 df3e aa04 f23e b9f2 24bd c464 123e
00000010: 4d18 c53d b39f 2ebe 61bc 8d3e e017 8ebe
00000020: 12fd 68bd

rnn.bias_hh_l1 f4 [9]
0.09745758 0.62776226 0.37906346 -0.50986797 -0.46715993 -0.5311262 -0.3851498 0.22925098
0.3866246
00000000: d797 c73d 07b5 203f 9b14 c23e b586 02bf
00000010: 962f efbe e3f7 07bf 5b32 c5be c5c0 6a3e
00000020: a9f3 c53e

fc.weight f4 [1, 3]
-0.50355345 -0.5760347 -0.7282827
00000000: e1e8 00bf 0377 13bf bc70 3abf
