program/deep_learning/16 - Recurrent Neural Network/model/damped_sine/weights_350.pth (torch, 2736 bytes, 9 tensors)

rnn.weight_ih_l0 f4 [9, 1]
00000000: ee3e 8dbd efa0 d8be 6ada 263f 3775 cb3d
00000010: 6206 09bd 8fa9 173f 8c0a da3d b766 19bf
00000020: 67da 0fbf
-0.068967685 -0.42310283 0.65177023 0.09934466 -0.033453353 0.592431 0.10646543 -0.59922355
-0.5619263

rnn.weight_hh_l0 f4 [9, 3]
00000000: df6e 9e3d 3ddc b33e 7a9d 0f3f 13c9 1b3f
00000010: e3ad 89be 691b afbd dab5 bd3e 22e1 4f3e
00000020: 5f5f 3a3f 4650 4abe e6fd 09bf 087c 103e
00000030: c7a8 36bf 5f4a 8cbe 90df 6e3f 9bfd 7dbf
00000040: 208f 2bbf 7f0d 423f 45f4 c53e 3472 f43e
00000050: e126 dd3d 443d 8a3e e396 09bd c6ae 2bbf
00000060: 25c5 14bf c20f aabe bff2 b8be
0.07735991 0.35128966 0.56099665 0.6085369 -0.26890478 -0.0855015 0.37052804 0.20300725
0.72801775 -0.19757184 -0.53903043 0.14109814 -0.71351284 -0.2740049 0.9330988 -0.99215096
-0.67015266 0.75801843 0.38662925 0.4774338 0.10798431 0.26999867 -0.033591162 -0.6706356
-0.5811332 -0.33215147 -0.361227

rnn.bias_ih_l0 f4 [9]
00000000: f977 873e eeb5 1a3f 9b1d 183f 52ff 81bf
00000010: e341 72bf b04c 90bf 332b 6b3f 1e63 e13e
00000020: a278 613d
0.2645872 0.6043385 0.59420174 -1.0156043 -0.94631785 -1.1273403 0.9186279 0.44020933
0.055046685

rnn.bias_hh_l0 f4 [9]
00000000: 5967 a63e 8290 193e 74d6 99bd 4af0 2a3d
00000010: 3d1b 30be 7a2d 5fbf 0a4c 343f 915b 2a3f
00000020: 6f4a f8be
0.32500723 0.14996532 -0.07511607 0.041733064 -0.1719789 -0.87178767 0.70428526 0.6654597
-0.48494288

rnn.weight_ih_l1 f4 [9, 3]
00000000: b248 693e 37c2 f1be 569a 22bf 7be7 a13e
00000010: c544 02bf db09 963f e418 633e 1b59 7e3f
00000020: 8f9c 4d3f 1c2e f2be 3a05 8cbe 2b9d 06bf
00000030: 8b5f 35bf 583b 4bbf daf2 60be 6e74 91be
00000040: 5552 a4bf 4d75 5c3e 60d7 923e b022 b23e
00000050: 184e c23e f50d a4be 6e8e 62be 3ddb 903f
00000060: 4f34 12be 9569 4a3f e8e9 823f
0.22781637 -0.47218487 -0.6351675 0.31621918 -0.50886184 1.1721758 0.22177464 0.99354714
0.80317014 -0.47300804 -0.27347738 -0.5258357 -0.7084891 -0.79387426 -0.2196764 -0.2840914
-1.2837626 0.21529122 0.28679943 0.3479209 0.37950206 -0.32041898 -0.22124645 1.1316906
-0.14277767 0.79067355 1.0227633

rnn.weight_hh_l1 f4 [9, 3]
00000000: f370 163e c681 423e b025 93be 7a13 92be
00000010: 7810 c9be ee58 24bd d30d fbbe 0f34 30bf
00000020: 786b 183f fbff ed3e ef1e 1e3f 9dba a33e
00000030: 242a 16bd 5dd6 ee3d 9692 0dbf 9b9a 743d
00000040: f58e 5a3f 3b0c 8ebe b104 463f 098c 153f
00000050: a2b0 233f 5182 dd3e de3e d83e 00cf 373f
00000060: 3074 f4be 6a94 6abe 335f da3e
0.14691524 0.18994817 -0.2873969 -0.28530484 -0.39270377 -0.040123872 -0.49033985 -0.68829435
0.59538984 0.4648436 0.6176595 0.31978312 -0.036661282 0.1166198 -0.553018 0.059717756
0.85374385 -0.27743706 0.7735091 0.584168 0.63941395 0.43263486 0.42235464 0.7180023
-0.47744894 -0.22908178 0.42650756

rnn.bias_ih_l1 f4 [9]
00000000: d476 f53e 6f4f 9f3e 4fda 2abe 698a a4bd
00000010: 9355 c0bd b624 c5be 2436 bd3e 95b5 88be
00000020: 9c3e 7abd
0.4794222 0.3111529 -0.1668484 -0.08034212 -0.09391322 -0.3850457 0.3695537 -0.26701036
-0.061094865

rnn.bias_hh_l1 f4 [9]
00000000: f7b6 153e fc21 ed3e d107 7a3e d560 38bf
00000010: 6569 25bf af0d 3dbf 17da c5be 22b0 963e
00000020: e02f 053f
0.14620577 0.4631499 0.24417044 -0.72022754 -0.64613944 -0.73849005 -0.38642952 0.29431254
0.52026176

fc.weight f4 [1, 3]
00000000: 80f3 68bf ebb2 60bf da74 82bf
-0.9099655 -0.8777301 -1.019191
