program/deep_learning/16 - Recurrent Neural Network/model/damped_sine/weights_300.pth (torch, 2736 bytes, 9 tensors)

rnn.weight_ih_l0 f4 [9, 1]
0	0xbdafd99d	-0.08586428
1	0xbedc13bd	-0.4298381
2	0x3f29989d	0.66248494
3	0x3c80a482	0.015703443
4	0xbd837180	-0.06418133
5	0x3f0ff299	0.5622955
6	0x3dd22d11	0.10262502
7	0xbf1b1be7	-0.6058945
8	0xbf0e6058	-0.5561576

rnn.weight_hh_l0 f4 [9, 3]
0	0x3d863e39	0.06554837
1	0x3ebb18d3	0.36542377
2	0x3f142ae4	0.57877946
3	0x3f179f0e	0.59227073
4	0xbe654d86	-0.22392854
5	0xbd6844e6	-0.05670633
6	0x3ebac828	0.36480832
7	0x3e45080a	0.19241348
8	0x3f2d7acc	0.677655
9	0xbe39846a	-0.18116918
10	0xbf03616c	-0.5132053
11	0x3e45106d	0.19244547
12	0xbf2bee28	-0.6716027
13	0xbe74b6e3	-0.23897891
14	0x3f5fc26a	0.8740603
15	0xbf7d9319	-0.9905258
16	0xbf298944	-0.66225076
17	0x3f429ec2	0.76023495
18	0x3ec0a3ab	0.3762487
19	0x3ef7b078	0.48376822
20	0x3de2097c	0.11036965
21	0x3e7cef9f	0.24700783
22	0x3cc4eada	0.024037767
23	0xbf247593	-0.64241904
24	0xbf15323e	-0.5827979
25	0xbea6310e	-0.324593
26	0xbea153d8	-0.3150928

rnn.bias_ih_l0 f4 [9]
0	0x3e804a5b	0.2505673
1	0x3f163b5c	0.58684325
2	0x3f14e0b3	0.58155364
3	0xbf81870f	-1.0119342
4	0xbf69c1d4	-0.91311383
5	0xbf8b7dde	-1.0897787
6	0x3f6843fd	0.9072874
7	0x3edbc027	0.42920038
8	0x3d8ede99	0.06976051

rnn.bias_hh_l0 f4 [9]
0	0x3e9f5985	0.31122985
1	0x3e05c83b	0.13064663
2	0xbdb93e4c	-0.09045085
3	0x3d4b4cea	0.049633898
4	0xbe0aec20	-0.13566637
5	0xbf554c9e	-0.83320034
6	0x3f308703	0.6895601
7	0x3f2634ea	0.6492449
8	0xbeed68fd	-0.46369162

rnn.weight_ih_l1 f4 [9, 3]
0	0x3e656971	0.22403504
1	0xbed93e9d	-0.42430583
2	0xbf20015d	-0.6250208
3	0x3eb27f36	0.3486268
4	0xbef0dfed	-0.47045842
5	0x3f916292	1.1358206
6	0x3e6a7671	0.22896744
7	0x3f7a89ef	0.9786672
8	0x3f49725b	0.7869012
9	0xbeec7b73	-0.46187934
10	0xbe867d34	-0.26267397
11	0xbef662d6	-0.4812228
12	0xbf30e69f	-0.691019
13	0xbf4141c5	-0.7549098
14	0xbe4a0af4	-0.19730741
15	0xbe84a59e	-0.25907606
16	0xbf9f5c3b	-1.2450022
17	0x3e6aa88d	0.2291586
18	0x3e8f4667	0.279834
19	0x3ea77a2f	0.32710406
20	0x3eb58d77	0.35459492
21	0xbea19c76	-0.31564683
22	0xbe6a9931	-0.2291
23	0x3f8d3e7e	1.1034696
24	0xbe13c911	-0.1443217
25	0x3f4686c1	0.7754937
26	0x3f806b77	1.0032796

rnn.weight_hh_l1 f4 [9, 3]
0	0x3d9f8bc8	0.07790333
1	0x3e2f5f3e	0.17126176
2	0xbe9fdaa1	-0.31221488
3	0xbe7927e9	-0.24331631
4	0xbecc7ed6	-0.39940518
5	0x3c1f8008	0.009735115
6	0xbee679ee	-0.450149
7	0xbf315022	-0.692629
8	0x3f2868be	0.65784824
9	0x3ecf76d0	0.40520334
10	0x3f1726c7	0.59043545
11	0x3e7ebeb2	0.24877432
12	0xbd1f5f06	-0.03890898
13	0x3dfa0840	0.12208605
14	0xbf0e4a6f	-0.55582327
15	0x3d2daf25	0.04240336
16	0x3f552d4d	0.8327225
17	0xbe9d1c01	-0.30685428
18	0x3f405440	0.75128555
19	0x3f13f769	0.5779939
20	0x3f21e2cc	0.6323669
21	0x3ee15c63	0.44015798
22	0x3ed74af2	0.42049366
23	0x3f3ad946	0.7298778
24	0xbf00a449	-0.5025068
25	0xbe6c00ea	-0.23047224
26	0x3ee289b6	0.4424569

rnn.bias_ih_l1 f4 [9]
0	0x3ef576cd	0.479422
1	0x3eaf7f60	0.34276867
2	0xbe25897f	-0.16165732
3	0xbd82c2de	-0.06384824
4	0xbd918562	-0.07105519
5	0xbeb9ce02	-0.36289984
6	0x3eb9e922	0.3631068
7	0xbe8b338e	-0.2718777
8	0xbd7d3a6b	-0.06182329

rnn.bias_hh_l1 f4 [9]
0	0x3e1458c0	0.1448698
1	0x3efda1e3	0.49537572
2	0x3e808486	0.25101107
3	0xbf34d041	-0.7063027
4	0xbf202098	-0.62549734
5	0xbf37bf52	-0.71776307
6	0xbec3fc21	-0.38278297
7	0x3e8f64a0	0.28006458
8	0x3f0303ea	0.5117785

fc.weight f4 [1, 3]
0	0xbf5d0ed0	-0.8635073
1	0xbf57fa07	-0.84365886
2	0xbf7c0afc	-0.9845426
