program/deep_learning/16 - Recurrent Neural Network/model/damped_sine/weights_400.pth (torch, 2736 bytes, 9 tensors)

rnn.weight_ih_l0 f4 [9, 1]
000000 1f c6 52 bd bc 2d d7 be 6f 5a 24 3f e7 3f 33 3e
       -0.051458474 -0.4202708 0.6420049 0.17504846
000010 ac c9 7e bc 40 80 1e 3f ad 5d e1 3d b2 ab 17 bf
       -0.015551012 0.61914444 0.11004195 -0.5924636
000020 2f dd 10 bf
       -0.565875

rnn.weight_hh_l0 f4 [9, 3]
000000 74 87 b3 3d 6c 14 ae 3e cd bb 0b 3f 91 7d 1e 3f
       0.0876607 0.33999956 0.54583436 0.6191035
000010 3d 10 90 be 96 6b db bd 9d 39 be 3e dd 76 54 3e
       -0.2813739 -0.1071388 0.3715333 0.20748468
000020 d9 88 44 3f da 3d 57 be bf 6a 0f bf 02 fe ba 3d
       0.7677131 -0.21019688 -0.56022257 0.091304794
000030 f5 0e 41 bf 4c 2b a4 be aa 77 7c 3f 29 bb 7d bf
       -0.7541345 -0.32064283 0.9862009 -0.9911371
000040 df 4b 2c bf 0e 9b 41 3f 65 6c ca 3e 8a d6 f1 3e
       -0.6730327 0.7562722 0.39535823 0.47233993
000050 26 0f dc 3d e6 95 92 3e fa 58 98 bd e8 eb 30 bf
       0.10745077 0.28629988 -0.07438846 -0.69109964
000060 37 53 13 bf b6 e8 aa be 51 9f cb be
       -0.5754885 -0.3338067 -0.39769986

rnn.bias_ih_l0 f4 [9]
000000 6c 84 8b 3e fb 86 1e 3f dc e0 19 3f 8a 0a 80 bf
       0.27249467 0.61924714 0.60108733 -1.0003216
000010 97 aa 78 bf 59 a4 93 bf 2f 59 6c 3f d1 95 e7 3e
       -0.971353 -1.153453 0.92323583 0.45231488
000020 b9 cd 31 3d
       0.043409083

rnn.bias_hh_l0 f4 [9]
000000 0e 54 aa 3e 23 b1 2a 3e 25 41 86 bd 21 3c 58 3d
       0.33267254 0.16669135 -0.06555394 0.05279172
000010 7e e9 4c be c6 1f 66 bf 73 ee 35 3f cf 6d 2e 3f
       -0.20010945 -0.8989223 0.7106697 0.68136305
000020 a3 34 00 bf
       -0.5008032

rnn.weight_ih_l1 f4 [9, 3]
000000 0a d9 6b 3e 63 45 03 bf 4d e6 24 bf bf 4e 93 3e
       0.23032013 -0.5127775 -0.6441391 0.28771016
000010 e4 9a 0a bf 34 37 99 3f c8 7d 5c 3e e9 a9 80 3f
       -0.54142594 1.1969972 0.21532357 1.0051852
000020 1a 79 51 3f 0d be f5 be ee 03 8f be 4a 01 10 bf
       0.8182541 -0.4799656 -0.27932686 -0.56251967
000030 39 b4 38 bf 58 69 53 bf 67 62 7b be 37 eb 9b be
       -0.7215 -0.82582617 -0.24549256 -0.30452892
000040 5f 50 a8 bf 1e 86 50 3e 40 34 95 3e ba a9 ba 3e
       -1.3149527 0.20363662 0.29141426 0.36457616
000050 f2 70 cd 3e ff 5b a6 be 82 78 5c be dc 96 93 3f
       0.40125233 -0.32492062 -0.21530345 1.1530414
000060 e5 59 11 be fe 40 4d 3f 7c 2c 85 3f
       -0.14194448 0.80177295 1.04042

rnn.weight_hh_l1 f4 [9, 3]
000000 37 eb 67 3e 91 f0 4c 3e 2e 99 81 be 80 3f a3 be
       0.22648321 0.20013644 -0.2531218 -0.31884384
000010 f1 59 c2 be 64 11 ab bd 9b 8e 05 bf ba 86 2d bf
       -0.37959245 -0.083529264 -0.52170724 -0.677837
000020 b0 1a 0c 3f ad 96 03 3f 92 3e 25 3f 34 1e c6 3e
       0.5472822 0.5140179 0.645486 0.38694918
000030 39 33 01 bd 14 ef de 3d 20 c8 0b bf 6e 95 97 3d
       -0.03154299 0.10885444 -0.5460224 0.07401548
000040 24 51 5f 3f 96 4c 81 be 87 de 49 3f 7c 4b 17 3f
       0.87233186 -0.25253743 0.78855175 0.59099555
000050 5a eb 24 3f 34 79 d9 3e 40 bf d8 3e 2c 8f 34 3f
       0.6442162 0.42475283 0.42333412 0.7053096
000060 72 df eb be c3 13 65 be 39 b3 d2 3e
       -0.46068913 -0.2237082 0.4115236

rnn.bias_ih_l1 f4 [9]
000000 3a 1d f5 3e 1c c9 90 3e e2 bc 2d be 1c 96 ba bd
       0.4787386 0.28278434 -0.16966584 -0.09110662
000010 74 cc e5 bd 6e e6 cd be 7f 15 bf 3e 8a 97 87 be
       -0.11220637 -0.40214866 0.37321088 -0.26482803
000020 cc 62 73 bd
       -0.059420392

rnn.bias_hh_l1 f4 [9]
000000 b0 60 16 3e 08 4c de 3e 86 76 75 3e c4 7a 3a bf
       0.14685321 0.43417382 0.23970994 -0.72843575
000010 95 87 29 bf fc 11 41 bf 9d 16 c8 be 14 03 9c 3e
       -0.66222507 -0.75418067 -0.39079753 0.30471098
000020 dd d8 06 3f
       0.5267466

fc.weight f4 [1, 3]
000000 a1 13 73 bf 3f ba 67 bf e0 3c 86 bf
       -0.94951826 -0.90518564 -1.0487328
