program/deep_learning/16 - Recurrent Neural Network/model/damped_sine/weights_200.pth (torch, 2736 bytes, 9 tensors)

rnn.weight_ih_l0 f4 [9, 1]
000000 b1 da f1 bd d5 99 e7 be af 78 2f 3f 79 be 0a be
       -0.1180929 -0.45234552 0.68543524 -0.13549222
000010 c6 30 1a be bc c4 fb 3e be 07 af 3d 4d 39 1d bf
       -0.15057668 0.49173534 0.085463986 -0.6141556
000020 41 11 0a bf
       -0.5393258

rnn.weight_hh_l0 f4 [9, 3]
000000 92 56 28 3d 50 8e ce 3e 06 a0 17 3f 98 c5 08 3f
       0.041098185 0.4034295 0.5922855 0.53426504
000010 57 38 32 3d 2c ca 1d 3d 93 cb a8 3e 46 a7 0f 3e
       0.04351076 0.038522884 0.32967815 0.14028654
000020 09 f8 0c 3f a3 94 01 be 72 70 df be 7e dc 9a 3e
       0.5506597 -0.12654357 -0.43640476 0.30246347
000030 a5 cc 13 bf 50 b2 62 be c5 d0 37 3f e2 69 79 bf
       -0.5773414 -0.22138333 0.7180293 -0.9742719
000040 98 99 20 bf 34 33 3f 3f a9 11 b2 3e 61 5b ff 3e
       -0.62734365 0.74687505 0.347791 0.49874404
000050 7a c0 d9 3d 8e 1a 30 3e 7e bb 5f 3e 43 1b 0b bf
       0.10632415 0.1719763 0.21848866 -0.54338473
000060 08 d2 11 bf d1 de 91 be cb fc 49 be
       -0.5696111 -0.28490308 -0.19725339

rnn.bias_ih_l0 f4 [9]
000000 a2 df 53 3e c1 ee 09 3f 4f c2 06 3f 9e df 72 bf
       0.20690778 0.53879935 0.5264024 -0.9487246
000010 88 c5 52 bf c7 76 7b bf b3 09 5d 3f 74 3e d0 3e
       -0.8233266 -0.98228115 0.86342925 0.40672648
000020 e4 0d f6 3d
       0.12014368

rnn.bias_hh_l0 f4 [9]
000000 e8 3e 89 3e 2f a8 a1 3d 87 a1 1a be be 97 f8 3d
       0.26805806 0.078934066 -0.1510068 0.121383175
000010 22 4f 22 bd 66 40 39 bf 98 67 22 3f 3c ce 1c 3f
       -0.03962625 -0.7236389 0.6343932 0.6125219
000020 2c 6d cb be
       -0.3973173

rnn.weight_ih_l1 f4 [9, 3]
000000 47 78 5b 3e 20 c5 95 be 69 cc 20 bf 14 56 da 3e
       0.21432601 -0.29251957 -0.62811905 0.42643797
000010 00 b2 bc be d9 8f 81 3f 1c d5 84 3e 56 77 6d 3f
       -0.36854553 1.0122024 0.2594384 0.9276022
000020 d7 b2 3c 3f 74 f7 d3 be 8b 41 5b be e2 df bc be
       0.7371039 -0.4139973 -0.21411721 -0.3688956
000030 08 ae 23 bf 36 cd 26 bf c8 a2 25 be 61 c8 41 be
       -0.63937426 -0.6515688 -0.16175377 -0.18924095
000040 00 03 92 bf a2 16 87 3e 41 6e 82 3e a5 91 89 3e
       -1.1407166 0.26384455 0.25474742 0.2686893
000050 fb 7f 95 3e 2a 59 97 be b6 0b 7e be 03 c6 82 3f
       0.29199204 -0.29560214 -0.24809155 1.0216678
000060 fe d4 1c be c3 29 39 3f ed 17 75 3f
       -0.15315625 0.7232935 0.9573963

rnn.weight_hh_l1 f4 [9, 3]
000000 8f 26 ae bc 83 6a 93 3d 5d 34 ac be ca b6 ed bd
       -0.02125862 0.0719805 -0.336337 -0.1160713
000010 6c 60 ce be 50 97 00 3e 08 f9 b0 be 7f 8e 2d bf
       -0.4030794 0.12557721 -0.34564996 -0.67795557
000020 a9 2a 56 3f 63 be 8d 3e 4e 03 09 3f 4e 6a 00 3e
       0.83658844 0.27684316 0.5352067 0.12540552
000030 9a 31 ee bc d7 90 fe 3d 9c 8f 09 bf 46 23 05 bc
       -0.029076386 0.1242997 -0.53734756 -0.008126086
000040 5a 4f 46 3f 7f 08 c7 be 98 85 2f 3f 1a 9f 11 3f
       0.7746483 -0.3887367 0.6856322 0.56883395
000050 8c 37 1b 3f 28 9c e8 3e 29 89 cd 3e 14 cc 3e 3f
       0.6063163 0.45431638 0.40143707 0.7453015
000060 7e e8 17 bf fd 02 52 be 68 44 f3 3e
       -0.5933913 -0.20508952 0.47513127

rnn.bias_ih_l1 f4 [9]
000000 7f ba f5 3e df 65 d4 3e b8 82 04 be 91 9e 77 ba
       0.47993848 0.4148397 -0.1294049 -0.00094459305
000010 1a 9f 09 bc 4b a7 97 be ca d7 ab 3e 06 51 90 be
       -0.008399749 -0.29619822 0.3356307 -0.28186816
000020 fd cb 7d bd
       -0.061962117

rnn.bias_hh_l1 f4 [9]
000000 83 1f 12 3e 98 94 11 3f fb ba 92 3e 64 08 26 bf
       0.14269833 0.5686736 0.2865828 -0.64856553
000010 b3 3a 11 bf fb 66 27 bf 07 38 c4 be c0 35 7e 3e
       -0.5673019 -0.6539151 -0.38323995 0.24825191
000020 ba 84 f5 3e
       0.47952825

fc.weight f4 [1, 3]
000000 dd a7 3c bf 67 26 3f bf d7 54 64 bf
       -0.7369364 -0.7466797 -0.89191955
