program/deep_learning/16 - Recurrent Neural Network/model/damped_sine/weights_50.pth (torch, 2089 bytes, 5 tensors)

rnn.weight_ih_l0 f4 [6, 1]
0	0xbf3a9781	-0.72887427
1	0xbe3dbbb3	-0.18528633
2	0xbeb41bdb	-0.35177502
3	0x3ca66aef	0.020314662
4	0x3f504aa0	0.8136387
5	0x3edbd024	0.42932236

rnn.weight_hh_l0 f4 [6, 2]
0	0xbe89fd6a	-0.26951152
1	0x3ebdd3e2	0.37075716
2	0xbee36560	-0.4441328
3	0xbe768d5f	-0.24077366
4	0x3f0682e6	0.52543485
5	0x3f149907	0.58046
6	0xbee35837	-0.4440324
7	0x3f1153c9	0.5676847
8	0xbec55311	-0.38539937
9	0x3e061758	0.13094842
10	0x3f4962a4	0.7866614
11	0x3ef8ed12	0.4861837

rnn.bias_ih_l0 f4 [6]
0	0xbed0e46d	-0.40799275
1	0xbdc226d5	-0.09480063
2	0xbdc1582c	-0.094406456
3	0xbf161d02	-0.5863801
4	0x3e657ad9	0.22410144
5	0x3e5e3e60	0.21703482

rnn.bias_hh_l0 f4 [6]
0	0x3d5fffdf	0.054687377
1	0xbd3422f9	-0.043978665
2	0xbf24d26c	-0.6438358
3	0x3e24bdb3	0.1608799
4	0xbe908476	-0.2822606
5	0xbec868e9	-0.3914254

fc.weight f4 [1, 2]
0	0x3e9adebd	0.3024806
1	0x3f4ac350	0.79204273
