program/deep_learning/16 - Recurrent Neural Network/model/damped_sine/weights_450.pth (torch, 2736 bytes, 9 tensors)

rnn.weight_ih_l0 f4 [9, 1]
000000 47 e5 fb bc d8 55 d7 be d7 6c 22 3f f6 cb 6f 3e
       -0.030748976 -0.4205768 0.63447326 0.23417649
000010 02 73 63 bc 68 45 24 3f 7e c0 ee 3d af 10 16 bf
       -0.0138824005 0.64168406 0.11657809 -0.5861921
000020 5c 6f 11 bf
       -0.56810546

rnn.weight_hh_l0 f4 [9, 3]
000000 9c 2f c5 3d 78 40 a9 3e d7 33 0a 3f b7 10 20 3f
       0.096282214 0.33056998 0.5398535 0.62525505
000010 18 9b 8c be 49 7c fd bd aa d4 bc 3e d9 91 53 3e
       -0.27462077 -0.12377221 0.36881 0.20661105
000020 62 1d 4b 3f bc cd 63 be 9c c6 14 bf 3b 98 20 3d
       0.7934171 -0.2224645 -0.58115554 0.03920768
000030 bd 0b 4b bf c3 08 c0 be ac 6e 84 3f 11 06 7d bf
       -0.79314786 -0.37506685 1.0346274 -0.9883738
000040 6e f7 2b bf d7 c7 42 3f 2e 94 ce 3e 69 09 f0 3e
       -0.6717442 0.7608618 0.40347427 0.4688218
000050 2c 3e e7 3d e3 34 98 3e 8f 7f d4 bd 74 d4 34 bf
       0.11291155 0.2972785 -0.10375892 -0.7063668
000060 12 10 11 bf 71 fd a8 be e6 56 d8 be
       -0.56665146 -0.3300586 -0.42253798

rnn.bias_ih_l0 f4 [9]
000000 57 dd 8b 3e 19 d4 21 3f 3e 6d 1a 3f 5a 45 77 bf
       0.27317306 0.6321426 0.6032294 -0.965902
000010 01 6c 7c bf cc 71 95 bf af 91 6b 3f 43 1e ee 3e
       -0.986023 -1.1675353 0.9201917 0.46507463
000020 48 9c 09 3d
       0.033596307

rnn.bias_hh_l0 f4 [9]
000000 b9 8d aa 3e 95 bf 39 3e 38 d8 78 bd 41 fd a9 3d
       0.3331125 0.18139489 -0.060753077 0.083002575
000010 40 17 5f be 82 fd 69 bf 6f 29 35 3f b5 62 32 3f
       -0.21786213 -0.9140245 0.7076635 0.69681865
000020 82 1e 03 bf
       -0.51218426

rnn.weight_ih_l1 f4 [9, 3]
000000 76 67 6c 3e 74 21 0d bf 37 23 26 bf d4 3a 86 3e
       0.23086342 -0.5512917 -0.64897484 0.26216757
000010 30 e8 11 bf 61 5d 9b 3f 13 9d 55 3e 22 d6 81 3f
       -0.56994915 1.2137872 0.208607 1.0143473
000020 c1 29 55 3f 30 60 f8 be eb c6 90 be e8 07 17 bf
       0.83266836 -0.48510885 -0.28276762 -0.5899644
000030 27 04 3b bf a7 fb 59 bf 5c 58 8c be 69 72 a4 be
       -0.7305321 -0.85149616 -0.27411163 -0.32118538
000040 38 6d ab bf 34 54 46 3e b7 b0 96 3e fa 9d c1 3e
       -1.3392706 0.19368058 0.29431698 0.3781584
000050 a4 2a d7 3e a4 6e a9 be e2 01 59 be ff 8c 95 3f
       0.4202472 -0.33092225 -0.21192124 1.1683654
000060 ea 59 11 be 8c 57 4f 3f 6b 31 87 3f
       -0.14194456 0.8099296 1.0561956

rnn.weight_hh_l1 f4 [9, 3]
000000 5d 73 9e 3e 64 8f 54 3e 40 fc 59 be b0 c6 b1 be
       0.3094739 0.20757824 -0.21287632 -0.347219
000010 0f d1 b7 be 5d cf f7 bd 17 b8 0b bf 94 04 2a bf
       -0.35901687 -0.12100098 -0.54577774 -0.66413236
000020 98 74 02 3f 83 bf 0c 3f 41 06 2d 3f 7e a7 e4 3e
       0.5095916 0.54979724 0.6758767 0.44659036
000030 ed a4 c9 bc a2 a6 cc 3d 40 45 09 bf 90 30 b0 3d
       -0.024614776 0.0999272 -0.5362129 0.086030126
000040 fa b9 63 3f 4e 67 6c be 0f 39 4c 3f e3 ff 18 3f
       0.8895565 -0.23086283 0.79774565 0.5976545
000050 5f df 25 3f 88 fc d4 3e 1e b3 d9 3e ab 42 31 3f
       0.6479396 0.41598916 0.42519468 0.6924235
000060 b7 21 e6 be 9e f6 5e be 64 da cb 3e
       -0.44947597 -0.21773764 0.39815056

rnn.bias_ih_l1 f4 [9]
000000 67 e5 f3 3e 6c 93 83 3e 4f 97 2f be f0 a8 c9 bd
       0.47635958 0.2569841 -0.17147563 -0.098466754
000010 4f 7c 01 be 33 9b d4 be 85 1e c0 3e 84 5f 88 be
       -0.12645076 -0.41524658 0.37523285 -0.26635373
000020 00 c7 6a bd
       -0.057318687

rnn.bias_hh_l1 f4 [9]
000000 c1 4c 15 3e 08 c7 d0 3e 20 ef 71 3e 10 b6 3b bf
       0.1458006 0.4077685 0.23626375 -0.7332468
000010 fe 9c 2c bf 29 10 44 bf 13 46 ca be a4 e4 9e 3e
       -0.6742705 -0.7658716 -0.39506587 0.31033814
000020 77 24 08 3f
       0.5318064

fc.weight f4 [1, 3]
000000 00 d6 7b bf 34 66 6d bf 6a 82 89 bf
       -0.98373413 -0.92734075 -1.0742924
