program/deep_learning/16 - Recurrent Neural Network/model/damped_sine/weights_250.pth (torch, 2736 bytes, 9 tensors)

rnn.weight_ih_l0 f4 [9, 1]
0	0xbdd32609	-0.10309989
1	0xbee1b130	-0.44080496
2	0x3f2c5604	0.6731875
3	0xbd82e04f	-0.0639044
4	0xbdd4c709	-0.103895254
5	0x3f0776dc	0.5291574
6	0x3dc43496	0.095803425
7	0xbf1c828c	-0.611367
8	0xbf0c6989	-0.54848534

rnn.weight_hh_l0 f4 [9, 3]
0	0x3d57a079	0.052643273
1	0x3ec406ff	0.38286588
2	0x3f179622	0.5921346
3	0x3f117d2d	0.5683163
4	0xbe02ba55	-0.12766393
5	0xbc8d2a9d	-0.017232234
6	0x3eb461f3	0.3523098
7	0x3e318171	0.17334534
8	0x3f1ecec5	0.62034255
9	0xbe223bb4	-0.15843087
10	0xbef5b54e	-0.47989887
11	0x3e7c7f8b	0.24658029
12	0xbf20a1bf	-0.62746805
13	0xbe6112ad	-0.2197978
14	0x3f4e2693	0.8052761
15	0xbf7c372e	-0.985217
16	0xbf260dca	-0.6486479
17	0x3f41e692	0.7574245
18	0x3eb9e9a5	0.3631107
19	0x3efb56a6	0.49089545
20	0x3de3c9d9	0.11122484
21	0x3e5c694b	0.21524541
22	0x3dd7ec71	0.105431445
23	0xbf1a32d0	-0.60233784
24	0xbf145182	-0.5793687
25	0xbe9ea1ac	-0.3098272
26	0xbe85c3c5	-0.26125923

rnn.bias_ih_l0 f4 [9]
0	0x3e6cef92	0.23138264
1	0x3f10cb85	0.56560546
2	0x3f0f8dc5	0.560757
3	0xbf7dae52	-0.99094117
4	0xbf5f804e	-0.8730515
5	0xbf854ba8	-1.0413713
6	0x3f63b38e	0.88945854
7	0x3ed68114	0.41895354
8	0x3db87ffe	0.090087876

rnn.bias_hh_l0 f4 [9]
0	0x3e95a6cc	0.29228818
1	0x3ddc528f	0.10757934
2	0xbde95b8c	-0.11394414
3	0x3d995f94	0.07488933
4	0xbdbd6853	-0.09248414
5	0xbf48a4ad	-0.78376275
6	0x3f2ac1e1	0.66702086
7	0x3f21d943	0.6322214
8	0xbededfd4	-0.43530142

rnn.weight_ih_l1 f4 [9, 3]
0	0x3e60bbf1	0.21946694
1	0xbebabcf5	-0.36472288
2	0xbf1e906a	-0.6193911
3	0x3ec564b5	0.38553396
4	0xbed93382	-0.4242211
5	0x3f8aa08b	1.0830244
6	0x3e752cf2	0.23942927
7	0x3f7554af	0.9583234
8	0x3f4460df	0.76710314
9	0xbee2eb44	-0.44320118
10	0xbe795ee8	-0.2435261
11	0xbedbc4a2	-0.42923456
12	0xbf2b18af	-0.6683454
13	0xbf3536e7	-0.707869
14	0xbe36de0a	-0.17858139
15	0xbe699b26	-0.2281309
16	0xbf9948c5	-1.1975332
17	0x3e7b9082	0.24566844
18	0x3e8a0ccd	0.2696289
19	0x3e9a1e50	0.30101252
20	0x3ea6d347	0.32583067
21	0xbe9de049	-0.30835178
22	0xbe73ee6d	-0.23821421
23	0x3f8897c6	1.0671318
24	0xbe16a0aa	-0.14709726
25	0x3f410fac	0.7541454
26	0x3f7b5907	0.9818272

rnn.weight_hh_l1 f4 [9, 3]
0	0x3cc1b23b	0.023644557
1	0x3e0b2a29	0.13590302
2	0xbea74ca4	-0.3267566
3	0xbe40f274	-0.18842489
4	0xbecde1cc	-0.40211332
5	0x3d8657a9	0.065596886
6	0xbecd6ee1	-0.40123656
7	0xbf304f41	-0.6887093
8	0x3f3d061f	0.73837465
9	0x3eae51b1	0.340467
10	0x3f100fe1	0.5627423
11	0x3e392d27	0.1808363
12	0xbd16d8f7	-0.036828008
13	0x3dff4d16	0.12465875
14	0xbf0d4577	-0.5518412
15	0x3ca9b374	0.020715453
16	0x3f4eb81c	0.8074968
17	0xbeaf82f5	-0.342796
18	0x3f38a1f3	0.72122115
19	0x3f12a581	0.5728379
20	0x3f1f29d7	0.6217322
21	0x3ee525d6	0.4475543
22	0x3ed45788	0.4147303
23	0x3f3d53ee	0.7395619
24	0xbf0a35e8	-0.53988504
25	0xbe6506df	-0.22365902
26	0x3eead35c	0.4586438

rnn.bias_ih_l1 f4 [9]
0	0x3ef57d62	0.47947222
1	0x3ec16308	0.37770867
2	0xbe1ae59a	-0.15126649
3	0xbd1d3594	-0.038381174
4	0xbd2fc1f0	-0.042909563
5	0xbeab0a64	-0.33406365
6	0x3eb4727d	0.35243598
7	0xbe8e35ac	-0.27775323
8	0xbd7c89cb	-0.061654847

rnn.bias_hh_l1 f4 [9]
0	0x3e130651	0.14357878
1	0x3f07eae5	0.53092796
2	0x3e86af90	0.2630582
3	0xbf2ef432	-0.6834136
4	0xbf197de2	-0.59957707
5	0xbf30bacf	-0.6903505
6	0xbec3223a	-0.3811205
7	0x3e86fd01	0.26364902
8	0x3effc87b	0.49957642

fc.weight f4 [1, 3]
0	0xbf4eb032	-0.807376
1	0xbf4d0bd0	-0.8009615
2	0xbf716a51	-0.9430285
