program/deep_learning/16 - Recurrent Neural Network/model/damped_sine/weights_550.pth (torch, 2736 bytes, 9 tensors)

rnn.weight_ih_l0 f4 [9, 1]
0	0x3c98af66	0.018638324
1	0xbedaf068	-0.4276154
2	0x3f2074d1	0.6267825
3	0x3eab0495	0.33401933
4	0xbd50605a	-0.050873138
5	0x3f2e803e	0.6816443
6	0x3e0fc4d1	0.14039923
7	0xbf1353da	-0.5754982
8	0xbf1176e0	-0.56822014

rnn.weight_hh_l0 f4 [9, 3]
0	0x3dd3c5ab	0.103404365
1	0x3e9e075e	0.30864996
2	0x3f124264	0.57132554
3	0x3f20d8af	0.6283063
4	0xbe6e9de1	-0.23302414
5	0xbe1737be	-0.14767358
6	0x3eb628c6	0.35577983
7	0x3e458698	0.19289625
8	0x3f51958d	0.8186882
9	0xbe834367	-0.2563736
10	0xbf232680	-0.6373062
11	0xbda65d59	-0.081232734
12	0xbf5cd32f	-0.8625974
13	0xbefb77a4	-0.49114716
14	0x3f8ef75a	1.1169236
15	0xbf7bd408	-0.9837041
16	0xbf2b64b6	-0.6695055
17	0x3f4bddd5	0.79635364
18	0x3ed4b87e	0.41547006
19	0x3eec691c	0.46173942
20	0x3e1c033b	0.15235607
21	0x3e9d364d	0.3070549
22	0xbe122355	-0.1427129
23	0xbf3a62fc	-0.7280729
24	0xbf0b8612	-0.5450145
25	0xbea0026e	-0.31251854
26	0xbee62f97	-0.44958183

rnn.bias_ih_l0 f4 [9]
0	0x3e840ae2	0.25789553
1	0x3f274631	0.6534148
2	0x3f1950b5	0.59888774
3	0xbf5f6d76	-0.872764
4	0xbf7cf102	-0.9880525
5	0xbf94e6ea	-1.1632969
6	0x3f65f5cb	0.89828175
7	0x3efb2345	0.49050346
8	0x3c8f2014	0.01747135

rnn.bias_hh_l0 f4 [9]
0	0x3ea27c93	0.31735668
1	0x3e5336d9	0.20626391
2	0xbd74f188	-0.059800655
3	0x3e2bcc68	0.16777194
4	0xbe676f2e	-0.22601005
5	0xbf696b23	-0.911791
6	0x3f2f313d	0.68434507
7	0x3f39ac45	0.7252849
8	0xbf06b487	-0.5261921

rnn.weight_ih_l1 f4 [9, 3]
0	0x3e64c803	0.22341923
1	0xbf23a143	-0.6391794
2	0xbf23a6be	-0.63926303
3	0x3e60a5e1	0.21938278
4	0xbf1de247	-0.61673397
5	0x3f9e1150	1.2349033
6	0x3e44f983	0.19235806
7	0x3f8338f0	1.0251751
8	0x3f5c2a3d	0.8600195
9	0xbefc0b04	-0.49227154
10	0xbe90b3bb	-0.28262123
11	0xbf1dab55	-0.61589557
12	0xbf3d69c1	-0.7398949
13	0xbf63b6fb	-0.8895108
14	0xbeadcab0	-0.339437
15	0xbeb0c7e6	-0.3452751
16	0xbfaf415d	-1.3691822
17	0x3e359516	0.17732653
18	0x3e97e215	0.29664674
19	0x3ecc8d9a	0.39951783
20	0x3ee717ba	0.4513529
21	0xbeb1a54b	-0.3469642
22	0xbe58f344	-0.21186548
23	0x3f97c8f6	1.1858203
24	0xbe14c66b	-0.14528815
25	0x3f51c7cb	0.81945485
26	0x3f8a9c29	1.0828906

rnn.weight_hh_l1 f4 [9, 3]
0	0x3eee2ff5	0.46520963
1	0x3e6b080b	0.22952287
2	0xbe0224f5	-0.1270941
3	0xbec82db4	-0.3909737
4	0xbe99bd9d	-0.30027476
5	0xbe3817a4	-0.17977768
6	0xbf141c44	-0.5785563
7	0xbf228305	-0.6348117
8	0x3ee8354b	0.4535316
9	0x3f1691b3	0.5881607
10	0x3f4047da	0.75109637
11	0x3f0c17f4	0.5472405
12	0xbc2b8e78	-0.010470979
13	0x3dab1013	0.08352675
14	0xbf04589a	-0.51697695
15	0x3dd52dd5	0.104091324
16	0x3f6c067b	0.9219739
17	0xbe47bfe3	-0.19506793
18	0x3f4d19d3	0.8011753
19	0x3f1baea1	0.6081334
20	0x3f27695e	0.6539515
21	0x3ecba35d	0.39773074
22	0x3eddd1e8	0.43324208
23	0x3f2aea0a	0.66763365
24	0xbedf7191	-0.43641332
25	0xbe573f71	-0.21020295
26	0x3ec1331a	0.377343

rnn.bias_ih_l1 f4 [9]
0	0x3eeccd19	0.46250227
1	0x3e59c4cc	0.21266478
2	0xbe33d804	-0.17562872
3	0xbdd94ed2	-0.10610737
4	0xbe14d97b	-0.14536087
5	0xbedd1f45	-0.4318792
6	0x3ec147df	0.37750146
7	0xbe8e4134	-0.2778412
8	0xbd5e32d7	-0.054247703

rnn.bias_hh_l1 f4 [9]
0	0x3e09cfad	0.13458128
1	0x3eb9783d	0.36224547
2	0x3e6a5987	0.22885714
3	0xbf3c5e74	-0.73581624
4	0xbf3055d8	-0.6888099
5	0xbf479ac6	-0.7797054
6	0xbecdcd44	-0.40195668
7	0x3e9eeb18	0.31038737
8	0x3f09af79	0.53783375

fc.weight f4 [1, 3]
0	0xbf8528db	-1.0403093
1	0xbf75d07f	-0.96021265
2	0xbf8ef769	-1.1169254
