program/deep_learning/13 - Neural Network/model/weights_best.pth (torch, 874810 bytes, 6 tensors)

fc.1.0.weight f4 [256, 784]
0.35177964 0.18837632 0.30850494 -0.1610398 -0.19418122 -0.00783724 0.23818907 0.2773653
0.08928016 0.102931745 0.20254417 0.21327619 -0.15435581 -0.6476341 -0.70828307 -0.34326372
0.045795873 0.17399602 0.18945268 0.07896694 0.19939806 0.38659295 -0.17118005 0.025704496
0.0014642358 -0.050350025 -0.041405488 0.29828835 0.50538087 0.37881535 -0.011017914 -0.092401765
-0.086388886 0.017668448 0.07848533 0.029001161 0.10302214 0.29013693 0.26658374 0.07684775
-0.022410639 -0.08441647 -0.25578895 -0.21862568 -0.033790648 0.033950314 0.29551595 0.24017711
0.16159977 0.1544487 -0.027179098 0.078149825 -0.0050102305 -0.0058652596 -0.08029107 -0.22132824
0.3577058 0.116552584 -0.18053828 -0.06512846 0.049151678 0.18550755 0.030345012 -0.036753934
0.17140318 0.1226744 -0.041488156 0.027527051 -0.016265282 0.112794414 0.030704565 -0.05421003
-0.08152475 0.035708833 0.059090946 0.10405118 0.050341815 0.12289121 0.23989372 0.21195869
0.19218288 -0.14943947 -0.075200304 -0.033034123 -0.023030538 0.14773881 0.14224415 0.0486702
0.17186762 0.3755947 -0.053855404 -0.06502704 0.005448258 0.098674044 -0.03343 -0.022116227
-0.02166385 0.017809613 -0.11073552 -0.105574034 -0.09039712 0.047871873 -0.039093003 -0.018425295
-0.012692078 -0.09139074 0.19102226 0.4326986 0.34671086 0.065079 0.019162409 0.031406358
0.09889081 0.26194924 0.325933 0.2673739 0.21865322 0.3494755 -0.05857279 -0.17682391
-0.079739995 -0.031690136 0.066951975 0.049503934 0.027141863 0.05491555 -0.07864296 0.10693119
-0.06790908 0.01963476 0.021536492 -0.16137536 -0.11862185 -0.14058635 0.07935076 0.28478885
0.31495258 0.21601509 0.0079657575 0.27537844 0.14716792 0.27808923 0.4209826 0.2928068
0.23561662 0.26240894 -0.0668799 -0.12444305 0.010402073 -0.04057741 0.14908604 0.049133155
0.056101106 0.11034132 0.056445457 0.11517723 0.010095391 0.10609655 -0.027920566 -0.037890557
-0.07990815 -0.113928474 0.057646655 0.17747556 0.48722064 0.18332323 0.22368887 0.3100242
0.18478833 0.4392849 0.12396628 0.22118756 0.019917425 0.21751906 -0.12681966 -0.120714635
-0.054767024 0.0502886 0.18449655 0.054670278 -0.022584949 -0.035088874 -0.09238529 -0.1883836
-0.033090767 0.07940399 0.1573729 0.062088538 -0.038308524 -0.094341494 -0.038130548 0.124988124
0.37750083 0.15133095 0.18458067 0.3051791 0.22987533 0.23883305 0.080502845 0.09621278
-0.08944105 0.052596245 -0.17849705 -0.13076794 -0.07107736 0.07029969 0.021930551 0.0029760613
0.025632331 0.035169814 -0.14956985 -0.129099 0.04269971 -0.015514753 -0.06419664 0.02672266
-0.013050427 -0.096512474 -0.11625062 -0.017814463 0.22183795 -0.03396648 0.09595954 0.1103604
0.12555951 0.26831365 0.12509878 -0.20523766 -0.14466815 -0.08165654 -0.025514452 -0.15233937
-0.088176824 -0.15000609 -0.10925389 -0.010118936 -0.048308156 -0.019226331 -0.0770426 -0.021481365
-0.015397544 0.037331235 -0.22511868 0.032164883 -0.06520075 0.018891675 -0.12187209 -0.1476806
0.056975223 0.08959398 0.086930096 0.036974475 0.22355749 0.28455594 0.18567427 -0.16411984
00000000: 761c b43e b9e5 403e 5cf4 9d3e 9ee7 24be
00000010: 71d7 46be c467 00bc d6e7 733e d302 8e3e
00000020: 84d8 b63d e1cd d23d bd67 4f3e 1365 5a3e
00000030: 730f 1ebe 59cb 25bf 0a52 35bf 43c0 afbe
00000040: 7494 3b3d 032c 323e e2ff 413e 6bb9 a13d
00000050: 012f 4c3e 83ef c53e d349 2fbe 3c92 d23c
00000060: 9aeb bf3a d43b 4ebd cd98 29bd 40b9 983e
00000070: a460 013f 16f4 c13e 7b84 34bc 233d bdbd
00000080: a8ec b0bd 6cbd 903c ebbc a03d d893 ed3c
00000090: 46fd d23d d48c 943e aa7d 883e 5a62 9d3d
000000a0: 8496 b7bc 8be2 acbd c5f6 82be 69df 5fbe
000000b0: 1068 0abd 7c0f 0b3d de4d 973e fdf0 753e
000000c0: 697a 253e cd27 1e3e b3a6 debc 040d a03d
000000d0: dc2c a4bb 5d31 c0bb a56f a4bd dfa3 62be
000000e0: 3725 b73e 1fb3 ee3d 07df 38be 1262 85bd
000000f0: 4553 493d b1f5 3d3e 1a96 f83c 4b8b 16bd
00000100: 5184 2f3e b73c fb3d 7cef 29bd 6980 e13c
00000110: c53e 85bc c200 e73d 2488 fb3c 560b 5ebd
00000120: 73f6 a6bd 6d43 123d 5909 723d c918 d53d
00000130: 3833 4e3d 63ae fb3d b3a6 753e b30b 593e
00000140: 97cb 443e a906 19be 9e02 9abd ca4e 07bd
00000150: 8aaa bcbc d848 173e 73a8 113e 675a 473d
00000160: 11fe 2f3e f34d c03e 7c97 5cbd e62c 85bd
00000170: 4d87 b23b 9e15 ca3d e5ed 08bd 172d b5bc
00000180: 6378 b1bc 77e5 913c 4ec9 e2bd 3337 d8bd
00000190: 2022 b9bd 4c15 443d fc1f 20bd a5f0 96bc
000001a0: 6ff2 4fbc 112b bbbd 579b 433e ac8a dd3e
000001b0: 1684 b13e 2448 853d 7cfa 9c3c f4a3 003d
000001c0: 4487 ca3d 361e 863e b1e0 a63e 3be5 883e
000001d0: a1e6 5f3e 74ee b23e 06ea 6fbd 5411 35be
000001e0: b94e a3bd 84cd 01bd 1e1e 893d a3c4 4a3d
000001f0: 9d58 de3c 21ef 603d 8f0f a1bd bdfe da3d
00000200: ea13 8bbd 14d9 a03c 4c6d b03c 953f 25be
00000210: 03f0 f2bd def5 0fbe a782 a23d d8cf 913e
00000220: 7741 a13e 0f33 5d3e cf82 023c 67fe 8c3e
00000230: 30b3 163e b661 8e3e 088b d73e c6ea 953e
00000240: 7c45 713e 775a 863e 54f8 88bd ffdb febd
00000250: 756d 2a3c 8034 26bd 03aa 183e d93f 493d
00000260: 46ca 653d a1fa e13d 5a33 673d 0ae2 eb3d
00000270: 2467 253c 2649 d93d acb9 e4bc 2133 1bbd
00000280: e2a6 a3bd 5553 e9bd e61e 6c3d 27bc 353e
00000290: fc74 f93e 16b9 3b3e b20e 653e 7ebb 9e3e
000002a0: 2739 3d3e f3e9 e03e 08e2 fd3d fe7e 623e
000002b0: de29 a33c 51bd 5e3e 03dd 01be 3c39 f7bd
000002c0: 6353 60bd 6bfb 4d3d aaec 3c3e f1ed 5f3d
000002d0: 1204 b9bc 5ab9 0fbd 8034 bdbd a1e7 40be
000002e0: 2f8a 07bd 8f9e a23d 5d26 213e 8d50 7e3d
000002f0: 66e9 1cbd 1d36 c1bd c72e 1cbd c6f9 ff3d
00000300: ca47 c13e 80f6 1a3e b702 3d3e 6f40 9c3e
00000310: 7064 6b3e a790 743e adde a43d 350b c53d
00000320: df2c b7bd 296f 573d eec7 36be 08e8 05be
00000330: 0291 91bd 49f9 8f3d b3a7 b33c 060a 433b
00000340: e5fa d13c 390e 103d d728 19be 8732 04be
00000350: e4e5 2e3d 9731 7ebc 8779 83bd 7be9 da3c
00000360: 75d1 55bc 55a8 c5bd ce14 eebd a3ef 91bc
00000370: 7d29 633e 7020 0bbd 6f86 c43d a204 e23d
00000380: ac92 003e 6860 893e e519 003e d229 52be
00000390: e323 14be 8b3b a7bd af03 d1bc dafe 1bbe
000003a0: 0d96 b4bd 329b 19be 81c0 dfbd e5c9 25bc
000003b0: c6de 45bd 8a80 9dbc 83c8 9dbd b0f9 afbc
000003c0: fb45 7cbc a3e8 183d 8385 66be 53bf 033d
000003d0: f987 85bd b7c2 9a3c 1398 f9bd 9539 17be
000003e0: da5e 693d 0c7d b73d 6808 b23d 8c72 173d
000003f0: 41ec 643e 51b1 913e 6521 3e3e 080f 28be

fc.1.0.bias f4 [256]
0.3477318 0.09672079 0.22309226 0.42912605 -0.28861785 0.35540953 0.22362958 0.24774674
0.0189137 0.16885288 -0.08082414 0.11843265 0.35474408 -0.070672296 0.14635628 0.12574883
-0.11966686 0.09444766 0.53829765 0.10828261 0.39876497 0.19148202 0.05306453 -0.031536344
-0.04143406 -0.08326246 0.09312508 0.3515452 -0.037422817 0.23539726 0.34171596 -0.067497894
0.41480815 0.2855205 0.11559964 0.23607388 -0.33322588 0.07877795 -0.002880712 -0.03545342
0.039891563 0.7454654 0.4129818 0.17118637 -0.12830627 0.26691124 -0.006745984 0.054534625
0.5712324 -0.17139113 -0.021503024 -0.50089896 0.2908004 0.115141064 0.20680937 -0.36736217
0.05736152 0.079778254 -0.22834688 -0.2564765 -0.24215513 0.59256303 0.081402145 -0.20040266
0.37717137 -0.032459583 0.08044775 0.46326324 0.13774318 -0.18893118 -0.012520328 0.05914781
-0.018551353 0.21517216 0.48653236 0.32894114 -0.02120465 0.043338142 -0.22008328 0.0897175
-0.020293204 0.3571771 0.1979223 -0.16187829 0.05083289 0.1463944 -0.2153395 0.32491386
0.011315229 0.03218936 0.14451462 0.2749951 -0.1930552 0.5236855 0.10631992 -0.0042235316
0.07086372 0.21699396 0.2579279 0.007105935 0.25350755 0.07544028 -0.28760126 0.27018955
0.24375208 0.35193276 -0.094901904 0.1486621 0.3144917 -0.054193035 -0.016248262 -0.33180887
0.2687171 -0.0012532292 0.23406605 0.012994207 -0.100237206 -0.039750695 0.36421663 0.1164062
-0.021035379 0.1865099 -0.18520118 0.08391454 0.31844357 0.004631576 -0.34409988 -0.04147349
0.45123294 0.07651171 -0.24009584 0.33215323 0.8344701 -0.024613159 0.17713979 -0.024061635
-0.1636845 -0.17764433 -0.01138883 -0.012830484 0.40803787 -0.27319816 -0.41301656 -0.1983442
0.052449346 0.13473804 0.34204382 -0.10848542 0.25739977 -0.29420835 0.07925438 -0.03696125
-0.14356495 0.16546404 -0.07359501 0.10852126 -0.021399904 -0.037439473 -0.019081619 -0.07420831
0.18790187 0.1818355 0.11423488 0.032213863 -0.08684447 0.37152323 -0.23792675 -0.01705757
0.12508398 0.12976366 -0.0048591616 0.40979227 0.32072133 0.44942537 -0.18801661 -0.31338203
-0.35086554 -0.17002587 0.5220853 -0.0298297 0.37975585 0.18409452 -0.22626051 0.015807714
0.18340999 0.15047334 0.3865217 -0.022127943 -0.29282913 0.15391082 0.4550484 -0.16513026
0.073749535 0.21800187 -0.032146357 0.11036684 -0.043308966 -0.38608718 -0.12054554 0.10025125
0.03810442 -0.086693026 0.0071747685 -0.16880953 0.01634083 0.026621832 -0.009146623 0.11301593
-0.22305189 0.14970994 0.059445452 0.19081208 -0.50447565 0.27664518 -0.0355005 -0.082201965
0.15521687 0.13901858 0.0053297067 0.43196067 0.265508 -0.1305951 -0.051094953 0.32286447
-0.47700232 -0.023202939 0.20490481 0.23898432 -0.012829079 -0.10154548 0.10805816 0.23332569
0.0008909295 -0.00054645323 0.031856667 0.665331 -0.24910018 0.3920017 0.02176076 -0.002380949
0.0034296438 -0.37517923 -0.027968656 -0.16564669 0.08946128 0.2630578 -0.0137677165 -0.2244248
0.13229682 -0.4577324 -0.4205344 -0.027185103 0.13784428 0.09826501 0.0039006816 0.21465595
00000000: e709 b23e 8d15 c63d 4c72 643e 69b6 db3e
00000010: b8c5 93be 3df8 b53e 27ff 643e 52b1 7d3e
00000020: e7f0 9a3c c5e7 2c3e 2087 a5bd d18c f23d
00000030: 04a1 b53e a3bc 90bd 6cde 153e 4dc4 003e
00000040: e613 f5bd c66d c13d e0cd 093f 46c3 dd3d
00000050: ec2a cc3e dd13 443e 315a 593d 412c 01bd
00000060: c3b6 29bd 8285 aabd 5db8 be3d bcfd b33e
00000070: ab48 19bd fb0b 713e 65f5 ae3e 563c 8abd
00000080: bc61 d43e be2f 923e 81bf ec3d 5abd 713e
00000090: 959c aabe 5556 a13d 54ca 3cbb 9b37 11bd
000000a0: 5665 233d d2d6 3e3f 5a72 d33e 7b4b 2f3e
000000b0: b862 03be 97a8 883e 6a0d ddbb b35f 5f3d
000000c0: 493c 123f 2881 2fbe 1c27 b0bc ea3a 00bf
000000d0: cae3 943e 14cf eb3d d6c5 533e e516 bcbe
000000e0: eaf3 6a3d c862 a33d c4d3 69be e350 83be
000000f0: 84f7 77be 36b2 173f 2bb6 a63d 5b36 4dbe
00000100: 9b1c c13e 57f4 04bd cac1 a43d d730 ed3e
00000110: 8c0c 0d3e 2d77 41be 1022 4dbc f944 723d
00000120: 02f9 97bc 1756 5c3e c51a f93e f96a a83e
00000130: 60b5 adbc 5683 313d 835d 61be cfbd b73d
00000140: ef3d a6bc ebdf b63e 25ac 4a3e 6cc3 25be
00000150: 2636 503d 6ae8 153e f581 5cbe 1c5b a63e
00000160: 8363 393c fed8 033d a4fb 133e 28cc 8c3e
00000170: 43b0 45be 4110 063f 42be d93d 8d65 8abb
00000180: ff20 913d aa33 5e3e 200f 843e e7d8 e83b
00000190: becb 813e 6f80 9a3d 7940 93be 4956 8a3e
000001a0: 259a 793e 8830 b43e ee5b c2bd e13a 183e
000001b0: 0e05 a13e 84f9 5dbd 131b 85bc dae2 a9be
000001c0: 4a95 893e 6543 a4ba 03af 6f3e a8e5 543c
000001d0: 2a49 cdbd a0d1 22bd 9a7a ba3e 6066 ee3d
000001e0: 6352 acbc 74fc 3e3e 61a5 3dbe 63db ab3d
000001f0: 090b a33e 7ac4 973b dc2d b0be 1be0 29bd
00000200: 0108 e73e 2cb2 9c3d afdb 75be fd0f aa3e
00000210: d59f 553f 89a1 c9bc 2264 353e e81c c5bc
00000220: e99c 27be 65e8 35be 3798 3abc f336 52bc
00000230: 57ea d03e a1e0 8bbe e876 d3be be1a 4bbe
00000240: 20d5 563d c5f8 093e 5e20 af3e 9b2d debd
00000250: e7c9 833e 7aa2 96be 1f50 a23d ae64 17bd
00000260: b102 13be 686f 293e fbb8 96bd 6540 de3d
00000270: da4e afbc 225a 19bd 0e51 9cbc 87fa 97bd
00000280: 5969 403e 1633 3a3e faf3 e93d aff2 033d
00000290: 83db b1bd 4b38 be3e 12a3 73be 51bc 8bbc
000002a0: 0416 003e c4e0 043e 9a39 9fbb 4bd0 d13e
000002b0: 9635 a43e 151b e63e 6d87 40be 9c73 a0be
000002c0: a6a4 b3be 431b 2ebe 62a7 053f 6a5d f4bc
000002d0: 5c6f c23e 4683 3c3e d6b0 67be 2e7f 813c
000002e0: d4cf 3b3e af15 1a3e 2ce6 c53e a945 b5bc
000002f0: b3ed 95be cc9a 1d3e 1bfc e83e e817 29be
00000300: ff09 973d e23b 5f3e e6ab 03bd 0308 e23d
00000310: be64 31bd 38ad c5be 94e0 f6bd 8750 cd3d
00000320: 6113 1c3d 1d8c b1bd 521a eb3b 68dc 2cbe
00000330: 34dd 853c 0716 da3c b8db 15bc e574 e73d
00000340: b767 64be 904d 193e 137d 733d 3e64 433e
00000350: 5125 01bf 70a4 8d3e f968 11bd 8159 a8bd
00000360: 2cf1 1e3e e35a 0e3e d2a4 ae3b f329 dd3e
00000370: aaf0 873e b9ba 05be f148 51bd 7e4e a53e
00000380: a639 f4be 1714 bebc 91d2 513e 4eb8 743e
00000390: 0f31 52bc 14f7 cfbd 994d dd3d eeec 6e3e
000003a0: 448d 693a db3f 0fba 237c 023d 2253 2a3f
000003b0: 1e14 7fbe 72b4 c83e 9f43 b23c b209 1cbb
000003c0: e0c3 603b 7e17 c0be 861e e5bc 499f 29be
000003d0: 7a37 b73d 83af 863e fd91 61bc 9dcf 65be
000003e0: d178 073e e75b eabe 4950 d7be 4bb3 debc
000003f0: 0d27 0d3e 2a3f c93d 94a2 7f3b c5ce 5b3e

fc.2.0.weight f4 [64, 256]
0.19142962 0.094004385 0.035723485 0.035544228 -0.062655725 -0.4070895 -0.27806854 0.04371384
0.0016542848 -0.21666385 0.11576362 -0.13463165 -0.0076918555 0.035017915 -0.23757392 0.090947054
-0.2210808 0.00816185 0.12727074 0.06981496 0.11395182 0.011059506 0.037497588 -0.01919974
-0.37786657 0.08081129 -0.041890223 -0.2667979 -0.04566544 0.03727278 -0.0037690725 -0.10001094
0.03744681 0.21693842 0.024615156 0.09505566 -0.1394599 -0.058826394 0.05098007 -0.03602875
-0.12614588 -0.13809052 0.053734783 0.16195531 -0.14092319 -0.33295968 -0.0634631 0.22236827
0.061382852 0.032964054 0.008245104 -0.35458922 -0.005277655 -0.014035859 0.050182432 -0.07721846
-0.053154726 0.03626679 -0.0053732456 0.026033442 -0.040520437 -0.09259727 -0.17755154 -0.040074013
0.1620918 -0.012029045 -0.13848197 -0.073338136 0.058746144 0.006494566 -0.020171257 -0.08443535
-0.0353215 -0.0067307125 0.10595516 -0.37178874 -0.19253442 -0.18402742 -0.15462892 -0.035918675
0.00065176946 -0.22526574 0.08046958 0.35867238 0.08011459 0.0062240516 -0.02314383 -0.014193413
-0.055281736 -0.01610097 -0.12305213 -0.118779376 -0.18706438 -0.14210409 0.013926575 -0.018284718
-0.27838767 0.004113502 0.28864717 0.038480826 0.14364006 0.25147662 0.04042965 0.015803492
0.026889624 0.05815873 0.033007223 -0.03618326 0.14991862 0.015317951 -0.000767659 0.09336014
-0.04520307 -0.06671515 -0.013776904 -0.025489638 0.0425481 -0.05433509 0.068864375 0.06808159
0.018476492 0.030622143 -0.07760382 0.13890871 -0.23142947 0.08084315 -0.13396245 -0.001328398
0.11681435 0.0971479 -0.045640025 -0.076845616 0.12608781 -0.023236766 0.09782066 0.02972316
-0.013155457 0.34372383 0.06101979 -0.04674495 0.1928718 -0.011701186 0.09325767 -0.008402021
0.028023718 0.0821549 -0.13696443 0.039150372 -0.47301778 0.06185374 0.048076514 -0.02071543
-0.057673346 -0.37136772 -0.14789207 -0.082810625 0.008841472 -0.033250056 0.017452316 -0.019505098
0.05820522 0.3468798 -0.05608698 0.074180745 -0.013173851 0.1295401 0.010664269 0.047362726
-0.1257793 0.04054737 -0.022729686 0.056347366 0.018602334 -0.41261938 -0.0749146 0.17444658
0.03296501 -0.16774482 0.01231946 -0.04121647 0.059853684 0.10304039 -0.10104986 0.044670187
0.061122898 -0.011892023 0.13888402 0.02716854 -0.16273801 -0.049404446 -0.0116436295 -0.05886764
0.089828104 -0.25917375 -0.034451433 0.15953244 -0.39865175 -0.063481726 -0.05317117 -0.32178554
0.030509168 -0.010141481 0.010856342 -0.2649113 -0.045271724 0.054991666 0.02544549 0.03446101
-0.026265237 0.022765396 0.046527933 -0.081678994 0.10777039 -0.07809397 -0.023482844 0.21022263
0.14719054 0.18565509 0.05079404 0.07545055 0.20756018 -0.03542008 -0.026484828 0.014252606
0.04465346 0.28519994 0.056332514 0.06031959 0.02029757 -0.07196797 0.19793858 -0.12530825
-0.040309325 -0.02117172 -0.06792854 0.1127691 -0.018293692 -0.0013018604 -0.1064639 0.014069526
-0.032313827 -0.04218843 -0.049642205 -0.06744699 0.04789594 0.1705547 -0.029693557 -0.23029095
0.098917186 0.08138377 -0.072228506 -0.01598214 -0.06267728 0.0362864 -0.038510118 0.095488295
00000000: 2006 443e 5f85 c03d ca52 123d d396 113d
00000010: a551 80bd 096e d0be 005f 8ebe 490d 333d
00000020: 96d4 d83a 21dd 5dbe 7a15 ed3d e1dc 09be
00000030: f60b fcbb f26e 0f3d 9446 73be 7342 ba3d
00000040: 0163 62be 48b9 053c 4353 023e 25fb 8e3d
00000050: 925f e93d ee32 353c 1297 193d c648 9dbc
00000060: ba77 c1be 6480 a53d 1595 2bbd bc99 88be
00000070: af0b 3bbd 58ab 183d 8b02 77bb 89d2 ccbd
00000080: d461 193d 1b25 5e3e b9a5 c93c 8bac c23d
00000090: 93ce 0ebe f2f3 70bd 7ad0 503d e292 13bd
000000a0: 632c 01be 9a67 0dbe 0119 5c3d 9dd7 253e
000000b0: 2b4e 10be b179 aabe f1f8 81bd 82b4 633e
000000c0: 966c 7b3d 5105 073d 7916 073c b88c b5be
000000d0: 2ef0 acbb a9f6 65bc 188c 4d3d b624 9ebd
000000e0: c5b8 59bd 7c8c 143d 0d12 b0bb 1644 d53c
000000f0: c2f8 25bd a3a3 bdbd 12d0 35be a624 24bd
00000100: 65fb 253e 7915 45bc 38ce 0dbe 4e32 96bd
00000110: cc9f 703d 5ed0 d43b 313e a5bc 71ec acbd
00000120: 47ad 10bd 4f8d dcbb 05ff d83d 185b bebe
00000130: be27 45be af71 3cbe 0b57 1ebe 761f 13bd
00000140: 82db 2a3a 10ac 66be 3ccd a43d e8a3 b73e
00000150: 1e13 a43d 21f3 cb3b 2198 bdbc 7d8b 68bc
00000160: 1a6f 62bd 2ee6 83bc c102 fcbd 9a42 f3bd
00000170: ce8d 3fbe bc83 11be 4a2c 643c d5c9 95bc
00000180: d488 8ebe 8eca 863b 90c9 933e 129e 1d3d
00000190: 6116 133e 8bc1 803e 9099 253d 5376 813c
000001a0: a147 dc3c d937 6e3d 9532 073d e634 14bd
000001b0: 4484 193e 25f8 7a3c b93c 49ba 9a33 bf3d
000001c0: db26 39bd f4a1 88bd 86b8 61bc a5cf d0bc
000001d0: eb46 2e3d 798e 5ebd c408 8d3d 5c6e 8b3d
000001e0: 035c 973c 4adb fa3c c0ee 9ebd 163e 0e3e
000001f0: d9fb 6cbe 1891 a53d 742d 09be a41d aeba
00000200: 5d3c ef3d 7af5 c63d 09f1 3abd 3c61 9dbd
00000210: 2a1d 013e 085b bebc 3356 c83d fc7d f33c
00000220: fc89 57bc 92fc af3e e3ef 793d a277 3fbd
00000230: 2f80 453e 55b6 3fbc e1fd be3d a1a8 09bc
00000240: ff91 e53c d440 a83d 6740 0cbe 245c 203d
00000250: 632f f2be 595a 7d3d e1eb 443d 68b3 a9bc
00000260: e33a 6cbd e923 bebe 0571 17be 9e98 a9bd
00000270: d2db 103c 3631 08bd 29f8 8e3c 28c9 9fbc
00000280: 9968 6e3d 3b9a b13e 76bb 65bd 13ec 973d
00000290: 23d7 57bc 29a6 043e 30b9 2e3c 6bff 413d
000002a0: 4acc 00be 0015 263d 9b33 babc 7fcc 663d
000002b0: ec63 983c d942 d3be d36c 99bd 20a2 323e
000002c0: 5106 073d 4cc5 2bbe 8fd7 493c 9ad2 28bd
000002d0: 2329 753d d706 d33d 3bf3 cebd 16f8 363d
000002e0: 015c 7a3d c2d6 42bc 9d37 0e3e 8f90 de3c
000002f0: cba4 26be 515c 4abd ecc4 3ebc 321f 71bd
00000300: ccf7 b73d 6cb2 84be f21c 0dbd 795c 233e
00000310: 151c ccbe b502 82bd 03ca 59bd 13c1 a4be
00000320: 5dee f93c 7428 26bc ccde 313c 74a2 87be
00000330: d86e 39bd f13e 613d 0f73 d03c fd26 0d3d
00000340: 322a d7bc 7f7e ba3c 1394 3e3d 5147 a7bd
00000350: b9b6 dc3d bbef 9fbd 185f c0bc 9a44 573e
00000360: 1eb9 163e 5e1c 3e3e 690d 503d d185 9a3d
00000370: a88a 543e a514 11bd b6f6 d8bc c383 693c
00000380: 8ce6 363d ba05 923e ecbc 663d ad11 773d
00000390: 1747 a63c f163 93bd 69b0 4a3e ce50 00be
000003a0: 641b 25bd 5170 adbc 1e1e 8bbd 7cf3 e63d
000003b0: a7dc 95bc 30a3 aaba bf09 dabd df83 663c
000003c0: 815b 04bd c6cd 2cbd a055 4bbd a621 8abd
000003d0: 882e 443d e4a5 2e3e e73f f3bc 64d1 6bbe
000003e0: 1895 ca3d 89ac a63d 8aec 93bd faec 82bc
000003f0: f25c 80bd 0ca1 143d c9bc 1dbd 5e8f c33d

fc.2.0.bias f4 [64]
0.1523157 0.4512659 0.10282332 0.092363924 0.29598293 0.14126636 0.19572155 0.270799
0.025878992 0.03398797 0.19941124 0.30254853 0.38109374 0.21398509 0.36106572 0.08242839
0.33731824 0.3531988 0.19469516 0.36500522 0.31251225 0.37426963 0.36210808 0.3564817
0.29975736 0.57641834 0.28383073 0.3459802 0.15580836 0.11092974 0.04838829 0.45627096
0.19880284 0.17845938 0.14202224 0.26694 0.35558864 0.3762303 0.14870457 0.29220876
-0.020852406 0.2482507 0.06737208 0.08366537 0.23475754 0.1857394 0.2951041 0.14898808
-0.030605685 0.19669655 0.24563152 0.2009428 0.38101384 0.113180816 -0.081152506 0.17935608
0.31441072 0.093125515 0.45895886 0.2074134 0.34951225 -0.027828557 0.20739831 0.15430963
00000000: a6f8 1b3e 530c e73e 0895 d23d 4c29 bd3d
00000010: 138b 973e 21a8 103e 3b6b 483e 2ba6 8a3e
00000020: 2e00 d43c f836 0b3d 7632 4c3e a4e7 9a3e
00000030: b81e c33e e81e 5b3e 9bdd b83e 37d0 a83d
00000040: fab4 ac3e 79d6 b43e 2b5e 473e f7e1 ba3e
00000050: 9b01 a03e 45a0 bf3e 3b66 b93e c584 b63e
00000060: cc79 993e 2790 133f 4352 913e 5124 b13e
00000070: 3a8c 1f3e 222f e33d cd32 463d 599c e93e
00000080: f992 4b3e 0ebe 363e 476e 113e 5cac 883e
00000090: b70f b63e 42a1 c03e 0346 183e 639c 953e
000000a0: aad2 aabc 6e35 7e3e 60fa 893d c058 ab3d
000000b0: 4864 703e 7832 3e3e e217 973e 5590 183e
000000c0: c6b8 fabc d26a 493e d486 7b3e f3c3 4d3e
000000d0: 3f14 c33e 58cb e73d 4933 a6bd 1fa9 373e
000000e0: 71fa a03e 97b8 be3d a8fc ea3e 2e64 543e
000000f0: 45f3 b23e b7f8 e3bc 3960 543e 5803 1e3e

fc.3.0.weight f4 [10, 64]
0.13318738 -0.5669353 0.14579673 0.12071241 -0.34767303 -0.16745406 -0.22457583 -0.30072668
-0.42579818 -0.3054706 -0.07186133 0.06283265 -0.24052614 -0.94580686 0.07802963 0.2199789
-0.9622372 0.15639995 -0.6107783 -0.19912277 -0.6596867 -0.13868433 0.10945622 -0.48075303
0.15639278 -0.65106606 -0.39815965 -0.11389482 0.15347297 0.09634151 0.2378011 -0.4984612
-0.2910358 -0.6891362 -0.5537439 0.18075395 0.16010712 -0.40740478 -0.28114882 -0.66157734
0.011101405 -0.15382078 0.2568082 -0.000103761005 0.1905379 0.042561736 0.036141988 -0.13411093
0.13785185 0.073362395 0.16151643 -0.45349374 -0.046616804 0.1688652 0.094770335 0.11110751
0.103028364 -1.4103307 -0.42417556 -0.55729336 -0.47649348 -0.103582636 0.115482666 -0.6076902
-0.22710712 -0.13890423 -0.33809608 0.14758211 -0.22993727 -0.13584253 0.220638 0.10992219
-0.214013 0.2924056 -0.0033514362 -0.27086446 0.20886514 -0.51914656 -0.19686303 -0.13247707
-0.38577682 -0.37087598 -0.47241917 0.12891549 0.062265858 0.21003091 -0.6728704 0.105231255
-0.38013688 0.046376903 -0.6296177 -0.13703912 0.26643935 0.18776853 -0.32094908 0.17801596
-0.02472385 -0.2531273 -0.31947795 0.18375653 0.11656193 -0.2589748 -0.3310319 0.07440374
0.088837124 0.12077546 0.15854071 0.14692979 0.16356726 -0.42426094 -0.2489659 0.10543618
0.05918754 -0.4526778 -0.35707706 -0.10452914 0.3121938 -0.00814771 -0.003903637 0.04714375
0.109229 -0.35722744 -0.18064117 -0.22924022 -0.18034916 -0.32679793 -0.5946209 0.029035361
-0.44387576 -0.23619162 0.14117366 0.062112592 -0.14370729 -0.06996397 0.11013779 0.07758039
0.13706216 0.018516716 0.111137755 -0.26692793 0.022865953 0.031135011 -0.38444212 -0.4900769
-0.041268677 -0.32239643 -0.41000283 -0.08471346 0.010885569 -0.075522035 0.040704418 0.09680944
-0.40016854 -0.41833407 -0.31388158 0.18263304 -0.06113811 0.11000309 0.13272071 -0.25380874
-0.14579965 0.14211583 0.11741014 -0.2764908 -0.5428637 0.09571783 -0.17174707 0.098769955
0.0484062 0.10697204 0.06616765 0.16477264 -0.33732152 0.11970611 0.1711394 0.11238324
-0.3044773 0.051788792 0.09006738 0.115315706 -0.37635356 0.12892729 -0.11577622 -0.6787395
-0.53295064 0.05474399 0.054598294 -0.14689514 -0.41799837 0.11113777 -0.113536276 0.1263888
0.12159539 -0.35310203 0.090504274 -0.00032003337 -0.54233307 -0.010884599 -0.32700253 0.08528977
-0.20250559 -0.1420488 -0.56619614 -0.4832597 -0.14907485 0.009907955 0.111994684 0.1643497
-0.09207413 0.09778132 -0.047349237 0.15201971 -0.003429716 -0.14628927 0.080872804 0.08783633
-0.29827833 0.20119901 0.17002428 0.13983858 0.070617124 -0.14068203 -0.2733209 -0.15236153
0.14942746 0.09658766 0.14098312 -0.6024705 0.10300551 0.13304353 -0.3878022 0.080019854
-0.011474216 0.11942925 -0.4275584 -0.16634525 -0.13979642 0.11892849 0.1574513 -0.37622827
0.16646789 0.03157397 -0.9051218 -0.7527532 0.12234573 -0.71071404 -0.14294225 -0.6190282
-0.15222026 -0.03718506 0.12299003 0.19105633 -0.4236271 0.073085986 -0.18378294 -0.121633336
00000000: 4662 083e ac22 11bf bd4b 153e 1138 f73d
00000010: 3302 b2be 1479 2bbe 35f7 65be d9f8 99be
00000020: 3802 dabe a466 9cbe 082c 93bd 68ae 803d
00000030: 7c4c 76be 6620 72bf 00ce 9f3d 2642 613e
00000040: 2d55 76bf 4f27 203e f75b 1cbf d7e6 4bbe
00000050: 3ae1 28bf 4403 0ebe 952a e03d 4325 f6be
00000060: 6e25 203e 44ac 26bf 95db cbbe b041 e9bd
00000070: 0528 1d3e b34e c53d 2282 733e 4e36 ffbe
00000080: a502 95be 3b6b 30bf 29c2 0dbf 9017 393e
00000090: 1ff3 233e 5c97 d0be bdf2 8fbe 225d 29bf
000000a0: abe2 353c 3283 1dbe 5d7c 833e 449a d9b8
000000b0: 5e1c 433e 3755 2e3d 9f09 143d 6054 09be
000000c0: 0929 0d3e 063f 963d 9064 253e 5530 e8be
000000d0: 43f1 3ebd 00eb 2c3e f316 c23d 568c e33d
000000e0: 8900 d33d b785 b4bf 8a2d d9be c7aa 0ebf
000000f0: f4f6 f3be 2223 d4bd 2d82 ec3d 9691 1bbf
00000100: c58e 68be e93c 0ebe ee1a adbe c41f 173e
00000110: ad74 6bbe 4e1a 0bbe eeee 613e e31e e13d
00000120: 3926 5bbe 30b6 953e c5a3 5bbb bfae 8abe
00000130: bee0 553e cae6 04bf 7696 49be 12a8 07be
00000140: 8a84 c5be 75e3 bdbe ede0 f1be 6c02 043e
00000150: 7c0a 7f3d 5812 573e 3c41 2cbf 7c83 d73d
00000160: 4da1 c2be b5f5 3d3d a02e 21bf fc53 0cbe
00000170: bd6a 883e 6546 403e 7053 a4be d149 363e
00000180: ac89 cabc e799 81be 9d92 a3be ac2a 3c3e
00000190: 05b8 ee3d 5898 84be 037d a9be fd60 983d
000001a0: 3df0 b53d 2059 f73d 7f58 223e c374 163e
000001b0: 2d7e 273e bb38 d9be ebf0 7ebe edee d73d
000001c0: a26e 723d 62c5 e7be ced2 b6be 6013 d6bd
000001d0: ded7 9f3e f97d 05bc 29d4 7fbb ce19 413d
000001e0: 74b3 df3d 84e6 b6be 00fa 38be f3bd 6abe
000001f0: 73ad 38be 0f52 a7be 1339 18bf 91db ed3c
00000200: af43 e3be 37dc 71be d48f 103e c669 7e3d
00000210: 0128 13be 4549 8fbd ec8f e13d 78e2 9e3d
00000220: 065a 0c3e 5eb0 973c 319c e33d c7aa 88be
00000230: 6151 bb3c da0e ff3c 99d5 c4be 5ceb fabe
00000240: 5809 29bd 2511 a5be e4eb d1be 407e adbd
00000250: 6359 323c 4cab 9abd adb9 263d 0744 c63d
00000260: e4e2 ccbe e22f d6be 16b5 a0be 2804 3b3e
00000270: f46b 7abd 4d49 e13d f0e7 073e 38f3 81be
00000280: 814c 15be d086 113e ba74 f03d 3490 8dbe
00000290: 1ef9 0abf b607 c43d 77de 2fbe e747 ca3d
000002a0: 9445 463d 2814 db3d e882 873d 29ba 283e
000002b0: 68b5 acbe 7a28 f53d 2b3f 2f3e 2f29 e63d
000002c0: 73e4 9bbe 7c20 543d 3f75 b83d a42a ec3d
000002d0: 6ab1 c0be 8405 043e 151c edbd dfc1 2dbf
000002e0: 746f 08bf 3c3b 603d 76a2 5f3d ae6b 16be
000002f0: e203 d6be 339c e33d b585 e8bd 116c 013e
00000300: 0107 f93d cac9 b4be 4e5a b93d 27ca a7b9
00000310: 57d6 0abf 5155 32bc e06c a7be 67ac ae3d
00000320: a05d 4fbe 3e75 11be 3bf2 10bf d16d f7be
00000330: 14a7 18be fa54 223c 785d e53d 4a4b 283e
00000340: 5d91 bcbd 9341 c83d 46f1 41bd 0eab 1b3e
00000350: 16c5 60bb dbcc 15be a4a0 a53d 89e3 b33d
00000360: f0b7 98be 1d07 4e3e d81a 2e3e d831 0f3e
00000370: b69f 903d f30e 10be b8f0 8bbe a904 1cbe
00000380: 8303 193e c0cf c53d e15d 103e 823b 1abf
00000390: 8ef4 d23d 903c 083e 038e c6be 73e1 a33d
000003a0: 5afe 3bbc 5397 f43d efe8 dabe 6956 2abe
000003b0: cb26 0fbe c890 f33d ea3a 213e fea0 c0be
000003c0: 8f76 2a3e b553 013d 10b6 67bf 6fb4 40bf
000003d0: 6690 fa3d 5bf1 35bf 745f 12be a278 1ebf
000003e0: a1df 1bbe 5d4f 18bd 32e2 fb3d 45a4 433e
000003f0: a7e5 d8be 1bae 953d 9831 3cbe e61a f9bd

fc.3.0.bias f4 [10]
-0.34222707 -0.028491387 -0.22528824 0.24937734 0.1897793 -0.10082608 0.09748743 0.28312072
0.05288243 -0.2890388
00000000: 6338 afbe c566 e9bc f6b1 66be c65c 7f3e
00000010: 8155 423e e77d cebd 7da7 c73d 33f5 903e
00000020: 3f9b 583d e5fc 93be
