program/deep_learning/13 - Neural Network/model/weights.pth (torch, 4096 bytes, 8 tensors)

0.weight f4 [16, 6]
-0.5560003 0.012248105 0.16401906 -0.2399097 -0.7431467 -0.26285636 -0.64488345 -0.08849759
0.32332957 -0.36021206 -0.650736 -0.23185147 0.610366 0.16152681 -0.102122 0.3772588
1.3110524 -0.0030017707 0.8180349 0.13690606 -0.17761412 0.035246816 0.11626966 -0.1912311
0.36121425 0.112035036 0.024503708 0.120103896 -0.052128833 -0.08614764 -0.26143187 -0.2247836
0.13534644 0.11965326 0.27765658 -0.17256658 0.06579367 0.09312779 -0.27282956 0.058918342
0.8512989 0.26832023 -0.3283221 -0.20229864 0.053222988 0.016024215 -0.10757246 0.15790889
0.22716202 -0.24232328 -0.1783955 0.3059742 -0.11275555 -0.118463896 -0.3233256 -0.19135965
0.08347305 -0.044105895 -0.24256107 0.007838146 -0.22825581 -0.28349674 -0.1840059 -0.2924557
-0.21277086 0.3340238 0.06311388 0.102974154 -0.3116602 -0.21946324 -0.11122559 0.052252058
-0.2940306 -0.14397824 -0.20004717 0.0009260342 -0.12434039 -0.023155348 -0.22643341 -0.22936289
-0.1949466 -0.11438038 -0.26374084 0.28017893 -0.20946455 0.06280296 0.21664926 -0.59065247
-0.033102155 -0.17696515 -0.12809065 -0.2773721 -0.33220312 0.09560457 -0.07299418 0.13009317
00000000: 0956 0ebf 47ac 483c 9df4 273e e3aa 75be
00000010: dd3e 3ebf 1c95 86be 1517 25bf 393e b5bd
00000020: 748b a53e b76d b8be a296 26bf 796a 6dbe
00000030: f240 1c3f 4967 253e 5725 d1bd 1128 c13e
00000040: 91d0 a73f 5bb9 44bb bc6a 513f 1a31 0c3e
00000050: 7ae0 35be f75e 103d ca1e ee3d 16d2 43be
00000060: 13f1 b83e a072 e53d 00bc c83c 08f9 f53d
00000070: 0b85 55bd 2d6e b0bd 66da 85be ac2d 66be
00000080: 4298 0a3e c50c f53d 0129 8e3e 4bb5 30be
00000090: d5be 863d c8b9 be3d 51b0 8bbe 5c54 713d
000000a0: baee 593f 4561 893e d619 a8be 6027 4fbe
000000b0: 5900 5a3d 3745 833c f34e dcbd deb2 213e
000000c0: 299d 683e 9823 78be 4fad 36be a6a8 9c3e
000000d0: 62ec e6bd 339d f2bd ef8a a5be c9f3 43be
000000e0: ebf3 aa3d 62a8 34bd ee61 78be 916b 003c
000000f0: e4bb 69be 7c26 91be 0b6c 3cbe c1bc 95be
00000100: 9be0 59be 2b05 ab3e da41 813d 1de4 d23d
00000110: ed91 9fbe f9ba 60be 3eca e3bd 4106 563d
00000120: 2e8b 96be 086f 13be 2ad9 4cbe 1ac1 723a
00000130: 2da6 febd 49b0 bdbc 29de 67be 1bde 6abe
00000140: 15a0 47be 4340 eabd 0a09 87be 9d73 8f3e
00000150: e07d 56be d79e 803d 4ed9 5d3e 0035 17bf
00000160: 2096 07bd 5a36 35be 322a 03be b703 8ebe
00000170: 8716 aabe 54cc c33d f97d 95bd 2537 053e

0.bias f4 [16]
1.0442959 1.6305338 -2.4221575 -1.3365582 -0.63744205 0.17250866 -1.2669611 0.25636622
-0.2649599 0.084095895 -0.14372757 -0.03661808 -0.25011343 0.30436715 0.022307945 0.17859012
00000000: 7dab 853f 55b5 d03f a104 1bc0 5714 abbf
00000010: 672f 23bf 1ca6 303e c82b a2bf 6f42 833e
00000020: d3a8 87be 783a ac3d 522d 13be d7fc 15bd
00000030: de0e 80be 03d6 9b3e 27bf b63c 54e0 363e

3.weight f4 [8, 16]
-0.0495526 -0.5791398 0.12342656 -0.008549814 -0.002994982 0.02632346 -0.022338323 0.054246206
-0.030698413 -0.093744725 0.17576422 0.045621224 -0.1132155 -0.1035697 0.115322344 0.11425588
-0.08059054 -0.1640476 -0.03125954 -0.1914464 -0.0076448857 0.1583885 -0.08644434 0.06565797
0.10570908 0.037104864 -0.07287319 0.10680375 0.10753433 0.07651599 -0.06357063 -0.054185446
0.12288798 0.018206397 -0.040888075 -0.057493553 -0.0016185308 -0.02025756 -0.16010316 0.062372476
-0.012217942 0.049194798 0.057343576 -0.1858547 -0.075514354 0.17232344 0.06428705 -0.010177616
-0.24015206 -0.67734206 -0.44535768 0.24498269 0.042184304 0.1304742 0.20250882 -0.21062334
-0.123055086 -0.032293573 0.19794694 0.029600976 -0.05299222 0.08465729 -0.029138004 -0.13244675
0.0995427 0.011628289 -0.039237577 -0.47274995 -0.00816254 0.15503296 -0.27124527 -0.0785784
-0.20195447 -0.16619425 0.15258957 0.098242894 0.17219488 0.10719811 0.084943675 -0.0020038574
-0.023210155 -0.18517584 -0.22325449 0.18642026 -0.14716189 -0.041181695 0.062393952 -0.037288103
-0.14402395 -0.13370702 0.06787752 -0.06081441 0.12632589 -0.06564623 0.10655462 -0.036104485
-0.12887563 -0.17427337 -0.57572746 0.007427255 0.19019777 0.102850504 0.018946819 0.10275031
-0.15695834 0.14716753 -0.09673789 0.075931184 0.19216852 -0.02885907 0.031165397 -0.04711134
0.122600175 0.2832687 -0.05400979 -0.31155077 -0.03766372 0.19351734 -0.536847 -0.09286949
0.046006233 0.11304206 -0.20366728 -0.046447236 -0.12266562 -0.01789757 0.44708878 -0.08364471
00000000: abf7 4abd 8242 14bf 10c7 fc3d 8514 0cbc
00000010: 7647 44bb 4ca4 d73c dcfe b6bc 4531 5e3d
00000020: 3d7b fbbc 3cfd bfbd 89fb 333e 52dd 3a3d
00000030: 87dd e7bd 5a1c d4bd 1f2e ec3d fdfe e93d
00000040: a70c a5bd 18fc 27be 010a 00bd 860a 44be
00000050: f381 fabb 9830 223e bb09 b1bd b077 863d
00000060: 017e d83d 45fb 173d 8a3e 95bd edbb da3d
00000070: f53a dc3d 6ab4 9c3d 5231 82bd 8ff1 5dbd
00000080: b1ac fb3d 9525 953c 417a 27bd 5c7e 6bbd
00000090: e224 d4ba 2ff3 a5bc 15f2 23be 487a 7f3d
000000a0: c32d 48bc 7c80 493d 19e1 6a3d b250 3ebe
000000b0: 45a7 9abd 8e75 303e eea8 833d 04c0 26bc
000000c0: 6cea 75be 4a66 2dbf ec05 e4be bedc 7a3e
000000d0: 73c9 2c3d 079b 053e 795e 4f3e a5ad 57be
000000e0: 4e04 fcbd 4446 04bd 9ab2 4a3e bf7d f23c
000000f0: 5f0e 59bd cd60 ad3d d3b2 eebc 1fa0 07be
00000100: 0bdd cb3d 9484 3e3c 95b7 20bd 480c f2be
00000110: 2dbc 05bc f6c0 1e3e a9e0 8abe b6ed a0bd
00000120: 27cd 4ebe d32e 2abe 7140 1c3e 9233 c93d
00000130: db53 303e af8a db3d f3f6 ad3d 2653 03bb
00000140: 3923 bebc bc9e 3dbe d39c 64be f4e4 3e3e
00000150: 9bb1 16be 23ae 28bd cd90 7f3d 69bb 18bd
00000160: 047b 13be 7eea 08be 5f03 8b3d 8818 79bd
00000170: 935b 013e 8871 86bd 4f39 da3d 4ce2 13bd
00000180: f9f7 03be b874 32be e062 13bf 5560 f33b
00000190: 34c3 423e 49a3 d23d 5c36 9b3c c16e d23d
000001a0: b0b9 20be 16b3 163e 841e c6bd cf81 9b3d
000001b0: d3c7 443e db69 ecbc 934e ff3c d2f7 40bd
000001c0: cd15 fb3d 9808 913e 5f39 5dbd 9583 9fbe
000001d0: 4645 1abd 6929 463e ce6e 09bf 5c32 bebd
000001e0: 0871 3c3d 9882 e73d 288e 50be 753f 3ebd
000001f0: 1d38 fbbd ed9d 92bc d2e8 e43e eb4d abbd

3.bias f4 [8]
-1.299895 -0.22697511 1.585445 0.45157045 1.4171209 0.9452371 -0.31768966 -0.039048973
00000000: f662 a6bf 2a6c 68be ddef ca3f 3e34 e73e
00000010: 3864 b53f 0ffb 713f 38a8 a2be d1f1 1fbd

6.weight f4 [4, 8]
-0.2816148 0.10755314 -0.1588873 -0.1860403 -0.022578806 -0.096368425 -0.09362264 0.009298356
-0.0031470482 -0.04747045 0.38197145 -0.3307305 0.6149009 -1.0589433 -0.08145916 0.3339605
-0.005591014 0.16534247 0.47995824 -0.8854954 0.39043006 -0.7167662 -0.22969419 0.26939946
0.39830422 0.015067448 0.015473661 -0.0046347594 0.08557441 0.45071638 0.25140658 -0.1701518
00000000: d12f 90be d244 dc3d 5ab3 22be 5981 3ebe
00000010: 30f7 b8bc cf5c c5bd 3abd bfbd 2258 183c
00000020: b53e 4ebb 6070 42bd c391 c33e 8255 a9be
00000030: 256a 1d3f 748b 87bf 0fd4 a6bd dffc aa3e
00000040: d334 b7bb 894f 293e 16bd f53e d4af 62bf
00000050: 73e6 c73e fd7d 37bf f434 6bbe baee 893e
00000060: 88ee cb3e 75dd 763c 3d85 7d3c 2edf 97bb
00000070: a341 af3d 4cc4 e63e 5db8 803e 463c 2ebe

6.bias f4 [4]
-0.23205595 -0.00018848685 -0.0016061264 -1.2029216
00000000: 13a0 6dbe 8ea4 45b9 a984 d2ba 56f9 99bf

9.weight f4 [2, 4]
-0.10120761 0.67065066 0.48251623 -1.3780414 -0.32831305 -0.19085884 -0.7184331 1.0163571
00000000: ef45 cfbd c3af 2b3f 5e0c f73e a963 b0bf
00000010: a618 a8be 8070 43be 3beb 37bf fd17 823f

9.bias f4 [2]
0.3003049 -0.29338962
00000000: 90c1 993e 2a37 96be
