program/deep_learning/16 - Recurrent Neural Network/model/multivar/weights_100.pth (torch, 257136 bytes, 13 tensors)

rnn.weight_ih_l0 f4 [192, 5]
0	0x3dede868	0.116165936
1	0xbce644ce	-0.02810898
2	0x3d2037b4	0.039115623
3	0xbde70fe3	-0.11282327
4	0x3db017a5	0.0859826
5	0xbdfe9ab3	-0.1243185
6	0xbd03ddbf	-0.032193895
7	0xbdd99a13	-0.106250905
8	0xbd964f99	-0.07339401
9	0x3dbb474f	0.091444604
10	0xbda049ed	-0.078266
11	0x3dad099f	0.08449101
12	0xbdcc161d	-0.09965155
13	0x3c8caf32	0.017173383
14	0xbdbef310	-0.09323704
15	0x3b2e4c71	0.0026595856
16	0x3e06fd08	0.13182461
17	0xbd8a3eaf	-0.06750237
18	0xbd64a1fa	-0.055818535
19	0x3a80b868	0.0009820582
20	0xbd818220	-0.063236475
21	0xbcb3b18e	-0.02193525
22	0x3d0ba792	0.034095354
23	0x3e05e8e7	0.13077126
24	0x3dafe67a	0.08588882
25	0xbdbe2526	-0.09284429
26	0xbd2b54fb	-0.04182909
27	0xbd843847	-0.064560466
28	0x3e0454da	0.12922993
29	0x3da87a5a	0.08226462
30	0x3e0d4254	0.13794833
31	0xbd2a5b6b	-0.04159109
32	0xbd16e751	-0.036841694
33	0x3dbfae5b	0.093594275
34	0xbd99907e	-0.07498263
35	0xbd367f7f	-0.044555184
36	0xbd8ea2ff	-0.06964683
37	0xbd9fb776	-0.07798664
38	0xbca7f0df	-0.020500598
39	0x3e0ee694	0.13955146
40	0x3c9d56cd	0.019206429
41	0xbb1e7446	-0.002417819
42	0xbc1f1581	-0.009709717
43	0xbd21cc82	-0.039501674
44	0xbd26853b	-0.040654402
45	0xbc758382	-0.014984967
46	0xbd9f783d	-0.077866055
47	0x3da97726	0.08274679
48	0x3e10f115	0.14154465
49	0x3cd8d4c3	0.02646864
50	0xbdc42969	-0.09578211
51	0xbd0fb0ae	-0.035080604
52	0x3c158e07	0.0091281
53	0x3e0256b3	0.12728386
54	0x3da0b9fe	0.07847975
55	0xbdc21574	-0.09476748
56	0x3d76e340	0.060275316
57	0x3be8e493	0.0071073263
58	0x3d8aa19a	0.06769104
59	0x3d971fc4	0.07379106
60	0x3e18edba	0.14934435
61	0x3da652f1	0.081212886
62	0x3d3e9419	0.046527956
63	0x3cb56d83	0.022146946
64	0x3d829dd4	0.063777596
65	0x3d42cf24	0.047560826
66	0xbc974caf	-0.018469183
67	0x3d8bd02b	0.06826814
68	0xbe17dcd1	-0.14830329
69	0x3c3d49db	0.011553253
70	0xbac046a3	-0.0014669489
71	0x3d1eaa3c	0.038736567
72	0x3e2cb942	0.16867545
73	0x3d55d653	0.05220635
74	0x3d04839f	0.032352086
75	0x3d6e2228	0.058138043
76	0xbdafaa8f	-0.08577453
77	0xbd084cc0	-0.03327632
78	0xbd9c20ae	-0.07623421
79	0x3ca0ef9c	0.019645505
80	0x3cdd514b	0.027016303
81	0xbd14ed36	-0.036359034
82	0x3d178ce8	0.036999613
83	0xbd7c7182	-0.061631687
84	0x3ddca784	0.107741386
85	0xbdccfe30	-0.1000942
86	0xbcb2a85b	-0.021808794
87	0x3d0fa234	0.0350668
88	0xbdd59548	-0.10428864
89	0xbe0c86ad	-0.1372325
90	0x3ddd9238	0.10818905
91	0x3d5218da	0.05129323
92	0x3b97bebc	0.0046308916
93	0xbd611499	-0.054951284
94	0xbd453e7e	-0.0481553
95	0xbdc97cf7	-0.09838288
96	0x3d450f21	0.04811013
97	0x3b4abfff	0.0030937192
98	0xbd72e090	-0.05929619
99	0x3d3cbe4a	0.04607991
100	0xbd873ef4	-0.06603804
101	0x3e0260f1	0.12732293
102	0xbdcf2b73	-0.10115709
103	0x3dc8c361	0.098028906
104	0xbd919e91	-0.07110322
105	0xbd15e27f	-0.036592957
106	0x3dd50578	0.10401434
107	0x3cc4d602	0.024027828
108	0xbca04301	-0.0195632
109	0xbdc5a4cc	-0.09650573
110	0x3da5e1c1	0.080997
111	0x3de68483	0.11255743
112	0x3d693984	0.056939617
113	0xbcdbd0f6	-0.026833039
114	0xbd10af5b	-0.035323482
115	0xbe02e5f2	-0.1278303
116	0xbc1d3987	-0.009596235
117	0xbba1cd86	-0.0049378304
118	0xbd9a239a	-0.07526322
119	0x3c25a40f	0.010109915
120	0x3d69ca33	0.057077598
121	0x3d72c53d	0.059270132
122	0xbca97dec	-0.020689927
123	0x3d876eef	0.06612956
124	0x3ca46867	0.020069314
125	0xbe03ee6f	-0.12883924
126	0x3d99dbfe	0.07512663
127	0x3d680801	0.056648258
128	0xbd6d8a68	-0.057993323
129	0x3cd3379f	0.025783358
130	0x3dfb2cd3	0.12264409
131	0xbd98bc3c	-0.07457778
132	0xbe016a88	-0.12638295
133	0xbd4a9b7b	-0.049464684
134	0xbd1598a4	-0.036522523
135	0x3d9b1509	0.075723715
136	0xbdf2ed4f	-0.11861669
137	0xbd269b86	-0.040675662
138	0xbda9f1a0	-0.082980394
139	0x3d87c4f9	0.066293664
140	0xbcff78e7	-0.03118558
141	0xbdb3510f	-0.08755695
142	0x3e0d186a	0.13778844
143	0x3d662cb0	0.05619496
144	0x3d801e74	0.062558085
145	0x3dc5f93d	0.09666679
146	0xbdeae71d	-0.114698626
147	0x3da2ac18	0.079429805
148	0x3e1120ce	0.1417267
149	0x3dd36d28	0.10323554
150	0x3d9466b6	0.07246153
151	0xbd0f321f	-0.03495991
152	0xbdeaf0a9	-0.114716835
153	0x3d1ea2e7	0.038729575
154	0xbd3f4856	-0.046699844
155	0xbd6f1b06	-0.05837538
156	0x3de7ba33	0.113148116
157	0x3e01cdb9	0.12676133
158	0xba580542	-0.00082405296
159	0xbd876514	-0.06611076
160	0x3dedcdeb	0.11611541
161	0xbc02733c	-0.007962044
162	0x3c98a745	0.018634448
163	0x3dd9cfb5	0.1063532
164	0xbb9feb1e	-0.004880323
165	0x3e0134a8	0.12617743
166	0xbd2ba211	-0.041902605
167	0xbd303f55	-0.043029148
168	0x3d62acc6	0.05534055
169	0xbb773d3d	-0.003772571
170	0xbca75432	-0.02042589
171	0xbd4a918e	-0.049455218
172	0xbdbec227	-0.09314375
173	0xbddf74ec	-0.10910973
174	0xbd903189	-0.07040698
175	0x3dd32ee2	0.103116766
176	0xbdb4ef8e	-0.08834754
177	0x3be76681	0.00706178
178	0x3dbf92a8	0.09354144
179	0x3db0f73d	0.08640907
180	0xbdb58b17	-0.0886442
181	0xbb612123	-0.0034352026
182	0x3e1226fe	0.14272687
183	0x3dd87235	0.10568658
184	0xbdc89218	-0.0979349
185	0x3ddd96a4	0.10819748
186	0xbde5d5a0	-0.11222386
187	0xbd94868a	-0.07252224
188	0x3e056ca7	0.13029729
189	0x3dc0d2ac	0.094151825
190	0xbde020c4	-0.109437495
191	0x3cd6fdd0	0.026244074
192	0xbdc94306	-0.09827237
193	0xbde7a32b	-0.11310419
194	0xbd46ba96	-0.048517786
195	0xbd6492ba	-0.05580399
196	0x3db8983d	0.09013412
197	0x3d96e886	0.07368569
198	0xbce14cef	-0.027502505
199	0x3d1b81e5	0.037965674
200	0x3e0e1921	0.13876773
201	0x3e0ee849	0.13955797
202	0xbdce8caa	-0.10085423
203	0x3df1fede	0.1181619
204	0xbd9072df	-0.0705316
205	0x3c95c468	0.01828213
206	0xbd71e156	-0.059052788
207	0xbdbbab19	-0.09163494
208	0x3de87c26	0.113518044
209	0xbceb4c31	-0.028722854
210	0xbd0038eb	-0.03130428
211	0xbdfdc3c9	-0.12390859
212	0x3ce0efc1	0.027458074
213	0xbceef549	-0.029169695
214	0xbcc47b5a	-0.0239846
215	0xbd857d2e	-0.06518017
216	0x3dc64029	0.09680206
217	0x3d8f29b2	0.069903746
218	0xbd395977	-0.045251336
219	0x3dbaace7	0.0911501
220	0x3e0acd3f	0.13554858
221	0x3cf94c4a	0.030431885
222	0xbc3d8885	-0.011568193
223	0x3dafaa4d	0.08577404
224	0x3d8deaae	0.06929527
225	0x3c6d9fd2	0.014503436
226	0x3e070ff8	0.13189685
227	0xbd16fd8b	-0.03686289
228	0x3d87123c	0.06595275
229	0x3d1b8925	0.037972588
230	0x3da32f72	0.07968034
231	0xbcf642d6	-0.030061167
232	0x3d34319e	0.04399263
233	0x3e06a518	0.13148916
234	0x3cccb2cb	0.024987599
235	0x3d5c9de9	0.053861532
236	0x3d2a47c0	0.041572332
237	0xbd117eea	-0.035521425
238	0xbcf8ae2d	-0.030356491
239	0x3d210626	0.039312504
240	0xbc2045c2	-0.009782257
241	0xbd20fb0b	-0.039301913
242	0x3ba4991a	0.005023134
243	0xbcf22077	-0.029556496
244	0xbd8bf029	-0.06832916
245	0x3cbb0a77	0.022832138
246	0x3d4e2efc	0.050337777
247	0xbdd2a8d1	-0.102861054
248	0x3d48e65f	0.049047824
249	0x3d0a3a18	0.03374681
250	0xbd7d9627	-0.061910775
251	0x3b3fba82	0.0029255454
252	0x3c3b340e	0.011425985
253	0x3df9cc32	0.1219715
254	0xbd779086	-0.060440563
255	0x3dfa70e0	0.122285604

rnn.weight_hh_l0 f4 [192, 64]
0	0x3c91fa2e	0.01781949
1	0xbd93e451	-0.07221282
2	0x3df24b3b	0.11830755
3	0xbd246aa3	-0.04014076
4	0xbda72bd4	-0.081626564
5	0x3dd0ab48	0.10188919
6	0x3d558686	0.052130245
7	0xbdc9ac10	-0.098472714
8	0xbd9a9d78	-0.07549566
9	0x3bd9caba	0.0066464813
10	0x3d22c8d5	0.03974231
11	0xbe063a6e	-0.13108227
12	0x3d1a3f05	0.037657756
13	0xbdcfb215	-0.10141388
14	0x3da42838	0.080154836
15	0xbd11e740	-0.035620928
16	0x3a6b64b3	0.0008979544
17	0xbdc0d18b	-0.09414967
18	0xbc7bd4c7	-0.015370554
19	0x3dc91736	0.0981888
20	0xbd366423	-0.04452909
21	0x3c3633d3	0.011120754
22	0xbdbab0f7	-0.091157846
23	0xbb5d1bcc	-0.0033738492
24	0x3cd010ef	0.0253987
25	0x3d7edfc0	0.062225103
26	0xbb44c303	-0.0030023463
27	0xbdce768c	-0.10081205
28	0x3db5ac14	0.08870712
29	0x3da9013a	0.08252187
30	0x3d098b3a	0.033580042
31	0xbd930693	-0.07178988
32	0x3d8ef779	0.069807954
33	0x3db5d80a	0.08879097
34	0xbdd6f2bd	-0.104955174
35	0x3d33e06d	0.0439152
36	0x3da10498	0.07862204
37	0x3d903a73	0.07042398
38	0x3bae6cb9	0.0053230193
39	0x3dacd590	0.08439171
40	0x3d75594c	0.059899613
41	0xbdc2d4bb	-0.09513231
42	0x3dbb6776	0.09150593
43	0xbd236899	-0.039894674
44	0x3d1151b4	0.03547831
45	0x3bfe6761	0.0077637886
46	0x3cadeed6	0.02123205
47	0xbb0570ee	-0.00203615
48	0x3cb86fad	0.022514189
49	0x3d8b5c4f	0.06804716
50	0x3ce91468	0.028452113
51	0xbc02f006	-0.007991796
52	0x3d74062a	0.05957619
53	0x3db55788	0.08854586
54	0x3d1321c5	0.035920877
55	0x3d9a5bb8	0.07537025
56	0xbcae9be9	-0.021314578
57	0xbadbd0e7	-0.0016770632
58	0x3d838706	0.06422238
59	0xb9c6475d	-0.00037818673
60	0x3d1fc862	0.03900946
61	0xbcedf1f7	-0.029046042
62	0x3de6291d	0.112383105
63	0x3cfe5d00	0.031050205
64	0x3c81244f	0.015764384
65	0x3ddf2e9e	0.108975634
66	0x3d8667c1	0.06562758
67	0xbd595878	-0.053062886
68	0x3da7c16e	0.08191191
69	0x3d6d8940	0.05799222
70	0xbce5632d	-0.028001392
71	0x3defa2bd	0.11700962
72	0xbe0acfaa	-0.1355578
73	0x3e13977d	0.14413257
74	0x3db40821	0.08790613
75	0x3d98f51f	0.07468628
76	0x3da6255b	0.08112594
77	0xbd66fb71	-0.056392137
78	0xbce62024	-0.028091498
79	0x3df8c210	0.121463895
80	0xbb334956	-0.0027356944
81	0x3da3475a	0.079725936
82	0xbd784b2f	-0.060618576
83	0x3d68eb05	0.056864757
84	0xbd266329	-0.04062191
85	0x3db9b89b	0.09068414
86	0xbc9661d1	-0.01835719
87	0x3d9f9f90	0.07794106
88	0xbd2a188c	-0.041527316
89	0x3dc24ba6	0.09487085
90	0xbd3947fa	-0.045234658
91	0xbda98dfc	-0.082790345
92	0xbdfd633f	-0.12372445
93	0x3c5a13cf	0.013310387
94	0x3cd90867	0.026493264
95	0x3d896c43	0.067101024
96	0xbd99fba4	-0.075187
97	0xbdc0de58	-0.09417409
98	0xbd4b089d	-0.04956876
99	0x3d497d06	0.049191497
100	0xbdac20fb	-0.08404728
101	0xbd845b07	-0.064626746
102	0xbdd96522	-0.10614993
103	0xbcfb1596	-0.030649941
104	0xbdb4c76c	-0.08827099
105	0xbd134599	-0.035955045
106	0x3d1c3a38	0.03814146
107	0xbcf41928	-0.029797152
108	0x3d8152a4	0.063145906
109	0xbd1adc08	-0.037807494
110	0xbda6774e	-0.08128224
111	0x3de11fca	0.109923914
112	0xbdeba6aa	-0.11506398
113	0xbdd1bbeb	-0.10240921
114	0x3d14e5a1	0.036351804
115	0xbd8c2935	-0.06843797
116	0xbdc94b56	-0.09828822
117	0x3d62e77d	0.055396546
118	0x3cd11978	0.02552484
119	0x3d4ccded	0.050001074
120	0xbcdbd710	-0.026835948
121	0xbc6c184f	-0.0144100925
122	0x3d0ac016	0.033874594
123	0x3dbf41c1	0.093387134
124	0xbd90f40b	-0.070777975
125	0xbdc3c93b	-0.09559866
126	0xbdd133ab	-0.10214933
127	0xbc90b7f3	-0.017665839
128	0xbc63cdcf	-0.013904049
129	0x3d8566f3	0.06513777
130	0xbdea999c	-0.1145508
131	0x3cea193e	0.02857649
132	0x3d77f7ba	0.060538985
133	0xbd6c54d2	-0.05769808
134	0xbddaed0e	-0.10689746
135	0x3d44e621	0.04807103
136	0x3d1416bb	0.03615449
137	0x3cba90ec	0.022774182
138	0x3ce04fb4	0.027381755
139	0x3e0966ca	0.13418117
140	0x3a86ca42	0.0010283666
141	0x3d818e44	0.06325963
142	0xbcebbc05	-0.028776178
143	0x3db58a92	0.08864321
144	0xbd0c632c	-0.034274265
145	0x3de0254e	0.10944615
146	0x3c909926	0.017651152
147	0xbd44aad0	-0.048014462
148	0xbd9c7a17	-0.07640474
149	0xbe052645	-0.1300288
150	0x3ca6199e	0.020275887
151	0x3b620470	0.0034487508
152	0xbd82493f	-0.06361627
153	0x3dd94027	0.10607939
154	0xbd759616	-0.059957586
155	0x3dc0b171	0.09408844
156	0xbcb4ca39	-0.022069084
157	0x3b17624b	0.0023099359
158	0x3d24e52f	0.04025763
159	0x3ce9740a	0.028497715
160	0xbca094f4	-0.019602276
161	0x3d03ebb6	0.032207213
162	0xbdda4080	-0.10656834
163	0x3dfcdcba	0.12346788
164	0x3db32bf0	0.08748615
165	0xbdb4290d	-0.08796892
166	0x3d71a7bc	0.058997855
167	0xbdedbee3	-0.116086744
168	0x3cf422f2	0.02980182
169	0x3d587195	0.052842695
170	0x3b0b6674	0.0021270784
171	0xbdbf9847	-0.093552165
172	0x3ddedefd	0.108823754
173	0x3d30ed29	0.043194924
174	0x3cc06b95	0.0234888
175	0x3dead1c5	0.114657916
176	0x3be4ff6e	0.0069884574
177	0xbc6619d5	-0.014044245
178	0x3d23444d	0.03986006
179	0x3daa0f67	0.08303719
180	0x3d17ec23	0.037090432
181	0x3d494b67	0.049144175
182	0x3c64b893	0.013960022
183	0x3dd9477a	0.10609336
184	0xbd835e34	-0.06414452
185	0x3daf51c9	0.08560521
186	0x3d8b4c90	0.068017125
187	0x3da7ed22	0.08199526
188	0x3a810bd5	0.0009845445
189	0x3d24fe81	0.040281776
190	0x3d71bc3d	0.05901741
191	0x3dd20191	0.10254205
192	0xbdc25873	-0.094895266
193	0x3d29d308	0.04146102
194	0x3dc543a1	0.0963204
195	0x3cda532d	0.02665099
196	0x3da0caf3	0.078512095
197	0x3d6d34ed	0.057911802
198	0x3dabff69	0.08398325
199	0x3dbf484b	0.09339961
200	0x3ccaaaf4	0.02473972
201	0xbd0debf1	-0.03464884
202	0x3d955724	0.072920114
203	0xbdf1fa03	-0.11815264
204	0xbdf348ee	-0.118791446
205	0xbd1ed491	-0.038776938
206	0x3db5d270	0.088780284
207	0x3d581a50	0.05275947
208	0xbdc280c4	-0.09497216
209	0xbdc8b7c7	-0.09800678
210	0xbda6a8b8	-0.08137649
211	0x3daeef83	0.08541777
212	0xbdf71b9b	-0.12065812
213	0x3b8bfc76	0.004272039
214	0xbd29755c	-0.04137169
215	0x3e13d4f1	0.144367
216	0x3d27d518	0.040974706
217	0xbd9620bb	-0.073304616
218	0x3d610b0e	0.054942183
219	0xbb81f297	-0.0039656865
220	0xbbe170ad	-0.006879887
221	0x3dcad4dd	0.09903882
222	0xbcee9269	-0.029122548
223	0xbe003770	-0.12521148
224	0xbdbf9b0e	-0.09355746
225	0x3de91994	0.11381832
226	0xbc7f744f	-0.015591695
227	0x3c89f5eb	0.016840896
228	0x3d80f707	0.06297117
229	0x3d949d3d	0.07256553
230	0xbcfde301	-0.030992033
231	0x3d93e4da	0.07221384
232	0x3e145f79	0.14489545
233	0xbccae358	-0.02476661
234	0x3c5a9fce	0.0133437645
235	0x3de48b98	0.11159438
236	0xbd796ecb	-0.060896676
237	0xbe0efb25	-0.13962992
238	0x3d98725f	0.074436896
239	0x3bbc1570	0.0057398602
240	0x3c945286	0.018105756
241	0xbc1968d1	-0.009363369
242	0x3de03e1b	0.10949346
243	0xbde069c5	-0.10957674
244	0xbd614bf6	-0.055004083
245	0xbcae4cf9	-0.021276938
246	0x3e141f4d	0.14465065
247	0x3dbd9454	0.09256807
248	0xbdb0e4d6	-0.08637397
249	0xbd7c5fc5	-0.06161477
250	0xbdd62d6c	-0.10457882
251	0x3c9237a9	0.017848806
252	0xbd9481c3	-0.072513126
253	0x3ac1ffb8	0.0014800942
254	0xbd150b33	-0.036387634
255	0x3dd5064d	0.104015924

rnn.bias_ih_l0 f4 [192]
0	0xbdeade8c	-0.11468229
1	0x3dbe2663	0.092846654
2	0x3db06222	0.08612467
3	0x3dda4fdc	0.10659763
4	0xbd956995	-0.07295529
5	0xbce8f9a5	-0.028439352
6	0x3dab2cf6	0.08358185
7	0x3c980b9a	0.01856022
8	0xbd0b2db9	-0.03397915
9	0x3d81339e	0.06308673
10	0xbd0b72ff	-0.034045216
11	0xbcb24ab5	-0.021764139
12	0xbdca1e53	-0.09869065
13	0xbdead3e0	-0.11466193
14	0x3dbf9369	0.09354288
15	0x3d8c523c	0.068516225
16	0x3d405b72	0.04696221
17	0xbd944e9e	-0.072415575
18	0xbddf85e4	-0.109142095
19	0xbb81effd	-0.0039653764
20	0xbdd35b11	-0.10320104
21	0x3d9f33b3	0.07773533
22	0x3ca20b82	0.019780878
23	0xbd876227	-0.06610518
24	0x3d8edde4	0.06975916
25	0xbd3ec134	-0.04657097
26	0xbd9e9342	-0.07742931
27	0xbc7d8705	-0.015474086
28	0xbdac4cf9	-0.08413119
29	0xbdcea77e	-0.1009054
30	0xbd8c954d	-0.06864414
31	0xbc83ed0f	-0.01610425
32	0xbaa780d3	-0.0012779481
33	0x3be5d0ba	0.0070134075
34	0xbd834023	-0.064087175
35	0x3d25ecfb	0.040509205
36	0xbcc051ce	-0.023476508
37	0x3d080057	0.03320345
38	0x3ddffcdf	0.10936903
39	0xbd1187a8	-0.035529763
40	0x3d70776a	0.058707632
41	0x3e0294b8	0.12752044
42	0x3cb2357c	0.021754019
43	0x3d7c436b	0.061587732
44	0x3d395876	0.04525038
45	0x3c2265ba	0.009911949
46	0xbd73f1a2	-0.05955661
47	0x3db5203f	0.08844041
48	0xbb66ab7b	-0.0035197425
49	0xbb4f1e8a	-0.0031603896
50	0x3dcf392b	0.10118326
51	0x3dcfa37b	0.10138603
52	0xbe0b4b6a	-0.13602987
53	0xbdcd9b10	-0.100393414
54	0x3c2389a4	0.009981547
55	0xbdc96b68	-0.09834939
56	0x3d50797d	0.05089711
57	0x3ca3fd0b	0.020018121
58	0x3d95ebcb	0.073203646
59	0xbdca4d20	-0.09877992
60	0x3e06ad9b	0.13152163
61	0x3db8ef3a	0.09030004
62	0xbc90346e	-0.017603125
63	0x3dbc3627	0.09190016
64	0xbd781655	-0.060568172
65	0xbde62ab6	-0.11238615
66	0xbca98748	-0.02069439
67	0xbdc0bfd7	-0.094115905
68	0xbe23f249	-0.16010393
69	0x3d053d1f	0.032528993
70	0xbde8e9ed	-0.11372743
71	0xbc74c3d7	-0.01493927
72	0x3b925837	0.0044660824
73	0xbe2e6eaf	-0.1703441
74	0xbd7dc4d1	-0.061955277
75	0xbe1f360d	-0.15547962
76	0x3cf4d115	0.029884854
77	0xbbc652f9	-0.0060523716
78	0xbd11b32a	-0.035571255
79	0x3d19ab51	0.037516896
80	0xbda0cd24	-0.078516275
81	0xbe2b8e5e	-0.16753528
82	0xbdfbcdcf	-0.12295114
83	0xbe0d85a9	-0.13820519
84	0xbde52008	-0.1118775
85	0x3c3b3ce4	0.011428092
86	0xbb6494c3	-0.0034878708
87	0xbe0fa1be	-0.14026543
88	0xbcce6cc3	-0.025198346
89	0xbdc3ff8f	-0.09570228
90	0xbcddd573	-0.02707932
91	0xbd1fa0eb	-0.038971823
92	0x3c60375a	0.013685072
93	0xbe0aac56	-0.13542303
94	0x3dab5ea7	0.08367663
95	0xbc36c4c1	-0.011155308
96	0xbda76242	-0.08173038
97	0xbda84c95	-0.08217732
98	0x3d33bae6	0.043879412
99	0xbd80d10e	-0.06289874
100	0xbd54ac47	-0.05192211
101	0xbd591c37	-0.053005423
102	0xbe171d43	-0.14757256
103	0xbc66da7e	-0.014090179
104	0xbdbc86bc	-0.09205386
105	0xbdcb9e8a	-0.09942348
106	0xbdeecee0	-0.11660552
107	0xbc647b2e	-0.013945384
108	0xbe2490b8	-0.16070831
109	0xbda6b189	-0.08139331
110	0x3d8337d5	0.064071335
111	0xbd88bcad	-0.06676612
112	0x3cbd70ae	0.023125019
113	0xbcabb33c	-0.020959489
114	0x3b70310f	0.0036650335
115	0xbdc37a1e	-0.095447764
116	0x3d14d5ac	0.036336586
117	0xbe23eb3f	-0.16007708
118	0xbdbcbe98	-0.092160404
119	0xbda9ac3c	-0.08284804
120	0x3beec76b	0.007286956
121	0xbdbbf1b0	-0.091769576
122	0x3cb8028b	0.02246215
123	0xbe2f1b44	-0.17100245
124	0xbb0d1aa2	-0.0021530767
125	0xbdc44df8	-0.09585184
126	0xbd2f8a14	-0.04285629
127	0xbc72dcc3	-0.0148231415
128	0x3db8ff52	0.090330735
129	0x3d03856a	0.032109655
130	0xbd8d1d9c	-0.06890413
131	0x3dcecbfe	0.10097502
132	0xbd52602d	-0.05136125
133	0xbd5e9630	-0.05434245
134	0x3d147acc	0.03624992
135	0x3c5a4d6a	0.013324121
136	0xbd10f074	-0.035385564
137	0x3d91ce88	0.07119471
138	0xbe09cc2e	-0.13456795
139	0xbd3b7a1b	-0.045770746
140	0xbd36b336	-0.044604503
141	0x3d9cb97a	0.07652564
142	0x3db3f32f	0.08786618
143	0x3c93c7b3	0.01803956
144	0xbc1097e1	-0.008825273
145	0x3c5ce576	0.013482442
146	0xbd176a9a	-0.036966898
147	0xbdbcf397	-0.092261486
148	0x3d30ee8e	0.043196253
149	0xbbfb9439	-0.0076775816
150	0xbc90548a	-0.017618436
151	0xbd1dadb2	-0.038495727
152	0x3c1628ea	0.009165028
153	0xbe0b8446	-0.13624677
154	0x3ca775b4	0.020441867
155	0xbcb61d81	-0.022230865
156	0x3d9fd65c	0.07804558
157	0xbd486e16	-0.04893311
158	0xbdb3eeb2	-0.08785762
159	0xbd9d6cf1	-0.076867945
160	0xbc20d457	-0.009816251
161	0xbbd4da72	-0.0064957673
162	0x3df530b7	0.11972182
163	0x3d11a885	0.035561103
164	0xbdbe337c	-0.092871636
165	0x3d92a43c	0.071602315
166	0x3b4a1977	0.0030837932
167	0xbc8c8c6d	-0.017156804
168	0x3dad927a	0.08475204
169	0xbd98c79c	-0.074599475
170	0xbd61e4a2	-0.055149682
171	0xbd4f2139	-0.050568793
172	0xbdeecedf	-0.11660551
173	0x3df4f2d1	0.11960376
174	0x3de0d144	0.10977414
175	0xbde4a8b7	-0.11164992
176	0x3d19d5f1	0.037557546
177	0xbd48478f	-0.04889637
178	0x3d33eaf1	0.04392523
179	0xbd029006	-0.031875633
180	0xbdc34ffe	-0.09536742
181	0x3c3a28cc	0.011362266
182	0xbdb3be5a	-0.08776541
183	0x3d8e0fd6	0.06936614
184	0xbd5862ed	-0.052828718
185	0xbca8a649	-0.020587103
186	0xbd47fd7e	-0.048825733
187	0x3d44060a	0.04785732
188	0xbdb85b0c	-0.09001741
189	0xbe0c7c05	-0.13719185
190	0xbda1be83	-0.07897665
191	0x3e02d5a0	0.12776804

rnn.bias_hh_l0 f4 [192]
0	0x3d3cc305	0.046084423
1	0xbbdbed16	-0.0067116125
2	0xbca35850	-0.019939572
3	0x3da25e43	0.07928135
4	0xbd965740	-0.0734086
5	0xbd889f06	-0.06670956
6	0x3d511140	0.05104184
7	0x3e020cef	0.12700246
8	0xbc726d89	-0.014796623
9	0xbdb48d1e	-0.088159785
10	0xbd5686f6	-0.052374803
11	0x3de27a3a	0.11058469
12	0xbd296f47	-0.041365888
13	0xbd92ff38	-0.07177585
14	0x3dfa9358	0.12235135
15	0x3ddee171	0.10882843
16	0xbc7b16dc	-0.015325274
17	0x3b020d4c	0.0019844351
18	0x3d2b04d2	0.041752644
19	0x3d0747d8	0.0330275
20	0x3d30fb35	0.04320832
21	0xbdb4a0ed	-0.08819757
22	0xbdd234c1	-0.10263968
23	0xbdd3a330	-0.1033386
24	0x3dcc3d18	0.0997259
25	0x3d6f280a	0.058387794
26	0x3d959aea	0.07304938
27	0x3d192c7a	0.03739593
28	0xbd8f39ec	-0.069934696
29	0xbd0d1610	-0.03444487
30	0x3d9bc552	0.07605995
31	0xbceb862c	-0.028750502
32	0xbd40d1ea	-0.04707519
33	0xbd509c70	-0.05093044
34	0xbdac4d48	-0.08413178
35	0xbbb33156	-0.005468528
36	0xbd430d99	-0.04762039
37	0x3e092c8c	0.133959
38	0xbd338444	-0.04382731
39	0xbb739ab5	-0.003717107
40	0xbd747820	-0.059684873
41	0xbb00a217	-0.0019627863
42	0x3ce98ea6	0.028510403
43	0xbd5f45d8	-0.054509968
44	0x3e015f0c	0.12633914
45	0x3d917177	0.0710172
46	0x3b9c1757	0.0047635245
47	0xbcfdaab5	-0.030965189
48	0xbdbaa3e0	-0.09113288
49	0x3dc45f85	0.095885314
50	0x3ddf1dff	0.10894393
51	0x3d0b3ea5	0.03399529
52	0xbd0fe8ce	-0.03513413
53	0x3dab5ae3	0.08366945
54	0xbd22dd1f	-0.03976166
55	0x3cd245fc	0.025668137
56	0x3dc8c37a	0.09802909
57	0x3dc05a8b	0.0939227
58	0xbd812ee5	-0.063077725
59	0xbd845f88	-0.06463534
60	0xbdabcd3b	-0.08388754
61	0xbd849386	-0.0647345
62	0xbd88c118	-0.06677455
63	0xbcc0c6a3	-0.023532217
64	0x3d72dd4b	0.059293073
65	0xbe2965e4	-0.16542774
66	0xbdd30d0f	-0.10305225
67	0xbb889c75	-0.0041690418
68	0xbe24a88a	-0.16079918
69	0xbe31de8b	-0.1737005
70	0xbe4691e7	-0.19391595
71	0xbda9d149	-0.08291871
72	0x3c8effad	0.0174559
73	0xbdcf4605	-0.10120777
74	0xbc645543	-0.013936344
75	0xbda2d6a0	-0.07951093
76	0xbccd6e9a	-0.025077153
77	0xbab542ae	-0.0013829076
78	0xbd2916ea	-0.04128162
79	0xbd949242	-0.07254459
80	0xbd6520bc	-0.05593942
81	0x3d16b95a	0.03679786
82	0xbe0d8a21	-0.13822223
83	0xbdb4741d	-0.08811209
84	0xbca14ded	-0.019690478
85	0xbe024492	-0.1272147
86	0x3cc36948	0.023853913
87	0xbe1f4725	-0.15554483
88	0x3b62d058	0.0034609046
89	0x3d8b1dbd	0.067927815
90	0xbd94aa80	-0.07259083
91	0x3d28dadc	0.041224346
92	0x3a0a8a5e	0.00052849005
93	0xbe33a772	-0.17544344
94	0xbdab2cee	-0.08358179
95	0x3d2a1745	0.041526098
96	0x3c413a99	0.011793756
97	0xbbeeb991	-0.007285305
98	0xbd15aecf	-0.036543664
99	0xbdfdbf2e	-0.1238998
100	0xbdf16252	-0.11786331
101	0xbbd8ecb8	-0.006620016
102	0xbd83b36f	-0.064307086
103	0xbd30e82b	-0.043190163
104	0xbd8b336f	-0.067969196
105	0x3dc5e789	0.096633025
106	0x3d33d81d	0.043907274
107	0xbddee542	-0.10883571
108	0xbd8fd4a2	-0.07022978
109	0xbe039ba9	-0.12852348
110	0x3c3f4c45	0.011675899
111	0xbd1268a7	-0.035744336
112	0xbd2278a7	-0.039665844
113	0xbdc4ae41	-0.09603549
114	0xbdfb3b18	-0.122671306
115	0xbc2939f4	-0.0103287585
116	0x3d7a3af7	0.06109139
117	0x39bb18ad	0.00035685804
118	0xbdca6ef5	-0.098844446
119	0x3d278911	0.0409022
120	0x3d600868	0.054695517
121	0xbe32a90d	-0.174473
122	0x3cc9be42	0.024626855
123	0xbde3d2a8	-0.11124164
124	0x3cd55231	0.026040168
125	0x3de779eb	0.11302551
126	0xbde141bc	-0.10998866
127	0x3d8a3a6d	0.06749425
128	0x3d8bfd9b	0.06835481
129	0xbdfed631	-0.124431975
130	0xbdedca90	-0.11610901
131	0xbd183bea	-0.037166514
132	0xbd79f7fc	-0.061027512
133	0xbdbe39e0	-0.092883825
134	0x3c70d41b	0.014699007
135	0xbd4cc962	-0.04999674
136	0xbdc7e5a8	-0.097606
137	0x3c1abbe7	0.0094442135
138	0x3d0b11ff	0.03395271
139	0x3d7e9ccd	0.062161256
140	0xbdcb0cd2	-0.09914555
141	0xbc8f82c5	-0.01751841
142	0xbdb607fe	-0.08888243
143	0xbdf37331	-0.118872054
144	0x3c7e28b3	0.015512633
145	0xbdb5c3c8	-0.08875233
146	0x3e0d62ae	0.13807175
147	0xbdb6ddc1	-0.08929015
148	0xbcef69f0	-0.02922532
149	0xbc98a290	-0.018632203
150	0x3db4d864	0.08830336
151	0xbdf93322	-0.12167956
152	0x3bb2682e	0.005444548
153	0xbd5b0626	-0.05347266
154	0xbd9603ea	-0.07324965
155	0xbd097744	-0.033561006
156	0x3d5bc496	0.053654276
157	0xbd73d6a2	-0.05953086
158	0x3d48ef69	0.049056444
159	0x3d456d45	0.04819991
160	0xbdb86642	-0.09003879
161	0x3d923f64	0.07140997
162	0x3d45dbbe	0.048305266
163	0x3d092fa2	0.03349269
164	0xbcbb4ab2	-0.022862766
165	0xbcc80bb3	-0.024419641
166	0x3d0ca84a	0.03434018
167	0xbdba577f	-0.0909872
168	0x3d859aeb	0.06523689
169	0xbde25181	-0.11050702
170	0xbc2185fd	-0.009858605
171	0xbd638eb8	-0.05555603
172	0xbd751b7d	-0.059840668
173	0xbd9f8eb8	-0.07790893
174	0x3d52f5f5	0.051504094
175	0xbdf40436	-0.11914866
176	0x3ca47d7d	0.020079369
177	0x3c2b87c6	0.010469383
178	0xba417081	-0.000737913
179	0xbce097b9	-0.027416097
180	0xbdcb05cf	-0.09913217
181	0xbd9876b2	-0.07444514
182	0x3c0ddc56	0.008658489
183	0x3da02a5a	0.07820578
184	0x3dbc45f5	0.09193031
185	0x3d0991df	0.03358638
186	0xbd59fffe	-0.05322265
187	0xbdf3e0f7	-0.11908143
188	0x3cd4a14d	0.02595582
189	0xbd3bd8e7	-0.04586115
190	0x3cd53616	0.026026767
191	0x3dd7d2d2	0.10538258

rnn.weight_ih_l1 f4 [192, 64]
0	0xbb19d97f	-0.0023475585
1	0xbdaba5d1	-0.08381236
2	0xbcfbc004	-0.030731209
3	0x3d290e09	0.04127315
4	0x3d5911e0	0.052995563
5	0x3d0cdf77	0.0343928
6	0x3d0a614b	0.033784192
7	0x3d3bfa9d	0.0458933
8	0x3d5dd47e	0.054157726
9	0x3a948fe7	0.001133439
10	0x3dbf1635	0.093304075
11	0xbdc2c8cc	-0.09510955
12	0xbde08818	-0.10963458
13	0xbdf9075d	-0.121596076
14	0x3dd190f3	0.10232725
15	0x3cd049e6	0.025425863
16	0xbc8a022a	-0.016846735
17	0x3e034eef	0.1282308
18	0xbd67b401	-0.05656815
19	0xbd92d4d1	-0.07169498
20	0xbc8208d8	-0.015873358
21	0xbdb09f6b	-0.086241566
22	0x3db2a0ea	0.08722098
23	0xbcc827c6	-0.024433028
24	0xbcddd404	-0.027078636
25	0x3d57a771	0.05264992
26	0xbc4c5f1c	-0.012473848
27	0xbda72645	-0.08161596
28	0x3d466607	0.048437145
29	0x3c93b366	0.01802988
30	0x3e000864	0.12503201
31	0xbc012e79	-0.007884615
32	0x3e11060b	0.14162461
33	0xbd43dfb4	-0.04782076
34	0xbd0d1aea	-0.034449495
35	0xbdb4b251	-0.08823074
36	0x3d9b2a8f	0.07576477
37	0x3e0071b6	0.12543377
38	0x3e0ae381	0.13563348
39	0xbd2a3194	-0.041551188
40	0xbd5b8437	-0.053592887
41	0x3957b690	0.00020572008
42	0x3db7d093	0.08975329
43	0xbd0b54dd	-0.03401648
44	0xbd1200f5	-0.035645444
45	0xbdd725a0	-0.10505223
46	0x3d1a25ed	0.037633825
47	0x3dcafefb	0.09911915
48	0x3bee9be2	0.0072817663
49	0x3d83c1c9	0.06433446
50	0x3da4f9ba	0.08055444
51	0xbc46a5c6	-0.012124484
52	0xbdbc5a0c	-0.091968626
53	0xba7eb2d3	-0.0009715978
54	0xbcd5e0bf	-0.026108144
55	0xbdba5ff7	-0.09100335
56	0x3da15e4d	0.078793146
57	0xbdb906c6	-0.09034495
58	0xbe100a40	-0.1406641
59	0x3d553704	0.05205442
60	0x3e124633	0.14284591
61	0xbbec0ca7	-0.0072036567
62	0x3bc82112	0.006107458
63	0x3df2d87a	0.11857696
64	0x3e00b584	0.12569243
65	0xbe138f96	-0.14410242
66	0x3d31c491	0.04340035
67	0xbd17e0ab	-0.037079494
68	0x3df1eeea	0.11813147
69	0xbd3c7bef	-0.04601663
70	0xbc4f4612	-0.012650983
71	0xbe0f4d35	-0.13994296
72	0x3c8a0382	0.016847376
73	0x3d8c0c55	0.0683829
74	0xbddd24a3	-0.107980035
75	0x3d71212e	0.058869533
76	0x3cf7fabc	0.030270927
77	0x3d1456a6	0.036215447
78	0x3d91cd86	0.071192786
79	0x3d5660d9	0.052338455
80	0xbd81058c	-0.06299886
81	0x3e020b15	0.1269954
82	0x3e1bf122	0.15228704
83	0x3e049c7f	0.12950324
84	0xbdc3a91a	-0.09553738
85	0x3dd15a2d	0.10222278
86	0xbc765b9c	-0.01503649
87	0xbcaca153	-0.02107302
88	0x3dc7f5d6	0.09763686
89	0xbd8b6f16	-0.06808297
90	0xbd87960e	-0.066204175
91	0xbd68150c	-0.056660697
92	0x3c9a95c2	0.018870238
93	0x3d93810a	0.072023466
94	0xbab04f1b	-0.001345131
95	0x3dcbd489	0.09952647
96	0x3dbca805	0.09211735
97	0x3d7e870f	0.06214052
98	0x3dbc7173	0.09201326
99	0xbd2935e1	-0.04131115
100	0xba19c793	-0.00058662257
101	0x3da8b584	0.08237746
102	0xbd2933ec	-0.041309282
103	0xbdb20564	-0.086924344
104	0xbd0c0895	-0.034187872
105	0x3df89d09	0.12139327
106	0xbc0ed6de	-0.0087182205
107	0x3da783e2	0.081794515
108	0x3c0d9da6	0.008643543
109	0x3d0b73d4	0.03404601
110	0x3d3b27ae	0.04569214
111	0xbc5cea5e	-0.013483612
112	0xbd94bfb0	-0.07263124
113	0x3dc005a7	0.09376078
114	0x3e0dcb29	0.1384703
115	0x39a4a193	0.000314009
116	0xbd4e44b7	-0.0503585
117	0xbd92cc93	-0.07167926
118	0xbd80c2b7	-0.06287139
119	0x3da863f2	0.08222188
120	0x3e12361f	0.14278458
121	0x3d39aa9b	0.045328718
122	0x3d95d15f	0.07315325
123	0xbdd3853b	-0.10328146
124	0xbb8a198a	-0.0042144703
125	0x3d76fc11	0.060298983
126	0x3c8d1d80	0.01722598
127	0xbda4f675	-0.080548204
128	0x3d98df00	0.07464409
129	0xbd4a513c	-0.049393877
130	0xbdb318bf	-0.08744954
131	0xbd900437	-0.07032054
132	0x3d6e1a1d	0.058130372
133	0x3bfb9afc	0.0076783877
134	0xbdbca013	-0.09210219
135	0x3cb87ae0	0.022519529
136	0xbd3ec6fc	-0.046576485
137	0x3dbed403	0.09317782
138	0x3da7c412	0.08191694
139	0xbcf2ea6e	-0.0296528
140	0xbe092795	-0.13394006
141	0x3b9a3a79	0.0047066775
142	0xbd0ac71f	-0.033881303
143	0x3d8487e2	0.0647123
144	0xbd005405	-0.031330127
145	0x3d73cc08	0.05952075
146	0xbd266711	-0.040625636
147	0xbc2fbc23	-0.010726008
148	0x3cfa073e	0.030521031
149	0xbdc9da11	-0.09856046
150	0xbceba600	-0.028765678
151	0xbd1215b7	-0.03566524
152	0x3db44f2f	0.088041656
153	0xbd8377bb	-0.06419321
154	0xbd7eb3d4	-0.062183216
155	0x3cf2c637	0.029635532
156	0x3d61482d	0.055000473
157	0xbd89bea2	-0.067258134
158	0x3e0e1513	0.13875227
159	0xbd9673c9	-0.07346303
160	0xbd9a0244	-0.075199634
161	0x3dc3b36c	0.095557064
162	0xbc43549d	-0.011922029
163	0xbce72a57	-0.028218431
164	0xbdb780c2	-0.089601055
165	0x3dbaa770	0.091139674
166	0x3b45b379	0.0030166788
167	0xbd39de5d	-0.045378078
168	0x3e05c9a1	0.13065197
169	0x3d260116	0.04052838
170	0xbd800c51	-0.06252349
171	0x3dc38567	0.09546929
172	0x3da69051	0.08132995
173	0x3d180531	0.037114326
174	0xbd8ae2d4	-0.06781545
175	0xbd665c2c	-0.056240246
176	0x3c960f9b	0.018317988
177	0x3cf3e021	0.029769959
178	0x3d2ab164	0.04167308
179	0x3d0a20b9	0.033722613
180	0xbda53867	-0.080673985
181	0xbde2f87f	-0.11082553
182	0xbd34c268	-0.044130713
183	0x3deabb74	0.11461535
184	0x3ca572ff	0.020196436
185	0xbd3b1ade	-0.04567992
186	0x3dc9a1c6	0.09845309
187	0xbd1698cf	-0.036766823
188	0x3d96ba83	0.07359793
189	0x3d6066bd	0.05478548
190	0xbd422397	-0.047397222
191	0x3d23134f	0.039813336
192	0xbda8e800	-0.082473755
193	0xbdeb8342	-0.11499645
194	0xbd2c205b	-0.042023044
195	0xbca1389c	-0.019680314
196	0xbdaf73d4	-0.08567014
197	0x3cdf5863	0.027263826
198	0x3cf0ad22	0.029379431
199	0xbd0d475c	-0.03449188
200	0xbcea46aa	-0.028598148
201	0x3d68874b	0.05676965
202	0x3c1bda36	0.009512475
203	0x3dcc3e55	0.099728264
204	0xbcdeba1e	-0.027188357
205	0x3c98a699	0.018634127
206	0x3c83672c	0.016040407
207	0xbd5f197a	-0.054467656
208	0x3df1786b	0.11790546
209	0xbdd96723	-0.10615375
210	0x3dd5e26b	0.104435764
211	0x3df7a0ef	0.120912425
212	0xbdcfff9b	-0.10156175
213	0x3d8d12a9	0.06888325
214	0xbd9bff83	-0.07617094
215	0xbd2df805	-0.042472858
216	0xbdadcb11	-0.084859975
217	0x3dfb4e27	0.12270766
218	0xbda6c6d7	-0.081433944
219	0xbd31cd2a	-0.04340855
220	0xbd562226	-0.05227866
221	0xbd9a6dd5	-0.0754048
222	0x3de6e21a	0.11273594
223	0xbdfc57ca	-0.12321432
224	0xbd8dc351	-0.06922019
225	0x3dcccb8b	0.0999976
226	0xbdaa7819	-0.08323688
227	0x3a125d12	0.00055833266
228	0xba9fcb4b	-0.0012191323
229	0xbdc957d7	-0.09831207
230	0x3d7e4dd6	0.06208595
231	0xbd86d63e	-0.06583832
232	0x3d3da985	0.046304245
233	0xbd18a102	-0.037262924
234	0x3cc1ca26	0.023655962
235	0x3d0d9002	0.034561165
236	0xbc2b16a4	-0.01044241
237	0xbe0b8a09	-0.13626875
238	0xbb9df5e4	-0.004820572
239	0x3d2abc77	0.04168364
240	0x3d2936cd	0.041312028
241	0x3cd962ae	0.026536312
242	0x3dd637f4	0.10459891
243	0xbc0fbda4	-0.008773241
244	0xbd194ae0	-0.037424922
245	0xbd285069	-0.04109231
246	0xbd1bc340	-0.038028
247	0x3c413f7a	0.011794919
248	0x3d67b53f	0.056569334
249	0xbde7d653	-0.11320176
250	0xbd2cb49a	-0.042164423
251	0x3dd239ed	0.10264955
252	0xbdc76542	-0.0973611
253	0x3d0193f2	0.031635232
254	0xbda57119	-0.08078212
255	0x3c0816f1	0.008306251

rnn.weight_hh_l1 f4 [192, 64]
0	0x3da9c6ac	0.08289847
1	0x3b668f33	0.0035180568
2	0x3dc6335c	0.09677765
3	0x3cebf599	0.028803634
4	0xbd197e5d	-0.037474025
5	0x3cbfc26b	0.023408135
6	0xbdbdd62b	-0.09269365
7	0xbe1357e2	-0.14388993
8	0x3e1bd35a	0.15217343
9	0x3d86075c	0.065443724
10	0x3d1b97b9	0.03798649
11	0x3d4b845b	0.04968677
12	0xbd8905df	-0.06690573
13	0xbcc10449	-0.023561614
14	0xbc9a8bab	-0.018865427
15	0x3cb737df	0.022365509
16	0xbd3e10fa	-0.04640291
17	0x3db37912	0.08763327
18	0xbd88ce49	-0.06679971
19	0x3c26f2b8	0.010189705
20	0xbd316964	-0.0433134
21	0xbdbd1c50	-0.09233916
22	0x3d82e88c	0.06392011
23	0x3dc149c1	0.094378956
24	0xbdb78e7c	-0.089627236
25	0xbddd076a	-0.1079243
26	0x3ce05581	0.027384521
27	0x3daeac18	0.08528918
28	0x3daee571	0.08539856
29	0xbcfa65aa	-0.030566055
30	0x3d4e9a8b	0.050440352
31	0xbd448091	-0.047974173
32	0x3d38fe3f	0.045164343
33	0xbd849ca9	-0.06475193
34	0x3d048909	0.03235725
35	0x3dc61ec6	0.09673838
36	0xbb914f0e	-0.004434473
37	0xbdc6676c	-0.09687695
38	0x3e0d573f	0.13802813
39	0x3e00414d	0.1252491
40	0xbc8192a2	-0.01581699
41	0x3e04cd36	0.12968907
42	0xbdadc76e	-0.08485304
43	0x3d89687f	0.06709384
44	0xbd2d4186	-0.042298816
45	0xbe083c3b	-0.13304226
46	0xbdf80f00	-0.12112236
47	0x3d957c43	0.07299092
48	0x3dc9ce9c	0.09853861
49	0xbd19b67b	-0.037527543
50	0x3df5d79b	0.12004014
51	0xbca53268	-0.020165637
52	0xbb8704a8	-0.004120428
53	0xbaba52cc	-0.0014215349
54	0x3d3f831e	0.046755902
55	0xbdad2479	-0.08454222
56	0x3d30081b	0.04297648
57	0x3c50bcc5	0.012740319
58	0xbb7ed945	-0.0038886827
59	0xbe08d2ba	-0.13361636
60	0xbdce06ff	-0.10059928
61	0xbd8f7d64	-0.07006338
62	0x3e195b39	0.14976205
63	0x3d442b08	0.0478926
64	0x3c7dd949	0.015493699
65	0xbd32d591	-0.043660704
66	0xbc5dcf33	-0.01353817
67	0xbdf29f97	-0.118468456
68	0xbda57c99	-0.08080406
69	0x3cdaf810	0.026729614
70	0xbcf6fd41	-0.030150058
71	0x3c69593b	0.014242466
72	0x3d2ea929	0.042641792
73	0x3dbe0ecd	0.09280167
74	0x3cf1c69d	0.029513652
75	0x3d868446	0.06568198
76	0xbba97a47	-0.0051720473
77	0xbdb6f985	-0.08934311
78	0x3dc96f11	0.09835637
79	0x3db008e3	0.08595445
80	0x3d49c3e5	0.049259085
81	0x3cd36cb3	0.025808668
82	0x3d980c94	0.07424274
83	0x3e0619ab	0.13095729
84	0xbbf16ba5	-0.0073675686
85	0x3dfbe44d	0.12299404
86	0x3dff4653	0.12464585
87	0xbd922b98	-0.07137221
88	0x3d492001	0.049102787
89	0x3d2cd592	0.042195864
90	0x3df760eb	0.120790325
91	0xbdfa0711	-0.12208379
92	0x3d3d1993	0.046166968
93	0xbdac3891	-0.08409227
94	0xbd744636	-0.05963727
95	0x3a8d85ad	0.0010797285
96	0x3c01eb73	0.007929671
97	0xbd9daa14	-0.076984555
98	0xbd323f7c	-0.043517575
99	0x3db693d9	0.089149185
100	0x3e0c87fe	0.13723752
101	0x3da06677	0.078320436
102	0x3b86e6eb	0.004116883
103	0xbd103e03	-0.03521539
104	0xbd4b97d5	-0.049705345
105	0x3dc95648	0.0983091
106	0x3d70e6c5	0.05881383
107	0xbd2f154f	-0.04274493
108	0xbdb57dc6	-0.0886188
109	0xbd91392c	-0.07090983
110	0x3dc2a338	0.09503788
111	0x3c38611e	0.011253623
112	0xbc313ffc	-0.010818478
113	0xbdfa5100	-0.12222481
114	0xbb336f0a	-0.0027379417
115	0xbd9a9209	-0.07547385
116	0xbd851193	-0.06497493
117	0x3d9f3587	0.077738814
118	0x3dcdfa7c	0.10057542
119	0xbddbf7b8	-0.10740608
120	0xbd9eba1a	-0.0775034
121	0x3d9e9003	0.07742312
122	0x3d8d1a3a	0.06889768
123	0x3da2a246	0.079411075
124	0x3cb9e579	0.022692429
125	0x3e044d1e	0.12920043
126	0xbcc9a015	-0.024612466
127	0x3e029dcf	0.12755512
128	0xba860141	-0.0010223762
129	0xbdc3491e	-0.0953543
130	0xbca3079f	-0.019901095
131	0x3c861c1d	0.016370827
132	0x3da53dfe	0.08068465
133	0xbe0501a7	-0.12988912
134	0x3c9dbfba	0.019256461
135	0xbdb3d65a	-0.08781119
136	0x3e0b566d	0.13607188
137	0x3d97bcf9	0.074090905
138	0xbcec84cc	-0.028871916
139	0x3d53a784	0.051673427
140	0x3d70ad03	0.058758747
141	0x3e11e121	0.14246036
142	0x3c4b090b	0.012392293
143	0xbde1178d	-0.1099082
144	0xbcf971cf	-0.030449776
145	0xbe175961	-0.14780189
146	0x3d559f92	0.05215413
147	0xbdb8498e	-0.089984044
148	0xbdf397e2	-0.11894204
149	0x3c810f57	0.015754385
150	0xbd7feb7d	-0.06248044
151	0x3c3fbfbf	0.011703431
152	0x3c2eb6b9	0.010663682
153	0xbd291996	-0.041284166
154	0x3c7a5186	0.015278226
155	0x3d78aa09	0.060709033
156	0x3d5fc3fe	0.054630272
157	0x3d9044de	0.070443854
158	0x3e03a9fd	0.12857814
159	0xbc1c2438	-0.00953012
160	0xbc342370	-0.010994777
161	0x3d3f525f	0.046709415
162	0xbda76a15	-0.081745304
163	0xbd3d09eb	-0.046152037
164	0xbdb6d74d	-0.08927784
165	0xbd8ca485	-0.06867317
166	0x3db55670	0.08854377
167	0xbdc103f4	-0.09424582
168	0x3d9a7f8e	0.075438604
169	0xbccebb5b	-0.025235822
170	0xbd6f4727	-0.058417466
171	0xbd3c0e8d	-0.045912314
172	0x3cf77622	0.030207697
173	0xbd5b2251	-0.053499524
174	0xbd93e055	-0.07220522
175	0xbdd5ef8c	-0.104460806
176	0x3c3e5cf6	0.011618843
177	0x3dfb64b5	0.12275068
178	0x3cc3d93d	0.023907298
179	0x3d21e14a	0.039521493
180	0x3ce74c44	0.028234608
181	0xbdd56f0e	-0.104215726
182	0xbd6a22dd	-0.057162154
183	0xbe14ae29	-0.14519562
184	0x3d02ba28	0.031915814
185	0x3ca9d503	0.020731455
186	0x3d624db8	0.0552499
187	0xbd5adfce	-0.053436093
188	0x3d4e6d7e	0.05039739
189	0xbc9d2b4b	-0.019185683
190	0x3d8dd1ba	0.06924768
191	0x3d766254	0.060152367
192	0xbd40169d	-0.046896566
193	0xbd854f56	-0.06509273
194	0xbd500539	-0.05078623
195	0xbd8d81d0	-0.069095254
196	0x3b96d6e3	0.004603253
197	0xbd05339c	-0.03251992
198	0x3d688d7c	0.056775555
199	0x3d8938ea	0.067003086
200	0x3ce0567e	0.027384993
201	0xbd84bfeb	-0.06481918
202	0x3dfac52c	0.12244639
203	0x3dc13352	0.09433617
204	0x3dafd5d8	0.08585709
205	0xbdcfd823	-0.10148647
206	0x3dce9af4	0.10088149
207	0xbe098719	-0.13430442
208	0xbd6ba4a8	-0.057530075
209	0xbd992875	-0.0747842
210	0x3e146f25	0.14495523
211	0xbddecedb	-0.10879298
212	0xbd7b3360	-0.061328292
213	0xbd49690b	-0.049172442
214	0x3ce39bfb	0.027784338
215	0x3dbbf70c	0.0917798
216	0x3d71dde2	0.059049495
217	0xbd5697ef	-0.05239099
218	0xbdca7e65	-0.09887389
219	0xbc183942	-0.009290995
220	0xbd502cac	-0.050823852
221	0x3d4311c7	0.047624376
222	0xbdb29ca7	-0.08721285
223	0xbd0dddba	-0.034635283
224	0xbdb823dd	-0.089912154
225	0x3c4634ce	0.012097551
226	0xbd863727	-0.06553488
227	0xbd8e92c6	-0.069615886
228	0x3c6d929e	0.014500288
229	0x3dcd99ae	0.10039078
230	0xbda8fbc7	-0.08251148
231	0x3dc36f43	0.09542706
232	0x3b5da229	0.0033818579
233	0xbc3cfe8a	-0.011535296
234	0x3c3d6513	0.0115597425
235	0x3d4022cd	0.04690819
236	0xbdea9a81	-0.114552505
237	0x3dd2338c	0.10263738
238	0xbdb96780	-0.09052944
239	0x3cfc5b0d	0.030805135
240	0x3d1bf055	0.038070995
241	0x3ca640a9	0.020294504
242	0x3d183f35	0.037169654
243	0x3dbab5f0	0.09116733
244	0xbd86aff8	-0.06576532
245	0xbe056ff9	-0.13030995
246	0x3df71035	0.12063638
247	0x3db6f2db	0.0893304
248	0xbd0897ee	-0.033348016
249	0xbce6f166	-0.02819128
250	0x3d297f47	0.041381147
251	0xbe04bbf6	-0.12962326
252	0xbdf6d95f	-0.12053179
253	0xbd12f0a6	-0.03587403
254	0xbd349736	-0.04408952
255	0x3dd3ed22	0.10347964

rnn.bias_ih_l1 f4 [192]
0	0xbd481594	-0.048848704
1	0xbd3de037	-0.046356406
2	0xbd2e31a5	-0.042527813
3	0x3d927d21	0.07152773
4	0x3df1a1ad	0.11798415
5	0x3d7b4402	0.061344154
6	0x3d3ab8fa	0.045586564
7	0x3e003d0d	0.12523289
8	0xbdd25ffd	-0.102722146
9	0xbdddb781	-0.10826016
10	0x3dcaefdf	0.09909033
11	0x3d8b911d	0.068147875
12	0xbc3f9f8f	-0.011695757
13	0x3d0199d6	0.03164085
14	0x3ca9955f	0.020701109
15	0x3dcde164	0.100527555
16	0x3c63726b	0.01388226
17	0x3cd478ba	0.025936473
18	0x3dbe3590	0.0928756
19	0x3e083350	0.13300824
20	0x3d1f22e7	0.038851645
21	0xbdba1fa7	-0.090880685
22	0x3bdd2ec2	0.0067499587
23	0xbdda6770	-0.106642604
24	0x3de21904	0.110399276
25	0x3cee62f1	0.029099913
26	0x3d3ed257	0.046587314
27	0x3ce1f2a4	0.02758152
28	0x3df7ba55	0.12096087
29	0xbdf33f50	-0.1187731
30	0xbd5124ab	-0.05106036
31	0x3da07267	0.078343205
32	0x3d0d2e76	0.034468137
33	0x3d0e028f	0.03467041
34	0xbcd971ef	-0.026543586
35	0xbd084555	-0.033269245
36	0xbdbf1a4c	-0.093311876
37	0xbd1e1423	-0.038593423
38	0xbcef957a	-0.02924608
39	0x3d9dc14e	0.077028856
40	0x3c8404e2	0.01611561
41	0xbdbefe02	-0.09325792
42	0x3d739607	0.05946925
43	0xbdc8bbec	-0.09801468
44	0x3c9fa290	0.019486696
45	0x3cb0cdc2	0.021582488
46	0xbe051c42	-0.12999061
47	0x3dae2164	0.085024625
48	0x3d7540bc	0.05987619
49	0x3d8c861e	0.06861518
50	0xbda4b4ff	-0.08042335
51	0xbb2487b8	-0.0025105309
52	0xbbd841e1	-0.0065996503
53	0x3df219be	0.11821316
54	0x3d1d5895	0.038414557
55	0x3d9e3be2	0.077262655
56	0x3e18cf33	0.1492279
57	0xbd47f751	-0.048819844
58	0x3dd6dad4	0.10490957
59	0xbce17830	-0.02752313
60	0x3e03e659	0.1288084
61	0xbd23f332	-0.04002685
62	0xbd796cea	-0.060894884
63	0x3dd29502	0.10282327
64	0xbe241275	-0.16022666
65	0xbda0fa15	-0.07860199
66	0x3ab408d9	0.0013735547
67	0xbe15c12f	-0.14624475
68	0xbdca8f7a	-0.09890647
69	0xbdcd28f6	-0.10017578
70	0xbd6cf917	-0.057854738
71	0xbc5a6d81	-0.013331772
72	0xbbc531c7	-0.006017897
73	0x3cb75f68	0.02238436
74	0x3afa7b2f	0.0019110198
75	0xbdb32202	-0.08746721
76	0xbd540952	-0.0517667
77	0xbd9dd039	-0.07705731
78	0x3d642a19	0.05570421
79	0xbe0352a5	-0.12824495
80	0x3dba0717	0.090833835
81	0xbe31cbfa	-0.17362967
82	0xbd8ed5ab	-0.06974348
83	0xbdf9b782	-0.121932045
84	0x3d486470	0.04892391
85	0xbd6bc99f	-0.057565328
86	0xbd339cc0	-0.04385066
87	0x3dfc68c2	0.123246685
88	0xbe120d6f	-0.14262937
89	0xbd2c08d0	-0.04200059
90	0xbde92790	-0.11384499
91	0x3d416c8a	0.04722265
92	0xbe0453e5	-0.12922628
93	0xbd2864a4	-0.041111603
94	0x3d452c16	0.048137747
95	0xbd132030	-0.03591937
96	0xbe32f66f	-0.1747682
97	0xbd8b8e0d	-0.068142034
98	0xbe1eeca5	-0.1551996
99	0xbe248eb2	-0.16070059
100	0xbde86048	-0.11346489
101	0xbe13eaeb	-0.14445083
102	0xbd02b032	-0.031906314
103	0xbe218724	-0.15774208
104	0xbe183b05	-0.14866264
105	0xbd92bdaa	-0.07165082
106	0xbe18969b	-0.14901201
107	0x3c1bb337	0.009503177
108	0xbc6f1594	-0.014592547
109	0xbc8aaf28	-0.016929224
110	0x3d4e7f3b	0.050414305
111	0xbcb18395	-0.021669189
112	0xbde54703	-0.11195185
113	0xbd87b497	-0.06626242
114	0x3cd939f8	0.0265169
115	0xbd78ed21	-0.06077302
116	0xbdbada3d	-0.09123657
117	0x3cd29bd9	0.02570908
118	0xbdf2d703	-0.118574165
119	0x3d12d49d	0.035847295
120	0xbad45b79	-0.0016201577
121	0xbdf2f332	-0.11862792
122	0x3cd0172b	0.025401672
123	0xbd7dc1b9	-0.061952326
124	0x3d857f23	0.0651839
125	0xbdf72b13	-0.12068763
126	0xbdc8cad1	-0.09804309
127	0xbe3a1f04	-0.18175894
128	0x3da0c0a3	0.078492425
129	0x3ccf6f02	0.025321487
130	0xbd9c463f	-0.07630586
131	0xbd5a597b	-0.05330799
132	0x3d5419dc	0.051782474
133	0xbdea9a11	-0.11455167
134	0xbd20856a	-0.039189734
135	0x3cc0d91b	0.023541024
136	0x3dccad0b	0.09993943
137	0xbda60140	-0.08105707
138	0x3e091a76	0.13389
139	0x3e195d7d	0.14977069
140	0x3d27355c	0.04082237
141	0xbcfd50ac	-0.030922256
142	0x3d5d095f	0.053964015
143	0x3d5a848e	0.05334907
144	0xbc65aac5	-0.014017765
145	0xbd90da6a	-0.07072909
146	0xbd5e3267	-0.054247286
147	0xbd5a040b	-0.053226512
148	0xbd90818d	-0.0705596
149	0x3d1662da	0.036715366
150	0x3dbe1f80	0.09283352
151	0x3d099db8	0.033597678
152	0xbcb627fd	-0.022235865
153	0xbe0af6b3	-0.13570671
154	0x3b990f0b	0.0046709827
155	0xbdef8c94	-0.11696735
156	0xbdb3557d	-0.0875654
157	0x3db457de	0.08805822
158	0x3c061f0e	0.008186115
159	0x3d8fb417	0.07016771
160	0x3d802e16	0.0625879
161	0xbc76c965	-0.015062665
162	0xbe01d958	-0.12680566
163	0x3c057b6a	0.0081471
164	0xbd213e4a	-0.039366044
165	0x3d5854ee	0.05281537
166	0xbd5dbc7d	-0.054134835
167	0xbd85d1ce	-0.06534158
168	0x3ddeea5e	0.10884546
169	0xbd627457	-0.05528673
170	0x38d659dd	0.000102210535
171	0x3d50511d	0.050858606
172	0x3cd12a0b	0.025532743
173	0xbd359783	-0.044333946
174	0xbe13676d	-0.14394923
175	0x3cf69915	0.030102292
176	0xbd83e33b	-0.06439825
177	0xbca0351b	-0.019556573
178	0x3cecdd8b	0.028914234
179	0xbde7dae6	-0.113210484
180	0x3cc85b4f	0.024457602
181	0xbc921f42	-0.01783717
182	0xbab349d8	-0.0013678623
183	0xbe03d9bc	-0.12876028
184	0x3e0e1852	0.13876465
185	0xbc9de325	-0.01927335
186	0xbd72bfdf	-0.059265014
187	0xbd82820a	-0.06372459
188	0xbc181b29	-0.009283819
189	0x3d919930	0.07109296
190	0x3dee8951	0.11647285
191	0xbd92d04f	-0.07168638

rnn.bias_hh_l1 f4 [192]
0	0x3db6d224	0.089268
1	0x3d94771e	0.07249282
2	0xbd14c11a	-0.03631697
3	0x3cf2ec34	0.029653646
4	0x3d9f8a95	0.07790104
5	0x3cd46f92	0.025932107
6	0xbd893d6b	-0.06701168
7	0x3dca91c3	0.09891083
8	0xbda243ff	-0.079231255
9	0xbdd8e491	-0.105904706
10	0xbcdf5a14	-0.027264632
11	0x3df78e9c	0.120877475
12	0xbd25bd76	-0.040463887
13	0x3dc855db	0.09782001
14	0x3d82a917	0.063799076
15	0x3ccc1c56	0.024915855
16	0xbd9c059f	-0.0761826
17	0xbd9e4ff4	-0.077300936
18	0x3d91a102	0.07110788
19	0xbd86f3f8	-0.06589502
20	0x3d11b99f	0.035577413
21	0xbd4023aa	-0.046909012
22	0x3d307ff2	0.04309077
23	0xbdbb6a1f	-0.091511
24	0x3e1836b3	0.14864616
25	0x3cdec72a	0.027194578
26	0xbdd09a0b	-0.10185631
27	0xbd1d9d23	-0.038479935
28	0x3df47309	0.11936004
29	0xbdcbf485	-0.09958748
30	0xbd9577eb	-0.07298263
31	0x3da641a6	0.0811799
32	0x3c9146e2	0.017733995
33	0x3bf9880f	0.0076150964
34	0x3d6e62dd	0.058199752
35	0xbd49a4d0	-0.049229443
36	0xbd00c27c	-0.031435475
37	0x3b2414d4	0.0025036829
38	0x3dd2df2e	0.102964744
39	0x3d9a1183	0.07522871
40	0x3db6f03e	0.08932541
41	0xbcdbfaf2	-0.026853058
42	0x3d759710	0.059958518
43	0x3d0acdc0	0.033887625
44	0xbc5e4d5c	-0.013568249
45	0xbda044a1	-0.0782559
46	0xbdb1fadf	-0.08690428
47	0xbd7e2e7e	-0.062056057
48	0xbdde8486	-0.108651206
49	0xbaacdb25	-0.0013187869
50	0x3c93746b	0.017999848
51	0x3e1108e3	0.14163546
52	0xbd2a778e	-0.041617922
53	0xbc986883	-0.018604523
54	0x3d91f176	0.07126133
55	0xbdb9fe2e	-0.09081684
56	0x3d7c74eb	0.06163494
57	0xbd7749d1	-0.06037313
58	0xbdcd4dad	-0.10024581
59	0x3e08ab3e	0.13346574
60	0xbd488fda	-0.048965313
61	0xbc296a64	-0.010340307
62	0xbb317d5b	-0.0027082774
63	0x3d8b8c34	0.06813851
64	0xbd7c28f3	-0.06156249
65	0x3cc96281	0.024583103
66	0x3d1acf5a	0.037795402
67	0xbdaa3f5a	-0.083128646
68	0xbdee50d2	-0.11636509
69	0xbe314969	-0.1731316
70	0xbe3755b7	-0.17903791
71	0x3d1cb461	0.03825796
72	0x3d8503ea	0.06494887
73	0xbd92c607	-0.07166677
74	0xbe1c1507	-0.15242396
75	0xbe1db2d1	-0.15400244
76	0xbb3706e6	-0.0027927696
77	0xbe0ecd9d	-0.13945623
78	0x3d003e8b	0.031309646
79	0xbc0c9b8f	-0.00858201
80	0xbdbfb122	-0.09359957
81	0xbd3fd15d	-0.046830524
82	0x3b00dcf6	0.0019662953
83	0xbcdc62d2	-0.02690259
84	0xbd256388	-0.040378124
85	0xbc9b9455	-0.018991629
86	0xbdf8586f	-0.12126242
87	0x3dffce7c	0.12490556
88	0xbe06765c	-0.13131088
89	0xbdc9fa1c	-0.09862158
90	0x3d0c22fb	0.034213047
91	0x3d4bb8dd	0.049736846
92	0xbd861028	-0.0654605
93	0x3cad4e04	0.021155365
94	0xbd99e904	-0.07515147
95	0xbda258c1	-0.07927085
96	0x3c892167	0.01673956
97	0xbe02ef03	-0.12786488
98	0xbe170f04	-0.14751822
99	0x3d4b9de4	0.049711123
100	0xbdc168ae	-0.09443794
101	0xbcabbe7e	-0.020964857
102	0xbbd07308	-0.006361369
103	0xbde5d9aa	-0.11223157
104	0xbd01a872	-0.031654783
105	0x3cd43901	0.025906088
106	0x3d5442b2	0.051821418
107	0x3d47bc9d	0.04876386
108	0xbe154071	-0.14575364
109	0xbd0f00d0	-0.034912884
110	0xbd29551c	-0.041340932
111	0x3d76b2db	0.060229164
112	0xbe1ac84d	-0.15115471
113	0xbd44c167	-0.048036005
114	0xbe19c983	-0.15018277
115	0xbe197e3e	-0.14989564
116	0x3d2d1d59	0.042264316
117	0xbe1fb952	-0.15598038
118	0x3d255abc	0.040369734
119	0xbd23b0f2	-0.03996367
120	0x3d160aea	0.036631502
121	0xbe0ac8a8	-0.13553107
122	0xbdf5acb9	-0.11995835
123	0xbd8a2759	-0.06745786
124	0x3d8c8c7e	0.06862734
125	0x3d120e84	0.035658374
126	0x3d340ec0	0.04395938
127	0xbce891b5	-0.028389791
128	0x3c26292c	0.010141652
129	0x3d2b2354	0.04178174
130	0xbd21d894	-0.039513186
131	0xbd1dcd0f	-0.038525637
132	0x3c66e2dd	0.014092174
133	0x3d877766	0.0661457
134	0xbd97fbc9	-0.07421071
135	0x3caf4299	0.02139406
136	0xbda0cc46	-0.07851462
137	0xbd2c89ce	-0.04212361
138	0xbc9188d9	-0.01776545
139	0x3e023c96	0.12718424
140	0x3de9a54e	0.114084825
141	0xbc9d4f05	-0.019202719
142	0x3c778ed3	0.015109736
143	0xbdfc7e97	-0.123288326
144	0xbd1aca69	-0.03779069
145	0xbd10f38b	-0.03538851
146	0xbd3e78e1	-0.046501998
147	0x3dd2cbc1	0.10292769
148	0xbd47e56c	-0.048802778
149	0x3ca9f45c	0.020746402
150	0x3d912d2a	0.070886925
151	0xbd877f8e	-0.06616126
152	0x3c46919d	0.012119678
153	0x3da9dc40	0.082939625
154	0x3d64cfda	0.055862285
155	0x3b5d2691	0.0033744911
156	0xbdd7f2a7	-0.10544329
157	0x3ce66c10	0.0281277
158	0x3ced2fd7	0.028953476
159	0x3c83a021	0.016067566
160	0xbd280a95	-0.041025717
161	0x3d2fa1fe	0.042879097
162	0x3d1252d7	0.035723533
163	0xbd81d18f	-0.06338798
164	0x3e0f3858	0.13986337
165	0xbd8c0fea	-0.06838973
166	0x3da8c873	0.08241358
167	0xbd1f50ef	-0.038895544
168	0x3e111e23	0.14171652
169	0x3de73ec1	0.11291266
170	0x3dc88211	0.09790433
171	0xbdb44f3a	-0.08804174
172	0xbd927457	-0.07151096
173	0xbe140687	-0.14455615
174	0x3d8514cb	0.064981066
175	0xbdb34743	-0.087538265
176	0x3e0bc9c6	0.13651189
177	0xbd92bee2	-0.07165314
178	0xbd71d9e4	-0.059045687
179	0xbe15f425	-0.14643915
180	0xbcb2a339	-0.021806346
181	0xbd1493f4	-0.03627391
182	0xbbb949f5	-0.0056545683
183	0xbe027cc3	-0.12742905
184	0x3e193229	0.14960541
185	0x3c8f3e22	0.017485682
186	0x3dead038	0.11465496
187	0xbe13cd35	-0.14433749
188	0xbdea7278	-0.114476144
189	0xbd01e8c3	-0.03171612
190	0xbdff3c58	-0.124626815
191	0xbd81ad09	-0.06331832
