program/deep_learning/16 - Recurrent Neural Network/model/multivar/weights_200.pth (torch, 257136 bytes, 13 tensors)

rnn.weight_ih_l0 f4 [192, 5]
0	0x3d9c4510	0.0763036
1	0x3bb917cf	0.00564859
2	0xbd7f7bac	-0.062373802
3	0xbe4f626e	-0.20252392
4	0x3e04540c	0.12922686
5	0xbdf6965c	-0.120403975
6	0x3a4a5a62	0.00077191566
7	0xbda2a4a7	-0.07941561
8	0xbd86f6b6	-0.06590025
9	0x3d9f1f23	0.07769611
10	0xbdf69006	-0.12039189
11	0x3da419a9	0.08012707
12	0xbd932552	-0.07184853
13	0x3ea86278	0.32887626
14	0xbdb1231c	-0.08649275
15	0xbb93307a	-0.004491863
16	0x3d06e5f0	0.03293413
17	0xbe08ce57	-0.13359962
18	0xbc879459	-0.01655023
19	0xbe2e72f0	-0.17036033
20	0x3d202e77	0.039106812
21	0xbe3aad89	-0.18230261
22	0x3e6159fe	0.22006986
23	0x3e75d54e	0.2400715
24	0x3d5cf07d	0.053940285
25	0xbdb7160f	-0.08939754
26	0xbbb89f78	-0.0056342445
27	0xbd7f12eb	-0.0622739
28	0x3e0280b4	0.12744409
29	0x3ddfc1d2	0.1092564
30	0x3e3a52ab	0.18195598
31	0xbd7b6ee6	-0.061385058
32	0x3d4e767e	0.05040597
33	0x3e02f9a8	0.12790549
34	0xbd2bf5c3	-0.041982424
35	0xbda6a0eb	-0.081361614
36	0xbe70d70a	-0.23519531
37	0xbdc33f58	-0.09533566
38	0x3dd09984	0.10185531
39	0x3e0cb6d3	0.13741617
40	0x3dc85a92	0.097829
41	0xbd22ee4f	-0.03977805
42	0x3ddfdd69	0.109309025
43	0x3cca250f	0.024675874
44	0x3b6b32eb	0.0035888504
45	0xbd6109f0	-0.054941118
46	0xbdc957eb	-0.09831222
47	0x3d91f026	0.07125883
48	0x3de7e0a1	0.113221414
49	0xbab1a115	-0.0013552035
50	0xbdcfae6d	-0.10140691
51	0xbd3b026d	-0.04565661
52	0x3dc9ec58	0.09859532
53	0x3e01f042	0.12689307
54	0xbcf577f7	-0.02996443
55	0xbdc5f92e	-0.09666668
56	0x3d9f833b	0.07788702
57	0xbb1f2fad	-0.0024289892
58	0x3d739073	0.05946393
59	0x3e104b9a	0.1409134
60	0x3bd4757a	0.006483731
61	0x3de1b427	0.110206895
62	0xbdb94bf1	-0.09047688
63	0xbe21cdb0	-0.1580112
64	0xbcf0e4c0	-0.029405951
65	0x3dd48d6b	0.10378536
66	0xbdca20dd	-0.098695494
67	0x3e2d91c3	0.16950135
68	0xbdc2794f	-0.09495794
69	0x3c8f8923	0.017521447
70	0x3d8c42d7	0.06848686
71	0xbdc7c679	-0.097546525
72	0x3eb3d8ea	0.3512643
73	0x3df832c5	0.121190585
74	0x3e57847e	0.21046636
75	0x3d68fad6	0.05687984
76	0xbe19a659	-0.15004863
77	0xb8a3cc94	-7.810551e-05
78	0xbdfc48d6	-0.1231858
79	0x3e05edcd	0.13078995
80	0x3dd8df0f	0.1058942
81	0xbe1c439a	-0.15260163
82	0x3d93e760	0.07221866
83	0x3e31f1ff	0.1737747
84	0x3de656bd	0.11247013
85	0xbdd9e71c	-0.10639784
86	0x3c47ecdc	0.012202468
87	0x3d8057f1	0.062667735
88	0xbd075d5a	-0.03304801
89	0xbd949ec5	-0.072568454
90	0x3deaacdb	0.11458751
91	0x3d91ae84	0.07113364
92	0xbd916058	-0.07098454
93	0xbdab1e24	-0.08355358
94	0x3dbe8299	0.09302253
95	0xbd7ba5fb	-0.06143759
96	0x3d647b7e	0.055781834
97	0xbd03ed99	-0.032209013
98	0x3deee860	0.11665416
99	0x3df913a3	0.121619485
100	0xbd960eca	-0.073270395
101	0x3e26a9b0	0.16275668
102	0xbe897a58	-0.26851153
103	0x3c5b2ada	0.013376916
104	0x3e231e66	0.15929565
105	0x3cc47928	0.023983553
106	0x3d429081	0.04750109
107	0x3e08b523	0.13350348
108	0x3cbc510d	0.022987867
109	0xbc01d384	-0.007923964
110	0x3e2b8689	0.1675054
111	0x3dd2d8b5	0.1029524
112	0x3e10b8e0	0.14133024
113	0x3e0c3cb0	0.13695025
114	0xbe10ebd7	-0.14152466
115	0xbdf471de	-0.11935781
116	0x3cda3ae8	0.026639417
117	0x3d146dce	0.03623753
118	0x3d2a3ccd	0.04156189
119	0x3cd5f9fa	0.026120175
120	0x3da621a9	0.08111889
121	0xbc007b7e	-0.007841943
122	0x3dece8f0	0.11567867
123	0x3d024d64	0.031812087
124	0x3cf4b8bd	0.029873246
125	0x3c87c063	0.01657123
126	0xbe8300fc	-0.2558669
127	0x3eba9000	0.36437988
128	0x3e71185c	0.23544449
129	0xbd797459	-0.060901973
130	0x3e346364	0.1761604
131	0xbe166234	-0.14685899
132	0xbdc312ec	-0.095250934
133	0xbbcc1c3e	-0.0062289527
134	0xbd90d571	-0.07071961
135	0x3df76e32	0.12081565
136	0xbd99d6d2	-0.07511677
137	0xbc7c84e6	-0.015412545
138	0x3d67a300	0.056551933
139	0x3dfb4276	0.12268536
140	0xbd22c534	-0.03973885
141	0xbe24c7dd	-0.16091867
142	0x3e1d7aae	0.1537883
143	0x3da9d797	0.082930736
144	0x3d0e414d	0.034730244
145	0x3d0c65ff	0.03427696
146	0xbda32391	-0.07965768
147	0xbcdda62c	-0.027056776
148	0xbbb550f3	-0.0055333315
149	0x3e04c5db	0.12966101
150	0x3d9095d0	0.070598245
151	0xbd05864b	-0.032598775
152	0xbe17d89a	-0.1482872
153	0x3cce2a1f	0.02516657
154	0xbbe44db3	-0.0069672703
155	0xbd90034f	-0.07031881
156	0x3dc59505	0.09647564
157	0x3e1cb398	0.15302885
158	0xbba7143c	-0.0050988477
159	0xbd8ce08b	-0.06878766
160	0x3e695176	0.22784981
161	0xbe1a2f93	-0.1505721
162	0x3e5b39ef	0.21408819
163	0x3e5e1b51	0.21690108
164	0xbb2e8195	-0.002662753
165	0x3ddb1d5d	0.1069896
166	0xbd0ab87c	-0.033867344
167	0xbd5011d2	-0.050798245
168	0xbcf5cb38	-0.030004129
169	0x3d340acf	0.04395562
170	0x3d83aacc	0.06429061
171	0xbe9a31b5	-0.30116048
172	0x3e572dc5	0.21013553
173	0x3e539957	0.20663963
174	0xbdf64b79	-0.12026114
175	0x3d8fd8a2	0.07023741
176	0xbdebb9c0	-0.115100384
177	0xbd88852e	-0.06666027
178	0x3d769782	0.060203083
179	0x3db25067	0.08706742
180	0xbe040cb6	-0.12895474
181	0xbba144de	-0.0049215397
182	0x3da2b7c0	0.07945204
183	0x3da8cabb	0.08241793
184	0xbe5d5566	-0.21614608
185	0x3e1144ae	0.14186355
186	0xbe319671	-0.17342545
187	0x3cb4d9c3	0.022076493
188	0x3dee6830	0.11640966
189	0x3d8814c3	0.06644585
190	0xbe05309a	-0.13006821
191	0xbd3bb985	-0.045831222
192	0xbdc841f9	-0.09778208
193	0x3e60aa32	0.21939924
194	0xbd7c4e42	-0.06159807
195	0x3c96046b	0.018312654
196	0xbda3dba3	-0.08000877
197	0x3e61ee02	0.22063449
198	0x3d44a70d	0.048010875
199	0x3cde91b7	0.027169092
200	0x3dedc1d6	0.11609237
201	0x3df20032	0.118164435
202	0xbe7fa7db	-0.24966376
203	0x3d8f83ba	0.07007547
204	0x3dbe5fc1	0.09295607
205	0x3d269d53	0.04067738
206	0xbe2d7637	-0.16939627
207	0xbe049a71	-0.1294954
208	0x3e3b73f7	0.18305956
209	0xbddc2526	-0.10749273
210	0xbcf331c2	-0.029686812
211	0xbdc9e9d2	-0.09859051
212	0x3db7d987	0.08977037
213	0x3d081232	0.033220477
214	0xbd2cd5b3	-0.042195987
215	0x3b31ff2c	0.002716015
216	0xbceb5692	-0.028727803
217	0x3e89f13a	0.26941854
218	0x3ca48b94	0.020086087
219	0x3ba6bf34	0.005088711
220	0x3e126929	0.14297928
221	0xbc88f9e8	-0.016720727
222	0xbd2a9234	-0.041643336
223	0x3dd6d34e	0.10489522
224	0x3d32e014	0.04367073
225	0xbcdd60e1	-0.027023735
226	0x3e1feced	0.15617724
227	0x3cc70566	0.024294566
228	0x3d0aa952	0.033852883
229	0xbe3b6968	-0.18301928
230	0x3dddbd28	0.10827094
231	0xbde4af4a	-0.11166246
232	0x3e0e52a5	0.13898714
233	0x3e319cef	0.17345022
234	0x3d110df8	0.035413712
235	0x3d194500	0.03741932
236	0x3e5456bd	0.20736213
237	0x3d29757c	0.041371807
238	0xbe3b1b3b	-0.18272106
239	0x3e21a313	0.15784864
240	0xbb84ecc6	-0.004056546
241	0x3d7ce4b0	0.06174153
242	0x3daf9930	0.0857414
243	0xbe212561	-0.15736915
244	0xbb001f8d	-0.0019550056
245	0x3d47d5a1	0.048787717
246	0xbc26a090	-0.010170117
247	0xbd7f77e7	-0.062370207
248	0x3e68fbce	0.22752306
249	0xbc6e90cf	-0.014560892
250	0xbdaf4369	-0.08557779
251	0x3c53f727	0.012937344
252	0xbd772ece	-0.06034737
253	0x3dc21711	0.09477056
254	0xbd7fe1bf	-0.062471148
255	0x3dfce1ae	0.123477325

rnn.weight_hh_l0 f4 [192, 64]
0	0xbd53acec	-0.051678583
1	0x3cab63dd	0.020921642
2	0x3dee3bf1	0.11632527
3	0x3ce58a06	0.028019916
4	0xbd5d6a1a	-0.054056264
5	0x3e0384ef	0.12843679
6	0xbd2a1f5a	-0.041533805
7	0xbd919f09	-0.07110412
8	0x3b0900b0	0.002090495
9	0x3d5cf25a	0.053942062
10	0x3d93f4ff	0.07224464
11	0xbd9949b9	-0.074847646
12	0x3dcc6c56	0.09981601
13	0xbdbee939	-0.093218274
14	0x3d7844ce	0.060612492
15	0xbca83874	-0.020534731
16	0xbdc05e9f	-0.093930475
17	0xbe07ca2b	-0.13260715
18	0xbdd4ffe4	-0.1040037
19	0x3d6f91cd	0.058488656
20	0x3c7a10ee	0.015262825
21	0xbd42ae3d	-0.047529448
22	0xbcd084a2	-0.02545387
23	0xbca87cc9	-0.020567315
24	0x3d812221	0.06305338
25	0x3dbc4d6d	0.09194455
26	0x3cabbb48	0.020963326
27	0xbe177803	-0.14791875
28	0x3d48968e	0.048971705
29	0x3cf05e7f	0.029341934
30	0xbc9518c1	-0.01820028
31	0xbd3fabf1	-0.046794835
32	0x3d7d3b84	0.061824337
33	0x3d70da0b	0.058801692
34	0xbe9a2d47	-0.3011267
35	0x3dbaf573	0.09128847
36	0x3c9fe8d9	0.01952021
37	0x3d51904c	0.051163003
38	0xbc0e70f4	-0.008693922
39	0x3de1fe3c	0.110348195
40	0x3c174497	0.009232662
41	0xbe08f4cb	-0.13374631
42	0x3df6e90a	0.120561674
43	0xbd3f98e6	-0.046776675
44	0x3db14eff	0.086576454
45	0x3d86fc7b	0.065911256
46	0xbd59dd48	-0.053189546
47	0x3d1764ca	0.036961354
48	0xbc2ae5d8	-0.010430776
49	0x3d8a5b60	0.0675571
50	0xbd748839	-0.059700225
51	0xbceaec50	-0.028677136
52	0xbc7c4f7d	-0.015399811
53	0x3e16f809	0.14743055
54	0xbd13d132	-0.036088176
55	0x3cc06941	0.023487689
56	0xbd43ac79	-0.047771905
57	0x3dae50e3	0.08511522
58	0x3de9041e	0.113777384
59	0x3da4dc91	0.08049882
60	0xbcbf9406	-0.023386013
61	0x3ddcbaa5	0.10777787
62	0x3d65ba0a	0.056085624
63	0xbcd44267	-0.02591057
64	0x3cd5c7e5	0.026096294
65	0x3dcaadfd	0.09896467
66	0x3d69f3a8	0.057117134
67	0xbd6db22e	-0.058031254
68	0x3d97bbd6	0.07408874
69	0x3d894de3	0.06704309
70	0xbc873735	-0.016505817
71	0x3dfc2bbf	0.123130314
72	0xbe16adb2	-0.14714697
73	0x3e12c86a	0.14334264
74	0x3dbddc14	0.09270492
75	0x3d846f41	0.064665325
76	0x3d8b7a96	0.06810491
77	0xbd62b11f	-0.055344697
78	0xbcf2978f	-0.029613284
79	0x3df88f87	0.12136751
80	0x3c02388b	0.007948051
81	0x3da468e9	0.080278225
82	0xbd3b4df7	-0.04572865
83	0x3d5c4ba4	0.053783074
84	0xbd34ffa2	-0.044189103
85	0x3dcd70fc	0.10031316
86	0xbc95c9fb	-0.018284788
87	0x3d7eff19	0.062255
88	0xbd1d422b	-0.03839318
89	0x3db42cd5	0.087976135
90	0xbd364653	-0.04450066
91	0xbd93e778	-0.072218835
92	0xbe001224	-0.1250692
93	0x3c945b68	0.018109992
94	0x3d08b6ae	0.033377342
95	0x3d8992d7	0.067174606
96	0xbda0ff90	-0.07861245
97	0xbdaac5ce	-0.083385095
98	0xba77a3f5	-0.0009446734
99	0x3d3088c2	0.043099172
100	0xbda07851	-0.078354485
101	0xbd87d309	-0.06632049
102	0xbde810e8	-0.113313496
103	0xbd1b9856	-0.037987076
104	0xbda5481a	-0.08070393
105	0xbcf7eec9	-0.030265229
106	0x3d40bf7e	0.04705762
107	0xbd0c7274	-0.03428884
108	0x3d670913	0.05640514
109	0xbd28e91b	-0.04123793
110	0xbd7b0e3e	-0.06129288
111	0x3ddda7bc	0.108230084
112	0xbdebf97d	-0.115221955
113	0xbdd0363f	-0.101665966
114	0x3d6ea816	0.058265768
115	0xbd76fe5f	-0.06030118
116	0xbdb14ec5	-0.08657602
117	0x3d3f0f64	0.046645537
118	0x3d006913	0.031350207
119	0x3d67cd25	0.056592125
120	0xbd065112	-0.03279216
121	0xbcb7ba0a	-0.022427578
122	0x3ce81436	0.02832995
123	0x3dbc6735	0.09199373
124	0xbd8aafb8	-0.06771797
125	0xbe194df4	-0.14971143
126	0xbdc7d4d3	-0.0975739
127	0xbc4989f4	-0.012300957
128	0x3d1db0e8	0.03849879
129	0x3d2b3ed1	0.041807953
130	0xbe0ebca3	-0.13939147
131	0xbccbac45	-0.024862418
132	0x3d1222ad	0.0356776
133	0x3d440d36	0.04786416
134	0xbd8bf4de	-0.06833814
135	0xbcc9c410	-0.024629623
136	0xba997edf	-0.0011710784
137	0xbbdb2610	-0.006687887
138	0xbcd9f38c	-0.02660539
139	0x3db118d7	0.08647316
140	0xbd666705	-0.05625059
141	0x3d8e9e9f	0.06963848
142	0xbadec28d	-0.0016995237
143	0xbcc1e1f9	-0.023667322
144	0xbcb047fa	-0.021518696
145	0x3b0c2d68	0.002138937
146	0x3dc1b46f	0.09458243
147	0xbe1a6dc4	-0.15080935
148	0xbdf20c10	-0.11818707
149	0xbd8c3b8c	-0.06847295
150	0xbbf9a782	-0.0076188454
151	0xbdbe0848	-0.09278923
152	0xbe3d9a69	-0.18515934
153	0x3d97b13e	0.07406853
154	0xbd397d67	-0.04528561
155	0x3e08fb06	0.13377008
156	0x3cfbb401	0.030725481
157	0x3c67007c	0.014099237
158	0x3d86ee29	0.06588394
159	0x3cd059f7	0.025433524
160	0xbb85e1e1	-0.0040857648
161	0x3dbce81b	0.09223958
162	0x3d25e5d1	0.040502373
163	0x3dc97b7e	0.098380074
164	0x3e0785fd	0.13234706
165	0xbd42cf87	-0.047561195
166	0x3df55575	0.1197919
167	0xbe18e374	-0.14930516
168	0x3d9b74d9	0.07590646
169	0x3db104b0	0.08643472
170	0xbd71c170	-0.059022367
171	0xbd7d1017	-0.061782923
172	0x3d45091d	0.048104394
173	0xbc24f4fb	-0.0100681735
174	0xbd0137b6	-0.03154727
175	0x3dc7c598	0.09754485
176	0x3cab70af	0.020927755
177	0xbda53535	-0.08066789
178	0x3e17c4fc	0.14821237
179	0x3d4fad5c	0.050702438
180	0x3dc63b77	0.09679311
181	0xbbf1da82	-0.0073807845
182	0x3d8658db	0.065599166
183	0x3e183133	0.14862518
184	0xbe01ca34	-0.1267479
185	0x3ca46e8a	0.02007224
186	0x3d0ae68b	0.03391127
187	0x3a266af2	0.00063483336
188	0x3d37549b	0.04475842
189	0x3ac63819	0.001512292
190	0x3ddc29a3	0.10750129
191	0x3e155f0a	0.14587036
192	0xbe2aa4ff	-0.16664504
193	0x3dbbe4ae	0.091744766
194	0x3e212159	0.15735377
195	0x3cc4ea1e	0.024037417
196	0x3e3d3a0b	0.18479173
197	0x3cea33b7	0.028589113
198	0xbdb16231	-0.08661307
199	0x3d6dbc4f	0.058040913
200	0x3e2a4214	0.1662677
201	0xbb960313	-0.004578003
202	0x3d9c9c7f	0.07647037
203	0xbd1d39a3	-0.038385045
204	0xbd26888e	-0.040657572
205	0xbe018325	-0.12647684
206	0x3e798cd0	0.24370122
207	0x3d3f39f9	0.046686146
208	0xbd537de8	-0.051633745
209	0xbc947c05	-0.018125543
210	0xbe0d7ca0	-0.13817072
211	0x3dd874c2	0.10569145
212	0xbd75518e	-0.05989223
213	0xbd4d4d93	-0.05012281
214	0xbe2ce5dd	-0.16884561
215	0x3e72fb54	0.23728687
216	0xbda260bd	-0.079286076
217	0x3d150878	0.03638503
218	0x3b268621	0.0025409537
219	0xbddaa07d	-0.10675142
220	0x3b81d744	0.0039624292
221	0x3d3d0250	0.046144783
222	0xbe03d709	-0.12874998
223	0xbd9f5fd4	-0.0778195
224	0x3cd3474d	0.025790835
225	0x3de0e884	0.10981849
226	0xbe776ea9	-0.24163307
227	0x3da5b3b2	0.08090915
228	0x3cb8db35	0.022565464
229	0x3e045e94	0.12926704
230	0x3caf898b	0.02142789
231	0x3e3252ec	0.17414445
232	0x3da25c05	0.079277076
233	0x3dfd666c	0.12373051
234	0xbb9defda	-0.0048198523
235	0x3e6d28bb	0.23160069
236	0xbc1d8405	-0.009613995
237	0xbde7bf61	-0.113157995
238	0xbdc8a564	-0.09797171
239	0x3d81855f	0.06324267
240	0xbd1ed099	-0.038773153
241	0x3d4f3cf3	0.050595235
242	0x3d2aabd1	0.041667763
243	0xbde13613	-0.10996642
244	0xbdccc4f9	-0.09998507
245	0x3caf7417	0.02141766
246	0x3dcf19db	0.101123534
247	0x3c5a0439	0.013306671
248	0x3c1eb1fc	0.0096859895
249	0xbc9ce32b	-0.01915129
250	0xbd402664	-0.046911612
251	0xbe1bb969	-0.15207447
252	0xbdbf60b2	-0.09344615
253	0xbbf9a1c2	-0.00761816
254	0xbd97e497	-0.07416647
255	0x3d72b19a	0.059251405

rnn.bias_ih_l0 f4 [192]
0	0xbe2b0c63	-0.16703944
1	0x3dd49cb9	0.10381455
2	0x3e31015a	0.17285672
3	0x3d74c5c8	0.05975893
4	0x3cfc2b33	0.030782318
5	0xbcfbf2d4	-0.030755438
6	0x3ddabd1d	0.10680602
7	0x3d0cc9fd	0.03437232
8	0x3ca67cd8	0.020323202
9	0x3cdbb5ac	0.026820026
10	0xbd4bb830	-0.0497362
11	0xbb9af74c	-0.004729187
12	0xbe71f705	-0.23629387
13	0xbd4d40ee	-0.05011075
14	0x3e22c3f0	0.15895057
15	0x3d5f47b4	0.05451174
16	0x3e16a429	0.1471106
17	0xbcddff05	-0.027099142
18	0xbdb3f1ae	-0.08786331
19	0x3d957064	0.072968274
20	0xbdefd4be	-0.11710499
21	0x3e29ba25	0.16574915
22	0x3e0237af	0.12716554
23	0xbb854614	-0.004067192
24	0x3d89a1f2	0.06720342
25	0x3e279538	0.16365516
26	0xbd20c80b	-0.039253276
27	0x3d94ca43	0.07265141
28	0xbdbcb91e	-0.09214996
29	0xbe527388	-0.20551884
30	0xbd8dd235	-0.069248594
31	0xbcfe1f40	-0.03102076
32	0x3dbe7665	0.09299926
33	0xbc921217	-0.017830892
34	0x3dcc7985	0.099841155
35	0xbbd7a8dd	-0.0065814094
36	0xbdaae9ee	-0.083454
37	0x3d097bbe	0.033565275
38	0x3e619ea8	0.22033179
39	0x3ce5cac9	0.028050797
40	0x3cc8787d	0.024471516
41	0x3e00433f	0.12525652
42	0x3d6e50b5	0.058182437
43	0x3e088b5f	0.13334416
44	0x3d02bb15	0.031916697
45	0xbc0fe223	-0.008781943
46	0xbd0de552	-0.034642525
47	0x3d1bba8e	0.03801971
48	0xbcb3c4e8	-0.021944478
49	0x3d7e01a1	0.062013272
50	0x3d997c22	0.074943796
51	0x3daab56b	0.08335384
52	0xbdf16c11	-0.1178819
53	0xbddde5cd	-0.10834847
54	0x3c45cc2c	0.012072604
55	0xbdfebf74	-0.124388605
56	0x3de3d719	0.11125011
57	0x3be5a60c	0.0070083197
58	0xbd0a2391	-0.033725325
59	0x3cf01bfc	0.029310219
60	0x3d8a5532	0.06754531
61	0x3de596ce	0.11210404
62	0xbde49e09	-0.11162955
63	0x3d8eb96f	0.069689624
64	0xbd636df9	-0.0555248
65	0xbdfcd40f	-0.123451345
66	0x3d316d46	0.043317102
67	0xbe0df76e	-0.13863918
68	0xbe1bcb92	-0.15214375
69	0x3cc20d61	0.02368802
70	0xbde69c44	-0.11260274
71	0xbc818f7c	-0.015815489
72	0xbd504a84	-0.050852314
73	0xbe143016	-0.14471468
74	0xbd825292	-0.06363405
75	0xbe22d424	-0.15901238
76	0x3d63c9fc	0.05561255
77	0x3df84b45	0.121237315
78	0x3c2f4112	0.010696666
79	0x3dc1068e	0.09425078
80	0xbdea48eb	-0.11439689
81	0xbe199cdf	-0.15001248
82	0xbdfc847c	-0.12329957
83	0xbddc6bf5	-0.10762779
84	0xbdec3527	-0.115335755
85	0xbc8bc9a9	-0.017063932
86	0xbd9e9b03	-0.0774441
87	0xbd8493ea	-0.06473525
88	0xbd93a5a3	-0.07209327
89	0xbdabf5ae	-0.08396469
90	0xbc7dcc4e	-0.015490605
91	0xbd7d641e	-0.061863057
92	0x3af0664d	0.0018341035
93	0xbdbd597c	-0.092455834
94	0x3dea2d04	0.11434367
95	0x3d6d3562	0.057912238
96	0x3c3cffc6	0.0115355905
97	0xbb2e9ba9	-0.0026643074
98	0x3d5a3c81	0.053280357
99	0xbd4e1e90	-0.050322115
100	0xbd5184fc	-0.051152214
101	0xbcdb2c6c	-0.02675458
102	0xbdec5790	-0.11540139
103	0x3bad4a51	0.0052884
104	0xbdcbb447	-0.099464945
105	0xbdb3d469	-0.087807484
106	0xbdf81964	-0.12114218
107	0x3cf1b92b	0.02950724
108	0xbe446ae2	-0.19181398
109	0xbe050a36	-0.12992176
110	0x3da4f473	0.080544375
111	0xbd173d53	-0.036923718
112	0x3d5cc028	0.053894192
113	0x3c7914e1	0.015202732
114	0x3d3e53c6	0.04646661
115	0x3e031328	0.12800276
116	0x3bb5d596	0.005549143
117	0xbe3d5b4a	-0.18491855
118	0xbdc1b3a0	-0.09458089
119	0xbd98e2ce	-0.074651346
120	0x3dbf1e17	0.09331911
121	0xbddc41da	-0.10754748
122	0x3d2df7da	0.042472698
123	0xbe460d43	-0.19340996
124	0xbd25c669	-0.04047242
125	0xbd453e4b	-0.04815511
126	0xbd2d270a	-0.04227356
127	0xb9ad2150	-0.0003302195
128	0x3dc3b9bf	0.09556913
129	0x3d053f78	0.03253123
130	0xbdf2d960	-0.11857867
131	0x3d98bb97	0.07457655
132	0xbe2304e3	-0.15919833
133	0xbd1e3664	-0.03862609
134	0x3d7e8633	0.0621397
135	0x3d338003	0.043823253
136	0xbd6647a0	-0.05622065
137	0x3d9c625e	0.076359496
138	0xbe023214	-0.12714416
139	0xbdbdfa58	-0.09276265
140	0x3cac245c	0.021013431
141	0x3e435f33	0.19079284
142	0x3d2fbc85	0.042904396
143	0x3d9bc15b	0.07605239
144	0xbcd5c0ef	-0.026092974
145	0xbcad6e66	-0.021170806
146	0xbccc2787	-0.024921192
147	0xbe23ca8e	-0.15995237
148	0x3cd6611f	0.026169358
149	0x3d6c8a19	0.057748888
150	0x39a6ebd2	0.00031837687
151	0xbd9ea644	-0.077465564
152	0x3d419d8e	0.047269396
153	0xbe6a1312	-0.22858837
154	0x3d7440d4	0.059632137
155	0x3d65887d	0.05603837
156	0x3d45491e	0.048165433
157	0xbd8938bf	-0.067002766
158	0xbd8ae193	-0.06781306
159	0xbd74fb07	-0.05980971
160	0xbdb44621	-0.088024385
161	0xbcaca33d	-0.021073932
162	0x3e71e1a4	0.23621231
163	0x3c9ee892	0.019398008
164	0xbd7eec4f	-0.06223708
165	0x3d12e146	0.03585937
166	0xbd1e0638	-0.03858015
167	0xbdf99161	-0.12185932
168	0x3e0c55dd	0.13704629
169	0xbd8fc779	-0.07020468
170	0xbd12ca9f	-0.035837766
171	0xbdbd6fb8	-0.09249824
172	0xbe273028	-0.16326964
173	0x3dde6fbd	0.10861156
174	0x3da12825	0.07868985
175	0xbdd088a7	-0.10182314
176	0x3cfcb251	0.030846747
177	0xbd8ea751	-0.06965507
178	0x3d46df6c	0.048552915
179	0xbdb2fb3d	-0.08739326
180	0xbd65867e	-0.056036465
181	0xbd46ca87	-0.04853299
182	0xbd9fe50f	-0.07807361
183	0x3dbbcb7c	0.09169671
184	0xbddd6c7d	-0.10811708
185	0xbd06a613	-0.032873224
186	0xbd09f324	-0.033679143
187	0x3d8e25a3	0.069407724
188	0xbd8d6824	-0.06904629
189	0xbe05189d	-0.1299767
190	0xbcaf48aa	-0.021396954
191	0x3e04e008	0.12976086

rnn.bias_hh_l0 f4 [192]
0	0xbbe29be8	-0.006915558
1	0x3b988259	0.0046542105
2	0x3d89a8bc	0.06721637
3	0x3d05552a	0.032551922
4	0x3cf87841	0.030330779
5	0xbd8d0d0d	-0.06887255
6	0x3d985d00	0.07439613
7	0x3e11cc54	0.14238101
8	0x3d218067	0.039429095
9	0xbdfd9665	-0.12382201
10	0xbd8b3fab	-0.06799253
11	0x3e022406	0.12709054
12	0xbe377fb0	-0.17919803
13	0xbbf25b83	-0.007396163
14	0x3e4025bf	0.18764399
15	0x3dc1dead	0.094663
16	0x3dae3a67	0.08507233
17	0x3d4086a8	0.04700342
18	0x3d7fb4bc	0.06242822
19	0x3de0e5d1	0.10981334
20	0x3ceb4464	0.028719135
21	0x39fb6d2b	0.00047955787
22	0x3bab857c	0.0052344184
23	0xbd288ec8	-0.04115179
24	0x3dc6c250	0.09705031
25	0x3e8950ca	0.2681945
26	0x3de28ec5	0.110623874
27	0x3e005151	0.1253102
28	0xbd9fc3d4	-0.07801023
29	0xbe0eaafc	-0.13932413
30	0x3d995923	0.074877046
31	0xbd32a730	-0.043616474
32	0x3d4216d4	0.04738505
33	0xbd9ab645	-0.075542964
34	0x3da39664	0.07987669
35	0xbd568784	-0.05237533
36	0xbddc29a7	-0.10750132
37	0x3e0921d7	0.13391815
38	0x3d8abf65	0.06774787
39	0x3d74ae0a	0.05973629
40	0xbdbf6184	-0.093447715
41	0xbb73159b	-0.0037091735
42	0x3d84f082	0.06491186
43	0x3c91142a	0.01770981
44	0x3de6c573	0.11268129
45	0x3d5550d5	0.05207904
46	0x3cf1033d	0.02942049
47	0xbda5b360	-0.08090854
48	0xbddfa813	-0.109207295
49	0x3e2484e2	0.16066316
50	0x3da950a1	0.08267332
51	0x3c84fa2d	0.016232574
52	0xbc8e7412	-0.017389331
53	0x3d998e66	0.074978635
54	0xbd197c09	-0.037471805
55	0xba633c99	-0.00086683925
56	0x3e21fd83	0.15819363
57	0x3da51ac4	0.08061746
58	0xbe2d8761	-0.16946174
59	0x3d81acfb	0.063318215
60	0xbe1687e6	-0.14700279
61	0xbd2d4e26	-0.042310856
62	0xbe247577	-0.16060434
63	0xbd3978f2	-0.045281358
64	0x3d82c793	0.06385722
65	0xbe3482e0	-0.1762805
66	0xbd1e9006	-0.03871157
67	0xbd48eac5	-0.04905202
68	0xbe1c811f	-0.15283631
69	0xbe3a140d	-0.18171711
70	0xbe451702	-0.19247058
71	0xbdab0e2b	-0.08352312
72	0xbd1b4c3d	-0.037914503
73	0xbd9b59ad	-0.07585464
74	0xbc817de4	-0.0158071
75	0xbdaab21c	-0.08334753
76	0x3a641f91	0.00087022135
77	0x3e00e8cf	0.1258881
78	0x3ba423ce	0.005009151
79	0xbc7bd570	-0.015370712
80	0xbdbc3b7a	-0.09191032
81	0x3d5b2709	0.053504024
82	0xbe0dd577	-0.13850962
83	0xbd6c7bac	-0.05773513
84	0xbcc0a72d	-0.023517216
85	0xbe1ee047	-0.15515243
86	0xbd4daabd	-0.050211657
87	0xbda3bead	-0.07995353
88	0xbd326008	-0.043548614
89	0x3da1d0a4	0.07901123
90	0xbd791e90	-0.060820162
91	0x3c938f07	0.018012537
92	0xbc38a554	-0.011269886
93	0xbe077df8	-0.13231647
94	0xbd56000f	-0.05224615
95	0x3de2107c	0.110383004
96	0x3dd66588	0.10468584
97	0x3d934f22	0.07192828
98	0xbcdbb864	-0.026821323
99	0xbde37d90	-0.111079335
100	0xbdef4471	-0.11682976
101	0x3c9f4bf6	0.0194454
102	0xbd04fe0c	-0.03246884
103	0xbcc21c9f	-0.023695288
104	0xbd9a9372	-0.07547654
105	0x3ddc16bc	0.10746524
106	0x3d1ea24d	0.038729
107	0xbd8520b6	-0.0650038
108	0xbdd04692	-0.1016971
109	0xbe351bb4	-0.17686349
110	0x3ce84fb2	0.028358314
111	0xbbc5756b	-0.00602596
112	0xbc0da695	-0.008645673
113	0xbd7402f1	-0.059573118
114	0xbda28a0b	-0.07936486
115	0x3e59e36c	0.21278161
116	0x3cf7704d	0.030204916
117	0xbccdd4df	-0.025125919
118	0xbdcf55f8	-0.10123819
119	0x3d47154b	0.04860429
120	0x3e0fe943	0.14053826
121	0xbe427a79	-0.18992032
122	0x3d36cca5	0.044628758
123	0xbe0919e9	-0.1338879
124	0xbc4b072a	-0.012391845
125	0x3e23b991	0.15988757
126	0xbddf8377	-0.10913747
127	0x3da73c5e	0.08165811
128	0x3d8a2c59	0.0674674
129	0xbe09dc0d	-0.13462849
130	0xbe3f06d5	-0.1865495
131	0xbd0209e9	-0.031747732
132	0xbe5dcda3	-0.21660475
133	0xbd4daed4	-0.050215557
134	0x3d4a6354	0.049411133
135	0xbb3159e7	-0.0027061643
136	0xbe11b52a	-0.14229265
137	0x3cdbaf32	0.026816938
138	0x3d5b983e	0.053611986
139	0x3bbea42d	0.005817911
140	0xbd62e108	-0.055390388
141	0x3da19f4f	0.07891714
142	0xbe299119	-0.16559257
143	0xbd8676f9	-0.06565661
144	0x3b409951	0.0029388259
145	0xbe038b36	-0.12846074
146	0x3e14878f	0.14504836
147	0xbe2057d3	-0.15658502
148	0xbd7188c0	-0.058968306
149	0x3d6b23c2	0.05740715
150	0x3ddb24f6	0.10700409
151	0xbe4035da	-0.18770543
152	0x3d89f17f	0.06735515
153	0xbe5ade15	-0.2137378
154	0xbd122441	-0.035679106
155	0x3d4f2be0	0.05057895
156	0x3c196332	0.009362029
157	0xbd98eaef	-0.07466685
158	0x3d882b79	0.06648917
159	0x3d950f0c	0.072782606
160	0xbe4a74bc	-0.19771093
161	0x3d685c4d	0.05672865
162	0x3e4faa41	0.2027979
163	0x3cc779b6	0.024350028
164	0xbbdb40d7	-0.006691079
165	0xbd874236	-0.066044256
166	0xbcb8b0c8	-0.022545233
167	0xbe7168f0	-0.23575187
168	0x3dc31424	0.09525326
169	0xbde68586	-0.11255936
170	0x3a81e634	0.0009910525
171	0xbdf13c4a	-0.11779077
172	0xbde0b910	-0.10972798
173	0xbdc3d27c	-0.09561631
174	0x3cfd9e39	0.030959236
175	0xbdce4020	-0.100708246
176	0x3c37dd90	0.011222258
177	0xbbfbe227	-0.0076868716
178	0xbbba3f5e	-0.0056838235
179	0xbd909bbe	-0.070609555
180	0xbd87f669	-0.06638796
181	0xbe0d63c3	-0.13807587
182	0x3ca33927	0.019924713
183	0x3dbc37c3	0.09190323
184	0x3d025391	0.031817976
185	0x3becf836	0.0072317375
186	0xbd1bb2ac	-0.03801219
187	0xbdc32430	-0.095283866
188	0x3cc2f367	0.023797704
189	0xbd149153	-0.036271404
190	0x3d181ac7	0.037134912
191	0x3dd3305f	0.103119604

rnn.weight_ih_l1 f4 [192, 64]
0	0xbd0a0738	-0.03369829
1	0xbd5f3200	-0.054491043
2	0x3caa392e	0.020779219
3	0x3d6c0043	0.057617437
4	0x3de1269f	0.109936945
5	0x3d627c27	0.055294182
6	0xbd71fe15	-0.059080202
7	0x3d7461db	0.059663635
8	0x3e367219	0.17816962
9	0xbb6edf41	-0.0036448988
10	0x3df2b9c1	0.11851836
11	0xbd82be08	-0.06383902
12	0xbde79ea6	-0.11309557
13	0xbe14fed9	-0.14550342
14	0x3df3b6e1	0.11900116
15	0x3cd269a4	0.025685139
16	0xbcd23c13	-0.025663411
17	0x3e0ecf0c	0.1394617
18	0xbdc6d79b	-0.09709092
19	0xbd82a7e5	-0.063796796
20	0x3bddd794	0.0067700837
21	0xbe067aa2	-0.13132718
22	0x3dd5544b	0.10416468
23	0x3ca09216	0.01960091
24	0xbcba74b1	-0.02276072
25	0x3ddd3310	0.10800755
26	0xbc4e89a7	-0.012606061
27	0xbdd3f38d	-0.10349188
28	0x3cc4e290	0.024033815
29	0x3c6f49e7	0.014605022
30	0x3dda361f	0.10654854
31	0xbcb8f524	-0.02257783
32	0x3e2b91b8	0.16754806
33	0xbd57e40f	-0.052707728
34	0xbe5ef80d	-0.21774311
35	0xbd9c2385	-0.07623962
36	0x3d51571d	0.05110847
37	0x3e09e711	0.13467051
38	0x3e134bdc	0.14384407
39	0x3c1e6d10	0.009669557
40	0xbdb016df	-0.08598112
41	0xbbce039f	-0.0062870528
42	0x3e002293	0.12513189
43	0xbbecc04b	-0.0072250715
44	0x3b63e505	0.0034773957
45	0xbd9064e4	-0.07050493
46	0x3cf592e5	0.029977271
47	0x3dee7035	0.116424955
48	0xbaffbf33	-0.0019511938
49	0x3d6d8914	0.057992056
50	0x3d5b9577	0.053609338
51	0x3d20296b	0.039102
52	0xbe0035b7	-0.1252049
53	0x3d226918	0.039651006
54	0xbd673efc	-0.05645655
55	0xbdf8cab8	-0.121480405
56	0x3ddbec62	0.10738446
57	0xbd36fc9e	-0.04467451
58	0xbdec49a2	-0.11537482
59	0x3d16e5a6	0.036840104
60	0x3de5c7d3	0.11219754
61	0x3c8faca9	0.017538385
62	0xbce34750	-0.027743965
63	0x3da23827	0.079208665
64	0x3dbb651e	0.09150146
65	0xbdc51cda	-0.096246436
66	0x3cadd0ba	0.021217693
67	0xbc8e4ec9	-0.017371552
68	0x3e092584	0.13393217
69	0xbc718285	-0.014740591
70	0xbd8ef403	-0.06980135
71	0xbdf497c2	-0.11943008
72	0x3d838cf6	0.064233705
73	0x3de3cb05	0.11122707
74	0xbdadd6aa	-0.084882095
75	0x3db047ff	0.08607482
76	0x3dbf2ac9	0.093343325
77	0x3d588a16	0.052866064
78	0x3db682c9	0.08911664
79	0x3db237a0	0.08702016
80	0xbdc09e20	-0.0940516
81	0x3da84de0	0.082179785
82	0x3dedff61	0.11620975
83	0x3dbfa1b0	0.09357011
84	0xbd76ee9e	-0.060286157
85	0x3dab5853	0.08366456
86	0xbb7e7fdc	-0.0038833534
87	0xbda8f5ca	-0.082500055
88	0x3de3e441	0.1112752
89	0xbd44de5e	-0.04806363
90	0xbd59d851	-0.05318481
91	0xbd982e37	-0.0743069
92	0xbc186961	-0.009302468
93	0x3d057a0c	0.032587096
94	0xbd018f14	-0.03163059
95	0x3e0a6b84	0.13517576
96	0x3dc8636e	0.0978459
97	0x3d0a4939	0.033761237
98	0xbd808ce4	-0.06276873
99	0xbc799955	-0.015234311
100	0xbcb15297	-0.021645827
101	0x3d91f346	0.07126479
102	0xbd26de61	-0.04073942
103	0xbd91be55	-0.07116381
104	0xbd662c80	-0.056194782
105	0x3e13c792	0.14431599
106	0x3c674dd4	0.014117677
107	0x3db38353	0.087652825
108	0x3cd3282b	0.02577599
109	0x3d555e6a	0.052091993
110	0xbd8278c8	-0.063706934
111	0x3cbd83aa	0.023134071
112	0xbdf4e4fd	-0.119577385
113	0x3dbf4db3	0.09340992
114	0x3db02506	0.08600812
115	0xbdb3f816	-0.08787553
116	0xbd97495b	-0.07387038
117	0xbd5c1b0b	-0.053736728
118	0xbdb3b1b0	-0.087741256
119	0x3d5f1712	0.05446536
120	0x3dd5e36d	0.10443769
121	0x3dab7fc8	0.08373982
122	0x3dca8a77	0.09889691
123	0xbdef08cc	-0.116716
124	0xbce05229	-0.027382927
125	0x3db5df02	0.08880426
126	0xbbc84a77	-0.0061123925
127	0xbddb3225	-0.10702924
128	0x3d85fe24	0.06542614
129	0xbd1ead03	-0.038739216
130	0xbda7b0a2	-0.08187987
131	0xbd82a4b1	-0.06379069
132	0x3d842867	0.06453019
133	0x3c5a496a	0.013323167
134	0xbdfbb1e6	-0.12289791
135	0x3cdb12f0	0.026742429
136	0xbd0f6985	-0.03501274
137	0x3dc1a591	0.094554074
138	0x3db0bf44	0.08630231
139	0xbcb5d21c	-0.022194915
140	0xbe047a64	-0.12937313
141	0x39fba15a	0.00047994667
142	0xbcfe1a67	-0.031018449
143	0x3d8524ec	0.06501183
144	0xbd1de738	-0.038550586
145	0x3d73f08e	0.059555583
146	0xbd4d7e93	-0.05016954
147	0xbc7f942c	-0.015599292
148	0x3d169949	0.036767278
149	0xbdd78e58	-0.10525197
150	0xbcd33dd0	-0.02578631
151	0xbd011459	-0.031513546
152	0x3db4f1a4	0.08835152
153	0xbd684890	-0.056709826
154	0xbd78bf1f	-0.060729142
155	0x3cc24358	0.023713753
156	0x3d44181c	0.047874555
157	0xbd97d213	-0.07413115
158	0x3e06bdf3	0.13158397
159	0xbd990b31	-0.07472838
160	0xbd9531a3	-0.07284858
161	0x3dc04506	0.09388165
162	0xbde69ff9	-0.11260981
163	0xbcc52477	-0.02406524
164	0xbdc33226	-0.095310494
165	0x3dbf2bb6	0.09334509
166	0x3b6bc995	0.0035978307
167	0xbd1b3944	-0.03789641
168	0x3dfed1f9	0.12442393
169	0x3d17e473	0.0370831
170	0xbd6557e6	-0.05599203
171	0x3dca5d94	0.0988113
172	0x3db2946d	0.08719716
173	0x3d32e625	0.043676514
174	0xbda27aa1	-0.07933546
175	0xbd4e7574	-0.05040498
176	0x3c65c07d	0.014022944
177	0x3cecdcb2	0.02891383
178	0x3d01da88	0.03170255
179	0x3d2c6878	0.042091817
180	0xbdb7d8c1	-0.089768894
181	0xbdd73365	-0.105078496
182	0xbd5984fb	-0.053105336
183	0x3dda3590	0.106547475
184	0x3ca52e92	0.020163808
185	0xbd0e44ad	-0.034733463
186	0x3dd5448a	0.104134634
187	0xbd3a6fe5	-0.045516867
188	0x3d86be49	0.06579263
189	0x3d90ad1e	0.070642695
190	0xbd5c0293	-0.053713392
191	0x3d02afeb	0.03190605
192	0xbde1b82e	-0.110214576
193	0xbdb92027	-0.09039336
194	0xbc6d5dbe	-0.014487682
195	0xbad64b71	-0.0016349388
196	0xbd4c45a5	-0.049871106
197	0x3d2e3417	0.042530145
198	0xbd832cd3	-0.06405034
199	0xbcc58746	-0.024112355
200	0x3d080fad	0.033218075
201	0x3d843209	0.06454856
202	0x3cd7f665	0.026362607
203	0x3e0154cb	0.12630002
204	0xbc6d11c2	-0.014469566
205	0x3bee6587	0.0072752866
206	0x3d0b83f0	0.034061372
207	0xbd2fc76a	-0.042914785
208	0x3dd670b0	0.10470712
209	0xbdda286b	-0.1065224
210	0x3d9133a1	0.070899256
211	0x3debe0ac	0.11517462
212	0xbd978b9c	-0.07399675
213	0x3d29eb5f	0.041484233
214	0xbd918308	-0.0710507
215	0xbcdc330f	-0.026879815
216	0xbda4f90f	-0.08055317
217	0x3e216e0c	0.15764636
218	0xbd9d6778	-0.07685751
219	0xbd79ead3	-0.06101496
220	0xbd9736bb	-0.07383486
221	0xbdc19b7e	-0.09453486
222	0x3db15fa6	0.086608216
223	0xbdf91894	-0.12162891
224	0xbd59b61b	-0.053152185
225	0x3db69e28	0.08916885
226	0xbe715e93	-0.23571233
227	0x3c8c8830	0.017154783
228	0xbcb29aba	-0.021802295
229	0xbdbf08cf	-0.09327852
230	0x3d93924f	0.072056405
231	0xbd04dc7f	-0.032436844
232	0x3cb55b1e	0.022138175
233	0xbca2b6f6	-0.019862633
234	0x3d39bd49	0.045346532
235	0x3d54a10b	0.051911395
236	0x3c643359	0.013928258
237	0xbde17a46	-0.1100965
238	0xbd2c39ff	-0.042047497
239	0x3d87b231	0.06625784
240	0x3c95b2b9	0.018273698
241	0x3cdee91d	0.027210766
242	0x3d8f3919	0.069933124
243	0x3a4e8afe	0.0007878988
244	0xbd863e0a	-0.06554802
245	0xbc8af6a5	-0.016963312
246	0xbd831c93	-0.064019345
247	0xbc84e85a	-0.016224075
248	0x3d883a7b	0.06651779
249	0xbd9e70f3	-0.07736387
250	0xbca12912	-0.019672904
251	0x3d8607a6	0.065444276
252	0xbdf8bf39	-0.12145848
253	0x3d44fd28	0.04809299
254	0xbdd9b218	-0.10629672
255	0xbca2725b	-0.01982992

rnn.weight_hh_l1 f4 [192, 64]
0	0x3d975db4	0.07390919
1	0xbc457495	-0.012051721
2	0x3dff2eb2	0.12460078
3	0x3d532e69	0.051557932
4	0xbd34b7e9	-0.044120703
5	0x3d12bd19	0.03582487
6	0xbdc370f6	-0.0954303
7	0xbde39fb3	-0.111144446
8	0x3dfb38f1	0.1226672
9	0x3dba553a	0.09098287
10	0x3c849327	0.016183449
11	0x3c75c1e8	0.014999844
12	0xbd988ffe	-0.07449339
13	0xbd8663b3	-0.06561985
14	0xbcc5060c	-0.024050735
15	0x3d0e4573	0.0347342
16	0xbd5565bd	-0.05209898
17	0x3dd39bfd	0.10332487
18	0xbd880726	-0.066419885
19	0xbbcc4f9b	-0.0062350756
20	0xbcd69d82	-0.026198152
21	0xbdb80aca	-0.08986433
22	0x3d2b21ac	0.04178016
23	0x3e15cb0f	0.14628242
24	0xbd85bef2	-0.065305606
25	0xbd986487	-0.07441049
26	0x3cc1e267	0.023667527
27	0x3db93a58	0.09044331
28	0x3dbd5c13	0.092460774
29	0xbd43cb6b	-0.047801416
30	0x3d162ee8	0.036665827
31	0xbd842cfb	-0.06453892
32	0x3d3569de	0.044290416
33	0xbd68cd92	-0.056836672
34	0x3d8641bd	0.06555507
35	0x3ddb1fff	0.10699462
36	0xbc711e92	-0.014716761
37	0xbda59d0d	-0.08086596
38	0x3e0ecb71	0.13944794
39	0x3dff8a0a	0.12477501
40	0xbd2b202f	-0.04177874
41	0x3de2722d	0.110569336
42	0xbdb7a17f	-0.0896635
43	0x3d117d9f	0.035520192
44	0xbd04be19	-0.032407854
45	0xbdee05f0	-0.11622226
46	0xbde97942	-0.11400081
47	0x3db11480	0.08646488
48	0x3dfe3e6f	0.12414252
49	0xbddb865a	-0.10718985
50	0x3de3d2e8	0.111242115
51	0x3c16f13d	0.009212789
52	0x3c2d3ce3	0.010573599
53	0x3cdc8d0b	0.026922723
54	0x3d1fc292	0.039003916
55	0xbd4d11f0	-0.050065935
56	0x3cab759c	0.020930104
57	0x3cb6a78c	0.02229669
58	0xbbf35ca2	-0.007426814
59	0xbde1d68d	-0.110272504
60	0xbd88bf89	-0.066771574
61	0xbda39521	-0.079874285
62	0x3e3937e1	0.18087722
63	0x3d87f3c3	0.06638291
64	0xbdba8556	-0.09107463
65	0xbc06c4c5	-0.008225624
66	0x3d4f97e0	0.05068195
67	0xbd5b3636	-0.053518496
68	0xbe03638e	-0.12830946
69	0x3db34921	0.087541826
70	0x3c69efbb	0.014278348
71	0x3d81a7c1	0.06330825
72	0xbcb6961b	-0.022288373
73	0x3e099b60	0.13438177
74	0x3e0599e6	0.13046989
75	0x3cd428ed	0.025898421
76	0xbd921acb	-0.071340166
77	0xbe132b96	-0.14372095
78	0x3d7467b7	0.059669223
79	0x3df327db	0.11872836
80	0x3e245a6d	0.1605012
81	0x3d856472	0.06513299
82	0xbc8e3b21	-0.01736218
83	0x3dc39571	0.09549988
84	0x3d033a41	0.032037977
85	0x3db1732a	0.08664544
86	0x3d9238f4	0.07139769
87	0xbd2d1c54	-0.042263344
88	0x3df6e6de	0.12055753
89	0x3dc8d4f4	0.098062426
90	0x3cdfdfb8	0.027328357
91	0xbd75cce8	-0.060009867
92	0x3e0a9a9a	0.13535538
93	0xbe131029	-0.14361633
94	0xbdf4d81a	-0.119552806
95	0xbd34acfa	-0.044110276
96	0xbd08c5b7	-0.03339168
97	0xbe468b5f	-0.19389103
98	0x3bbcdca7	0.0057636085
99	0x3e0b60de	0.1361117
100	0x3cdfb1cc	0.02730646
101	0x3e04a966	0.12955245
102	0xbd5ec17b	-0.054383736
103	0xbd9da7d3	-0.076980256
104	0xbe1fa5ba	-0.15590563
105	0x3d847f0f	0.06469547
106	0xbcbc3dc0	-0.022978663
107	0xbdb8d7f4	-0.09025565
108	0xbd2f756e	-0.0428366
109	0xbcb5722d	-0.02214917
110	0x3e09b39a	0.13447419
111	0x3d683a48	0.056696206
112	0xbd9556f4	-0.072919756
113	0xbe08e940	-0.13370228
114	0xbd056218	-0.032564253
115	0x3d556145	0.052094717
116	0x3c795358	0.015217625
117	0x3e2b9fd6	0.16760191
118	0x3d5dac76	0.05411955
119	0xbd8e986c	-0.06962666
120	0xbe0f70af	-0.14007829
121	0x3e039579	0.12849988
122	0xbc3a79ad	-0.011381549
123	0x3df26c8a	0.118371084
124	0x3d974a70	0.07387245
125	0x3d5c9ae6	0.05385866
126	0xbd4298c4	-0.04750897
127	0x3dae3e64	0.08507994
128	0xbc6b305b	-0.014354791
129	0xbdce01be	-0.10058926
130	0xbbb68321	-0.005569831
131	0x3ce5ea15	0.02806572
132	0x3d9f716c	0.077853054
133	0xbe05005a	-0.12988415
134	0x3c9ea1ab	0.019364199
135	0xbd9b7d6d	-0.075922824
136	0x3e016ae6	0.12638435
137	0x3da8f2e2	0.08249451
138	0xbb8e59b0	-0.0043441877
139	0x3d2f00a0	0.042725205
140	0x3d4daeab	0.050215404
141	0x3e025811	0.12728907
142	0x3c9ac314	0.018891849
143	0xbdd89aa3	-0.105763696
144	0xbc98bf09	-0.01864578
145	0xbe0fa691	-0.14028384
146	0x3d3ab52e	0.045582943
147	0xbdc6a0e0	-0.09698653
148	0xbde4f59a	-0.11179657
149	0x3c582853	0.013193208
150	0xbd91890c	-0.07106218
151	0x3cdc65d7	0.02690403
152	0x3cc47e47	0.023985995
153	0xbce357e7	-0.027751876
154	0x3c137a0c	0.009001266
155	0x3d7c0783	0.0615306
156	0x3d7d6b00	0.06186962
157	0x3d75156f	0.059834894
158	0x3dff26cd	0.124585725
159	0xbc83222d	-0.016007507
160	0xbc4426c1	-0.01197213
161	0x3d07d745	0.03316428
162	0xbd8ea508	-0.06965071
163	0xbd1b8324	-0.037966862
164	0xbdcd4d89	-0.10024554
165	0xbd83f7dc	-0.0644376
166	0x3daf2472	0.08551873
167	0xbdc742a9	-0.09729511
168	0x3d6f2f1f	0.058394548
169	0xbd0462f0	-0.032320917
170	0xbd89e134	-0.06732407
171	0xbd703f3d	-0.05865406
172	0x3d14b61b	0.03630648
173	0xbd43cfd3	-0.04780562
174	0xbd8c4069	-0.06848223
175	0xbdc4713a	-0.09591909
176	0x3ca7aed2	0.020469103
177	0x3db0b7d7	0.08628815
178	0x3cbbb7db	0.022914818
179	0x3d914cc6	0.070947215
180	0x3d1ddef4	0.038542703
181	0xbdc84c1e	-0.09780143
182	0xbd75500b	-0.059890788
183	0xbe0a6027	-0.13513242
184	0x3cd66451	0.026170881
185	0x3cd698de	0.02619594
186	0x3d46e062	0.048553832
187	0xbd3d6fc1	-0.046249155
188	0x3d81ee3b	0.06344267
189	0xbcdaf0b2	-0.0267261
190	0x3d966ed6	0.07345359
191	0x3d6fc575	0.05853792
192	0xbdd60b92	-0.104514256
193	0xbd685338	-0.05671999
194	0xbbaab8fa	-0.005210039
195	0xbcd7084a	-0.02624907
196	0xbcabac1e	-0.020956095
197	0xbc109202	-0.0088238735
198	0x3d978f5e	0.07400392
199	0x3dddf248	0.10837227
200	0xbcf00b1f	-0.029302178
201	0xbcf6a49b	-0.030107787
202	0x3e2bb3bc	0.16767782
203	0x3d5c5271	0.05378956
204	0x3d420b59	0.047374103
205	0xbe1bbb4b	-0.15208165
206	0x3dbb0d19	0.091333576
207	0xbdd859df	-0.105640166
208	0xbc0e847f	-0.008698582
209	0xbd302ee7	-0.04301348
210	0x3dd22919	0.10261745
211	0xbe0f5ca2	-0.1400018
212	0xbce56a08	-0.028004661
213	0xbd955442	-0.072914615
214	0xbc493b7e	-0.01228225
215	0x3e03ce3e	0.12871644
216	0x3dd978c8	0.1061874
217	0xbc06663e	-0.008203087
218	0xbe1408a4	-0.14456421
219	0x3cab1526	0.020884108
220	0xb9b7c3d3	-0.0003505038
221	0x3c077548	0.008267708
222	0xbde4dd98	-0.11175078
223	0xbd938505	-0.07203106
224	0xbdf1d937	-0.118090086
225	0xbd21094b	-0.039315503
226	0xbcc11100	-0.023567677
227	0xbd0f84a9	-0.035038624
228	0xbd15411f	-0.036439057
229	0x3e048250	0.12940335
230	0xbdda753b	-0.10666891
231	0x3d8cc547	0.06873565
232	0xbd5e7e02	-0.05431939
233	0xbd38a4f7	-0.045079198
234	0xbced5688	-0.028971925
235	0x3be276cd	0.006911135
236	0xbdab32dd	-0.08359311
237	0x3e0b1f29	0.13586105
238	0xbd68ed97	-0.05686721
239	0x3d80940d	0.062782384
240	0x3d015d28	0.03158298
241	0xbce4af95	-0.027915755
242	0x3c97a721	0.01851231
243	0x3e2ee9f3	0.17081432
244	0xbcbedb60	-0.023297966
245	0xbdb40c3c	-0.08791396
246	0x3dc376f3	0.09544172
247	0x3e031688	0.12801564
248	0xbd8a0287	-0.06738763
249	0x3b8af948	0.0042411424
250	0x3c1baa62	0.009501072
251	0xbdc7b242	-0.09750797
252	0xbda01aea	-0.078176335
253	0xbd9ec43e	-0.07752274
254	0xbd5337ff	-0.051567074
255	0x3db184c2	0.086679

rnn.bias_ih_l1 f4 [192]
0	0xbdec207d	-0.11529634
1	0xbd86ee44	-0.06588414
2	0xbd4d1518	-0.050068945
3	0x3d1de2b0	0.038546264
4	0x3da5e3e1	0.08100105
5	0x3db4ea28	0.08833724
6	0x3c6cc88e	0.014452113
7	0x3ddffc09	0.10936744
8	0xbd1e0ed0	-0.038588345
9	0xbddc7234	-0.1076397
10	0x3e6c3dfc	0.2307052
11	0x3d8f09e9	0.06984312
12	0xbc9758b2	-0.01847491
13	0x3cd70cf9	0.026251303
14	0x3d3e6d10	0.04649073
15	0x3d8910b0	0.06692636
16	0x3c2906ba	0.010316545
17	0xbc00948f	-0.007847919
18	0x3c8773da	0.016534735
19	0x3e232561	0.15932228
20	0xbb62bde4	-0.0034598047
21	0xbdcb0615	-0.099132694
22	0xbc0df4c4	-0.008664314
23	0xbe042258	-0.12903726
24	0x3d97f332	0.07419433
25	0x3c546c55	0.0129652815
26	0xbc178e4c	-0.009250235
27	0x3c3a5a1e	0.011374025
28	0x3d68bbf1	0.05681986
29	0xbe089b6d	-0.1334054
30	0xbd8aafe8	-0.06771833
31	0x3d153365	0.036425967
32	0xbca32a76	-0.019917708
33	0x3cb6e5fa	0.022326458
34	0xbd0bbc1f	-0.034114953
35	0xbd298a9a	-0.041391946
36	0xbe0a5eb0	-0.13512683
37	0xbd71edc2	-0.059064634
38	0xbd26a731	-0.04068679
39	0x3d80fc23	0.06298091
40	0x3b18382d	0.0023226843
41	0xbdab38c7	-0.08360439
42	0x3d4f0ffe	0.05055236
43	0xbdc97927	-0.09837561
44	0x3c0bed1b	0.008540417
45	0xbbb77c4c	-0.005599534
46	0xbddd1090	-0.10794175
47	0x3da05e91	0.07830537
48	0x3d7d4510	0.06183344
49	0x3d9bd5c8	0.07609135
50	0xbdffdc69	-0.12493212
51	0xbc429394	-0.011876006
52	0xbd2d68cf	-0.04233628
53	0x3d8f30e8	0.0699175
54	0xbd05933b	-0.032611113
55	0x3d6f2e8a	0.058393992
56	0x3e02d2d8	0.12775743
57	0xbd347f93	-0.044066977
58	0x3dad3a28	0.08458358
59	0xbd134abf	-0.035959955
60	0x3e020cfd	0.12700267
61	0xbd7dd99f	-0.061975118
62	0xbd3b5206	-0.04573252
63	0x3cbe825f	0.023255525
64	0xbe2eb07c	-0.17059511
65	0xbd5aadfd	-0.053388584
66	0xbc8f5d17	-0.017500443
67	0xbe143487	-0.14473163
68	0xbda04cf1	-0.078271754
69	0xbcea22f2	-0.028581116
70	0x3b922339	0.0044597653
71	0xbd88a8db	-0.066728316
72	0xbd2f3d76	-0.042783223
73	0xbbe1dceb	-0.0068927906
74	0xbcdaf48d	-0.026727939
75	0xbdddc3e4	-0.10828379
76	0xbd58fb48	-0.052974015
77	0xbdfa6610	-0.12226498
78	0x3dc3ef8c	0.09567174
79	0xbde92913	-0.113847874
80	0x3e0efb12	0.13962963
81	0xbe408d2b	-0.18803851
82	0xbdc6f8bf	-0.09715413
83	0xbe14e3d8	-0.1454004
84	0x3c3ab8ff	0.011396646
85	0xbd9bb762	-0.07603337
86	0xbd8ee6c6	-0.0697761
87	0x3e03aa52	0.12857941
88	0xbe18cc99	-0.14921798
89	0xbd7d2302	-0.061800964
90	0xbdcf05ff	-0.101085655
91	0x3d751f3c	0.05984424
92	0xbde9ff38	-0.11425632
93	0xbd4c1fa0	-0.049834847
94	0x3e011b49	0.12608065
95	0xbc9880fc	-0.018616192
96	0xbe3534f7	-0.17695986
97	0x3c7b4af4	0.015337694
98	0xbe354352	-0.17701462
99	0xbe1b1dfe	-0.1514816
100	0xbe089b4e	-0.13340494
101	0xbe09bf4b	-0.13451879
102	0xbc8750cc	-0.01651802
103	0xbe2b0d4d	-0.16704293
104	0xbddbdd06	-0.10735516
105	0xbdacfa8e	-0.08446227
106	0xbe00b239	-0.12567987
107	0xbc7158bc	-0.014730629
108	0x3cff5fa5	0.031173537
109	0xbbd7fd61	-0.0065914844
110	0x3d8011ef	0.062534206
111	0x3b462755	0.0030235846
112	0xbdc4c64a	-0.09608133
113	0xbd126aa0	-0.035746217
114	0x3dcf5ebd	0.10125492
115	0xbdeaf7f4	-0.114730746
116	0xbc9d66ea	-0.019214112
117	0x3dd300f2	0.10302915
118	0xbc708161	-0.014679284
119	0x3c44cf5c	0.012012329
120	0x3ce6bc10	0.028165847
121	0xbe500f4b	-0.20318334
122	0x3da7cef2	0.081937686
123	0xbd971d1e	-0.073786005
124	0x3d7c7746	0.061637186
125	0xbdba111a	-0.09085293
126	0xbddb1b50	-0.10698569
127	0xbe3e20df	-0.18567227
128	0x3da663c2	0.08124496
129	0x3d0d43cb	0.03448848
130	0xbdd8731c	-0.1056883
131	0xbd7d5f9f	-0.06185877
132	0x3d77e0ca	0.06051711
133	0xbdbf91c1	-0.09353972
134	0xbcfe3a1d	-0.03103357
135	0xbc26994d	-0.010168386
136	0x3dc4266c	0.09577641
137	0xbdb0621b	-0.08612462
138	0x3e004836	0.12527546
139	0x3e29480a	0.16531387
140	0x3d42121f	0.047380563
141	0xbb6871a9	-0.0035468137
142	0x3d12a4d3	0.03580172
143	0x3d7ac3e6	0.06122198
144	0xbc92f944	-0.017941125
145	0xbdacaad9	-0.08431024
146	0xbd8c075f	-0.068373434
147	0xbce747d5	-0.028232494
148	0xbd4f4768	-0.050605208
149	0x3d6e96c4	0.05824925
150	0x3e048b56	0.12943777
151	0x3d11d93e	0.03560757
152	0xbd25afa9	-0.040450726
153	0xbe1aedad	-0.15129729
154	0xbd1f7c27	-0.03893676
155	0xbdad3663	-0.08457639
156	0xbda5d4a5	-0.08097199
157	0x3dc754e5	0.09732989
158	0xbb0266c6	-0.0019897684
159	0x3d973548	0.073832095
160	0x3d8ab2bc	0.06772372
161	0xbc86a564	-0.016436286
162	0xbe0ebb1a	-0.13938561
163	0xba10d9a0	-0.0005525593
164	0xbd4eb751	-0.050467793
165	0x3d887a13	0.06663909
166	0xbd5906c9	-0.052984986
167	0xbd9a060a	-0.07520683
168	0x3de473e2	0.111549154
169	0xbccd17b5	-0.025035718
170	0x3be00c2d	0.006837389
171	0x3db3f744	0.087873966
172	0x3cb9b15e	0.022667583
173	0xbd467d14	-0.048459128
174	0xbe0faa62	-0.1402984
175	0x3c67f1b0	0.014156744
176	0xbd6c6978	-0.05771777
177	0x3c28d5a6	0.010304844
178	0x3c137214	0.008999366
179	0xbdf7a4df	-0.120919935
180	0x3d5a10d5	0.05323871
181	0xbc92ca32	-0.01791868
182	0xbc89f743	-0.016841536
183	0xbe217a41	-0.15769292
184	0x3e112718	0.1417507
185	0xbcfe4d1b	-0.031042626
186	0xbd67a5ac	-0.05655448
187	0xbd9754b8	-0.07389206
188	0xbd06966c	-0.032858297
189	0x3d94e67e	0.072705254
190	0x3df5fd44	0.12011197
191	0xbd77d086	-0.060501598

rnn.bias_hh_l1 f4 [192]
0	0x3cb66c26	0.022268366
1	0x3d56ffcd	0.052490044
2	0xbd33be93	-0.043882918
3	0xbb4f202a	-0.0031604865
4	0x3d284166	0.041077994
5	0x3d595c87	0.053066757
6	0xbdc814eb	-0.09769615
7	0x3daa4acb	0.08315047
8	0xbc78e663	-0.015191647
9	0xbdd7a44d	-0.10529385
10	0x3dd6be6f	0.10485541
11	0x3dfa98e1	0.122361906
12	0xbd410944	-0.047127977
13	0x3dbcc188	0.09216601
14	0x3db71ff8	0.089416444
15	0xbc09598c	-0.008383166
16	0xbda29629	-0.07938797
17	0xbde2a856	-0.11067264
18	0xbba89f48	-0.005145941
19	0xbd1eddfd	-0.038785923
20	0xbbdc3b5a	-0.0067209424
21	0xbd62a8c1	-0.055336718
22	0x3ce1891e	0.027531203
23	0xbde966f3	-0.11396589
24	0x3de5f758	0.11228818
25	0x3c3554ac	0.011067551
26	0xbe20df05	-0.15710075
27	0xbd5eeb02	-0.05442334
28	0x3d623407	0.0552254
29	0xbdea1419	-0.114296146
30	0xbdb76796	-0.08955304
31	0x3d20c5ed	0.039251257
32	0xbd15da23	-0.036584985
33	0xbb9768f7	-0.004620667
34	0x3d4dfc91	0.050289694
35	0xbd6aa746	-0.05728843
36	0xbd9685f9	-0.07349772
37	0xbc94893e	-0.018131848
38	0x3dba5be0	0.09099555
39	0x3d7aa030	0.061187923
40	0x3d9a174d	0.075239755
41	0xbc8f12de	-0.017465051
42	0x3d510f05	0.051039714
43	0x3d072a66	0.03299942
44	0xbcc7bd8c	-0.024382375
45	0xbdd71eab	-0.10503896
46	0xbd852d10	-0.065027356
47	0xbd8ba5d4	-0.068187386
48	0xbdd92121	-0.10602022
49	0x3bd2ec9f	0.006436899
50	0xbcdc623c	-0.02690231
51	0x3e06daa8	0.13169348
52	0xbd9e22a8	-0.07721454
53	0xbd87e43b	-0.066353284
54	0x38dad5f7	0.00010434904
55	0xbddf4282	-0.10901357
56	0x3d25f277	0.040514436
57	0xbd63a19d	-0.05557405
58	0xbdf54058	-0.11975163
59	0x3dfebdca	0.12438543
60	0xbd4d0c4e	-0.050060563
61	0xbd04bd68	-0.032407194
62	0x3c483cc4	0.012221519
63	0xbc38fc09	-0.011290559
64	0xbd941f5e	-0.07232545
65	0x3d4a46e9	0.04938403
66	0x3c99cfbd	0.018775815
67	0xbda7aa4e	-0.0818678
68	0xbdc3e9a8	-0.09566051
69	0xbdcf59c1	-0.10124541
70	0xbdee0ead	-0.11623893
71	0xbc7b68e0	-0.015344828
72	0x3ce48e3f	0.02789986
73	0xbdcdf696	-0.10056798
74	0xbe38c6db	-0.18044607
75	0xbe32be35	-0.1745537
76	0xbb897d8c	-0.0041958746
77	0xbe3cd71f	-0.18441437
78	0x3d922ceb	0.07137474
79	0x3baede28	0.0053365417
80	0xbd347ef6	-0.044066392
81	0xbd7ce9ad	-0.061746288
82	0xbcd2c986	-0.02573086
83	0xbd4fe0e8	-0.050751597
84	0xbd9ed1b1	-0.07754839
85	0xbd1a10d8	-0.03761372
86	0xbe166736	-0.1468781
87	0x3e055b6e	0.13023159
88	0xbe0d4175	-0.13794501
89	0xbdf21096	-0.1181957
90	0x3d3df97c	0.046380505
91	0x3d7f610e	0.062348418
92	0xbd4fda72	-0.050745435
93	0x3c479c16	0.01218321
94	0x3b573a9b	0.0032841328
95	0xbd7d1c13	-0.06179435
96	0x3c61cf43	0.013782325
97	0xbd34d2ea	-0.044146456
98	0xbe2d6de0	-0.16936445
99	0x3d6def13	0.058089327
100	0xbdea66df	-0.11445402
101	0xbc3cd8b8	-0.011526279
102	0x3c12392a	0.008924762
103	0xbdf94560	-0.12171435
104	0x3c167ca3	0.009184989
105	0x3c50271a	0.012704635
106	0x3d984532	0.07435073
107	0x3cc7aa20	0.024373114
108	0xbdcbb366	-0.09946327
109	0xbcc8bb19	-0.024503278
110	0xbcec5fc3	-0.028854256
111	0x3dad3fec	0.08459458
112	0xbe0a5ed1	-0.13512732
113	0xbc901e65	-0.017592618
114	0xbd991079	-0.07473845
115	0xbe506188	-0.20349705
116	0x3de8f75f	0.11375307
117	0xbd9f9bc6	-0.07793383
118	0x3e13138a	0.14362922
119	0xbd820a1a	-0.06349583
120	0x3d87b5bf	0.06626462
121	0xbe614ca7	-0.22001897
122	0xbd80b2e8	-0.06284124
123	0xbda257ea	-0.079269245
124	0x3d8541d8	0.06506699
125	0x3d84d999	0.06486816
126	0x3d0d1a94	0.034449175
127	0xbd06d354	-0.032916382
128	0x3c16eb52	0.009211378
129	0x3d5c293a	0.053750254
130	0xbd8d693b	-0.06904837
131	0xbd3fe0db	-0.0468453
132	0x3c975798	0.018474385
133	0x3db39b9f	0.08769917
134	0xbd77f27d	-0.06053399
135	0xbc88d30d	-0.0167022
136	0xbd9db71a	-0.077009395
137	0xbd61344b	-0.05498151
138	0xbd292470	-0.041294515
139	0x3e0c9002	0.1372681
140	0x3df13f4d	0.11779652
141	0x3c38081b	0.011232401
142	0x3b1c5a54	0.002385755
143	0xbe04b99e	-0.12961432
144	0xbd267ad9	-0.0406445
145	0xbd331abc	-0.043726668
146	0xbd60c557	-0.054875698
147	0x3e08ff87	0.13378726
148	0xbd812691	-0.06306184
149	0x3d542e55	0.051802
150	0x3dda5d8d	0.10662375
151	0xbd7f68eb	-0.062355917
152	0xbb56ddda	-0.0032786042
153	0x3d838fa7	0.06423884
154	0x3c3f2c5c	0.011668291
155	0x3d0d2ba0	0.034465432
156	0xbdb677a1	-0.08909536
157	0x3d32af55	0.04362424
158	0x3c89dfe3	0.01683039
159	0x3caffe9a	0.021483708
160	0xbd4bde2f	-0.049772438
161	0x3d2d88c6	0.042366765
162	0x3cb91c59	0.022596525
163	0xbd8ae8ab	-0.06782659
164	0x3e02f1f9	0.12787618
165	0xbd3cfe48	-0.04614094
166	0x3da40dde	0.080104575
167	0xbc976c66	-0.018484306
168	0x3e13b0cc	0.14422911
169	0x3e0febbd	0.14054771
170	0x3dd6bce3	0.10485246
171	0xbd632fbc	-0.055465445
172	0xbd940ed0	-0.07229388
173	0xbe114d00	-0.1418953
174	0x3d33050c	0.043705985
175	0xbdc674c9	-0.09690244
176	0x3e135c0f	0.14390586
177	0xbd527167	-0.05137768
178	0xbd9b1207	-0.07571798
179	0xbe1cac17	-0.15300022
180	0x3c12e13b	0.008964832
181	0xbd10189a	-0.035179712
182	0xbc83c8bb	-0.016086927
183	0xbe1cc4ec	-0.15309495
184	0x3e18798b	0.14890115
185	0xbb797fb0	-0.0038070492
186	0x3de401bf	0.111331455
187	0xbe1afd1d	-0.15135618
188	0xbe0566cc	-0.13027495
189	0xbd056f6d	-0.032576967
190	0xbdf03aaf	-0.11729943
191	0xbd354bb2	-0.04426164
