program/deep_learning/16 - Recurrent Neural Network/model/multivar/weights_50.pth (torch, 257129 bytes, 13 tensors)

rnn.weight_ih_l0 f4 [192, 5]
00000000: 0e76 f53d f421 02bd 99e6 4c3d 6be8 c6bd
00000010: be3a aa3d 3200 febd 7b56 06bd 7c7c d4bd
00000020: 3f7c 8dbd 332e ba3d 332f a9bd 0c57 b53d
00000030: 47c7 f7bd d91a 50bd a79c b1bd 229d ab3b
00000040: f007 063e fea0 7abd 3716 3cbd 11d2 33b8
00000050: 073d 82bd 1a8b a0bc d6de 003d 5827 053e
00000060: 4d3c b63d 99fd b4bd a627 34bd bac2 5dbd
00000070: 2563 123e cdc5 a53d 251f 0d3e 9e29 2abd
00000080: c9dd 1ebd fdc7 b83d d991 99bd 1b7e 28bd
00000090: 3520 92bd f6c4 8bbd 6b06 c1bb d1cd 0d3e
000000a0: ded7 903c b647 1cbb b034 86bc 41ed 53bd
000000b0: 6b72 24bd 6bfb 6fbc 8a56 a0bd 1a59 ad3d
000000c0: aadd 143e 8fda d83c 37e1 c4bd 2bc4 0ebd
000000d0: ddaf 0c3c 323a 023e 1dd1 a13d 1a38 c3bd
000000e0: 957f 783d 88fa c23b edef 883d aa13 983d
000000f0: 7139 263e fa73 8c3d 991d b03d 82ce a83d
00000100: 7081 5b3d e0ad 673d 597a c0bc d496 b53d
00000110: 6de7 d2bd 3254 f83b bbba 4abc f4a5 3d3d
00000120: 2e15 083e 9f10 bc3c 5381 1c3d fc66 763d
00000130: cf0a b6bd 25b0 c8bc cf5f 80bd 3071 8d3c
00000140: 2d94 e13c 1a4d 16bd 0834 1e3d 9617 73bd
00000150: 8f84 dc3d 6c4a d3bd 45d3 93bc b827 df3c
00000160: a4f4 efbd 132e 0abe f133 e53d ff75 463d
00000170: 34f3 9c3c bce8 d6bc c7bd 53bd 6843 d3bd
00000180: 5ded 513d 6a18 3abc 1ce6 b3bd 520d 4f3d
00000190: 8635 7fbd d7a7 fe3d c96b b0bd d7bb fd3d
000001a0: 447e 97bd dbf1 15bd 843f d63d 3cf8 c33c
000001b0: 5fea 96bc 5576 c5bd 88b6 a13d 748a e93d
000001c0: 0ef2 4a3d b59d 12bd a3ec 0abd ab45 09be
000001d0: c2ef 60bb 784c dcbc 1616 e9bd 732a 8a3c
000001e0: 40d2 723d 1cad 713d 92e0 66bc f60b 9f3d
000001f0: 2a64 a23c 6423 0ebe 4020 a33d efac 133d
00000200: 7eb0 b2bd d19f e83c 9611 023e 70d1 9ebd
00000210: a6ef e8bd 93d6 f2bc dbff 1fbd 2307 993d
00000220: 5bdf f1bd 3757 33bd 605d b4bd 1d45 893d
00000230: 1ef7 eabc 0e8a b6bd b850 143e 79f2 873d
00000240: 739c 7c3d 9a84 c43d 5a60 e6bd 98ee 993d
00000250: 7f72 0e3e e24c d83d 46ce 953d 6a87 13bd
00000260: 07b6 e4bd c12c 393d 604c 43bd 0d57 6ebd
00000270: fd68 e83d 44e4 023e 4771 e63a 3386 86bd
00000280: 3cce ba3d 637c 603b d489 05bd 87fd 2a3d
00000290: aadf d83b 2c39 023e fa31 31bd ef2f 1fbd
000002a0: bec1 833d c550 a0bb eb8b a2bc 8442 4abd
000002b0: 4233 aebd 1c83 d7bd 4825 8fbd e432 d43d
000002c0: f5d6 b4bd 93ad 063c 245d c53d 57f1 b13d
000002d0: 0bd0 b5bd e3f3 5dbb ac7c 123e bcb2 da3d
000002e0: 8db2 c8bd 483a de3d edd8 e4bd 3410 94bd
000002f0: 6132 073e 3e75 c23d fd11 debd 1263 cb3c
00000300: 995a bfbd b6b5 d1bd cc14 4ebd 47ad 67bd
00000310: fe02 c13d 27ac 8b3d 94ea 05bd 669e 2a3d
00000320: 64c3 133e 396d 0c3e d377 b7bd e8b4 053e
00000330: fef9 93bd a220 933c b127 71bd fdf6 bebd
00000340: 125e e33d 7733 e7bc 979e fcbc 8ff0 febd
00000350: e43d f03c 13b8 d4bc 4001 c7bc f172 89bd
00000360: a7a0 cf3d b859 873d cb98 43bd 4de6 c23d
00000370: 1db1 113e c20b eb3c 87d3 3c3b 1259 cf3d
00000380: 3dba 8b3d 7c51 da3c f3ba 003e 6b13 1cbc
00000390: 557c d33d dfde 093d 88c8 a33d 3d36 f9bc
000003a0: f87b 393d 01a5 093e 271c cb3c ccc6 6d3d
000003b0: 4b0f 233d 199f ddbc 9043 8cbc 601c 1b3d
000003c0: cb05 11bc 36f9 23bd 9eaf 013c 7db4 cabc
000003d0: 973a 8dbd 98a9 b33c 1734 4c3d f355 d6bd
000003e0: 655b 3d3d 2436 093d bf63 7dbd e403 313b
000003f0: 5b0d 4c3c 6683 ff3d 1dc6 78bd 23ce fd3d
0.11985408 -0.03177066 0.050024603 -0.09712299 0.083119854 -0.12402381 -0.032797318 -0.10375306
-0.06908464 0.09090843 -0.08260956 0.088544935 -0.12098556 -0.050806854 -0.08672457 0.0052372376
0.13088965 -0.06118869 -0.045919623 -4.2872565e-05 -0.06359296 -0.019597579 0.031462513 0.1300329
0.0889822 -0.088374324 -0.043983124 -0.054140784 0.14295633 0.08094368 0.13781412 -0.041543595
-0.03878573 0.0902252 -0.07498521 -0.04113589 -0.07135049 -0.06824677 -0.0058906577 0.13848044
0.017681058 -0.0023846454 -0.016382545 -0.051739935 -0.04014818 -0.014647345 -0.07829006 0.084642604
0.14537683 0.026471404 -0.09613269 -0.03485505 0.008586851 0.12717512 0.07901213 -0.09532185
0.060668547 0.005950276 0.06686387 0.074256256 0.1623285 0.06858058 0.08599395 0.08242513
0.053590238 0.056562304 -0.02349584 0.08866659 -0.10298047 0.0075783962 -0.012373622 0.046300843
0.1328933 0.022957144 0.03820927 0.060156807 -0.0888878 -0.024498055 -0.06268274 0.017265886
0.027536476 -0.036694624 0.03862384 -0.059348665 0.10767471 -0.10316929 -0.018045077 0.027240619
-0.11716583 -0.13494138 0.11191548 0.048452374 0.019158937 -0.026234023 -0.051694658 -0.10315591
0.051251758 -0.01135836 -0.08784124 0.050549813 -0.062306903 0.12434357 -0.086143084 0.12389343
-0.0739713 -0.036607604 0.104613334 0.023922078 -0.018422304 -0.09641711 0.07896143 0.11403361
0.049547248 -0.035794932 -0.03391708 -0.13405482 -0.0034322594 -0.026891932 -0.11381166 0.016865944
0.05928254 0.05900298 -0.014091628 0.07765953 0.019823153 -0.13880688 0.079651356 0.036053594
-0.087250695 0.028396519 0.12702021 -0.07754791 -0.11373834 -0.029643333 -0.039062362 0.07472064
-0.1181018 -0.043784346 -0.08806872 0.067026354 -0.028682288 -0.089130506 0.14483917 0.06638045
0.06167264 0.09595604 -0.11248846 0.07516211 0.13910864 0.10561539 0.07314734 -0.036017813
-0.111675315 0.045208696 -0.04768026 -0.058188487 0.1134815 0.12782389 0.0017581367 -0.06568565
0.09121367 0.0034253828 -0.032602146 0.04174569 0.0066184597 0.12717122 -0.043260552 -0.038864072
0.06433438 -0.004892441 -0.019842109 -0.04937984 -0.085058704 -0.10523054 -0.06989533 0.10361269
-0.08830062 0.008220094 0.09636906 0.0868861 -0.08877572 -0.0033867292 0.14305371 0.10678622
-0.09799681 0.1085096 -0.11174188 -0.07229653 0.13202812 0.094950184 -0.10843275 0.024827514
-0.09343452 -0.10239737 -0.050312802 -0.056561735 0.09424399 0.06819945 -0.032694414 0.041654967
0.14430004 0.1371354 -0.089584015 0.13057292 -0.072254166 0.017959896 -0.058875743 -0.09324453
0.11101927 -0.028222783 -0.03083734 -0.12448227 0.029326387 -0.02596668 -0.024292588 -0.067113765
0.10138064 0.06608909 -0.047753137 0.09516583 0.1422772 0.02869213 0.0028812604 0.10124411
0.068226315 0.026650183 0.12571315 -0.009526114 0.10326449 0.033659812 0.07997233 -0.03042137
0.04528424 0.1344185 0.024793698 0.058050916 0.039809506 -0.027053403 -0.01712206 0.037868857
-0.008851479 -0.040032588 0.007915406 -0.024744267 -0.06895941 0.021931455 0.049854364 -0.10465612
0.04622974 0.0334989 -0.061862703 0.0027010376 0.012454356 0.12476234 -0.06073581 0.12392833

rnn.weight_hh_l0 f4 [192, 64]
00000000: a59f a23c 0dbe 99bd 5a53 f53d 3861 2bbd
00000010: b002 a3bd 456e cd3d 6520 643d 5290 cdbd
00000020: 7f5d 9ebd 1173 533b 116b 1b3d 635b 08be
00000030: d13d 0e3d 6077 d3bd 0d08 a83d 638e 1abd
00000040: b04a 3f3b f20f bdbd f965 56bc cc63 cb3d
00000050: 2ae3 3ebd 78f2 523c 1042 bebd 7704 b7ba
00000060: 9f9b c23c bc55 813d b05e 9abb 4750 ccbd
00000070: 5cb0 b93d 62d7 ac3d 8322 123d b4ce 98bd
00000080: 6769 923d e111 bb3d a9c7 ecbd 3853 2d3d
00000090: 1ceb a43d 3c23 943d 446e d33b cb40 b13d
000000a0: ce24 7d3d 049b c5bd 2a0c b83d ca30 1dbd
000000b0: 34d9 0a3d 7dfc c73b 0934 d93c 3522 7bbb
000000c0: dd30 c93c e917 8c3d 4c9c 033d 4eda 40bb
000000d0: 6844 7b3d 8039 b23d d4b0 193d f713 9e3d
000000e0: 2f15 a3bc 16e1 9dbb d734 803d 988f 74bb
000000f0: 04a4 273d 3e4c 08bd 5b48 ea3d 83c4 083d
00000100: 4511 813c edb5 df3d 42a4 863d afac 59bd
00000110: bb04 a83d 9a1e 6e3d 788c e6bc 7a29 f03d
00000120: 9b0c 0bbe fa01 143e 3672 b43d 1a57 993d
00000130: 19a1 a63d 015d 67bd dbc4 e6bc ad56 f93d
00000140: d615 35bb 6288 a33d 01ed 78bd 4f58 693d
00000150: 2993 26bd 130a ba3d 9b86 96bc bfe1 9f3d
00000160: 4e59 2abd 28ac c23d 258d 39bd 98ec a9bd
00000170: d2f1 fdbd 39ef 593c 7623 d93c 93cb 893d
00000180: 9f54 9abd 7661 c1bd 3df2 4abd 5607 4a3d
00000190: 7589 acbd daac 84bd 5ad7 d9bd 3fea fbbc
000001a0: 9534 b5bd 2f75 13bd 10a0 1c3d 38c6 f4bc
000001b0: 96a0 813d 6b15 1bbd 1039 a7bd afa4 e13d
000001c0: e937 ecbd bd30 d2bd f1b2 143d d7d6 8cbd
000001d0: 75c1 c9bd fd74 633d fc5e d13c ff15 4d3d
000001e0: 4466 dcbc 19ab 6bbc d825 0b3d bdac bf3d
000001f0: 684c 91bd 20ac c3bd e9ae d1bd 5247 91bc
00000200: 5d54 3abc 98c7 7b3d 5117 e9bd 3329 dd3c
00000210: e74e 803d 0999 73bd a77b d6bd b922 3f3d
00000220: 7a52 0e3d 86e7 373c 314b d23c c4af 073e
00000230: 4038 c1bb 84d5 7d3d 060d dfbc 02f5 b03d
00000240: 2f22 06bd b146 e53d 3b30 ae3c c310 42bd
00000250: 3b42 a1bd aac8 03be 65b6 9b3c 3f5a be3b
00000260: 7cb3 85bd e330 db3d 7904 7cbd 8eeb c23d
00000270: a79b a7bc 081e 8e3b 5795 2c3d 73f7 d73c
00000280: f00c 95bc e798 143d 49aa eabd 4b5a f93d
00000290: 4955 b73d ab3a b1bd ce0f 753d 3f71 e9bd
000002a0: 5b3b 023d 5225 553d a55e 083a 23ca bcbd
000002b0: b430 dc3d fcdf 2a3d 4af7 f13c 0f48 e73d
000002c0: 3316 1b3c cdf3 5dbc 9df0 613d 58f3 c23d
000002d0: b1e3 1f3d 802c 433d edd1 7d3c bc8a dd3d
000002e0: e582 81bd fd9e a63d 21f8 873d 734f a53d
000002f0: 547f 393b c12b ed3c 1900 7a3d 4a70 d63d
00000300: 553a c0bd 942d 223d 5b1e c73d a5b3 d23c
00000310: 26c4 a33d db21 693d 5e24 af3d 9f7f bd3d
00000320: cb2d c53c cdd9 16bd dd33 933d 7e9e f4bd
00000330: faa7 f7bd 2f60 23bd 4e71 b83d 2178 533d
00000340: 8119 c0bd a78a c6bd 81af a3bd 4a6d b03d
00000350: 2411 fabd 4edd ae3b 9dad 2dbd 3b6f 153e
00000360: f6c6 233d a172 95bd 665e 5d3d 9157 56bb
00000370: c8c9 bcbb 1944 cd3d 2b20 e6bc b1f1 01be
00000380: 05fd bdbd 2f85 ec3d f85b c1bc 3c3c 823c
00000390: f85b 833d 5f21 973d e162 f8bc 3b9c 963d
000003a0: c6c5 153e d840 cfbc 5743 473c 000a e73d
000003b0: c127 7ebd b55c 10be 8075 9f3d 0c8a 993b
000003c0: e008 9e3c b900 1abc 0981 e53d 0544 dabd
000003d0: 5d9b 5dbd 985a b7bc 396e 153e 68f5 bf3d
000003e0: 3967 afbd 63b0 82bd 80ca d8bd d5ef 803c
000003f0: 0673 92bd 6991 84ba 6ecf 10bd ed5b d83d
0.019851515 -0.075069524 0.11978789 -0.041840762 -0.07959497 0.10030798 0.055694956 -0.100372925
-0.07732677 0.003226463 0.037943903 -0.13316111 0.03472692 -0.10325503 0.082046606 -0.037733447
0.0029188804 -0.09231557 -0.013085836 0.09931144 -0.04660336 0.012875192 -0.09289944 -0.0013963123
0.023755847 0.06315181 -0.0047109947 -0.09976249 0.09066841 0.084395185 0.035677444 -0.074613005
0.0714901 0.091342695 -0.1156152 0.04231569 0.08052656 0.07233283 0.0064523537 0.086549364
0.061802678 -0.096487075 0.08986695 -0.038376607 0.033898547 0.006103097 0.02651407 -0.003831995
0.024559433 0.06840498 0.03213148 -0.0029426995 0.061344534 0.087023735 0.037522152 0.07718652
-0.019907562 -0.004818092 0.062600784 -0.0037317034 0.040927902 -0.033275835 0.11439582 0.033390533
0.015755305 0.109233715 0.065742984 -0.0531432 0.08204027 0.058134653 -0.028143153 0.11726661
-0.13579027 0.14453879 0.088108465 0.074873164 0.08136196 -0.05648518 -0.02817004 0.12174735
-0.0027631423 0.07984997 -0.0607729 0.056968983 -0.040667687 0.09083953 -0.018374732 0.078067295
-0.041589074 0.095054924 -0.04530062 -0.0829708 -0.12399639 0.013301664 0.026506167 0.06728282
-0.075356714 -0.09442417 -0.049547423 0.049323402 -0.08424655 -0.06478281 -0.10636778 -0.030751346
-0.0884792 -0.036000427 0.038238585 -0.029879674 0.063294575 -0.037862223 -0.08165181 0.11017739
-0.115341015 -0.10263202 0.036303464 -0.06876915 -0.09851352 0.05553149 0.025557987 0.050069805
-0.026904233 -0.014384055 0.033971637 0.09359119 -0.070946515 -0.095543146 -0.102384396 -0.017734203
-0.011372653 0.061469644 -0.113814004 0.026997184 0.062650494 -0.059472118 -0.104728036 0.046663973
0.034746625 0.011224633 0.02567062 0.13250643 -0.005896598 0.061971202 -0.02722789 0.086404815
-0.032747444 0.11195124 0.021263232 -0.047379266 -0.078739606 -0.12869516 0.01900787 0.005809098
-0.065283746 0.10702684 -0.061527703 0.09517585 -0.020459963 0.004337076 0.04213461 0.02636311
-0.018194646 0.03627863 -0.114582606 0.12175425 0.08951814 -0.08653768 0.059829526 -0.11398553
0.031794887 0.052037545 0.00052020914 -0.09218242 0.10751477 0.041717514 0.029536862 0.11293041
0.009465742 -0.013546896 0.055161107 0.095190704 0.039035503 0.04764986 0.015491945 0.10817477
-0.06323794 0.08135793 0.06639124 0.08071794 0.0028304653 0.028951528 0.06103525 0.10470636
-0.09386126 0.039594248 0.09722587 0.025720427 0.07996397 0.056917053 0.08551858 0.092528574
0.024069687 -0.036828805 0.071876265 -0.119442925 -0.12092586 -0.03988665 0.09005986 0.051628236
-0.093798645 -0.096944146 -0.07992459 0.08614595 -0.122103006 0.00533644 -0.0424019 0.14593212
0.039984666 -0.07297254 0.054045103 -0.0032706002 -0.005761359 0.10022754 -0.02809151 -0.12689854
-0.09276775 0.1154884 -0.023603424 0.015897863 0.06414026 0.07379412 -0.030320587 0.07354017
0.14626226 -0.025299475 0.012162051 0.11281204 -0.06204963 -0.14097865 0.07786083 0.004685646
0.019291341 -0.009399586 0.11206252 -0.10657505 -0.054103244 -0.022382066 0.14592828 0.093729794
-0.0856461 -0.06381299 -0.10585499 0.01573936 -0.07150845 -0.0010114136 -0.03535407 0.105644085

rnn.bias_ih_l0 f4 [192]
00000000: d11f dbbd 9c72 c13d cd3b 983d f051 e53d
00000010: 52db 94bd 14ab a5bc f533 a93d 8127 d43c
00000020: a78c 19bd 58cf 833d 005a 0cbd 7ff5 b6bc
00000030: cc5c 90bd f554 c5bd fccb 9a3d 1c9f 973d
00000040: d8e8 443d d7d7 9fbd 39cb cdbd 79e3 69bc
00000050: 3e06 bfbd b991 a03d e4e5 7d3c dbf5 a3bd
00000060: 1460 993d 0a74 82bd 2160 8cbd 80a1 91bc
00000070: 48f7 a1bd d932 d1bd 7004 89bd f45a 7bbc
00000080: 5d44 2cbd 1296 1c3c 3167 7dbd eedb 2b3d
00000090: c40d bebc 4d1c 0c3d 8596 e63d 5654 17bd
000000a0: 218b 893d ceed 013e 2ce1 bc3c eace 763d
000000b0: 962c 653d a3e4 043d 68ed 71bd 6aa3 c43d
000000c0: d949 a4ba b6a8 94bb 1ff2 d03d d324 d53d
000000d0: 943d 11be 82b6 bebd 6e01 2b3c d755 c3bd
000000e0: 2052 7d3d 4fb0 b83c 27bb b93d ee41 babd
000000f0: 1e7d 0d3e 015d ba3d fea7 33bc fac3 c53d
00000100: e0b7 93bd ac40 ecbd 5ff5 e5bc 5271 f3bd
00000110: 934d 36be 0427 ab3c f089 e2bd 1000 5dbd
00000120: 8cd3 e63b 4d00 4cbe 9c5d c2bd b3d7 22be
00000130: 0363 efbb b3ba 2bbd c79a a0bd 6908 c63c
00000140: 5b5f cfbd be71 2ebe b05a 0bbe 6ed3 18be
00000150: 9561 e9bd 593c 053b a9b7 73bc 52a5 0dbe
00000160: 573d 7cbd 8175 dbbd dd98 34bd c885 32bd
00000170: 3645 8fbc c3cc 0abe ede9 a83d cee3 b1bc
00000180: 0775 ffbd 743c d7bd 3a6b 30bc 98b2 8abd
00000190: e356 64bd 8b16 b9bd b973 3cbe 2027 03bd
000001a0: 98bc cbbd b6ff c6bd a554 16be b483 3bbd
000001b0: 092e 2ebe 6320 e6bd f9c2 ab3c 3dd8 95bd
000001c0: e820 b73c f8ef 9abc c498 81bd e4d5 1fbe
000001d0: 0197 b33c 21cd 33be e11d c9bd 7ced b5bd
000001e0: cecc f3bc b63a e8bd c97b 1f3c 6d39 44be
000001f0: b2cd abbc 420d e0bd 7151 6bbd d20c 5dbd
00000200: 3382 c53d 0d49 df3c 079f 31bd 92af 9c3d
00000210: da2f 03bc 16c8 9abd 8949 933c 250f 4bbc
00000220: 0014 c6bc 3bde 7f3d f1b1 20be 335b 6abd
00000230: b027 98bd fc29 153d 4ef8 003e ebc4 483b
00000240: daac 463c 4285 e83c f21d e1bc 19ea 9dbd
00000250: 3a49 073d 93a2 0d3c e281 20bd 6fdb 9ebc
00000260: 37ed 82bc f951 bcbd cd7b 993b 5190 0ebc
00000270: d198 c83d a4ea 13bd 297c a2bd b9ed b7bd
00000280: 4dd6 043d ef22 a639 fd4f 173d 5b87 9c3c
00000290: 62ae a7bd cdbb d23d 95b1 b43c 296b 1d3d
000002a0: be4c d13d 9d98 95bd 506f 8abd c0c5 74bc
000002b0: b9e0 06be 126c cb3d b131 e43d b257 00be
000002c0: 8570 313d 1228 5cbd dc92 543d 2516 68bc
000002d0: 2c7a aebd 1ec1 ebbb fefa 9cbd 7813 a63d
000002e0: 72d3 05bd a4a6 03bd e00d 99bd 43b1 c53c
000002f0: c5fa 9abd 4308 0ebe 557a 6abd 626b 103e
-0.10699428 0.09445688 0.07433281 0.11197269 -0.072683945 -0.020223178 0.08261863 0.025897743
-0.037487652 0.06436032 -0.03426552 -0.022333859 -0.070489496 -0.09635345 0.07558438 0.074033946
0.04807362 -0.0780484 -0.10048527 -0.014275425 -0.093273625 0.078402944 0.015496705 -0.080058776
0.074890286 -0.06369789 -0.06854273 -0.017777205 -0.07908493 -0.102147765 -0.066902995 -0.015341509
-0.042057384 0.009557264 -0.06186599 0.04195779 -0.023199923 0.034206677 0.11259178 -0.036945663
0.0671599 0.12688372 0.023056589 0.060255922 0.055950724 0.032444607 -0.0590643 0.09601481
-0.0012534215 -0.0045367135 0.10202431 0.10407414 -0.14183646 -0.09312154 0.010437353 -0.09537857
0.0618459 0.022545008 0.090688996 -0.09094606 0.1381726 0.0909977 -0.010965345 0.0965652
-0.07212806 -0.11535773 -0.028071104 -0.118868485 -0.1780303 0.020892628 -0.11061466 -0.053955138
0.0070442613 -0.1992199 -0.09490511 -0.15902595 -0.0073055043 -0.041926097 -0.078420214 0.024173932
-0.101256095 -0.17035577 -0.13608813 -0.14924404 -0.113955654 0.002033016 -0.014875331 -0.13832596
-0.061581936 -0.107157715 -0.044091094 -0.043584615 -0.017489057 -0.13554673 0.08247743 -0.021715071
-0.12473493 -0.105095774 -0.010767752 -0.06772345 -0.055746924 -0.09037503 -0.1840352 -0.032019734
-0.09948081 -0.09716742 -0.14680727 -0.0457799 -0.17009749 -0.11236646 0.020966994 -0.07316635
0.022354558 -0.018913254 -0.06327966 -0.15608937 0.02192259 -0.17558719 -0.09820152 -0.08883187
-0.029760744 -0.11339323 0.0097341025 -0.19162531 -0.020972107 -0.10940029 -0.057450715 -0.053967305
0.09643974 0.027256513 -0.04336455 0.07650675 -0.008007014 -0.075576946 0.0179794 -0.012393747
-0.024179459 0.062467795 -0.1569288 -0.05721588 -0.07429445 0.036416993 0.1259472 0.003063495
0.012126172 0.028383855 -0.0274801 -0.07710666 0.03302882 0.008644718 -0.039186366 -0.019391743
-0.015982253 -0.091953225 0.0046839477 -0.0087014 0.097947724 -0.036112443 -0.07933838 -0.08980889
0.032430936 0.00031688015 0.036941517 0.019107511 -0.08187558 0.102897264 0.022057334 0.038432274
0.102197155 -0.07304499 -0.067595124 -0.014939725 -0.13171662 0.09932722 0.111422904 -0.12533453
0.043320198 -0.05374915 0.05189787 -0.014165436 -0.08519396 -0.007194652 -0.076650605 0.08109182
-0.032672353 -0.032141343 -0.074733496 0.024132377 -0.07567362 -0.13870339 -0.05724557 0.14103463

rnn.bias_hh_l0 f4 [192]
00000000: 5e92 5d3d 3eb4 adbb c3d7 02bd a543 ad3d
00000010: 8fc9 95bd 2be7 6fbd f7da 4c3d 67c9 093e
00000020: f7a3 95bc 3b90 b2bd 4694 57bd a4da e13d
00000030: 94ce 55bc 74a6 5abd 33ea d53d b458 ea3d
00000040: 0ced 6abc b752 65bb 71b7 4f3d 74b5 ba3c
00000050: 9ed8 5a3d 23f1 b3bd 957b dbbd 0a5e f0bd
00000060: c8de d63d d8dd 293d 346c a83d 9c2c 103d
00000070: 4ed5 84bd fea0 11bd 46ee 9f3d ce7b e5bc
00000080: 451d b4bd d5aa 46bd cfd5 a7bd 08bf 86bb
00000090: 3f1e 42bd 7368 0a3e ef92 27bd 6a1b a6bb
000000a0: 1bd2 52bd 005a 3bbb bd56 f43c 75ae 65bd
000000b0: ac7e 0c3e 51d7 bf3d ef72 b03b 0194 c1bc
000000c0: bf5b b6bd 05f6 c13d 12df e03d b1b3 153d
000000d0: 76dd 26bd e800 bb3d c567 21bd b2a5 ec3c
000000e0: 5661 df3d 13d5 c53d 87dd 3bbd ec60 68bd
000000f0: b910 9fbd e6c8 83bd 68b9 76bd 8f74 9cbc
00000100: d37f 443d b28c 2cbe 2c7f e2bd e272 ebbc
00000110: 3004 37be 5335 3ebe 3a8c 43be 4a00 fabd
00000120: 2255 a43c 4e10 05be c4a6 3fbd ecc9 a9bd
00000130: c77f 7fbd 9c90 18bd a952 acbd 8759 b0bd
00000140: dc0a a1bd 11d9 0c3d f805 1bbe f4da cabd
00000150: d9d0 b0bc 552c 0cbe 0826 4d3c a252 1dbe
00000160: b59d 06bd 92a7 683d 68b1 b7bd 949e 163d
00000170: de43 fbbc f7dc 33be 7f51 aebd 948a fe3c
00000180: 9f24 febc 0f33 f6bc ca16 bbbd 64f0 03be
00000190: e57c f9bd 02cd 33bd e908 cebd db95 7abd
000001a0: fb4f 9abd 6a54 cb3d 17d3 653c c13d 10be
000001b0: 23b0 a2bd d76b 23be 3b29 01bd 985e 2cbd
000001c0: 9124 26bd 60cc c0bd 1a6d 42be 7cff 90bd
000001d0: d364 3f3d 0200 73bc 45d5 d6bd af0a 103d
000001e0: 7a59 913c 09f9 48be 7105 433c 16e8 06be
000001f0: 4679 ee3b 2f96 cc3d f76b ffbd 8798 e93c
00000200: 6284 953d 7885 08be b9bf a3bd 8b47 83bd
00000210: 461e da3a c62f 01be 872d 8039 56e4 a1bd
00000220: e83e aabd 5884 9ebb d5c7 413c 185f 3d3d
00000230: 8058 f8bd ea0d 5abd cb7b 41bd 426e 07be
00000240: f0a8 0b3d b27f 89bd d4a4 143e 6ca1 9abd
00000250: 7575 34bd 09b9 a236 4798 8b3d 4478 aebd
00000260: fb12 a9bc 1447 c23b c512 b2bd cf92 b8bc
00000270: 95d6 a43d cfbb 42bd 5db7 683d 23b0 f93c
00000280: cef5 2fbd 6fce 9c3d 9022 2abd e9fd 833c
00000290: cec4 15bc e6f2 6b3b 8ff4 6c3d a17c 2fbc
000002a0: bc2e a23d b020 dfbd cd71 abbc 92f3 72bc
000002b0: 37ae 97bd 37c2 c5bd 7b02 583d 6186 06be
000002c0: 9581 db3c 5bda ad3b c899 3b3c 77e1 69bc
000002d0: 0312 bbbd e90a c4bd d94e 9b3c 6761 b73d
000002e0: f131 e83d 8d02 fb3b 9a73 97bd 8ecf 0bbe
000002f0: e87d 343d 7d28 41bd f587 343d b929 f53d
0.054094665 -0.0053010276 -0.031944048 0.08460168 -0.07313835 -0.05857007 0.05001351 0.13455735
-0.018266661 -0.08718916 -0.05263164 0.110280305 -0.01304974 -0.0533814 0.104450606 0.114427
-0.014338743 -0.003499193 0.050712053 0.022791602 0.05342924 -0.087862276 -0.10716931 -0.117366865
0.10491711 0.041471332 0.08223763 0.035198793 -0.06485997 -0.035553925 0.07809119 -0.028013136
-0.08794645 -0.048502762 -0.08195078 -0.004112128 -0.047392126 0.13516407 -0.04091161 -0.005069186
-0.051469903 -0.002858758 0.029826516 -0.05607458 0.13720196 0.0936724 0.005384795 -0.023630144
-0.08904218 0.094707526 0.10980047 0.03654832 -0.040738545 0.09131032 -0.039405603 0.028887603
0.10907237 0.09659781 -0.04586556 -0.056733057 -0.077668615 -0.06434803 -0.06023541 -0.019098548
0.047973465 -0.16850546 -0.11059412 -0.028741304 -0.17872691 -0.18575029 -0.19096461 -0.122070864
0.020060126 -0.12994501 -0.0467899 -0.08290467 -0.062377717 -0.037247285 -0.08414204 -0.08610826
-0.078633994 0.0343867 -0.15138996 -0.09905043 -0.021583961 -0.13688786 0.012521274 -0.15363553
-0.032865245 0.056800433 -0.089693844 0.036772326 -0.03067201 -0.1756476 -0.08511638 0.031071939
-0.031023322 -0.030053644 -0.09135206 -0.1288467 -0.12182025 -0.043896683 -0.10060293 -0.06117807
-0.07534786 0.0992821 0.0140273785 -0.14086057 -0.07943752 -0.15959106 -0.03153346 -0.0420824
-0.040562216 -0.094139814 -0.18986931 -0.0707998 0.046727013 -0.014831545 -0.10489897 0.03516644
0.017742861 -0.1962625 0.011903153 -0.13174471 0.0072776405 0.09989583 -0.124717645 0.028515114
0.07300641 -0.13332164 -0.079955526 -0.0641013 0.0016641102 -0.1261588 0.00024447983 -0.0790488
-0.0831278 -0.004837554 0.011827429 0.046233267 -0.12126255 -0.053235926 -0.0472372 -0.13225654
0.03409666 -0.06713809 0.14516002 -0.0755032 -0.04405733 4.849517e-06 0.06816154 -0.085190326
-0.020638933 0.0059288833 -0.08694986 -0.022530941 0.08048741 -0.04754239 0.056815494 0.030479496
-0.042959027 0.076565616 -0.041536868 0.016112285 -0.00914116 0.0036002933 0.057850417 -0.010710866
0.0791907 -0.108949065 -0.020928288 -0.0148285795 -0.07406276 -0.09656184 0.05273674 -0.13137199
0.026795188 0.005305571 0.0114502385 -0.014274946 -0.09134295 -0.095723934 0.018958496 0.08954125
0.113376506 0.007660216 -0.07395096 -0.13653395 0.044065386 -0.047157753 0.04407497 0.119708486

rnn.weight_ih_l1 f4 [192, 64]
00000000: 233c daba 565c adbd 0552 fabc 5738 263d
00000010: 35d2 5c3d 0d3b 093d 5f0e 123d 86f0 383d
00000020: 7b76 563d 5699 9c39 aa76 bd3d b2ff c4bd
00000030: 05ed e2bd 4ce8 fabd d8d6 d33d 969e c93c
00000040: 56d8 84bc 1b45 043e b042 65bd 27bd 92bd
00000050: a36e 87bc 9f2a afbd e29c b13d 9db8 c5bc
00000060: ef60 e5bc 30b8 583d 074e 58bc 874c a6bd
00000070: 4a93 4a3d b05b 993c e11c 013e 829f 11bc
00000080: f50d 123e 0fc8 40bd 00ba 0ebd 7fbd b6bd
00000090: e636 9d3d 348c 013e 427e 0b3e 322e 27bd
000000a0: 29c0 57bd afde 85ba 1894 b63d 28b8 08bd
000000b0: 8a54 16bd a245 d9bd 36f9 1e3d 8a67 c93d
000000c0: 60a3 023c 9ecc 843d 45ba a73d 1928 39bc
000000d0: 1cab bbbd ffe9 f2ba f5d7 d1bc 5cc6 b8bd
000000e0: 6a73 a23d a7c7 bbbd 524d 11be bbb2 503d
000000f0: 386a 133e bfba 08bc ad52 e43b 8591 f53d
00000100: a9df 013e 3317 14be de52 343d b5ba 1abd
00000110: ae3c f43d 0130 3fbd c4bf 3cbc a324 10be
00000120: cde2 843c 24a8 883d fbd9 debd e942 6f3d
00000130: 2949 ec3c e092 123d e51a 933d f565 533d
00000140: c238 80bd 51dc 023e 97ee 1c3e 9f34 053e
00000150: b67a c5bd 23ba d23d 991c 7dbc 8c75 a6bc
00000160: 955a c73d e528 8bbd a907 89bd 7055 68bd
00000170: 1e77 9f3c 4727 953d 2b12 28ba 9a2c ca3d
00000180: a1f8 bd3d faea 813d f301 b23d 1299 2bbd
00000190: efce 71b8 3960 aa3d d58c 28bd 2c76 b0bd
000001a0: d74e 0abd f43c f83d 1790 16bc 3af6 a83d
000001b0: 0c28 073c d6a8 093d c152 433d 0dac 65bc
000001c0: 8997 93bd eea9 c03d 1ee5 0f3e fb18 4e3b
000001d0: 34fd 4bbd 3f32 94bd 324b 80bd 99a6 a93d
000001e0: 33fe 123e 8b9f 353d 12d6 943d 8c69 d5bd
000001f0: 2908 6cbb f41d 703d b5c1 923c ddbf a3bd
00000200: 0e6b 993d 2113 4cbd 9bab b3bd 7ba4 90bd
00000210: 9017 6f3d 5581 f33b 2bfa babd a036 b73c
00000220: e9a8 3fbd b1e6 be3d 5592 a73d 4aa5 f5bc
00000230: a1a6 09be 10c6 953b bf0e 0abd 175c 843d
00000240: 7bd2 ffbc 871e 753d 1bec 25bd 18f9 30bc
00000250: c18f f93c ceb8 c9bd 898e edbc 8c97 12bd
00000260: 3d33 b43d e7d4 83bd 95c2 7fbd 492b f53c
00000270: 82b8 623d a6b9 89bd a790 0e3e f418 97bd
00000280: 59f7 99bd a781 c43d 16bd 24bc 24bc e9bc
00000290: ed5b b7bd 6e66 bb3d 8c2d 463b 4cae 39bd
000002a0: 2a66 063e 23a1 253d 52be 80bd fc37 c43d
000002b0: cb40 a63d 7671 173d 46c5 89bd 9122 68bd
000002c0: 4dcb 973c b966 f53c 46be 2c3d ea44 0a3d
000002d0: 3970 a5bd 28e7 e3bd e088 34bd e2dc eb3d
000002e0: e6a6 a53c 05eb 3cbd b481 c93d 2c40 17bd
000002f0: 7275 973d 194f 5e3d fdad 41bd 71aa 243d
00000300: 3444 a8bd 76a7 edbd ae98 2cbd 0d24 a6bc
00000310: 2eaf aebd ec7c d93c f99c 003d 6537 10bd
00000320: 1acf efbc 4a66 663d 5b47 0f3c c113 cb3d
00000330: 933e e5bc adc0 943c 8dd8 893c 9748 62bd
00000340: 6a23 f33d 1498 d8bd b1a1 d73d 712f f83d
00000350: 195a d1bd e7ec 8e3d 4b78 9dbd 54ea 2dbd
00000360: e595 afbd e1d5 fb3d 6326 a8bd 95d3 2fbd
00000370: 3782 53bd 71c1 99bd 53a0 e83d 6348 febd
00000380: 18e1 8cbd df71 ce3d 3e39 a8bd ec89 25b9
00000390: ef3f 03ba 677d c8bd fd82 7f3d 36fe 85bd
000003a0: cfcf 413d d626 1bbd bbb0 bc3c 190c 103d
000003b0: d151 39bc 247d 0cbe 576a 5cbb d886 273d
000003c0: 28d5 2b3d 5737 dc3c cb07 d93d 1311 09bc
000003d0: 843c 18bd d984 2bbd 1e32 1abd 5fbe 4f3c
000003e0: abe6 683d 997a eabd fd18 30bd 2f14 d13d
000003f0: c77b c6bd 2fc7 f73c 746d a4bd 7e6f 173c
-0.0016650002 -0.08464877 -0.030556688 0.040581074 0.053911407 0.03350358 0.035658237 0.045151256
0.052359086 0.00029868883 0.09251149 -0.096190825 -0.11080364 -0.12251338 0.103437126 0.024611752
-0.016216438 0.12916987 -0.0559718 -0.07164984 -0.016532248 -0.08553051 0.08672501 -0.024135882
-0.028000323 0.05291003 -0.013202197 -0.08120065 0.049456872 0.018720478 0.12608673 -0.008888127
0.14263137 -0.04706579 -0.034845352 -0.08922862 0.07676487 0.1265114 0.13622382 -0.04081554
-0.052673493 -0.001021346 0.089149654 -0.03337875 -0.036701716 -0.106089845 0.038811885 0.09834202
0.007973522 0.0648434 0.08189825 -0.011301064 -0.09163496 -0.0018532871 -0.025615672 -0.09022209
0.0793217 -0.0916894 -0.14189652 0.0509517 0.14395988 -0.008345305 0.0069678635 0.11990646
0.12682976 -0.14461975 0.04402434 -0.037775714 0.11925636 -0.04667664 -0.01152033 -0.14076476
0.016221428 0.06672695 -0.1088142 0.05841342 0.02884348 0.035784602 0.07182864 0.051610906
-0.06260826 0.12779357 0.1532539 0.13008355 -0.09642546 0.10289409 -0.015448713 -0.020319723
0.09734074 -0.067949094 -0.06690914 -0.056722105 0.01946598 0.07282882 -0.00064113986 0.09871788
0.09275938 0.06343646 0.08691778 -0.041894026 -5.76516e-05 0.08319134 -0.041149933 -0.086162895
-0.033766594 0.12121001 -0.009189627 0.08250089 0.008249294 0.03360828 0.047686342 -0.014018071
-0.072066374 0.094074115 0.14052245 0.0031447995 -0.04980202 -0.07236146 -0.06264342 0.08283729
0.14354782 0.044341605 0.07267393 -0.10420522 -0.0036015606 0.058622316 0.017914632 -0.079955794
0.07491122 -0.04982293 -0.087729655 -0.07062622 0.05837208 0.007431189 -0.09129747 0.022364914
-0.046791945 0.09321345 0.081822075 -0.029986043 -0.1344247 0.00457073 -0.03370547 0.06462877
-0.031228295 0.059843566 -0.04050837 -0.010801576 0.030464055 -0.09849702 -0.02899863 -0.035789058
0.087988354 -0.06437092 -0.062441427 0.029927867 0.05535174 -0.06724863 0.13922368 -0.07377806
-0.07517881 0.09595042 -0.010054847 -0.028532095 -0.0895308 0.09150396 0.003023955 -0.045332238
0.1312491 0.040436875 -0.06286301 0.09580991 0.08117827 0.03697344 -0.0672708 -0.05667359
0.018529559 0.029956209 0.042173646 0.033757128 -0.080780454 -0.11128074 -0.044075847 0.115167394
0.020221185 -0.04612257 0.09839192 -0.036926433 0.07395448 0.054274652 -0.04728507 0.040201608
-0.08216134 -0.11604206 -0.042137794 -0.020280862 -0.085295066 0.026548825 0.0313997 -0.03520908
-0.029273558 0.056249894 0.00874504 0.09915877 -0.02798394 0.018158281 0.016826892 -0.05524501
0.11871989 -0.105758816 0.10528887 0.12118424 -0.10222263 0.06978779 -0.0768896 -0.0424598
-0.08573512 0.122966535 -0.08210447 -0.04292639 -0.051637854 -0.07507599 0.113587044 -0.124161504
-0.06878871 0.10080313 -0.08214043 -0.00015787006 -0.000500678 -0.097895436 0.06238078 -0.065426275
0.047317322 -0.037878834 0.02303349 0.035167787 -0.01131101 -0.13719612 -0.003363272 0.04090008
0.04195133 0.026881857 0.105971895 -0.008365887 -0.037167087 -0.04187474 -0.03764545 0.012679665
0.056860607 -0.11449165 -0.04299258 0.10208928 -0.096915774 0.030246345 -0.08028689 0.00924289

rnn.weight_hh_l1 f4 [192, 64]
00000000: 1057 ac3d c550 2c3b 3ece c43d 81ad e43c
00000010: 6050 16bd 55e2 b63c 43dd bfbd c68d 14be
00000020: 475f 1d3e b57e 843d 4266 243d 1eb2 4f3d
00000030: f887 87bd df42 b9bc eac3 92bc 5992 b03c
00000040: f24b 41bd 71ef b13d 8017 87bd 4537 353c
00000050: 8a7c 35bd 8785 bbbd 9f18 853d 5197 c03d
00000060: c10b babd dc33 dfbd 57a7 ea3c 21f6 ac3d
00000070: 37c4 ac3d e933 f3bc 3c19 523d 6134 41bd
00000080: b510 3d3d d1f8 82bd 4722 013d b000 c53d
00000090: 853e 51bb 5c7f c8bd 154d 0e3e b46f 013e
000000a0: a0e4 71bc c8f6 053e 168d acbd 3b8b 8b3d
000000b0: 19fa 30bd 0b65 09be d06e fabd 1c29 943d
000000c0: 3fa7 cc3d cd24 27bd f019 f83d 7fbf b1bc
000000d0: d323 a6bb 891d 26bb 0069 433d dc6d afbd
000000e0: 3e19 343d 94fe 3e3c d9e0 4ebb b9f7 09be
000000f0: 001b d0bd ec67 8dbd 1afb 1b3e dc3b 483d
00000100: 7d83 913c 67fd 39bd 30e7 74bc 1235 f6bd
00000110: dca4 a3bd 29ad ca3c 8dee ffbc d04c 553c
00000120: 26c0 383d 4427 bc3d b532 0a3d 09b5 883d
00000130: 7ee0 76bb cc49 b4bd 5687 cc3d 3adf ae3d
00000140: bb31 443d ee84 cb3c 7871 9c3d 455c 073e
00000150: ddf9 06bc 817f fe3d 574e 013e 3dad 92bd
00000160: 4383 423d 9a3c 283d 8e83 fd3d 3cf5 fdbd
00000170: f102 343d 22a1 a9bd 00cc 70bd 7fd3 053b
00000180: e71c 153c 8037 9abd 576f 37bd 7131 b53d
00000190: ed80 0f3e d9a0 9e3d 7d8c a13b 6193 0bbd
000001a0: 79ea 42bd e992 cb3d 1cf6 763d ca4a 2abd
000001b0: 5083 b7bd 9c83 93bd f509 c13d 6159 2b3c
000001c0: c9bf 10bc c2c6 01be 0232 01bb 2402 a2bd
000001d0: 4f87 88bd ffe7 9a3d 157a d03d 3574 debd
000001e0: b699 9cbd 3100 9b3d 54fa 8f3d 40fe a03d
000001f0: 484e b13c b9a7 063e 685f c2bc 0d4b 043e
00000200: 5f6c 11ba ac49 c4bd 65a7 a5bc cab7 833c
00000210: c30e a63d fbbe 05be fc4c 9c3c e3c4 b4bd
00000220: 122c 0c3e 0f84 973d 2731 e3bc 5b12 553d
00000230: 3a54 723d 5684 123e 3d4b 513c 93f5 e1bd
00000240: 2d18 fcbc 82ea 17be a1fc 573d e731 b8bd
00000250: 9a8e f4bd 33a8 833c 1f2f 7fbd 8642 3f3c
00000260: 0bff 283c 736e 2abd dff1 823c 74b4 773d
00000270: f7df 5d3d 682a 913d 1e21 043e c453 18bc
00000280: 2822 30bc c971 413d be48 a8bd 1f28 3ebd
00000290: 0ac7 b5bd 3864 8dbd 0e03 b63d e9d8 c0bd
000002a0: d9d4 9b3d a949 cdbc 43ca 6ebd 133b 3bbd
000002b0: db48 f63c 1686 5cbd 74b0 94bd 8dc3 d6bd
000002c0: a1e0 463c 6419 f93d dff2 c53c 3b73 1e3d
000002d0: 78bb e43c 92c6 d6bd fca2 69bd d741 15be
000002e0: e818 043d 772a a73c cea9 633d be3d 5cbd
000002f0: 74ee 4d3d 08b5 99bc dfcd 8e3d 5c0b 783d
00000300: d918 3cbd 1733 87bd d052 53bd f259 8fbd
00000310: 80bb aa3b a279 09bd afae 663d a11f 883d
00000320: b4f7 e93c dd48 86bd e799 ff3d dac9 c23d
00000330: 69ac b13d e2a3 cebd 7db3 d03d 9951 0abe
00000340: 02c2 6fbd 7dbc 9abd ddda 153e 5f14 debd
00000350: 9601 7ebd 0a1c 47bd 0bfd e93c 5e15 bc3d
00000360: 5ed3 6e3d 46a8 59bd 7730 c8bd 8a25 26bc
00000370: 6150 55bd d065 463d abe5 b1bd b9a1 0bbd
00000380: db2a b7bd c463 573c b1ce 87bd c5e2 8fbd
00000390: 7c4c 823c 7dcd cc3d 495d a8bd c734 c53d
000003a0: b21f 923b 9125 34bc 1187 483c 705d 433d
000003b0: cc21 ecbd 5670 d13d 71ff babd 8aa9 f83c
000003c0: d9ba 203d 86a1 8c3c 08a9 1a3d ae8f b73d
000003d0: a6b5 88bd 28d0 06be 35c4 f83d 8003 b63d
000003e0: a22c 06bd a1c3 eebc b14b 2c3d ca96 05be
000003f0: ce88 f8bd 22b5 0ebd e5fa 30bd ceda d53d
0.08415043 0.002629326 0.0960965 0.027914764 -0.036697745 0.02232472 -0.09368374 -0.14507207
0.15368377 0.0646948 0.040136583 0.050706975 -0.06617731 -0.022614894 -0.017915685 0.021554159
-0.047191568 0.08688248 -0.06596279 0.011060541 -0.044308223 -0.09156328 0.06498837 0.09403861
-0.09084273 -0.10898563 0.028644247 0.08445383 0.084358625 -0.029687839 0.051293597 -0.047169093
0.04615851 -0.06395114 0.03152683 0.09619272 -0.0031928134 -0.09789917 0.13896592 0.12640268
-0.014763981 0.13082421 -0.084253475 0.068136655 -0.04320726 -0.13417451 -0.12228167 0.072344035
0.09992837 -0.04080658 0.12114322 -0.021697758 -0.0050701885 -0.0025347194 0.047707558 -0.08565876
0.043969385 0.011657376 -0.0031567125 -0.13473405 -0.101614 -0.06904587 0.15232506 0.04888521
0.017762894 -0.04540768 -0.0149476975 -0.12021841 -0.07990429 0.024740772 -0.03124168 0.013018802
0.045105122 0.09187177 0.033739764 0.06675155 -0.003767043 -0.08803138 0.09986751 0.08538671
0.04789899 0.02484366 0.0763883 0.13218792 -0.008238283 0.12426663 0.1262754 -0.07161949
0.047488462 0.04107342 0.12378608 -0.1240029 0.043948118 -0.08282687 -0.0587883 0.002042025
0.009101129 -0.07530117 -0.044783916 0.08847321 0.14014025 0.07745523 0.0049300776 -0.0340761
-0.04758689 0.0994013 0.060293302 -0.04157523 -0.08960593 -0.07202837 0.09425727 0.010458321
-0.008834788 -0.12673476 -0.0019713645 -0.079105645 -0.06666433 0.07563781 0.10179535 -0.108620085
-0.076465055 0.07568396 0.07030168 0.07860994 0.021643773 0.13149919 -0.023727134 0.12919255
-0.00055474596 -0.09584364 -0.020221421 0.016078848 0.08108284 -0.13061135 0.019079678 -0.08826616
0.13688686 0.07398235 -0.027733399 0.05201946 0.059162356 0.14308295 0.012774286 -0.11033168
-0.030773247 -0.14835551 0.05273116 -0.08993893 -0.119412616 0.016071415 -0.062300798 0.011673575
0.010314713 -0.04160924 0.015984474 0.060474828 0.054168668 0.070881665 0.12903258 -0.009297315
-0.010750331 0.047227655 -0.082169995 -0.04642498 -0.08875854 -0.06903881 0.088873014 -0.09416372
0.07608957 -0.025059538 -0.05829836 -0.045710634 0.030064037 -0.05383881 -0.07260218 -0.10486517
0.012138517 0.12163046 0.024163662 0.03868411 0.027921423 -0.10487093 -0.0570402 -0.14575897
0.032250315 0.020405991 0.05558186 -0.05376982 0.050276235 -0.01876308 0.069728605 0.06055771
-0.045922134 -0.066015415 -0.051592648 -0.069995776 0.00521034 -0.033563264 0.056318935 0.06646658
0.028560497 -0.06556866 0.124805264 0.095111564 0.08675463 -0.10089852 0.10190485 -0.1350769
-0.05853463 -0.075554825 0.14634271 -0.10843729 -0.06201323 -0.048610725 0.028563043 0.09183763
0.058307044 -0.053138994 -0.09774869 -0.010140786 -0.05207861 0.04843694 -0.08686384 -0.034089778
-0.08943721 0.013146345 -0.0663122 -0.07025675 0.015905611 0.10000131 -0.08220918 0.09629207
0.004459345 -0.010995285 0.012239234 0.04769653 -0.11529884 0.102265045 -0.09130753 0.03035428
0.03924069 0.017166864 0.037758857 0.089629516 -0.06675272 -0.13165343 0.121467985 0.08887386
-0.03275741 -0.029146018 0.042064372 -0.13045803 -0.121354684 -0.03484071 -0.04320802 0.10442124

rnn.bias_ih_l1 f4 [192]
00000000: 1331 42bd acc4 3dbd 1b1d 2cbd ec07 963d
00000010: afd3 f23d b87b 7a3d c700 403d f68e 003e
00000020: e8c6 d4bd 5375 ddbd 5c3b cc3d a500 8e3d
00000030: 90c2 30bc 1e60 023d 6637 af3c 7e05 d23d
00000040: d491 663c 0721 e43c 4946 bd3d e102 0c3e
00000050: af0a 393d e6bf b6bd 5db9 203c fc25 dbbd
00000060: 24ff e33d 7c40 ed3c e4cd 473d 2c87 e93c
00000070: 7623 033e 8972 f1bd 88e3 4fbd a59c a33d
00000080: 2014 0d3d 5103 133d a448 d9bc e30e 07bd
00000090: c808 b2bd 229d 16bd 8cca ecbc 99ca 9f3d
000000a0: 59cd 8e3c 89ec babd b6be 753d f757 cbbd
000000b0: 33ce a63c b2eb c23c d3f5 05be 8375 b13d
000000c0: 6ab2 7a3d a5b9 903d 4223 a7bd 59ac 9639
000000d0: 076d a3bb ccb7 f53d f639 1f3d 25e6 a73d
000000e0: b726 1b3e 574d 41bd 8fc3 d93d a616 cbbc
000000f0: 0907 053e dd4e 1fbd aa59 7ebd 8fc1 cf3d
00000100: 4c9f 2fbe 585e abbd 1079 09bc f95c 22be
00000110: a877 d6bd 4b8a efbd ef0c 86bd 4d30 06bd
00000120: f367 d9bc f006 7d3c 577c 0abd c6e0 bfbd
00000130: 3306 71bd 80f1 bdbd 9957 4f3d 661d 0abe
00000140: c7f8 bb3d dc69 3dbe a6e5 97bd c945 05be
00000150: 514b 263d 88f3 89bd c9d8 63bd f723 fe3d
00000160: 9269 1fbe 5ae0 3ebd dd20 09be f310 fa3c
00000170: 6e7e 1abe 124e 44bd fe06 263d 49b5 2fbd
00000180: 37a9 39be 00e5 a2bd 17e7 25be 4f59 29be
00000190: 34b8 01be 3582 17be d379 01bd 3c83 2bbe
000001a0: ab9c 24be eb39 abbd 1b64 1fbe a0fa f1b7
000001b0: 1dee a2bc a951 cbbc 9e47 253d ca16 dcbc
000001c0: b268 fbbd 68f5 b1bd 092b 933c 73ba a1bd
000001d0: 8c34 cebd 9228 7c3c 92ce 05be c4b9 e13c
000001e0: 5493 3fbc 23ed 0abe e068 953c 4fb0 87bd
000001f0: 61ca 613d 48c2 febd 85a3 c6bd 8296 48be
00000200: d76d a53d 345c b23c ed45 a2bd 4918 63bd
00000210: 5abd 5d3d e365 f6bd 093f 32bd 5fbf a43c
00000220: f7c1 dd3d 5a83 a9bd 810e 183e d53b 1c3e
00000230: 0721 2d3d 777c ddbc 82b6 6d3d 5b58 433d
00000240: cf35 62bc 5b16 98bd 7102 5abd ae61 4cbd
00000250: d07e 9fbd 4f5a 2c3d 2f6d c73d 447e 0a3d
00000260: 9d6b f2bc 4728 0cbe 9444 553c 8697 00be
00000270: 7584 c9bd 44d5 b83d 02e4 323c 7bc9 963d
00000280: 43b0 8c3d b6cd 73bc c949 03be 3601 d43b
00000290: ddf9 13bd 4d2f 4a3d 5d27 58bd 6ea1 7dbd
000002a0: 4abe e23d ae99 4abd bd01 af3a 22c3 623d
000002b0: 1d29 c03c 2fd4 42bd 2e91 17be a7e3 df3c
000002c0: 57b0 7fbd 170d cabc 59ca 123d fe4d eebd
000002d0: 3a91 a53c 75df a3bc c4a5 813b 413c 08be
000002e0: 3cb6 0f3e aaba c0bc 8ea9 68bd e7db 84bd
000002f0: 4594 41bc e932 933d b382 f53d cb02 88bd
-0.047410082 -0.04633014 -0.042019945 0.0732573 0.11856782 0.061153144 0.04687574 0.12554535
-0.10389501 -0.108133934 0.099722594 0.06933717 -0.010788575 0.031829946 0.02138872 0.10254954
0.014072854 0.02784778 0.092419215 0.13672973 0.045176204 -0.089233205 0.009809819 -0.10700604
0.111326486 0.028961413 0.048780337 0.028506838 0.12806496 -0.11789424 -0.0507541 0.07988862
0.03444302 0.035891835 -0.026523896 -0.03297318 -0.08693081 -0.036770947 -0.028905176 0.07802314
0.017431902 -0.09127147 0.05999633 -0.09928887 0.020361995 0.023794029 -0.13082056 0.08664992
0.061205305 0.07066659 -0.08161022 0.00028738639 -0.0049873623 0.11997947 0.038873635 0.081981935
0.15151487 -0.047192898 0.10633003 -0.024791073 0.12990965 -0.03889357 -0.06209723 0.1014434
-0.1715061 -0.08367604 -0.00839068 -0.15855779 -0.10472041 -0.11696299 -0.06545436 -0.032760907
-0.026538825 0.015443549 -0.033809986 -0.09369044 -0.058843803 -0.09274578 0.05062065 -0.13487777
0.0917831 -0.18497413 -0.07416849 -0.13014902 0.04059917 -0.06735903 -0.055626664 0.124092035
-0.15567616 -0.046600677 -0.13391443 0.03052566 -0.15087292 -0.047926016 0.040534012 -0.042897496
-0.18130957 -0.079538345 -0.16201435 -0.16537975 -0.12667924 -0.14795764 -0.03161032 -0.1674928
-0.16075389 -0.08360656 -0.15565531 -2.8846145e-05 -0.019888932 -0.024819212 0.040351503 -0.026866335
-0.122758284 -0.08689386 0.017964857 -0.078968905 -0.10068616 0.015390532 -0.13067082 0.0275544
-0.011692841 -0.13567023 0.018238485 -0.06625425 0.055124644 -0.124394 -0.096991576 -0.19588664
0.08077591 0.021772482 -0.079234935 -0.055443082 0.054135658 -0.12031152 -0.043517146 0.020110784
0.108280115 -0.082770064 0.14849283 0.15257199 0.042267825 -0.027036889 0.05803538 0.047691684
-0.013806774 -0.07426139 -0.053224985 -0.049897842 -0.077878594 0.042078312 0.09737622 0.033811823
-0.02959233 -0.1368724 0.013016839 -0.12557802 -0.09839717 0.09025052 0.010918619 0.07362648
0.06869557 -0.014880588 -0.12821116 0.006469871 -0.03612696 0.049361516 -0.052771915 -0.06192153
0.11071451 -0.049462967 0.0013351958 0.055361874 0.023457104 -0.047565635 -0.14801475 0.027330233
-0.06242403 -0.024664445 0.035837505 -0.116359696 0.020210851 -0.020004014 0.0039565284 -0.13304235
0.1403436 -0.023526508 -0.056802325 -0.064872555 -0.011815135 0.07187445 0.119878195 -0.06641158

rnn.bias_hh_l1 f4 [192]
00000000: 8455 ba3d e801 953d 7f9f 12bd bd33 003d
00000010: 6792 a03d 044a d23c f50f 87bd 441a cb3d
00000020: 5592 a4bd 0ba0 d8bd 2f3f dcbc 9235 fa3d
00000030: bd42 22bd bffe c83d ec3e 843d e96e db3c
00000040: 1200 9cbd 68d2 9abd df9a 903d ed25 80bd
00000050: 859a 2b3d c107 39bd dd54 3d3d 7a18 bcbd
00000060: cd3d 193e bf9c dd3c 4eb8 ccbd bb5d 1abd
00000070: fe7e 013e 9813 cabd 72ee 94bd e56e a93d
00000080: 66cb 903c a1e3 0f3c cb29 6f3d f68f 48bd
00000090: c43a ccbc aa75 903b e91c d43d c018 9c3d
000000a0: 54ef b93d bc9d cabc c1c0 773d e9aa 063d
000000b0: f90b 51bc 2626 9cbd 8380 b3bd 5dbb 78bd
000000c0: cb7c dcbd cb4d 1b3a 1459 8b3c 1532 143e
000000d0: 9426 24bd 622f 8cbc 8b04 933d 9504 b1bd
000000e0: 5b8d 823d 1eb8 70bd 993c cbbd 0dcc 0b3e
000000f0: d582 45bd 8adf 15bc f5a3 78bb 6f94 883d
00000100: 76c6 94bd 2683 a13c bc3a e63c 9d34 c3bd
00000110: 5a4b fabd 76a0 42be 955d 3fbe cd17 9b3c
00000120: 378f 363d e25f a1bd 2efa 40be 3535 24be
00000130: 6319 20bc 0cff 1ebe 8c71 d63c c259 75bc
00000140: 5881 bebd 643e 6dbd d1b4 17bb d311 0fbd
00000150: 6038 48bd 092d ebbc e163 08be 7ec5 003e
00000160: 8ecc 13be 66a1 d3bd 2997 6c3c 165a 073d
00000170: 2b22 b2bd e301 6d3c 25fd a9bd ddd0 b0bd
00000180: 2061 2d3c d5b9 0ebe 6805 1ebe c62d 3a3d
00000190: c964 dcbd 2472 c6bc 3d11 c5bb 1ca2 f9bd
000001a0: 0e39 32bd 1fc4 673c d2b2 3a3d 1704 213d
000001b0: bef1 1abe db77 2fbd 994d 53bd 6215 623d
000001c0: bded 25be 588e 8cbd 33e8 22be 0b4f 2cbe
000001d0: 6c81 073d bba9 2abe 3439 ea3c 0c48 46bd
000001e0: b232 da3c 1545 1cbe 8b78 02be 91fc 92bd
000001f0: 57ec 6f3d b028 043d 1788 393d 67e4 2cbd
00000200: e8f1 4a3c 3a92 183d 70bb 2fbd 81e5 27bd
00000210: 3f9a 853c 782b 783d f477 a2bd f5ed 843c
00000220: e087 8dbd 808f 35bd 2029 1fb9 4735 053e
00000230: 0f19 ed3d 2e84 69bc 629a a33c 6497 04be
00000240: dc69 19bd 4c33 21bd c068 3abd a92d dc3d
00000250: 7aca 66bd 111e d23c 0472 9c3d 67a1 87bd
00000260: 3bbb 2d3b aa46 a83d 9f55 883d ca5f fabb
00000270: b931 edbd 6b88 f93c c29a 003d b00b a23c
00000280: 053d 0abd 8e5c 2e3d e056 0d3d 69ff 84bd
00000290: 747c 123e c18d 93bd 4f5e ac3d 157b 0dbd
000002a0: e901 133e 7491 f33d 653b cb3d 0669 adbd
000002b0: 75c8 97bd f2a2 17be 5b12 753d ba0c babd
000002c0: fff1 0d3e 2a74 9bbd 5791 53bd 4906 1abe
000002d0: d2f1 d4bc 112c 1bbd 7338 d1b9 5ce8 07be
000002e0: 2bc3 1a3e 58ec 6d3c 9896 ef3d 9541 15be
000002f0: 4409 efbd 2736 fdbc b38a f9bd 21d6 6abd
0.09098342 0.07275754 -0.03579664 0.03129934 0.07840424 0.025670059 -0.065948404 0.09917119
-0.08035723 -0.10577401 -0.026885597 0.12217249 -0.039614428 0.09814214 0.06457314 0.026786285
-0.07617201 -0.07559663 0.07060789 -0.06257234 0.04189541 -0.04517341 0.04622351 -0.09184356
0.14964981 0.027052281 -0.09996091 -0.037687045 0.126461 -0.098670185 -0.07272042 0.082731046
0.017675113 0.008782298 0.058389466 -0.048965417 -0.024930365 0.004408558 0.10357077 0.07621908
0.09078851 -0.024733417 0.06048656 0.032877836 -0.012759202 -0.07624464 -0.08764746 -0.06072556
-0.1076599 0.0005924373 0.01701025 0.1447223 -0.040075853 -0.017112438 0.07178601 -0.08643452
0.06374618 -0.058769338 -0.099236675 0.13652058 -0.048220474 -0.009147534 -0.0037939523 0.066689365
-0.07264416 0.019715857 0.028104179 -0.095315196 -0.122214034 -0.19006523 -0.18688042 0.018932248
0.044570174 -0.07879616 -0.18845436 -0.16035922 -0.009771678 -0.1552698 0.02617719 -0.014975013
-0.09302014 -0.05792083 -0.0023148546 -0.034929108 -0.04888189 -0.028707998 -0.13319351 0.12575337
-0.144335 -0.10333519 0.014440336 0.033044897 -0.08697923 0.014465782 -0.083002366 -0.086335875
0.010582238 -0.13938077 -0.1543175 0.04545381 -0.10761411 -0.024224348 -0.006014018 -0.12189123
-0.043511443 0.01414588 0.045580693 0.03931054 -0.1513128 -0.042838912 -0.051587675 0.055196173
-0.16203971 -0.068630874 -0.1590889 -0.16827027 0.03308241 -0.1666631 0.02859173 -0.048408553
0.026635502 -0.15260728 -0.12741296 -0.071770795 0.058575 0.032265365 0.0452958 -0.04221001
0.0123867765 0.037248828 -0.042903364 -0.040990356 0.016308902 0.06058833 -0.079330355 0.016226748
-0.06910682 -0.044326305 -0.00015178742 0.13008605 0.11577045 -0.0142527055 0.019971076 -0.12948376
-0.03745447 -0.03935556 -0.045510054 0.107508965 -0.05634544 0.025649102 0.07638934 -0.06622582
0.0026509303 0.08216603 0.06656956 -0.0076408135 -0.115817495 0.030460557 0.03139759 0.019780964
-0.0337496 0.042568736 0.03450668 -0.06494028 0.14305288 -0.07204772 0.084164254 -0.03454121
0.14356197 0.11892977 0.09923438 -0.08467297 -0.07411281 -0.14808252 0.05983196 -0.09084459
0.13861845 -0.07590516 -0.05165228 -0.1504146 -0.025994215 -0.037883822 -0.00039905644 -0.13272232
0.15113513 0.014521681 0.11698645 -0.14575799 -0.11671689 -0.03090961 -0.12184658 -0.057333115
