program/deep_learning/16 - Recurrent Neural Network/model/multivar/weights_best.pth (torch, 257143 bytes, 13 tensors)

rnn.weight_ih_l0 f4 [192, 5]
0.07852946 0.027165854 -0.037758596 -0.22522406 0.1732223 -0.124487534 0.01894708 -0.08362806
-0.068783924 0.08970193 -0.14162394 0.16492058 -0.06523892 0.29834628 -0.11247072 0.029857779
-0.06839752 -0.047050506 0.085257575 -0.32159755 0.03836102 -0.20502913 0.22204804 0.23926486
0.09337826 -0.09945124 -0.040404435 -0.036501933 0.103694394 0.096094295 0.18964012 -0.06267237
0.012407384 0.15021534 -0.03859621 -0.08415961 -0.16758913 -0.16388437 0.16247636 0.11081963
0.10593243 -0.04860883 0.10262476 0.036832992 0.024251822 -0.057655208 -0.10799884 0.08086783
0.130351 -0.027679872 -0.09900658 -0.012533687 0.114002764 0.14039169 -0.09068723 -0.092590995
0.08932301 0.038096793 0.07050364 0.1429505 0.04992674 0.1761793 -0.07089681 -0.0028233493
-0.1505043 0.108780235 -0.10794284 0.18532006 -0.090234004 0.016513715 0.04707577 -0.031582803
0.345833 0.08642572 0.3915504 0.061370652 -0.14265893 -0.0243496 -0.11391261 0.18699795
0.12566109 -0.13996692 0.053361934 0.20619775 0.08847679 -0.11366873 0.10342019 0.059321407
-0.06418724 -0.057460498 0.113153964 0.080464795 -0.056005053 -0.13613793 0.16223156 -0.058056403
0.048546605 -0.020141248 0.08881192 0.13445741 -0.07461101 0.38998714 -0.32100967 -0.069342755
0.30257508 0.037761316 0.04237948 0.13612814 0.03265349 0.0047354694 0.18983097 0.15362893
0.17185803 0.14189668 -0.13302974 -0.12797782 0.0639115 0.033242982 0.014558697 0.02879018
0.07136382 -0.07132579 0.11372416 -0.06251772 0.16529256 0.011345573 -0.27986962 0.36535177
0.23702163 -0.028190525 0.18348075 -0.16540836 -0.10277415 0.009852006 -0.076252535 0.1254142
-0.07552868 -0.010305015 0.08964598 0.1378881 -0.030507237 -0.25704017 0.18124738 0.1075866
-0.0077766133 0.04429939 -0.10091225 -0.0016964925 -0.013662202 0.16517162 0.07519799 -0.01744395
-0.17568818 0.023902318 0.031775266 -0.06545784 0.08377768 0.16209699 -0.002121723 -0.0790815
0.2339616 -0.1710405 0.19547458 0.20981264 0.033647012 0.1161765 -0.03498898 -0.05997894
-0.028472949 0.100396104 0.075229496 -0.31594414 0.20971856 0.22020455 -0.054003622 0.096518435
-0.11807438 -0.020533701 0.066634424 0.12801099 -0.1323834 -0.016889326 0.0946216 0.08528035
-0.22863725 0.15889055 -0.18000837 0.025489502 0.13083722 0.048506062 -0.17976418 -0.033978682
-0.08752286 0.22084162 -0.031621955 0.018212121 -0.115290865 0.21944815 0.047967523 0.07681233
0.13960482 0.13073243 -0.19970374 0.0433669 0.17520764 0.028573718 -0.1810327 -0.17035039
0.19598457 -0.06411148 -0.023694124 -0.110654704 0.10568352 0.042496253 -0.06255261 -0.0030208698
-0.031342644 0.3063737 0.020995399 -0.04118903 0.18594947 -0.018179879 0.006307533 0.088603854
0.113938294 -0.022454087 0.2654772 0.013572504 0.15928437 -0.39275023 0.12805916 -0.14936027
0.18704684 0.11333397 0.14146394 0.023815636 0.22037236 0.025868686 -0.18972406 0.17881174
-0.004683378 0.09054632 0.09459311 -0.1624578 -0.042810004 0.07318277 -0.0012783512 -0.06275724
0.23879299 0.03371539 -0.077216275 0.016985279 -0.058382545 0.0997606 -0.060546387 0.13848977
00000000: 0ed4 a03d ed8a de3c c2a8 1abd 23a1 66be
00000010: 3061 313e 52f3 febd e836 9b3c 3045 abbd
00000020: 96de 8cbd a5b5 b73d de05 11be f1e0 283e
00000030: fc9b 85bd d8c0 983e 0d57 e6bd 4d98 f43c
00000040: 0014 8cbd 08b8 40bd 869b ae3d 6fa8 a4be
00000050: 7220 1d3d 28f3 51be 9060 633e d901 753e
00000060: 1a3d bf3d 17ad cbbd 1f7f 25bd 0d83 15bd
00000070: ba5d d43d 16cd c43d 0531 423e 5f5a 80bd
00000080: 5748 4b3c 0dd2 193e 0f17 1ebd e05b acbd
00000090: 7c9c 2bbe 4ed1 27be 3460 263e 67f5 e23d
000000a0: 1af3 d83d 0d1a 47bd ee2c d23d 31de 163d
000000b0: c2ab c63c de27 6cbd 7f2e ddbd 089e a53d
000000c0: bc7a 053e e6c0 e2bc f6c3 cabd 185a 4dbc
000000d0: 487a e93d d7c2 0f3e 3aba b9bd 59a0 bdbd
000000e0: fbee b63d 620b 1c3d 3664 903d 9e61 123e
000000f0: fb7f 4c3d 5968 343e 5932 91bd f107 39bb
00000100: cd1d 1abe 2cc8 de3d 2311 ddbd 8bc4 3d3e
00000110: 9bcc b8bd c547 873c 86d2 403d f85c 01bd
00000120: 0611 b13e f8ff b03d 4b79 c83e cb5f 7b3d
00000130: 2f15 12be d078 c7bc 044b e9bd 647c 3f3e
00000140: 4dad 003e 7d53 0fbe 0b92 5a3d 8125 533e
00000150: 5233 b53d 27cb e8bd f7cd d33d 01fb 723d
00000160: 9a74 83bd b35b 6bbd 44bd e73d baca a43d
00000170: 8e65 65bd be67 0bbe 0820 263e 8dcc 6dbd
00000180: ced8 463d 42ff a4bc 06e3 b53d 34af 093e
00000190: a8cd 98bd 65ac c73e 615b a4be 9303 8ebd
000001a0: 1feb 9a3e 9cab 1a3d 1b96 2d3d 2d65 0b3e
000001b0: aabf 053d ff2b 9b3b 0d63 423e e750 1d3e
000001c0: 8dfb 2f3e 5d4d 113e f338 08be 9e0c 03be
000001d0: 08e4 823d cb29 083d 9a87 6e3c 62d9 eb3c
000001e0: 3227 923d 4113 92bd 36e8 e83d 4a09 80bd
000001f0: 7442 293e c8e2 393c 124b 8fbe 630f bb3e
00000200: ccb5 723e d1ef e6bc 61e2 3b3e cf60 29be
00000210: 417b d2bd 4f6a 213c 4a2a 9cbd 946c 003e
00000220: c8ae 9abd 5ed6 28bc 5098 b73d 8a32 0d3e
00000230: 50ea f9bc c59a 83be ea98 393e 5d56 dc3d
00000240: f6d2 febb 4773 353d 15ab cebd d85c deba
00000250: 6ed7 5fbc c022 293e 6701 9a3d 9de6 8ebc
00000260: 9ae7 33be cbce c33c c826 023d c30e 86bd
00000270: a293 ab3d c1fc 253e 9b0c 0bbb 7bf5 a1bd
00000280: a193 6f3e 3e25 2fbe 7d2a 483e 20d9 563e
00000290: 73d1 093d f2ed ed3d 9b50 0fbd 7aac 75bd
000002a0: 1a40 e9bc 799c cd3d ec11 9a3d 6ec3 a1be
000002b0: 76c0 563e 4d7d 613e e732 5dbd 75ab c53d
000002c0: fbd0 f1bd 4b36 a8bc a177 883d 5015 033e
000002d0: 848f 07be 7c5b 8abc f8c8 c13d 77a7 ae3d
000002e0: e21f 6abe 34b4 223e 1d54 38be 5ccf d03c
000002f0: 31fa 053e 4bae 463d 1a14 38be 3b2d 0bbd
00000300: 2f3f b3bd 4e24 623e 0686 01bd 9631 953c
00000310: 9e1d ecbd 04b7 603e 9879 443d c84f 9d3d
00000320: 91f4 0e3e b9de 053e 237f 4cbe 7ea1 313d
00000330: a269 333e 6e13 ea3c a360 39be 5570 2ebe
00000340: 2eb0 483e e14c 83bd 2e1a c2bc ef9e e2bd
00000350: 9a70 d83d 8d10 2e3d 951b 80bd c9f9 45bb
00000360: 2561 00bd 03dd 9c3e 8bfe ab3c d4b5 28bd
00000370: 8a69 3e3e f8ed 94bc 6caf ce3b f075 b53d
00000380: 7b58 e93d a2f1 b7bc a1ec 873e 355f 5e3c
00000390: 711b 233e 8f16 c9be f121 033e e6f1 18be
000003a0: 3589 3f3e a41b e83d ecdb 103e 0219 c33c
000003b0: 4ba9 613e 91ea d33c 0647 42be 6d1a 373e
000003c0: 0677 99bb 5970 b93d 08ba c13d 565b 26be
000003d0: 8b59 2fbd d9e0 953d 598e a7ba de86 80bd
000003e0: 2686 743e 2619 0a3d 9123 9ebd b624 8b3c
000003f0: 8922 6fbd 494f cc3d 7dff 77bd 43d0 0d3e

rnn.weight_hh_l0 f4 [192, 64]
-0.04217131 0.021430723 0.12856288 0.025636943 -0.058978908 0.1230177 -0.033809487 -0.07324761
-0.004295264 0.036857437 0.068347834 -0.080424905 0.05609222 -0.086802565 0.04929542 -0.02203481
-0.07207888 -0.15030554 -0.097933136 0.06495243 0.012909035 -0.042349648 -0.029417668 -0.017843708
0.07496732 0.08627066 0.01730374 -0.13854048 0.055476908 0.04272694 -0.0071265534 -0.07115865
0.055033177 0.05230088 -0.2978349 0.08250709 0.02431691 0.062425714 -0.008995294 0.104252115
0.0118423 -0.11100676 0.12890415 -0.050207507 0.08524231 0.07343233 -0.07574122 0.032839824
-0.009848612 0.0666228 -0.05223608 -0.0230902 -0.011236117 0.14612709 -0.028916188 0.029268539
-0.04809571 0.080672346 0.105820015 0.083825625 -0.019774469 0.09207727 0.05755945 -0.021076698
0.028264562 0.105817296 0.030665413 -0.055203658 0.07160252 0.08772872 -0.013946654 0.13993317
-0.15031627 0.15399867 0.10353963 0.061527133 0.057579737 -0.053424098 -0.03295606 0.11643839
0.013369793 0.07881792 -0.041425724 0.041449435 -0.0487032 0.102673024 0.0052446565 0.035858314
-0.03358812 0.08587402 -0.0422267 -0.06828657 -0.13067548 0.018210443 0.034171946 0.07340585
-0.08060273 -0.07672483 0.0020869118 0.044250954 -0.07939149 -0.06923505 -0.12981293 -0.039965533
-0.07836398 -0.048849106 0.06407032 -0.04005911 0.055938147 -0.041391555 -0.056967285 0.10598991
-0.10842322 -0.1118688 0.06394183 -0.032503605 -0.085431494 0.045804854 0.027957348 0.058401622
-0.0468775 -0.021876182 0.0290845 0.12163131 -0.07216591 -0.13271569 -0.09901593 -0.00842059
0.04148454 0.071474425 -0.17315264 -0.02678552 0.031037087 0.110877424 -0.07104714 -0.054799218
-0.010647434 -0.00047069293 -0.0037935805 0.07732537 -0.10633332 0.079605244 -0.009916496 -0.06579935
0.0026303572 -0.07921499 0.1040173 -0.13338934 -0.12895733 -0.060354456 0.007071157 -0.14753492
-0.24330361 0.06726294 -0.06905259 0.17844655 0.040946536 0.01276522 0.09901966 0.032182846
-0.017715706 0.13052605 0.042825043 0.09264175 0.13292296 0.008837663 0.1196999 -0.15019792
0.08547115 0.08041358 -0.036013827 -0.030626051 0.03985715 -0.01329608 -0.13778386 0.08923223
0.0424019 -0.13614951 0.15508534 0.06828712 0.09700951 -0.014494279 0.06329766 0.1637116
-0.16850571 0.026568022 0.028049046 0.090814434 0.03921664 0.016505199 0.1089233 0.16097854
-0.16154239 0.07676094 0.20905368 -0.0032713413 0.16207173 -0.0010952754 -0.09771773 -0.002569908
0.1633521 0.02229292 0.06397185 -0.063535415 0.051875178 -0.091941714 0.3373835 0.111496575
-0.021255925 0.001079561 -0.124592476 0.12758033 -0.038948245 -0.009633897 -0.28004247 0.25035036
-0.14605963 0.0077684573 -0.012979788 -0.09833231 0.02205365 0.025654258 -0.1552249 -0.04151255
0.02413697 0.088489406 -0.2254656 0.08409362 0.026659986 0.13876478 0.0834915 0.1507658
0.09508562 0.1554014 -0.043265592 0.24772602 -0.030132787 -0.12066752 -0.17692545 0.06546979
-0.048934005 0.05870735 0.031988885 -0.23227057 -0.07349242 -0.00571415 0.11441349 0.01983377
0.038054388 -0.046552937 -0.0437602 -0.28296915 -0.07784524 0.0022126923 -0.061586373 0.0752046
00000000: d3bb 2cbd 7c8f af3c fda5 033e 9104 d23c
00000010: de93 71bd b4f0 fb3d d17b 0abd d802 96bd
00000020: 49bf 8cbb d3f7 163d f3f9 8b3d d0b5 a4bd
00000030: f5c0 653d 8bc5 b1bd ffe9 493d 5982 b4bc
00000040: 189e 93bd b2e9 19be 2b91 c8bd c805 853d
00000050: 6b80 533c d376 2dbd 52fd f0bc f82c 92bc
00000060: 7788 993d acae b03d 93c0 8d3c 8edd 0dbe
00000070: c13b 633d 7202 2f3d dd85 e9bb a0bb 91bd
00000080: 786a 613d 7339 563d d17d 98be 7af9 a83d
00000090: 4234 c73c 1bb2 7f3d ff60 13bc 2282 d53d
000000a0: 3506 423c 8357 e3bd 73ff 033e 63a6 4dbd
000000b0: 8593 ae3d b063 963d 361e 9bbd 0d83 063d
000000c0: 135c 21bc 8971 883d 80f5 55bd a927 bdbc
000000d0: b117 38bc 57a2 153e a4e1 ecbc 93c4 ef3c
000000e0: 0200 45bd 8b37 a53d 2ab8 d83d c5ac ab3d
000000f0: 11fe a1bc 0293 bc3d 75c3 6b3d 0aa9 acbc
00000100: 158b e73c bdb6 d83d 0836 fb3c 3b1d 62bd
00000110: 58a4 923d 1dab b33d 8280 64bc a44a 0f3e
00000120: 82ec 19be d4b1 1d3e 960c d43d e003 7c3d
00000130: bbd8 6b3d 3ad3 5abd effc 06bd 4077 ee3d
00000140: fa0c 5b3c 4a6b a13d 05ae 29bd e2c6 293d
00000150: 027d 47bd 3c46 d23d 5edb ab3b 2be0 123d
00000160: b293 09bd b8de af3d e7f5 2cbd d4d9 8bbd
00000170: cbcf 05be 112e 953c e2f7 0b3d ce55 963d
00000180: 0b13 a5bd e821 9dbd 92c4 083b 7d40 353d
00000190: 0198 a2bd 1bcb 8dbd aeed 04be e6b2 23bd
000001a0: 4b7d a0bd 0016 48bd 4d37 833d 0515 24bd
000001b0: 661f 653d 318a 29bd 8756 69bd 3d11 d93d
000001c0: fe0c debd 781b e5bd eff3 823d 8022 05bd
000001d0: b5f6 aebd df9d 3b3d cf06 e53c 8a36 6f3d
000001e0: 9f02 40bd ae35 b3bc 9e42 ee3c d619 f93d
000001f0: b8cb 93bd 9fe6 07be ddc8 cabd 84f6 09bc
00000200: b1eb 293d 2f61 923d ed4e 31be 4f6d dbbc
00000210: 7d41 fe3c b413 e33d 2a81 91bd 2575 60bd
00000220: 9372 2ebc 56c7 f6b9 b89d 78bb c35c 9e3d
00000230: 49c5 d9bd 1308 a33d cd78 22bc cfc1 86bd
00000240: 1262 2c3b 783b a2bd 0607 d53d 3797 08be
00000250: 640d 04be 3c36 77bd 2ab5 e73b 6513 17be
00000260: 9524 79be 27c1 893d 726b 8dbd b1ba 363e
00000270: 8eb7 273d 3725 513c d2ca ca3d 29d2 033d
00000280: 8720 91bc 9fa8 053e 5069 2f3d f5ba bd3d
00000290: f51c 083e d8cb 103c 3925 f53d 7ccd 19be
000002a0: 800b af3d e0af a43d 3c83 13bd 7ce3 fabc
000002b0: 4041 233d cdd7 59bc 3617 0dbe 63bf b63d
000002c0: 9dad 2d3d c76a 0bbe b1ce 1e3e 1eda 8b3d
000002d0: ecac c63d 6a79 6dbc 34a2 813d 03a4 273e
000002e0: c38c 2cbe 2ea5 d93c 1dc7 e53c ebfc b93d
000002f0: a1a1 203d e935 873c 2e13 df3d 8fd7 243e
00000300: 5e6b 25be d734 9d3d 2b12 563e 0064 56bb
00000310: 22f6 253e 588f 8fba 3c20 c8bd e76b 28bb
00000320: c645 273e a49f b63c ac03 833d db1e 82bd
00000330: 117b 543d f04b bcbd 88bd ac3e 5158 e43d
00000340: e820 aebc 0e80 8d3a 572a ffbd 6ba4 023e
00000350: 3288 1fbd 7ed7 1dbc ba61 8fbe ec2d 803e
00000360: a890 15be 8b8e fe3b 2da9 54bc 7362 c9bd
00000370: dba9 b43c e128 d23c 47f3 1ebe 1009 2abd
00000380: e5ba c53c ef39 b53d 74e0 66be 4739 ac3d
00000390: 0b66 da3c 5b18 0e3e 97fd aa3d 5a62 1a3e
000003a0: 40bc c23d 8b21 1f3e 4337 31bd e4ab 7d3e
000003b0: 09d9 f6bc 8820 f7bd f22b 35be 0615 863d
000003c0: 066f 48bd 1e77 703d c706 033d 56d8 6dbe
000003d0: 3283 96bd c43d bbbb 9f51 ea3d 6e7a a23c
000003e0: ebde 1b3d 4bae 3ebd e53d 33bd 55e1 90be
000003f0: 536d 9fbd d102 113b fe41 7cbd df04 9a3d

rnn.bias_ih_l0 f4 [192]
-0.16255978 0.10769663 0.18071723 0.11188655 0.03433702 -0.037071615 0.11427144 0.051875312
0.03027916 0.031296488 -0.048993364 0.014504764 -0.14620113 -0.0440788 0.14541264 0.059368942
0.1520606 -0.027694155 -0.085672386 0.0756657 -0.106104605 0.17471655 0.14898959 -0.008729728
0.034700803 0.16740406 -0.03855505 0.09256522 -0.086546764 -0.20081173 -0.06258623 -0.030727196
0.0868296 -0.0077965795 0.12094883 0.018126205 -0.07947352 0.04075906 0.24629773 0.029629873
0.046343032 0.12292459 0.061827224 0.13024995 0.058322545 0.014344676 0.0001628526 0.030028068
-0.02485213 0.078555435 0.078983516 0.09840781 -0.12625775 -0.09485169 0.025291618 -0.11172988
0.11791507 0.019420264 -0.0351187 0.058825355 0.10769135 0.12611133 -0.09493212 0.08289408
-0.032952264 -0.12301141 0.13984439 -0.18071419 -0.14356579 0.031641517 -0.10940214 0.0022622475
-0.05827678 -0.10950489 -0.05405404 -0.15844601 0.11127379 0.12996888 0.004914927 0.10687551
-0.12678558 -0.16013508 -0.09241049 -0.08812033 -0.104957394 -0.018749028 -0.10689664 -0.033905838
-0.10899287 -0.07918149 -0.014511458 -0.027992604 0.0038407075 -0.070853986 0.17377795 0.09054722
0.044199698 0.015951533 0.07912745 -0.034083165 -0.05120374 -0.02607636 -0.032012947 0.0132834865
-0.108742125 -0.102310754 -0.11951793 0.016223198 -0.21442091 -0.18143402 0.08797834 -0.0250514
0.0562688 0.059090946 0.08635998 0.24828756 -0.010172958 -0.19986404 -0.093803234 -0.06693503
0.16606663 -0.102007955 0.065251954 -0.18789473 -0.0486867 -0.03552077 -0.039922304 0.029520836
0.098133825 0.031528834 -0.108344816 0.03850269 -0.16478693 -0.04353592 0.062337235 0.03156335
-0.0602893 0.07440693 -0.12759097 -0.10824077 0.017986469 0.19625418 0.053082116 0.0769838
-0.006267211 -0.02125638 -0.019814633 -0.15951875 0.02821897 0.07205413 -0.015621937 -0.06963873
0.029343765 -0.23270102 0.061345257 0.07092511 0.05074635 -0.06493371 -0.063897386 -0.061817445
-0.095340684 -0.024085622 0.24116035 0.016157333 -0.04323603 0.036754303 -0.039598256 -0.1231053
0.15585816 -0.06554483 -0.03657048 -0.080800734 -0.16946657 0.07805943 0.0727638 -0.107697874
0.03136027 -0.065336816 0.050957542 -0.091673665 -0.04075762 -0.050312623 -0.054671247 0.107373446
-0.10760235 -0.043535553 -0.048347462 0.054957036 -0.05066724 -0.1334887 0.0014787453 0.13404244
00000000: 1276 26be 0d90 dc3d f00d 393e c724 e53d
00000010: faa4 0c3d 68d8 17bd 2507 ea3d 357b 543d
00000020: 000c f83c bf30 003d 44ad 48bd 64a5 6d3c
00000030: c0b5 15be f98b 34bd 0de7 143e d92c 733d
00000040: c6b5 1b3e dade e2bc 0175 afbd 9ef6 9a3d
00000050: 5f4d d9bd e5e8 323e ba90 183e 2207 0fbc
00000060: 6e22 0e3d f86b 2b3e e6eb 1dbd d692 bd3d
00000070: 6e3f b1bd 97a1 4dbe 362d 80bd 9ab7 fbbc
00000080: b8d3 b13d 737a ffbb 05b4 f73d 687d 943c
00000090: 03c3 a2bd f9f2 263d 7935 7c3e 59ba f23c
000000a0: 31d2 3d3d e3bf fb3d 8b3e 7d3d 3e60 053e
000000b0: 9fe3 6e3d ef05 6b3c 69c3 2a39 6cfd f53c
000000c0: b296 cbbc ace1 a03d 1cc2 a13d 098a c93d
000000d0: b649 01be 9a41 c2bd 5e30 cf3c a3d2 e4bd
000000e0: 757d f13d 3f17 9f3c a0d8 0fbd dbf2 703d
000000f0: 488d dc3d 5423 013e c56b c2bd 5fc4 a93d
00000100: f4f8 06bd 68ed fbbd 5e33 0f3e 240d 39be
00000110: e902 13be 899a 013d 3b0e e0bd 3742 143b
00000120: a2b3 6ebd 1a44 e0bd c567 5dbd ac3f 22be
00000130: 83e3 e33d 9016 053e 650d a13b 8ce1 da3d
00000140: 14d4 01be 73fa 23be b641 bdbd 6e78 b4bd
00000150: e7f3 d6bd 9097 99bc a0ec dabd d9e0 0abd
00000160: a737 dfbd e829 a2bd 77c1 6dbc bf50 e5bc
00000170: 61b4 7b3b e51b 91bd d9f2 313e d270 b93d
00000180: be0a 353d caac 823c 930d a23d ca9a 0bbd
00000190: 03bb 51bd 179e d5bc 0220 03bd fba2 593c
000001a0: 31b4 debd 4d88 d1bd d1c5 f4bd 83e6 843c
000001b0: 2891 5bbe d7c9 39be fd2d b43d 9838 cdbc
000001c0: 1d7a 663d 5909 723d 80dd b03d 183f 7e3e
000001d0: 7aac 26bc 29a9 4cbe e91b c0bd 3c15 89bd
000001e0: 5f0d 2a3e 8ce9 d0bd d1a2 853d 7a67 40be
000001f0: b56b 47bd 3a7e 11bd 9285 23bd aed5 f13c
00000200: 63fa c83d 6124 013d e3e3 ddbd ffb4 1d3d
00000210: e8bd 28be b952 32bd 5455 7f3d 9248 013d
00000220: eaf1 76bd a962 983d 35a7 02be 56ad ddbd
00000230: 5c58 933c dbf6 483e a26c 593d afa9 9d3d
00000240: 2d5d cdbb dc21 aebc 4c52 a2bc e258 23be
00000250: 782b e73c 1e91 933d 27f3 7fbc c09e 8ebd
00000260: 5662 f03c 2d49 6ebe 2a45 7b3d 2f41 913d
00000270: 68db 4f3d f7fb 84bd a2dc 82bd 4a34 7dbd
00000280: fa41 c3bd 364f c5bc bdf2 763e 625c 843c
00000290: 4318 31bd ae8b 163d c831 22bd a21e fcbd
000002a0: 4899 1f3e 5e3c 86bd edca 15bd db7a a5bd
000002b0: a588 2dbe 9fdd 9f3d 3005 953d b490 dcbd
000002c0: a073 003d 4fcf 85bd dbb8 503d 67bf bbbd
000002d0: 76f1 26bd 9c14 4ebd f5ee 5fbd 9ce6 db3d
000002e0: 9f5e dcbd 5652 32bd fd07 46bd a11a 613d
000002f0: 7488 4fbd 43b1 08be 75d2 c13a 6c42 093e

rnn.bias_hh_l0 f4 [192]
-0.002756334 0.008734663 0.07528813 0.0847339 0.03388638 -0.07511247 0.08192638 0.15966801
0.049346797 -0.119044185 -0.06721339 0.1460608 -0.08921957 -0.0014496455 0.17404866 0.09943982
0.09014649 0.046260186 0.064318545 0.11243725 0.039427828 0.0097773755 0.027302403 -0.045740146
0.06448807 0.2717342 0.11102219 0.14511861 -0.072435334 -0.1347494 0.08125104 -0.043297663
0.041306656 -0.06539321 0.101024315 -0.02757609 -0.10347282 0.14091133 0.09401905 0.061251957
-0.07134016 -0.005783067 0.068543166 0.014847205 0.13892561 0.07508391 0.06409772 -0.088662274
-0.1119403 0.17700784 0.086697675 0.03142094 -0.025966289 0.088108644 -0.024153661 0.011544788
0.16476461 0.09288212 -0.17058338 0.09276529 -0.106427446 -0.027994672 -0.14380889 -0.03184691
0.08619096 -0.17573571 0.05797986 -0.0913063 -0.14425692 -0.17335221 -0.18911013 -0.06530989
-0.045364823 -0.04078258 -0.006322792 -0.08293261 0.056640983 0.13461009 -0.00076120347 -0.002526654
-0.104343906 0.04297453 -0.10759011 -0.03832746 -0.01332256 -0.15656134 -0.079718694 -0.04909365
-0.0805053 0.08346835 -0.059750378 0.051723137 -0.009237065 -0.110634916 0.007521337 0.14291309
0.1371635 0.09039487 -0.0008139665 -0.094718836 -0.1167499 0.020031186 0.05075363 -0.015642222
-0.084801674 0.09257127 0.040033318 -0.0780988 -0.1244844 -0.22828183 0.035896707 0.0057845544
-0.0061459565 -0.015535274 -0.039219745 0.33289662 0.014433497 -0.040391035 -0.100447215 0.056074068
0.2131912 -0.18421605 0.067403734 -0.12849182 -0.02066231 0.17210571 -0.10665241 0.11134518
0.068318605 -0.13208377 -0.18581533 -0.051403884 -0.22220701 -0.051132057 0.051086865 -0.007335894
-0.14762436 0.02659433 0.054267507 -0.019353189 -0.050389886 0.08454575 -0.15953398 -0.0655248
0.016613286 -0.13205825 0.14733158 -0.16912887 -0.08027895 0.079401165 0.097690016 -0.18329598
0.06256451 -0.21830496 -0.032373752 0.068882324 0.009424475 -0.08037725 0.0700499 0.07252852
-0.20816003 0.05236185 0.20601815 0.022616602 0.0067006703 -0.06774687 -0.035188235 -0.23821351
0.113879256 -0.10814958 0.00058618 -0.10822083 -0.13087012 -0.11365297 0.027162977 -0.107321344
0.009353586 -0.0024614027 0.00073967676 -0.07438981 -0.050994825 -0.15925457 0.041276645 0.11052503
0.023810552 -0.018363489 -0.04437073 -0.1043101 0.033504415 -0.03939483 0.052271374 0.10873626
00000000: 9ca3 34bb d51b 0f3c aa30 9a3d f888 ad3d
00000010: 72cc 0a3d 91d4 99bd 05c9 a73d 0380 233e
00000020: de1f 4a3d 70cd f3bd 2ca7 89bd f690 153e
00000030: c0b8 b6bd 0802 beba d039 323e 1ba7 cb3d
00000040: b99e b83d 527b 3d3d 71b9 833d 8045 e63d
00000050: 137f 213d 4931 203c 4aa9 df3c 055a 3bbd
00000060: 5212 843d bf20 8b3e 9a5f e33d f999 143e
00000070: fa58 94bd bffb 09be f266 a63d e458 31bd
00000080: 2b31 293d e0ec 85bd d6e5 ce3d 41e7 e1bc
00000090: 8fe9 d3bd 0f4b 103e 0f8d c03d 55e3 7a3d
000000a0: ca1a 92bd e27f bdbb 5c60 8c3d b141 733c
000000b0: 8442 0e3e 98c5 993d aa45 833d 9194 b5bd
000000c0: f540 e5bd 8b41 353e 8d8e b13d 3eb3 003d
000000d0: 41b7 d4bc 4e72 b43d e6dd c5bc 5a26 3d3c
000000e0: 0eb8 283e fb38 be3d 69ad 2ebe bafb bd3d
000000f0: a2f6 d9bd 1555 e5bc a342 13be e871 02bd
00000100: e384 b03d 10f4 33be 4a7c 6d3d ccfe babd
00000110: 16b8 13be 3e83 31be 16a6 41be 31c1 85bd
00000120: 77d0 39bd a20b 27bd 6c2f cfbb 92d8 a9bd
00000130: 6000 683d 3ad7 093e 808b 47ba 3896 25bb
00000140: 42b2 d5bd 1006 303d 3458 dcbd 41fd 1cbd
00000150: de46 5abc 9e51 20be 8e43 a3bd 6c16 49bd
00000160: f6df a4bd 74f1 aa3d d0bc 74bd a4db 533d
00000170: 0f57 17bc 8f94 e2bd 8c75 f63b cf57 123e
00000180: 9774 0c3e f220 b93d 5e60 55ba f3fb c1bd
00000190: 921a efbd 7118 a43c 0ae3 4f3d 1e24 80bc
000001a0: 80ac adbd 0296 bd3d faf9 233d 43f2 9fbd
000001b0: adf1 febd b6c2 69be 6d08 133d 5c8c bd3b
000001c0: 0564 c9bb a987 7ebc e2a4 20bd 6d71 aa3e
000001d0: 797a 6c3c 1271 25bd 45b7 cdbd ecad 653d
000001e0: cb4e 5a3e 22a3 3cbe f80a 8a3d 5c93 03be
000001f0: 0144 a9bc 7b3c 303e 946c dabd f108 e43d
00000200: a0ea 8b3d f840 07be 6046 3ebe e18c 52bd
00000210: 3c8a 63be d96f 51bd 7640 513d f061 f0bb
00000220: d72a 17be 5adc d93c 9b47 5e3d 948a 9ebc
00000230: a065 4ebd 5226 ad3d e05c 23be de31 86bd
00000240: 9618 883c 473a 07be 17de 163e 1e30 2dbe
00000250: 4a69 a4bd 149d a23d b411 c83d f1b1 3bbe
00000260: d221 803d 568b 5fbe 579a 04bd 2d12 8d3d
00000270: 1d69 1a3c d49c a4bd 5276 8f3d d589 943d
00000280: e727 55be 6179 563d 6cf6 523e 7446 b93c
00000290: 4c91 db3b dfbe 8abd 8a21 10bd 3eee 73be
000002a0: 8739 e93d 877d ddbd e0a9 193a e2a2 ddbd
000002b0: d102 06be e3c2 e8bd e484 de3c 4bcb dbbd
000002c0: c83f 193c 7c4f 21bb dee6 413a af59 98bd
000002d0: f3df 50bd a113 23be b311 293d f25a e23d
000002e0: 590e c33c 076f 96bc 15be 35bd 89a0 d5bd
000002f0: ed3b 093d 795c 21bd 821a 563d 1eb1 de3d

rnn.weight_ih_l1 f4 [192, 64]
-0.026300028 -0.040603876 -0.012638714 0.04707991 0.09025401 0.069079876 -0.020968542 0.080855474
0.13405699 -0.00343005 0.1215979 -0.080818415 -0.124805525 -0.13713463 0.10268904 0.021221073
-0.015026021 0.12654857 -0.078838795 -0.076351896 -0.016671566 -0.11620066 0.14736475 0.010742314
-0.0038219714 0.09108325 -0.01572693 -0.0662533 0.02028435 0.028060837 0.14294077 -0.029941872
0.15146093 -0.056440234 -0.18316087 -0.095180616 0.062325906 0.1380595 0.117898814 -0.006633973
-0.07068723 -0.04241408 0.13779595 -0.017062012 -0.011430144 -0.08117368 0.033789933 0.106341176
0.005678272 0.031559933 0.06705944 0.057168588 -0.109039724 0.024227867 -0.044809815 -0.107184105
0.08526022 -0.054426685 -0.13077635 0.13038594 0.11747067 0.020872239 -0.016451886 0.09066204
0.10170937 -0.11442779 0.03076744 -0.022051705 0.12960257 -0.017915238 -0.06333983 -0.118111424
0.056833733 0.10094305 -0.08151735 0.0814903 0.09858901 0.061918054 0.08914101 0.09758037
-0.07317307 0.07723424 0.123581976 0.09442418 -0.059187926 0.088236235 -0.05116143 -0.08114765
0.12107407 -0.052960787 -0.05004129 -0.069909744 -0.0074467426 0.03860307 -0.029988818 0.128519
0.09209399 0.040783204 -0.06039555 -0.019481378 -0.016203782 0.069513954 -0.032009896 -0.076007515
-0.051964644 0.16833092 0.016032817 0.07753293 0.023689063 0.053369213 -0.07221082 0.023235137
-0.12466558 0.10401347 0.094743475 -0.09577465 -0.06954878 -0.05587816 -0.08256009 0.06007397
0.10369072 0.07868112 0.09533264 -0.19267988 -0.025251918 0.076905355 -0.0058989334 -0.10258062
0.06704689 -0.04247356 -0.07847775 -0.064368024 0.06425241 0.015431185 -0.12088926 0.027594803
-0.035046343 0.09214088 0.08722445 -0.021505792 -0.13493912 2.6047086e-05 -0.03257484 0.0631554
-0.035533134 0.06007545 -0.048815478 -0.016601937 0.037044708 -0.104931496 -0.027465204 -0.029822316
0.089765504 -0.056742154 -0.05964199 0.021728015 0.048135724 -0.073532045 0.12985905 -0.07709127
-0.07278958 0.0964592 -0.11187562 -0.02351305 -0.094009966 0.092476025 0.003832589 -0.03787101
0.12429159 0.038600564 -0.05405929 0.09729533 0.08677346 0.043161523 -0.07018025 -0.050091207
0.013753602 0.030523188 0.033430792 0.0509151 -0.08902315 -0.105305225 -0.05246056 0.106589556
0.020695858 -0.03378593 0.10414302 -0.05403551 0.06535457 0.06895962 -0.05380435 0.032322273
-0.104729235 -0.09779279 -0.012435347 -0.00048146927 -0.057639543 0.04796769 -0.0518521 -0.021029247
0.0219963 0.06696188 0.030251749 0.12161373 -0.017962564 0.013101703 0.026465608 -0.039099965
0.10407844 -0.10823153 0.07280972 0.109424114 -0.06710221 0.047225364 -0.07571521 -0.034943588
-0.07304141 0.1510762 -0.069530524 -0.056435492 -0.07769029 -0.09160453 0.08686473 -0.123917855
-0.05849238 0.092194855 -0.22515456 0.016269593 -0.020469707 -0.1025223 0.0685579 -0.038920913
0.0242189 -0.008059685 0.051304456 0.043023974 0.011859627 -0.103968605 -0.032564744 0.06890292
0.012627689 0.040375017 0.07503288 -0.010593636 -0.06326388 -0.019272096 -0.062280685 -0.015079112
0.06289271 -0.07904261 -0.020109303 0.054775212 -0.12288747 0.022434901 -0.10675846 -0.018336153
00000000: 2873 d7bc 4050 26bd 9c12 4fbc ddd6 403d
00000010: 18d7 b83d c079 8d3d 38c6 abbc 8e97 a53d
00000020: 3c46 093e b1ca 60bb 5208 f93d 2084 a5bd
00000030: 0a9a ffbd 056d 0cbe a24e d23d d1d7 ad3c
00000040: b32f 76bc f395 013e 3c76 a1bd 625e 9cbd
00000050: cf92 88bc 9dfa edbd c9e6 163e 8800 303c
00000060: 0a7a 7abb db89 ba3d c3d5 80bc cfaf 87bd
00000070: 5d2b a63c d7df e53c 115f 123e a848 f5bc
00000080: 9318 1b3e e02d 67bd 868e 3bbe 0eee c2bd
00000090: 7349 7f3d 785f 0d3e ef74 f13d cd61 d9bb
000000a0: 77c4 90bd 63ba 2dbd 621a 0d3e a2c5 8bbc
000000b0: 8045 3bbc 633e a6bd 5067 0a3d 67c9 d93d
000000c0: cc10 ba3b fd44 013d 7656 893d 9c29 6a3d
000000d0: 3850 dfbd 8579 c63c 7f8a 37bd 5783 dbbd
000000e0: e99c ae3d 84ee 5ebd 3cea 05be e483 053e
000000f0: 7694 f03d 42fc aa3c 1bc6 86bc 05ad b93d
00000100: 014d d03d 1e59 eabd 000c fc3c c7a5 b4bc
00000110: 89b6 043e fac2 92bc 50b8 81bd 67e4 f1bd
00000120: 7dca 683d 3bbb ce3d 92f2 a6bd 63e4 a63d
00000130: 09e9 c93d c99d 7d3d 908f b63d 38d8 c73d
00000140: c3db 95bd fc2c 9e3d 8c18 fd3d 7761 c13d
00000150: 0a6f 72bd 33b5 b43d a68e 51bd bd30 a6bd
00000160: aff5 f73d 69ed 58bd 18f8 4cbd d72c 8fbd
00000170: ce03 f4bb 411e 1e3d 1cab f5bc 7c9a 033e
00000180: c69b bc3d 4a0c 273d 5361 77bd 6997 9fbc
00000190: cbbd 84bc 555d 8e3d cf1c 03bd d4a9 9bbd
000001a0: e1d8 54bd f15e 2c3e 4157 833c 96c9 9e3d
000001b0: 910f c23c ad99 5a3d 44e3 93bd 9d57 be3c
000001c0: ab50 ffbd 0405 d53d de08 c23d 8025 c4bd
000001d0: 976f 8ebd 7fe0 64bd 4415 a9bd 2010 763d
000001e0: cd5b d43d 9123 a13d c23d c33d e04d 45be
000001f0: 1cdd cebc 8e80 9d3d d74b c1bb ca15 d2bd
00000200: e14f 893d c1f8 2dbd f1b8 a0bd 62d3 83bd
00000210: c496 833d 15d3 7c3c ca94 f7bd 7f0e e23c
00000220: c18c 0fbd 5cb4 bc3d bca2 b23d ea2c b0bc
00000230: 7b2d 0abe b17f da37 326d 05bd 9e57 813d
00000240: 318b 11bd ad11 763d bdf2 47bd c900 88bc
00000250: 31bc 173d 53e6 d6bd b5fe e0bc ee4d f4bc
00000260: fad6 b73d 766a 68bd 294b 74bd f3fe b13c
00000270: f729 453d f897 96bd c5f9 043e 07e2 9dbd
00000280: b412 95bd 678c c53d 0c1f e5bd 719e c0bc
00000290: 4c88 c0bd 1264 bd3d 2c2c 7b3b a21e 1bbd
000002a0: 978c fe3d a01b 1e3d 466d 5dbd c642 c73d
000002b0: 49b6 b13d 23ca 303d aaba 8fbd 702c 4dbd
000002c0: ca56 613c c40b fa3c baee 083d 5a8c 503d
000002d0: c551 b6bd 44aa d7bd e2e0 56bd a04b da3d
000002e0: 5c8a a93c 1e63 0abd f048 d53d 5754 5dbd
000002f0: 9ed8 853d b43a 8d3d f361 5cbd 5c64 043d
00000300: 487c d6bd 9647 c8bd a0bd 4bbc b66d fcb9
00000310: 7117 6cbd c579 443d de62 54bd 8745 acbc
00000320: 9631 b43c 4f23 893d 84d2 f73c 9f10 f93d
00000330: 3a26 93bc 86a8 563c 67ce d83c 4927 20bd
00000340: 1427 d53d 7ea8 ddbd 431d 953d c019 e03d
00000350: e26c 89bd 626f 413d 9310 9bbd 0221 0fbd
00000360: bc96 95bd b8b3 1a3e 0566 8ebd e728 67bd
00000370: 161c 9fbd 289b bbbd 23e6 b13d a5c8 fdbd
00000380: b595 6fbd a8d0 bc3d eb8e 66be cf47 853c
00000390: 16b0 a7bc 36f7 d1bd 1668 8c3d 896b 1fbd
000003a0: b766 c63c c50c 04bc 9f24 523d e839 303d
000003b0: e24e 423c 7eed d4bd 9c62 05bd f91c 8d3d
000003c0: 5ee4 4e3c 4660 253d d7aa 993d ee90 2dbc
000003d0: 7e90 81bd 84e0 9dbc 081a 7fbd 610e 77bc
000003e0: e5cd 803d 18e1 a1bd 44bc a4bc f95b 603d
000003f0: 6dac fbbd 66c9 b73c 2ea4 dabd b335 96bc

rnn.weight_hh_l1 f4 [192, 64]
0.097045906 -0.008251066 0.10607172 0.037900973 -0.039868586 0.061462037 -0.093815595 -0.1292539
0.10820234 0.07751427 -0.039641958 0.029265119 -0.055254832 -0.045924697 -0.047291495 0.04860455
-0.07457367 0.0849643 -0.08969175 0.013688742 0.00013971762 -0.06939977 0.059864238 0.100727655
-0.08592352 -0.092476755 0.0010077694 0.10515946 0.09102651 -0.027499458 0.021748941 -0.056647904
0.048251957 -0.023739599 0.04720249 0.08849174 -0.038314085 -0.06580231 0.14085932 0.12390531
-0.027377155 0.12687004 -0.069666736 0.054696877 -0.041406095 -0.12614062 -0.12955166 0.06612107
0.14773609 -0.081921816 0.09803616 -0.008835121 0.021184532 0.049207903 0.044074558 -0.06390578
0.023929037 0.057362206 0.001395394 -0.12390132 -0.08404958 -0.061267097 0.21626163 0.08627981
-0.09337293 -0.00032258383 0.047948845 -0.058212146 -0.13594341 0.093614526 0.025465928 0.061393674
-0.025011607 0.13386199 0.13896258 0.022923496 -0.077121384 -0.14164075 0.05243316 0.12781817
0.16131349 0.06321714 -0.0253802 0.093548276 0.04040689 0.074264914 0.072863296 -0.049869288
0.124303065 0.093442775 0.019055635 -0.050283153 0.15228873 -0.14025116 -0.11604466 -0.050985813
-0.041202515 -0.20485727 0.00092033966 0.13357309 0.017750636 0.13543566 -0.0636214 -0.07897896
-0.17203689 0.06693576 -0.03100878 -0.08795523 -0.041471485 -0.016325153 0.13850904 0.053537093
-0.07310725 -0.12268967 -0.041395582 0.061345093 0.028602602 0.16940708 0.05266685 -0.07221472
-0.14365394 0.13575776 -0.021715559 0.11546554 0.070255496 0.03912629 -0.06030148 0.06845886
-0.011785664 -0.10396503 -0.004488184 0.027197711 0.078736365 -0.13390107 0.018940572 -0.075181946
0.12750095 0.079573914 -0.00726203 0.044337224 0.049563643 0.12639864 0.023453157 -0.10688309
-0.017771289 -0.13974416 0.052184414 -0.09808879 -0.11273979 0.0124860685 -0.07072151 0.02689182
0.024120543 -0.027016558 0.013029863 0.05773934 0.058830153 0.060445227 0.12607734 -0.0147922095
-0.00948807 0.03189047 -0.06982474 -0.038330168 -0.096140936 -0.067153 0.086986445 -0.095186196
0.060143854 -0.03287254 -0.06686466 -0.059698075 0.03627008 -0.048479855 -0.0697539 -0.09571651
0.027186126 0.07972458 0.022926927 0.07088463 0.038841337 -0.10209626 -0.060287613 -0.13618165
0.027310712 0.023363007 0.049432795 -0.046685476 0.06420463 -0.02644622 0.07495498 0.058282472
-0.10836515 -0.05306107 -0.0088731265 -0.03003108 -0.024051307 -0.012311064 0.07774371 0.103987515
-0.033015303 -0.038046654 0.190373 0.05314004 0.042597506 -0.14715184 0.09675139 -0.10565413
-0.009498455 -0.04429454 0.103951864 -0.13791867 -0.03281052 -0.07853262 -0.012594705 0.11689576
0.10612576 -0.011434821 -0.14459854 0.020277537 0.0035327494 0.009153907 -0.10951251 -0.07572087
-0.12197014 -0.046720285 -0.028233014 -0.034389626 -0.029056268 0.12540591 -0.10755662 0.0678275
-0.057314016 -0.044454873 -0.03385407 0.011182131 -0.08027756 0.13871698 -0.04888947 0.06129778
0.026852917 -0.025310628 0.017973347 0.16854051 -0.020640077 -0.09226739 0.08885233 0.12569714
-0.069694094 -0.0028590122 0.008279698 -0.0989396 -0.081353836 -0.08476425 -0.054105107 0.080179505
00000000: 01c0 c63d 7b2f 07bc 213c d93d 0d3e 1b3d
00000010: 3e4d 23bd 9ebf 7b3d 6422 c0bd 225b 04be
00000020: 3099 dd3d cdbf 9e3d 9b5f 22bd 67bd ef3c
00000030: e452 62bd 891b 3cbd bab4 41bd 9115 473d
00000040: 15ba 98bd c301 ae3d 4fb0 b7bd bf46 603c
00000050: 2a81 1239 7721 8ebd 3434 753d 4d4a ce3d
00000060: acf8 afbd 7464 bdbd 2117 843a d85d d73d
00000070: 1b6c ba3d 8b46 e1bc d62a b23c a207 68bd
00000080: d8a3 453d 8c79 c2bc 6657 413d 283b b53d
00000090: 3bef 1cbd 5dc3 86bd 6d3d 103e 11c2 fd3d
000000a0: 0e46 e0bc 38ea 013e 6fad 8ebd d509 603d
000000b0: 7099 29bd 022b 01be 31a9 04be 7c6a 873d
000000c0: 2148 173e a0c6 a7bd 2fc7 c83d 2fc1 10bc
000000d0: 2f8b ad3c 3a8e 493d 8687 343d 09e1 82bd
000000e0: d406 c43c a2f4 6a3d a7e5 b63a fabf fdbd
000000f0: 3022 acbd 35f3 7abd b073 5d3e 78b3 b03d
00000100: 4f3a bfbd 7820 a9b9 0266 443d dc6f 6ebd
00000110: c034 0bbe f9b8 bf3d ec9d d03c ef77 7b3d
00000120: 24e5 ccbc 1e13 093e 354c 0e3e 0eca bb3c
00000130: d1f1 9dbd 460a 11be 27c4 563d c4e2 023e
00000140: 5d2f 253e fd77 813d 23ea cfbc 3d96 bf3d
00000150: b281 253d 3418 983d 5a39 953d bd43 4cbd
00000160: 9b92 fe3d ed5e bf3d 901a 9c3c b5f5 4dbd
00000170: 94f1 1b3e 009e 0fbe d3a8 edbd 80d6 50bd
00000180: f8c3 28bd 1bc6 51be f342 713a 62c7 083e
00000190: c869 913c a5af 0a3e f04b 82bd b9bf a1bd
000001a0: 702a 30be 9e15 893d 2006 febc df21 b4bd
000001b0: 01de 29bd 54bc 85bc 50d5 0d3e b649 5b3d
000001c0: 41b9 95bd b944 fbbd 6a8e 29bd fe44 7b3d
000001d0: 0150 ea3c 0d79 2d3e 32b9 573d 50e5 93bd
000001e0: 051a 13be 1504 0b3e d4e4 b1bc 3279 ec3d
000001f0: 1de2 8f3d e342 203d affe 76bd 2934 8c3d
00000200: a818 41bc 9eeb d4bd 9e11 93bb bccd de3c
00000210: 8840 a13d 5d1d 09be 4229 9b3c fef8 99bd
00000220: 9c8f 023e a6f7 a23d 53f6 edbb f39a 353d
00000230: 3f03 4b3d a56e 013e d620 c03c 86e5 dabd
00000240: 1895 91bc 1819 0fbe 53bf 553d c7e2 c8bd
00000250: 1ee4 e6bd 5e92 4c3c 70d6 90bd 3c4c dc3c
00000260: 7298 c53c d451 ddbc 357b 553c 1680 6c3d
00000270: e3f7 703d 6a95 773d 6b1a 013e 065b 72bc
00000280: da73 1bbc 959f 023d 4600 8fbd 1800 1dbd
00000290: 8ae5 c4bd 8387 89bd f325 b23d fbf0 c2bd
000002a0: 6759 763d 5ba5 06bd 57f0 88bd f885 74bd
000002b0: ef8f 143d d092 46bd 22db 8ebd 0507 c4bd
000002c0: 70b5 de3c a446 a33d 40d1 bb3c f62b 913d
000002d0: 1818 1f3d d817 d1bd 25f0 76bd 3473 0bbe
000002e0: b7ba df3c c763 bf3c 0b7a 4a3d 4539 3fbd
000002f0: b87d 833d bea5 d8bc ff81 993d 9ab9 6e3d
00000300: 8cee ddbd 9156 59bd 9760 11bc bd03 f6bc
00000310: 3f07 c5bc 58b4 49bc 1838 9f3d 68f7 d43d
00000320: 0e3b 07bd cfd6 1bbd 24f1 423e 5fa9 593d
00000330: b97a 2e3d f9ae 16be 9825 c63d 3161 d8bd
00000340: 689f 1bbc 316e 35bd b7e4 d43d 8d3a 0dbe
00000350: 5364 06bd b6d5 a0bd 065a 4ebc 0b67 ef3d
00000360: 7658 d93d 1e59 3bbc a411 14be 141d a63c
00000370: b385 673b 45fa 153c 1848 e0bd 8b13 9bbd
00000380: 7bcb f9bd c55d 3fbd ec48 e7bc 23dc 0cbd
00000390: 6907 eebc 686a 003e a546 dcbd 25e9 8a3d
000003a0: 1ac2 6abd 5016 36bd 91aa 0abd 4235 373c
000003b0: 9068 a4bd d30b 0e3e 5340 48bd 6213 7b3d
000003c0: a6fa db3c 3c58 cfbc d73c 933c e295 2c3e
000003d0: 6115 a9bc aff6 bcbd 36f8 b53d c0b6 003e
000003e0: c7bb 8ebd 445e 3bbb 92a7 073c d8a0 cabd
000003f0: d79c a6bd e198 adbd 519d 5dbd 2735 a43d

rnn.bias_ih_l1 f4 [192]
-0.10294708 -0.061068967 -0.049479295 0.044366147 0.08733317 0.09364716 0.013554859 0.11281161
-0.019566005 -0.10450431 0.23627944 0.075462334 -0.017642919 0.024999974 0.056726407 0.07357835
0.009629625 0.0045458847 0.012732364 0.16597849 0.028581405 -0.096525624 -0.0012443893 -0.13920136
0.07391059 0.015522108 -0.017342381 0.011507979 0.065974675 -0.13061935 -0.059833474 0.06042073
-0.01939831 0.024555994 -0.03331532 -0.040883724 -0.12325119 -0.060258497 -0.038650464 0.065970555
0.014988093 -0.078287974 0.049648553 -0.09901366 0.018253218 0.0035386174 -0.09797521 0.07806776
0.061254617 0.089200996 -0.11876604 -0.007377021 -0.026045315 0.07672725 -0.010613948 0.063364744
0.13569593 -0.03757365 0.088202484 -0.031213658 0.12763181 -0.061462518 -0.037790086 0.029561969
-0.16056977 -0.027002634 -0.024192244 -0.13652135 -0.074959025 -0.0012209498 0.004945461 -0.090455845
-0.03717737 -0.014506754 -0.018504275 -0.112344235 -0.049915425 -0.13994949 0.10295484 -0.099155955
0.14483948 -0.18814275 -0.07367432 -0.14803764 0.0075524854 -0.07996346 -0.07967906 0.12964082
-0.14722826 -0.06702833 -0.07241773 0.087028116 -0.10507001 -0.04571828 0.12753133 -0.0021741784
-0.16559008 0.02539035 -0.18189329 -0.152549 -0.11386986 -0.12807809 -0.016527953 -0.15484457
-0.10449931 -0.071105786 -0.1241003 -0.014832918 0.038469013 -0.0028299666 0.08694647 0.0070480634
-0.08206968 0.008921514 0.10988946 -0.111136355 -0.012882145 0.10950349 -0.0046206904 0.011957847
0.031583704 -0.19233777 0.09103005 -0.074722916 0.06099176 -0.08354941 -0.101173215 -0.17461863
0.08351199 0.033904098 -0.10840028 -0.06341038 0.06012857 -0.09862707 -0.028694544 -0.017527435
0.098296344 -0.08876199 0.1273142 0.17043933 0.048612844 0.002755234 0.03486684 0.06666642
-0.017882917 -0.087341845 -0.07323721 -0.021149753 -0.068230756 0.06830427 0.13656384 0.0353168
-0.042893514 -0.15388167 -0.04304829 -0.10019098 -0.08321951 0.10012288 -0.0014244932 0.07383849
0.075927354 -0.01801634 -0.14109635 -0.0011503737 -0.0492002 0.067392424 -0.052185625 -0.07198221
0.11072575 -0.02696117 0.0066291033 0.09195739 0.026143305 -0.049017016 -0.14011237 0.013185976
-0.054681912 0.01334972 0.014858698 -0.12180383 0.05056772 -0.018435497 -0.023932377 -0.16361307
0.13846308 -0.03732539 -0.057464533 -0.07509287 -0.035821423 0.07122955 0.12313355 -0.05407555
00000000: ebd5 d2bd 7423 7abd cdaa 4abd 47b9 353d
00000010: bcdb b23d 15ca bf3d 3315 5e3c c609 e73d
00000020: e348 a0bc 5b06 d6bd 3df3 713e ff8b 9a3d
00000030: e287 90bc bfcc cc3c f359 683d 3fb0 963d
00000040: 93c5 1d3c a5f5 943b 689b 503c 44f6 293e
00000050: 8d23 ea3c 3aaf c5bd c71a a3ba cd8a 0ebe
00000060: 6f5e 973d 7150 7e3c 9c11 8ebc f68b 3c3c
00000070: bb1d 873d 14c1 05be f213 75bd ba7b 773d
00000080: 34e9 9ebc a729 c93c a575 08bd b175 27bd
00000090: 1f6b fcbd 9dd1 76bd f34f 1ebd 921b 873d
000000a0: 9e90 753c 7255 a0bd 485c 4b3d acc7 cabd
000000b0: c687 953c 26e8 673b 3aa7 c8bd fde1 9f3d
000000c0: 1fe6 7a3d 03af b63d 9c3b f3bd f0ba f1bb
000000d0: fc5c d5bc 2d23 9d3d 20e6 2dbc 60c5 813d
000000e0: e0f3 0a3e d4e6 19bd 81a3 b43d c9b3 ffbc
000000f0: eab1 023e 1fc0 7bbd c7c9 1abd f12b f23c
00000100: 676c 24be a134 ddbc d02e c6bc 41cc 0bbe
00000110: 1e84 99bd 4708 a0ba 890d a23b ea40 b9bd
00000120: 4c47 18bd bdad 6dbc 4796 97bc bc14 e6bd
00000130: 1e74 4cbd eb4e 0fbe fdd9 d23d 4712 cbbd
00000140: cd50 143e 7ea8 40be 90e2 96bd 2e97 17be
00000150: d77a f73b e2c3 a3bd c62e a3bd 90c0 043e
00000160: 01c3 16be 2646 89bd bf4f 94bd cc3b b23d
00000170: f22e d7bd 1743 3bbd 9397 023e a97c 0ebb
00000180: 7290 29be 6cff cf3c 3c42 3abe ce35 1cbe
00000190: 9a34 e9bd e726 03be a165 87bc 938f 1ebe
000001a0: bc03 d6bd e99f 91bd 4c28 febd c405 73bc
000001b0: af91 1d3d f676 39bb fe10 b23d 71f3 e63b
000001c0: 2614 a8bd 8b2b 123c ba0d e13d 759b e3bd
000001d0: a20f 53bc 5e43 e03d 2969 97bb d8ea 433c
000001e0: ea5d 013d 31f4 44be f66d ba3d 5408 99bd
000001f0: 7fd2 793d f41b abbd e733 cfbd 3acf 32be
00000200: 5608 ab3d 06df 0a3d f700 debd 4ddd 81bd
00000210: 6049 763d fdfc c9bd d210 ebbc b295 8fbc
00000220: 984f c93d d9c8 b5bd a75e 023e a687 2e3e
00000230: 431e 473d 2891 343b 88d0 0e3d 6788 883d
00000240: 327f 92bc 48e0 b2bd 64fd 95bd 3f42 adbc
00000250: 91bc 8bbd 1ce3 8b3d 64d7 0b3e 59a8 103d
00000260: 1cb1 2fbd 2893 1dbe 6753 30bd ee30 cdbd
00000270: fe6e aabd 390d cd3d 0fb6 baba a238 973d
00000280: cd7f 9b3d 0197 93bc 907b 10be 23c8 96ba
00000290: 2686 49bd 0a05 8a3d 98c0 55bd 696b 93bd
000002a0: 2fc4 e23d acdd dcbc f338 d93b 2854 bc3d
000002b0: 7c2a d63c 11c6 48bd 9e79 0fbe fe09 583c
000002c0: 24fa 5fbd c9b8 5a3c e571 733c 4974 f9bd
000002d0: 1920 4f3d 0a06 97bc d50d c4bc 2f8a 27be
000002e0: 44c9 0d3e 82e2 18bd ee5f 6bbd 4aca 99bd
000002f0: 7cb9 12bd cce0 913d 712d fc3d 537e 5dbd

rnn.bias_hh_l1 f4 [192]
0.03434237 0.057068367 -0.043305717 0.0027428383 0.047490004 0.058447283 -0.098369 0.08664706
0.0037838805 -0.10216332 0.11068153 0.12787606 -0.046238784 0.09078288 0.099566236 -0.0015804883
-0.0798952 -0.0980731 -0.008904937 -0.031733394 0.025326792 -0.052817207 0.034878727 -0.124160364
0.111928076 0.013628173 -0.16489673 -0.05415775 0.06438341 -0.11154828 -0.08162447 0.06324039
-0.036032196 -0.002337207 0.05092049 -0.056748413 -0.061745465 -0.019407626 0.09276844 0.06418138
0.08775925 -0.012280993 0.050134953 0.032098528 -0.014603698 -0.09570189 -0.05514676 -0.0681319
-0.10626325 0.01968584 -0.020932378 0.13590547 -0.060853753 -0.05927092 0.02203606 -0.10370797
0.048627622 -0.04905768 -0.11572391 0.12881093 -0.049076777 -0.031953756 0.020047987 -0.0049149813
-0.062496647 0.07556436 0.012011433 -0.07378326 -0.092313 -0.07373985 -0.1155117 -0.03917526
0.033364274 -0.10799449 -0.17191511 -0.17848144 -0.0012348994 -0.20197462 0.07870645 0.019789968
-0.038488917 -0.06210335 -0.0023939859 -0.053577967 -0.08121456 -0.041620657 -0.15662672 0.13128994
-0.13597871 -0.12331027 0.07475343 0.08952729 -0.041686215 0.01617574 0.004980306 -0.045265988
0.024770532 -0.033974744 -0.17425835 0.056602236 -0.09495692 -0.0053316103 0.008863913 -0.10960678
0.011807713 0.025866674 0.07553027 0.024192594 -0.09190644 -0.020705905 -0.004259115 0.08845584
-0.121037506 0.02703879 -0.0657518 -0.19972521 0.11981902 -0.071097285 0.15337105 -0.06339921
0.0696062 -0.20913967 -0.053459276 -0.0801948 0.0644148 0.07186011 0.03997873 -0.022168415
0.013040631 0.051608726 -0.07250353 -0.048991334 0.019181943 0.08537116 -0.060389437 -0.02591019
-0.076318316 -0.05368045 -0.03972389 0.14196129 0.11854292 0.019151412 -0.0025308442 -0.1260891
-0.040419266 -0.04719728 -0.05687135 0.14319931 -0.079202026 0.06160975 0.11618147 -0.06123819
-0.011553877 0.061004296 0.009133209 0.030767364 -0.09685394 0.046367176 0.018323958 0.020748246
-0.042678278 0.041197028 0.019786188 -0.06843537 0.12873033 -0.043693423 0.080457956 -0.012097282
0.14420876 0.13912098 0.105225414 -0.051478595 -0.06844639 -0.14271547 0.043711904 -0.097007334
0.14410561 -0.045534324 -0.07832043 -0.15681082 0.010894522 -0.03544203 -0.011035222 -0.15637217
0.14598258 -0.015504449 0.1111688 -0.15260293 -0.13224833 -0.032832224 -0.11293288 -0.034869224
00000000: 96aa 0c3d 85c0 693d 5661 31bd 31c1 333b
00000010: e184 423d 6b66 6f3d b075 c9bd 0474 b13d
00000020: fbfa 773b 013b d1bd ffac e23d f1f1 023e
00000030: e164 3dbd 60ec b93d 62e9 cb3d 6328 cfba
00000040: 18a0 a3bd 8dda c8bd 03e6 11bc e0fa 01bd
00000050: 227a cf3c db56 58bd ffdc 0e3d ca47 febd
00000060: 8c3a e53d b348 5f3c b0da 28be 84d4 5dbd
00000070: 73db 833d 6d73 e4bd bb2a a7bd 2d84 813d
00000080: 7f96 13bd d42b 19bb 0192 503d 0671 68bd
00000090: d0e8 7cbd befc 9ebc 61fd bd3d 8771 833d
000000a0: 1fbb b33d 3836 49bc 4f5a 4d3d bf79 033d
000000b0: 5944 6fbc 5aff c3bd 92e1 61bd bd88 8bbd
000000c0: 8ca0 d9bd 3344 a13c 617a abbc ce2a 0b3e
000000d0: c941 79bd 10c6 72bd f884 b43c d864 d4bd
000000e0: c22d 473d b5f0 48bd a800 edbd 03e7 033e
000000f0: bb04 49bd f1e1 02bd ad3b a43c da0d a1bb
00000100: 7cfc 7fbd 7dc1 9a3d 9acb 443c ae1b 97bd
00000110: 990e bdbd eb04 97bd 6691 ecbd 3d76 20bd
00000120: faa8 083d 372c ddbd 840a 30be d7c3 36be
00000130: 59dc a1ba 6fd2 4ebe d930 a13d 921e a23c
00000140: 8ea6 1dbd 1560 7ebd 6be4 1cbb 9274 5bbd
00000150: d253 a6bd 6c7a 2abd c162 20be df70 063e
00000160: 013e 0bbe 188a fcbd 5418 993d 155a b73d
00000170: 2abf 2abd fc82 843c d631 a33b d468 39bd
00000180: 92eb ca3c 1a29 0bbd c870 32be bfd7 673d
00000190: c678 c2bd cab4 aebb f239 113c 8579 e0bd
000001a0: 2375 413c 59e6 d33c 9daf 9a3d 8c2f c63c
000001b0: 7239 bcbd 6e9f a9bc 0c90 8bbb 5628 b53d
000001c0: 83e2 f7bd 7480 dd3c e1a8 86bd c484 4cbe
000001d0: ad63 f53d 749b 91bd 4d0d 1d3e 72d7 81bd
000001e0: b28d 8e3d b628 56be 1df8 5abd 2c3d a4bd
000001f0: e8eb 833d 652b 933d bdc0 233d 899a b5bc
00000200: 5fa8 553c ac63 533d bb7c 94bd 23ab 48bd
00000210: 7323 9d3c 13d7 ae3d ea5a 77bd 9b41 d4bc
00000220: c74c 9cbd 08e0 5bbd 85b5 22bd 4d5e 113e
00000230: a1c6 f23d 6ce3 9c3c 85dc 25bb 801d 01be
00000240: ac8e 25bd ef51 41bd eff1 68bd d7a2 123e
00000250: ac34 a2bd 815a 7c3d 8df0 ed3d e5d4 7abd
00000260: 794c 3dbc a4df 793d 74a3 153c d70b fc3c
00000270: 5c5b c6bd 82eb 3d3d 201c 963c 3af8 a93c
00000280: 6bcf 2ebd 37be 283d a516 a23c d827 8cbd
00000290: e2d1 033e e0f7 32bd 24c7 a43d ae33 46bc
000002a0: 76ab 133e bb75 0e3e 6c80 d73d 38db 52bd
000002b0: 9f2d 8cbd 0124 12be 410b 333d c8ab c6bd
000002c0: 6c90 133e 3382 3abd 7666 a0bd 0493 20be
000002d0: f07e 323c a92b 11bd 13cd 34bc 0720 20be
000002e0: 757c 153e 5f06 7ebc 78ac e33d f143 1cbe
000002f0: 1b6c 07be 157b 06bd 5b49 e7bd 08d3 0ebd
