program/deep_learning/16 - Recurrent Neural Network/model/lstm/weights_best.pth (torch, 254071 bytes, 13 tensors)

rnn.weight_ih_l0 f4 [192, 1]
000000 d2 77 0f 3e 25 c6 96 bd 1e 3b 66 3d ce 1b fb bd
       0.14010552 -0.07362012 0.056208722 -0.12261163
000010 36 cf d9 3d 1a 7f 4f bd 7e 17 90 3b 5e e6 16 3e
       0.106352255 -0.050658323 0.0043973317 0.14736316
000020 44 99 0b 3e 1a 1d a9 3d 9e 15 9c bd ae 25 46 3e
       0.13632685 0.08257504 -0.07621311 0.19350311
000030 96 9b 10 3e db 65 0e 3e 09 ad 00 be f5 9d a9 3c
       0.14121851 0.13906042 -0.12566008 0.020705203
000040 45 90 ae bd a0 8f ca 3d 4f 00 38 bd f5 7c 1d 3e
       -0.08523611 0.098906755 -0.04492217 0.15379699
000050 ca 65 7b 3d d9 97 a3 3d 62 4f 67 3e bd b0 c1 bd
       0.06137637 0.07987947 0.22588876 -0.09457538
000060 3c ac 63 3d f4 c0 6a 3d 63 84 ae 3b 32 e8 1f be
       0.055584177 0.05731292 0.0053258403 -0.15615919
000070 2d c3 6b 3c 19 42 4e 3d ad 0d 80 bc 3e 2e 06 bb
       0.014389795 0.050356004 -0.015631521 -0.002047434
000080 d5 64 7a bd d1 9e 54 3d d7 22 a6 bd 28 ee 6c bd
       -0.061131317 0.05190927 -0.08112114 -0.05784431
000090 80 99 9b bd 55 fd 5d 3e 5d 7d 91 bd 5a 76 05 3e
       -0.07597637 0.2167867 -0.07103989 0.13033429
0000a0 0a 04 e6 bd 46 0a b2 3d 40 b1 cd 3c 6c 78 48 3e
       -0.11231239 0.08693366 0.025108933 0.19577187
0000b0 22 42 ed 3d ea 09 f1 3d 18 2d de 3d 4b f6 2c 3e
       0.115848795 0.11769469 0.10848445 0.16890828
0000c0 70 b1 fc 3d 57 9f cf ba 8d 42 c9 3c eb ae c3 3d
       0.12338531 -0.0015840334 0.024567867 0.09554847
0000d0 eb 89 59 bd b7 25 95 bd e5 e3 90 bd aa 79 b1 bd
       -0.053110044 -0.07282584 -0.070747174 -0.08665784
0000e0 79 b6 17 bd b0 45 74 3d 67 ee fe bc 8e 4c 91 3e
       -0.037039254 0.05963677 -0.031119538 0.2837872
0000f0 6d 86 88 bd 7a 6e 45 3e 10 b0 ee bd fd 4a d2 bd
       -0.06666265 0.19280425 -0.11654675 -0.10268209
000100 10 75 28 be 10 84 1e bd a6 de 99 3c 3c da a9 3c
       -0.16450906 -0.038700163 0.018782925 0.020733945
000110 e2 91 a1 be e0 83 a7 be 1c 48 1e bd 03 dd 5c bd
       -0.31556612 -0.327178 -0.038642988 -0.05392171
000120 4a 0d 29 bd ae 27 08 3e b2 89 71 bc 28 eb 31 bc
       -0.04127244 0.13296387 -0.014742302 -0.010859288
000130 71 96 2b bd 6c 17 a2 bd 6a 7c 3b bd 2b 0a 96 3d
       -0.04189152 -0.079146236 -0.045772947 0.07326158
000140 9c 0e bc bd 61 4f 28 be 2b e6 6e 3d b8 21 6e bd
       -0.09182474 -0.1643653 0.058324974 -0.058137625
000150 4f 10 0e be 5d ad 8e bd ef 3b f5 bd fe cd 12 bd
       -0.13873409 -0.0696666 -0.11974322 -0.03584098
000160 8e 8e 8a 3c 9a f4 d3 bd bc c3 02 3e f1 5e 20 3d
       0.016913678 -0.103493884 0.12769979 0.039153043
000170 de be d5 bd 74 c2 ae 3c a1 5e 38 bd c2 ff d3 3c
       -0.10436796 0.021332957 -0.04501212 0.02587879
000180 e2 04 d0 bd 99 9c ca bd ed 2c 84 bd a3 98 b8 bd
       -0.10157181 -0.0989315 -0.064538814 -0.09013488
000190 9b 46 71 3d 6b a1 0f be bd da 98 bd da c4 a1 bd
       0.058905225 -0.1402642 -0.07463596 -0.078988746
0001a0 7a 44 e3 3d 76 33 81 bd c7 db 81 bd d1 ee c2 bd
       0.11097045 -0.063086435 -0.06340747 -0.09518207
0001b0 1a 99 d2 bd a3 7e 8e bd f2 49 9a bd 7d 80 23 bd
       -0.10283108 -0.06957748 -0.07533635 -0.039917458
0001c0 f8 c6 e7 bd 6f 51 c8 bd 6d 19 34 bd fd c3 eb bc
       -0.11317247 -0.09781157 -0.04396956 -0.028779978
0001d0 31 5d ac bd f8 a3 8d bd ed ed 8d 3d ab 50 d3 bd
       -0.08416212 -0.0691604 0.06930146 -0.103181206
0001e0 ff b7 93 bd f5 ec 3c bd d2 1b 9f bd 1b 60 c6 bd
       -0.07212829 -0.046124417 -0.07768978 -0.096862994
0001f0 1f 22 cf bc 5b 18 1a bd 6d 7b 0f 3c bb 3a c5 3d
       -0.025284825 -0.037620883 0.008757454 0.096303426
000200 21 e0 b9 bc 5e 1e 54 3d 71 be 3b 3e d3 6f 98 bd
       -0.02268988 0.051786773 0.18334366 -0.07443204
000210 24 54 5d bd 69 d2 68 3d 25 e7 d8 3d 62 a0 45 bd
       -0.05403532 0.056841288 0.10590962 -0.048248656
000220 67 a3 0c be 2b ad 18 3b ee 54 54 bd 13 09 80 bd
       -0.13734208 0.0023296576 -0.051838808 -0.06251731
000230 17 05 b8 3d 5c f9 85 bd 93 25 89 3d c6 e1 76 3c
       0.08985346 -0.06541702 0.0669662 0.015068477
000240 a0 77 4f bd 85 dc b8 bd cf 5c 7c 3d 73 32 9d 3d
       -0.050651193 -0.09026436 0.061611947 0.07675638
000250 1a c2 44 bd 7e e6 63 bd 1b 66 5d bd 11 bd 36 3d
       -0.048036672 -0.055639736 -0.054052453 0.0446139
000260 b9 41 10 3e 21 c6 58 3d 80 5a 33 3d e8 6a 98 3d
       0.14087571 0.052923325 0.04378748 0.07442266
000270 5b 0f 50 bd 0e da 21 be f6 90 c2 3d 9c d5 fc 3d
       -0.050795894 -0.15805838 0.09500305 0.1234543
000280 e7 85 8a 3d 22 e4 5e 3d 81 66 59 3d af cd 79 3d
       0.06763821 0.054416783 0.05307627 0.06098717
000290 fb 7b 5e 3d 6e 2d 40 3d 53 83 2a bd 97 bb 8b bc
       0.054317456 0.046918325 -0.041629147 -0.017057223
0002a0 2d 87 08 bd 43 62 2c bd 4b 7c 89 bd 74 0b 43 bd
       -0.03333204 -0.042085897 -0.0671316 -0.047618344
0002b0 44 c1 ce bd 8d 2b ea 3d 32 ec 72 3d 14 1b 39 3e
       -0.10095456 0.11434088 0.059307285 0.18076736
0002c0 24 cd b3 bb a0 19 46 3d 94 41 8b 3d 6e 74 82 3c
       -0.005487101 0.04836428 0.067996174 0.015924659
0002d0 f5 2b 56 bd f6 4e 4d bd a5 1e 26 3d d8 48 46 bd
       -0.052288014 -0.05012413 0.04055657 -0.048409313
0002e0 6c 1f af 3d 6f d0 a6 3d 92 f5 34 3d 7a 9b 5e 3d
       0.08550915 0.08145224 0.044179507 0.054347493
0002f0 10 3c 2f bd c2 16 88 bd 92 d6 8b bd 0b 93 a9 bd
       -0.04278189 -0.06644966 -0.068280354 -0.08279999

rnn.weight_hh_l0 f4 [192, 64]
000000 11 ae f7 3d 77 73 48 3c d8 bc cc 3d e4 50 a6 3d
       0.120937474 0.01223456 0.099969566 0.081208974
000010 38 75 18 be fd fd d0 3d 11 77 ef 3c 45 f2 55 be
       -0.14888465 0.102046944 0.02923158 -0.208932
000020 93 81 83 3c 8c 6a b2 bd 93 1b 26 be f2 90 b9 3c
       0.016052997 -0.087117285 -0.16221456 0.022652123
000030 3b 3e 93 3d 86 b1 fb bd fd 86 f8 3d a0 c5 f1 3b
       0.07189604 -0.12289719 0.12135122 0.007378295
000040 c4 b1 5a be 77 35 7f be fa 75 41 3e e1 0b 50 bd
       -0.21356875 -0.24922739 0.1889266 -0.05079258
000050 e0 01 43 bd 4f 1a 72 be 1e 23 74 3d 65 c7 ef 3d
       -0.04760921 -0.23642848 0.059603803 0.11707953
000060 0f a5 7d 3e b4 c7 18 3e 7c 4b da 3d 87 a4 56 3e
       0.24769996 0.1491993 0.10658929 0.209612
000070 7c d7 2f be 45 fe ac bd a4 67 38 3d 53 22 f4 3d
       -0.17172045 -0.084469356 0.045020714 0.11920609
000080 d0 58 55 3e 22 85 40 3d 41 f8 fb 3d c3 9e 14 3e
       0.2083466 0.047001965 0.1230321 0.14513688
000090 fd 4e 56 3e 34 ce 95 3c 0c 0f a5 bd 36 9b e5 bc
       0.20928569 0.018286802 -0.080595106 -0.028028112
0000a0 00 88 d6 bd de cd 2f be 23 fa 22 be 0c d1 b0 bd
       -0.10475159 -0.17168376 -0.15915732 -0.086336225
0000b0 59 b8 99 bc f8 ac 96 3d 1e fe 9c 3d 51 62 dc 3d
       -0.018764662 0.0735721 0.076656565 0.1076094
0000c0 40 fa 4b 3d 2e 86 4f 3e 00 e0 75 3e f0 88 5a 3e
       0.049799204 0.20266029 0.2401123 0.213413
0000d0 5f d6 72 be 4e a6 45 be c2 5a 9b 3e 42 bd bc bd
       -0.23714589 -0.19301721 0.3034268 -0.092157856
0000e0 82 a3 41 3e 17 72 63 3d ed ed 70 3e da 16 3a 3e
       0.1891003 0.055528726 0.23528261 0.1817278
0000f0 8f ee 92 bd 6d 7d 98 3d 46 fc 2e 3c ac bf 45 be
       -0.07174408 0.07445798 0.010680264 -0.19311398
000100 ca 83 f1 bd cd 3d 04 be c3 f0 03 3d 4c 69 6b 3e
       -0.11792715 -0.129142 0.03221203 0.22989386
000110 66 1f 03 3d 6e 45 22 39 36 95 18 be 5f 08 fd bc
       0.032012366 0.00015475388 -0.1490067 -0.03088778
000120 be 5d c3 bd 0b 11 f7 bd a9 ed 76 bd 49 cf 1d 3d
       -0.09539364 -0.120637976 -0.060285244 0.03852776
000130 bf 6a 2c be d3 8f 3e be 0c 90 61 bc ad 1a 0c be
       -0.16837595 -0.18609552 -0.013767254 -0.13682051
000140 62 96 bc 3d 13 ab ae 3c 99 4e c8 bd 4a ca a4 3c
       0.09208371 0.021321809 -0.09780616 0.02011599
000150 09 d0 85 bd ff ff 70 bd 4d 99 83 3d 46 c2 a1 bd
       -0.0653382 -0.058837887 0.06425724 -0.07898383
000160 cc d3 a7 bd a8 50 55 bd 51 c4 fc 3d fc 16 17 be
       -0.08194694 -0.052078873 0.12342132 -0.14754862
000170 64 6d b9 bc 78 ed cf bc ac b8 44 3d b6 65 2a 3c
       -0.02263517 -0.025381789 0.04802768 0.010400226
000180 a6 ec a9 be 90 ff 42 3d 79 8f 13 bb 08 ac 06 bd
       -0.3318836 0.047607005 -0.0022515936 -0.032878906
000190 70 9b 85 bd 8b 0d 94 3c b1 7e a8 3b da cf 97 bd
       -0.06523788 0.018072864 0.005142056 -0.074126914
0001a0 6b 30 26 3e 6a 2d 06 3e 69 5f 90 3d 88 ed 13 be
       0.16229407 0.13103262 0.07049448 -0.1444608
0001b0 d6 57 16 3e 0d e9 c1 bd a1 13 70 3d 71 dc a4 3d
       0.14681944 -0.09468279 0.05861247 0.08049858
0001c0 27 23 92 3d 99 89 b6 bd 2e c6 68 bd 60 e9 f5 bd
       0.07135611 -0.089129634 -0.056829624 -0.120074034
0001d0 91 70 fe bb 06 57 e1 3d a8 cc 90 3d 24 ab 35 3e
       -0.007764884 0.110029265 0.07070285 0.17741066
0001e0 c9 07 a1 3d 93 2b 6a be 86 0a c0 bd 74 62 91 3d
       0.07862813 -0.22868185 -0.09377007 0.070988566
0001f0 c1 c5 7d 3c da 27 03 3f fd e4 89 3d 6f e4 6d 3e
       0.015489043 0.51232684 0.06733129 0.23231672
000200 24 34 79 3c 74 23 44 be 62 ea c2 3d 2f 1b 0f be
       0.015210185 -0.1915415 0.09517361 -0.13975213
000210 d1 07 59 3e be 05 42 be 03 44 24 be 0e ba f9 bc
       0.21194388 -0.18947503 -0.1604157 -0.030484226
000220 65 f8 45 3d b9 81 02 bd 3b f5 2d 3d bd 49 20 3d
       0.04833259 -0.031861994 0.042470198 0.039132822
000230 05 d6 66 3d 6f 05 75 bd 58 4e 2e bd 14 75 6c 3e
       0.05635645 -0.059819635 -0.042555183 0.23091537
000240 4e 67 ac bc 41 cf 49 bd 89 29 09 3d 32 ed 0d bc
       -0.021045353 -0.04926992 0.033486877 -0.008662509
000250 a2 c8 bf 3c ca 72 5f 3d 80 c8 00 bd dd 24 c6 3d
       0.023411099 0.05455283 -0.03144121 0.09675
000260 2b 7c 83 3d 5b 8b 16 3d f4 ff 9c be e9 ec e0 bd
       0.064201675 0.036753993 -0.30664027 -0.10982687
000270 19 6b 00 be 14 6b 24 3e 51 8a 58 bd 5e cf 94 bd
       -0.12540855 0.16056472 -0.052866284 -0.07266115
000280 ed d1 e8 3d b4 a5 3b 3d d3 dd 23 3e ed 6e 58 bc
       0.11368165 0.045812324 0.16002588 -0.0132100405
000290 53 cb 17 3d f9 35 a4 bd f5 22 13 be 16 4d c2 3d
       0.03705914 -0.08018107 -0.14368804 0.09487359
0002a0 ca f9 63 3d f2 79 10 be d2 a2 ed bd 52 ab e8 3b
       0.05565814 -0.14109018 -0.11603321 0.007100501
0002b0 5b 0b bc bd 3a 5f 31 bd 91 41 8c bd 0c 63 6b bd
       -0.091818534 -0.043303706 -0.06848443 -0.057467505
0002c0 9f b2 61 3d 5f 7e 43 3d 24 5e e0 3c 26 fa a2 bd
       0.055101987 0.04772794 0.02738864 -0.07957868
0002d0 ca e1 53 bd d7 79 85 3d bf 78 da 3d 55 39 45 3d
       -0.051729 0.0651738 0.10667562 0.04815038
0002e0 6f 2d e0 bd bb 47 67 3d ef 92 cf bd 08 51 31 3e
       -0.10946166 0.056464892 -0.10135447 0.17316067
0002f0 85 12 cb 3b 1a fa 2e bd 1d 69 84 bd be 80 69 3e
       0.006197276 -0.042718984 -0.06465361 0.22803017
000300 8d 26 09 be f8 9c 83 bd 8e 14 03 3c 03 e5 88 bd
       -0.13393612 -0.06426424 0.008000506 -0.066843055
000310 db e0 7c 3b a5 1e 03 bd 54 25 38 bd d0 dc d4 3c
       0.0038586173 -0.032011647 -0.044957474 0.025984198
000320 3b 7e 84 3d 8e a3 db bd e6 d2 62 bd a5 57 24 3c
       0.06469389 -0.10724555 -0.05537691 0.010030662
000330 fd 5f 0a bd 6c 38 84 bc d6 f8 d1 3d bb bd 22 3d
       -0.033782948 -0.016140185 0.1025254 0.039731722
000340 c9 b7 df bb ec b7 fc bd 55 a2 df bd 67 52 a0 bc
       -0.006827329 -0.12339768 -0.10919634 -0.019570542
000350 ad 1b 58 bc a6 bb f2 bd 07 45 a8 bc 0f 80 e8 3d
       -0.013190192 -0.11852197 -0.020540727 0.1135255
000360 f8 5d fa 3d c9 44 c5 3d bc 70 1a 3e b1 78 90 bd
       0.12224954 0.0963226 0.15082067 -0.0705427
000370 46 67 43 bc 1a c2 85 bc d6 ea 45 bc 4b 23 05 3e
       -0.011926478 -0.016327906 -0.012079915 0.13001744
000380 27 0d f7 bd d7 2b d6 bb 90 77 8f bd ca 28 a1 3d
       -0.120630555 -0.006535988 -0.070052266 0.07869108
000390 aa b1 5b bd c3 9b d7 3d bf c5 30 bc b9 2b 1b 3d
       -0.05363623 0.10527756 -0.010789334 0.037883494
0003a0 8a 35 25 3e e1 83 c0 bd ba 9d 13 3e e0 6a c2 bd
       0.16133705 -0.09400154 0.14415637 -0.09493041
0003b0 ab b0 12 3e 3d 11 a4 3d 81 a7 01 bd 02 f0 33 3d
       0.14325206 0.080111004 -0.031653885 0.04393006
0003c0 a6 69 d3 bd 65 5d 4b 3d a6 49 88 bd 7d 12 0a 3d
       -0.10322885 0.049649615 -0.06654672 0.033709038
0003d0 b0 ca a9 bd 79 08 9a bc c0 29 4f 3d 82 b1 b0 3d
       -0.08290613 -0.018802868 0.050576925 0.08627607
0003e0 cc 27 36 3d c9 56 10 3e 23 8d 93 bd a1 82 f0 bb
       0.044471547 0.14095606 -0.07204654 -0.007339791
0003f0 d3 41 fe bd 8a 06 bb 3d 7b 3b eb 3d 5d 18 e1 bc
       -0.12414899 0.091321066 0.114859544 -0.027477438

rnn.bias_ih_l0 f4 [192]
000000 d2 c5 43 3e 61 e0 a8 3d c3 bb c7 bd a7 7a 09 3e
       0.19118431 0.08245922 -0.097526096 0.13425694
000010 2e 5b 07 3e a9 d6 3c 3e 07 c5 44 bd 85 31 0c 3d
       0.13218376 0.18441261 -0.048039462 0.034226913
000020 2a 11 f2 3d ab 4e fc 3d ae b7 67 bd 06 ab ac 3c
       0.1181968 0.12319692 -0.056571655 0.021077644
000030 f5 9b d6 3d 00 eb 50 3e 09 47 94 3e 3a 2b 85 3e
       0.10478965 0.20402145 0.28960446 0.26009542
000040 ff 21 9d 3d 0a 8e 84 3d 8a ca ce bd c2 ce 63 3e
       0.076725 0.06472404 -0.10097225 0.2224684
000050 c9 24 32 3e e3 85 8d bd eb 44 a2 3d ef e8 7e 3d
       0.17396845 -0.069103025 0.07923301 0.06223386
000060 08 ca a9 bc f1 25 82 3c 50 df 77 3e 3d 00 3b 3c
       -0.020726219 0.015887232 0.2420628 0.011413631
000070 bd b7 61 be cd a4 46 be b0 91 6b 3b 77 dd b8 3c
       -0.22042747 -0.19398804 0.003594499 0.02256654
000080 23 2b a3 bd 3e 91 a3 bd 70 c4 34 bc f3 cf e1 bb
       -0.07967212 -0.07986687 -0.0110331625 -0.0068912446
000090 de 97 66 bd 20 91 9c 3d 03 7f a8 3c 9b 01 ac 3d
       -0.056297176 0.07644868 0.020568376 0.08398744
0000a0 d1 7f 87 bd f2 9d 01 3d 66 2a 29 3d 85 79 02 bd
       -0.06616176 0.03164477 0.0413002 -0.03185417
0000b0 80 77 85 3d 99 0c eb 3d 19 7b 5b 3c 34 66 f6 bd
       0.065169334 0.11477012 0.013396048 -0.120312124
0000c0 0a 83 7d 3e 4f 49 40 3e 43 52 70 3d bb e8 ec bd
       0.24757019 0.18777965 0.0586722 -0.11567827
0000d0 9f be bf 3c e7 f6 3d bd 9f 89 98 bd b9 30 94 bd
       0.023406325 -0.046378043 -0.07448124 -0.072358556
0000e0 08 8b 7b 3d a7 47 5f 3e f9 71 99 3c 59 0e 24 3e
       0.061411887 0.21804677 0.018731104 0.16021098
0000f0 ee 39 c2 3d f4 fc d9 3d e1 6b 8d 3c 18 be ec 3d
       0.094837055 0.1064395 0.017263355 0.11559695
000100 5a 55 9c bd 4c e3 f6 bd 1b 2a 10 be 9a 17 cb 3d
       -0.07633467 -0.12055072 -0.14078562 0.09916611
000110 38 b1 9f bd e8 88 3a be 22 03 35 bc f1 68 d3 bd
       -0.07797474 -0.18216288 -0.01104811 -0.1032275
000120 74 ce 35 3b 9f 17 b7 3d ae b9 82 3c 04 65 2e be
       0.0027741464 0.08940052 0.01595768 -0.17030722
000130 0a b9 9f 3c 63 f1 41 be 01 44 ca bd 8c 99 22 be
       0.019497413 -0.18939738 -0.09876252 -0.15878886
000140 af 45 a0 3d 51 30 b8 bd bf 4d c5 bd 16 27 3a 3d
       0.07825791 -0.089935906 -0.096339695 0.04544743
000150 29 e9 da 3c 03 37 3e bd 18 71 a4 3c ac 7b 73 bd
       0.026722508 -0.046439182 0.020073459 -0.059444115
000160 32 c7 de bd f1 f0 10 3e 32 78 65 be aa f2 8c bd
       -0.10877837 0.14154412 -0.22409132 -0.06882222
000170 1d 67 2a 3e 7b 29 28 bd ad 9d 99 bc a6 1e 19 3d
       0.16640897 -0.041055184 -0.018751943 0.037382744
000180 7b e6 f2 bc 72 20 f5 3c b6 13 bc bc 2c fd 2f 3e
       -0.029650917 0.029922698 -0.022958618 0.17186421
000190 31 ba 06 be 42 ec ee bd a4 80 db bc e6 38 f7 bd
       -0.13156964 -0.11666156 -0.026794739 -0.120713994
0001a0 97 b7 fa bd 65 4d bf 3d ab 55 72 3c 5b d5 29 bc
       -0.12242048 0.09340934 0.014790933 -0.010365809
0001b0 53 3d f5 bc 97 07 10 3d cf 7c 2b be 3a 22 a4 bb
       -0.029936468 0.03516349 -0.1674683 -0.005008963
0001c0 6e 8b 61 be 1b 98 de bb 13 3a b1 3c ce a2 60 bc
       -0.22025844 -0.0067930347 0.021634137 -0.013710691
0001d0 3e db 04 3d ac 03 58 3e e1 41 87 3d 25 9d 03 3d
       0.03243565 0.2109515 0.06604362 0.032132287
0001e0 1e 14 01 3c 09 39 03 bc f3 77 2b bb e4 82 ba 3b
       0.0078783315 -0.008009204 -0.0026164025 0.005691873
0001f0 54 cd 22 be 53 0b b2 bd 97 0e 06 be 25 48 d7 bd
       -0.15898639 -0.08693566 -0.13091503 -0.10511807
000200 25 05 82 3d 84 3a 3c bd ea 41 14 3e 2d 49 85 3e
       0.063486375 -0.045954242 0.14478269 0.2603239
000210 d8 48 13 be 68 b9 8f bd 03 23 87 3c 40 32 1f 3c
       -0.14383256 -0.07017785 0.016496187 0.00971657
000220 fe 0f b3 bc d4 11 8e bd bb e9 63 bd 81 8f 1f 3d
       -0.021858212 -0.06936994 -0.055642825 0.038955215
000230 ec ba 72 bc 1e 0a e9 3a 39 c5 9b bd 98 5e 3a be
       -0.014815073 0.0017779504 -0.076059766 -0.18200147
000240 8a a8 80 bd b2 0c ef bd 1d 74 1e bd 71 06 16 be
       -0.06282146 -0.11672343 -0.038684953 -0.14650895
000250 17 7b 1f 3e 54 d3 44 bd e0 25 a8 3e 4a 23 9d bd
       0.15574299 -0.0480531 0.32841396 -0.076727465
000260 0e 7d c5 3d 79 23 58 3d fb 4c 31 3e 71 bb f8 bd
       0.09642993 0.052768204 0.17314522 -0.121451266
000270 56 3f 34 3e be d8 80 3c d6 5b 87 3d 67 f4 0b 3e
       0.17602286 0.01572835 0.06609313 0.13667451
000280 76 81 3f be 75 5d 80 bd 32 7a 23 3c 60 64 61 be
       -0.18701729 -0.062678255 0.009977864 -0.22010946
000290 fe 02 44 3d 28 2c 84 be 24 37 1e 3c 8c b7 58 be
       0.047854416 -0.2581494 0.009656701 -0.21163768
0002a0 b5 1f 83 39 6f 22 a6 3d 6f 80 84 3e fd 74 1c 3e
       0.0002500989 0.081120364 0.25879237 0.15279002
0002b0 1e f8 e1 3d 43 86 6f bc 9a c0 19 3e eb c4 ef 3d
       0.11033653 -0.014619413 0.15014878 0.11707481
0002c0 a4 6e 37 3e 89 b8 5d be c2 69 43 3d b0 84 64 bc
       0.179133 -0.21652426 0.04770828 -0.013947651
0002d0 82 e0 16 3e ac de 44 3e e3 8d 18 3e 23 65 5e bc
       0.1473408 0.19225568 0.14897875 -0.013573918
0002e0 43 72 91 3d 55 aa da 3c a4 29 a1 3d 69 9c 2e be
       0.07101872 0.026692549 0.078692704 -0.17051853
0002f0 43 6d 8e 3d 59 9b 88 3e 8c 75 21 3e 3d 41 ee 3d
       0.06954434 0.2668102 0.15767497 0.11633537

rnn.bias_hh_l0 f4 [192]
000000 19 9d 9c 3d aa 60 15 3d 56 6d 8b 3d 5e 30 34 3e
       0.076471515 0.03646914 0.068079636 0.17596576
000010 1b f8 10 3e 14 08 da bc a4 b2 e9 bd 60 b6 ba bd
       0.14157145 -0.02661518 -0.11411026 -0.091168165
000020 33 3b 49 3b 69 9e 17 3e 5b 8c 23 3d 1b 56 8a bd
       0.0030705451 0.14806522 0.039928775 -0.067547046
000030 47 62 36 3d ba 64 20 3e e5 a7 9a 3e d3 27 8c 3e
       0.04452732 0.15663424 0.30206218 0.27374133
000040 58 99 e0 bd e8 9d b0 bd 08 0b 56 bd 1e 60 64 3d
       -0.10966748 -0.08623868 -0.052256614 0.055755727
000050 c8 eb 3c 3e 43 dd 81 bd 0c d8 47 3e e1 36 36 3d
       0.18449318 -0.063410304 0.19516009 0.04448593
000060 4d c4 78 bc 84 43 88 bd d2 d1 5b 3e 26 69 a0 3d
       -0.0151835205 -0.066535026 0.21466759 0.078325555
000070 bd 29 04 be ee 22 02 bd 54 9f 37 3d 8a 28 d0 bb
       -0.12906547 -0.031771593 0.04482968 -0.006352489
000080 56 47 10 3e 92 22 82 bd ff 0b 52 3e 7d ab f1 bc
       0.14089713 -0.0635425 0.20512389 -0.029500717
000090 00 f8 8d bd 83 e8 0d 3e 7d d8 eb 3c ee ed 59 3e
       -0.06932068 0.13858227 0.028789753 0.21282169
0000a0 d3 3c 85 ba b0 9c 9d 3c 41 79 ef bb 1f 06 b6 3d
       -0.0010165222 0.019239753 -0.0073081558 0.08887886
0000b0 9f 09 3c 3d 64 de 49 3d 40 3f c4 3c 78 f8 bd bd
       0.045907613 0.049284354 0.023955941 -0.09275907
0000c0 7b 3b a7 3d 91 e9 0c bc a0 a3 68 bd 64 04 16 bd
       0.08165642 -0.008600608 -0.05679667 -0.03662528
0000d0 1c 63 87 3b 3c 3a 50 3d 4c 11 a1 3d 56 0b 61 bd
       0.004131688 0.050836787 0.07864627 -0.05494245
0000e0 13 5a 88 bd d3 bd 60 3e 5f a4 f2 3c c6 96 f8 3d
       -0.06657805 0.21947412 0.029619394 0.12138133
0000f0 3e 79 1c 3e 8e ba 00 3e 35 52 0a 3e 3e f6 c9 bc
       0.15280625 0.12571165 0.13507922 -0.02465355
000100 c0 48 cd bc b4 19 18 be ae 08 b0 bd a8 50 2b 3d
       -0.025059104 -0.14853555 -0.085954055 0.041824967
000110 cb 3c f3 bc b0 6c 76 be 94 bf 62 bb c6 27 21 be
       -0.029692074 -0.24064898 -0.0034599053 -0.15737829
000120 01 be a6 bd c3 ab 61 3d c2 7a 54 be 52 67 34 be
       -0.08141709 0.055095445 -0.20749953 -0.17617539
000130 7a 5e f1 3c 82 a2 4e bc 4a 08 dc bd 12 10 6b bd
       0.029463995 -0.012611987 -0.107437685 -0.057388373
000140 0b b8 99 3c 15 ff 25 be 3d 77 8f 3d 0c 02 d2 bd
       0.018764516 -0.16210587 0.07005165 -0.10254297
000150 a8 aa 84 bc 8a 7d 9a bd 45 4b 17 3d 30 54 c2 bd
       -0.016194656 -0.07543476 0.036937017 -0.09488714
000160 c2 25 6a bd 9d 7a c4 3d c4 89 58 be 06 26 ba 3d
       -0.057164915 0.09593699 -0.21146303 0.09089284
000170 29 34 56 3e b0 f2 80 38 f8 60 4b 3d 52 77 cf bd
       0.20918335 6.14872e-05 0.049653023 -0.101301804
000180 b0 2e d4 3d a4 fc 86 bd 6c 10 e0 bd cc 47 03 3e
       0.103604674 -0.06591156 -0.10940632 0.12820357
000190 d0 8e 01 be fd 12 21 be 07 e1 37 bd 14 6d c6 bd
       -0.12652135 -0.157299 -0.044892337 -0.09688774
0001a0 3c 66 18 3d 04 d2 74 bd 91 fd f0 bc 9a a4 7c 3c
       0.037206873 -0.0597706 -0.029417785 0.015420103
0001b0 31 9c 37 bc be 11 1f be 8c f8 66 bd 38 9e ae bd
       -0.0112066725 -0.15534112 -0.056389377 -0.085262716
0001c0 6d 5a 38 be 28 1a ac 3d f9 68 18 be c8 7b 62 3d
       -0.18003245 0.084034264 -0.14883794 0.05529383
0001d0 2a ae a0 bd 43 66 a3 3e a8 db 66 3d bb 26 d0 3d
       -0.07845719 0.31913957 0.056361824 0.10163637
0001e0 94 c2 04 be 76 78 e2 bd d4 ec f6 3c 8b c4 c3 bd
       -0.1296485 -0.11058132 0.030142225 -0.09558972
0001f0 cc fb 29 be 8b 18 c2 bc 8f 8d 1e 3d 0d 20 c6 3d
       -0.16599959 -0.023693344 0.03870922 0.09674082
000200 e0 84 53 3e d1 02 e9 bd 34 54 1a 3e 8e f5 a6 3e
       0.20656157 -0.1137749 0.15071183 0.32609218
000210 36 96 64 be 63 e4 9a 3d 85 87 b9 3d 0e 37 b8 bd
       -0.22322926 0.075630926 0.090590514 -0.08994876
000220 ff e2 43 3d 9d 01 f5 bd 08 86 9e 3c 02 ca 1e 3e
       0.047823902 -0.11963198 0.01935102 0.15506747
000230 23 b4 39 be b6 79 80 bb 35 17 84 be c7 f1 67 be
       -0.18135123 -0.003920759 -0.25798956 -0.22650824
000240 b3 11 81 3c 8d 2d 82 bd 44 47 5c bd 59 53 56 be
       0.01575551 -0.06356344 -0.0537789 -0.20930232
000250 b7 e3 06 3e 7d 34 ae ba 30 cb 24 3e 85 10 76 3c
       0.13172804 -0.0013290789 0.16093135 0.015018587
000260 e4 34 8d bd c0 6e a1 3c 26 9a 37 3e de dd d1 3c
       -0.06894854 0.01970613 0.17929897 0.02561849
000270 23 7d 57 3d aa b1 28 be 85 17 ba 3d dd 03 d2 3d
       0.052609574 -0.16474023 0.09086517 0.10254643
000280 f4 ed c6 bd a1 66 84 3c f9 fc 54 bd 56 5d c5 bd
       -0.09713355 0.016162219 -0.051999066 -0.09636943
000290 4f a4 1a 3e 83 d6 63 be cf 41 31 39 65 05 35 be
       0.15101741 -0.22249798 0.00016904551 -0.17677839
0002a0 1f d2 5c 3e 53 8a 9c bc 35 43 60 3e 57 d1 d9 3d
       0.2156453 -0.019108927 0.21900637 0.106356315
0002b0 eb 55 db 3d 58 6e b8 bd c7 8e 20 3e 84 17 11 3e
       0.10709747 -0.090054214 0.15679465 0.14169127
0002c0 82 76 3c 3e 07 bf ff bd 77 fa 1d 3d a0 4e e1 3d
       0.18404582 -0.124876074 0.03856894 0.11001325
0002d0 e3 3d 98 bd 65 2e 0e 3e f2 33 0e bd a2 81 f3 3a
       -0.07433679 0.13884886 -0.034717508 0.0018578062
0002e0 70 42 be 3c 4a 9f 1d be 87 5e 5e bd b5 b3 57 be
       0.02322504 -0.15392795 -0.054289367 -0.21064647
0002f0 6c fe 56 3d 66 f1 92 3d 0a 71 fc 3d b2 3f 03 3e
       0.05248873 0.07174949 0.12326248 0.12817267

rnn.weight_ih_l1 f4 [192, 64]
000000 23 52 b2 3d 2c 7f 47 ba bc 16 0e bd 1a 0c cf bd
       0.087070726 -0.00076101976 -0.03468965 -0.1010973
000010 64 04 6c 3d b2 a1 68 bd 1f 0c fe bc 1b 03 76 3d
       0.057621375 -0.05679483 -0.03101164 0.060061555
000020 7e 8d c8 bc 78 45 ae bd 89 68 ba 3d 2c 25 f6 bd
       -0.024481531 -0.08509344 0.0910197 -0.12018809
000030 7b 1b b8 3d 15 17 00 be 39 72 df 3c 1e b8 ad bd
       0.089896165 -0.12508805 0.027276145 -0.08482383
000040 c5 36 0a 3d 9c 0d b3 bd 9e 86 fa 3c 4e 44 b8 3d
       0.03374364 -0.0874283 0.030581769 0.08997403
000050 9b 8b 4a 3d 29 ed ba bb b4 c2 e3 bd 99 8e 26 bd
       0.049449544 -0.005704541 -0.11121121 -0.040663335
000060 99 d5 08 3c 07 c4 e2 bc c6 fd 6e 3d 62 07 09 bc
       0.008351707 -0.027681364 0.058347486 -0.008363577
000070 4a 9d 74 3c dd 4e 1b 3d 7f b8 96 bc 00 6b 76 3d
       0.014930079 0.037917007 -0.018398521 0.060160637
000080 f7 3c 86 3d 32 27 06 3c 55 21 17 bd d4 e1 be 3a
       0.06554597 0.008188056 -0.036897022 0.0014563152
000090 7a 9a d1 bd 0c 5d 98 bd 54 f2 87 3d 13 29 11 3e
       -0.10234542 -0.07439622 0.06638017 0.14175825
0000a0 03 25 01 be 7a 1a 83 bd 98 21 50 3d ad 5d 8a bd
       -0.12611775 -0.064015344 0.050813287 -0.067561485
0000b0 31 b7 e7 bd fe 19 b8 3d b5 4c 00 3e 80 f2 6d bd
       -0.11314238 0.089893326 0.12529261 -0.058092594
0000c0 6c 84 1f 3c 53 df d2 bc 5b f4 ea 3d d2 8b 7e bd
       0.009736162 -0.025741255 0.11472388 -0.06214506
0000d0 06 e5 a2 3d 7e ca c8 3d 92 c8 af 3d 9f 42 b1 3d
       0.07953839 0.09804247 0.085831776 0.08655285
0000e0 18 2c 3c bd c6 98 95 3d 60 be 64 bc d1 35 d0 3d
       -0.04594049 0.0730453 -0.013961405 0.10166515
0000f0 69 12 87 bd a9 20 10 3d a4 bf 96 3d c7 9a d6 bd
       -0.06595308 0.035187397 0.07360771 -0.1047874
000100 e4 5e f3 bd 85 4c 29 3d c9 ff 75 bd a7 f0 96 bc
       -0.11883333 0.04133274 -0.06005839 -0.018425299
000110 2c d9 25 3e bf 65 c8 bd bf 7d 1c bd 5f 10 75 3c
       0.16196126 -0.097850315 -0.03820586 0.014957516
000120 ee 5d 3e bd a6 a2 21 3e d7 9b 39 3d 3f 79 f7 bd
       -0.046476297 0.15784702 0.045314636 -0.12083673
000130 3a f0 9d bb 56 65 b0 3c 13 09 4a 3d ef b1 bc bb
       -0.004819897 0.021532696 0.04932506 -0.005758516
000140 42 35 47 3c d6 47 37 bd 73 ff c6 3d 1b e0 2e 3d
       0.012158694 -0.044746242 0.09716692 0.042694192
000150 df f2 a7 bc e3 96 e1 bd 84 58 d8 bb 8f cc 35 3d
       -0.020501552 -0.110151075 -0.0066023488 0.044384535
000160 6b e5 d9 3d 8b 6a 79 bb 42 28 8c bd ad e9 03 3d
       0.10639461 -0.003805789 -0.06843616 0.032205272
000170 33 07 24 be 9d bf fc bd e3 b7 30 3c 1a 1d 6f bd
       -0.16018371 -0.12341235 0.0107860295 -0.058377363
000180 ad 6b cf 3c ef 49 46 3d 9d 76 ba bc c4 24 91 bd
       0.025319899 0.048410352 -0.022761637 -0.070870906
000190 ed c8 2e 3d e6 ef 17 3e 04 62 33 be fa ec 97 3d
       0.042672087 0.14837608 -0.17517859 0.074182466
0001a0 80 f8 37 be 21 0a 0c be 2a 63 1e be 8d e3 9d 3d
       -0.17965889 -0.13675739 -0.15467516 0.077094175
0001b0 b9 87 de bd eb bd 1d 3b 44 27 9f bd 6e 8e 4c 3d
       -0.10865731 0.0024069499 -0.07771161 0.04994052
0001c0 1c 74 db bd 05 a6 45 3e 60 3a a7 bc 12 d4 4e 3d
       -0.107155055 0.19301613 -0.020413578 0.050495215
0001d0 5d d8 d1 bd 1e 83 e8 bd d3 dd 08 3d 6b 70 4f 3d
       -0.10246346 -0.113531336 0.033414673 0.05064432
0001e0 d0 f1 c2 3b 6a 2a 64 bc 97 ad 5d bd 33 b1 2b 3e
       0.0059492365 -0.013926128 -0.054120626 0.16766815
0001f0 2b b4 5d bd fd 10 be bd 95 8c 64 bc 9b e0 07 bd
       -0.0541269 -0.09280584 -0.013949533 -0.033173185
000200 bd 56 e2 bd f5 ec d5 bd ef 19 76 3d ae 37 d3 3b
       -0.110517 -0.104455866 0.060083326 0.0064458465
000210 b5 00 39 3b 6b 7a c1 bd ec 1a a9 bc 33 e2 97 bc
       0.0028229181 -0.094471775 -0.02064272 -0.018540477
000220 66 7a 16 bc c2 f6 4d 3c 08 7b 08 3b 58 c3 4b 3c
       -0.0091844555 0.012571039 0.0020825285 0.01243671
000230 f9 e5 f0 bd a9 c5 70 3d 68 ff a2 3d a4 1b 8c 3b
       -0.11762614 0.058782253 0.07958871 0.004275756
000240 3f 35 25 3d db 0b 9a bd 86 b0 ee 3c 0f 82 49 3c
       0.040333983 -0.075217925 0.029136907 0.012299075
000250 b5 72 ba 3d c1 28 66 bc 9b b5 50 3d 1a c6 18 3c
       0.0910391 -0.014047802 0.050954442 0.009324575
000260 80 e6 ea bd e6 2a fd bd a0 b9 d4 bc 39 43 b3 bc
       -0.11469746 -0.12361698 -0.02596742 -0.02188264
000270 42 b0 29 bd 88 dd 19 3e 28 5d 54 3a 5b df 39 bd
       -0.04142786 0.15025914 0.00081010396 -0.045379024
000280 be 56 1f be 56 49 a2 bd f4 38 7f bd 1a cd 00 be
       -0.15560433 -0.07924144 -0.062310174 -0.1257824
000290 23 9b 15 be 8c 3b eb 3d 58 b5 8e bd c9 7d f5 3d
       -0.14609961 0.11485967 -0.06968182 0.11986882
0002a0 85 16 13 3d 99 93 88 bb d1 8f 1d 3e 0a ff 8e bd
       0.03591015 -0.0041679856 0.15386893 -0.069822386
0002b0 58 58 1b bc ae ca 56 bc a7 ef c3 bd a0 38 3d 3d
       -0.009481512 -0.013109846 -0.095671944 0.04619658
0002c0 f6 b6 2e 3d 96 48 0e be 66 db 9a 3d 37 f6 ca bd
       0.042654954 -0.13894877 0.07561378 -0.09910243
0002d0 79 ba 9f 3d 37 db f5 3c e4 b7 18 39 8d ad b8 3d
       0.07799239 0.030011756 0.00014564354 0.09017477
0002e0 38 90 56 3d 4d a8 47 3d d5 25 f5 3c 1c 1c b4 bd
       0.05238363 0.04874449 0.029925266 -0.08794424
0002f0 93 16 08 3d 4a 12 7c 39 05 5a d4 3c 5e 41 4a 3e
       0.033224653 0.00024039406 0.02592183 0.19751498
000300 c4 b9 95 3d 8c 55 6d bc 46 88 db 3d 32 64 25 be
       0.073108226 -0.014485728 0.107193515 -0.16151503
000310 13 86 8b bd 8a 13 af bc b6 79 d7 bc 75 d0 df 3c
       -0.06812682 -0.021371622 -0.026303153 0.02732108
000320 5a 65 85 bd bc 9e 12 bd 69 4a de bd 34 91 a3 3d
       -0.06513472 -0.035795912 -0.10854036 0.0798668
000330 1d 9d 5e 3d f7 f1 4a 3d 70 d5 c1 3d 3d d2 a5 3c
       0.054349054 0.049547162 0.09464538 0.020241851
000340 da 7d 2f 3d a4 7d 67 3c 3e 85 80 3d 4a d0 03 bc
       0.04284463 0.014129076 0.06275414 -0.008045265
000350 f1 86 05 bd 33 c3 63 3d b8 5e 3d bd 45 e5 f2 3d
       -0.032599393 0.05560608 -0.04623291 0.11860136
000360 2d 0b 14 3e 0a e1 ee 3d 14 28 e2 bc f4 88 29 bb
       0.14457388 0.116640165 -0.027607001 -0.0025868984
000370 06 a6 97 bd 45 59 c3 bc 67 ef 84 3d fd c4 d2 3d
       -0.07404713 -0.023846278 0.06490975 0.10291479
000380 49 a1 0c bd ab 69 56 bd 0f 5c ec 3d 69 a9 4f 3d
       -0.0343335 -0.052346867 0.11540996 0.05069867
000390 76 be 10 3e 93 65 63 bd be c0 0e 3e bd b2 7a 3c
       0.14135155 -0.05551679 0.13940713 0.015301404
0003a0 8f 0f 7f bd 14 e6 80 3d 78 14 e5 3c b4 f1 90 bd
       -0.062270697 0.06293884 0.027963862 -0.07077351
0003b0 e6 df aa bd 9f b6 25 3d bd 71 b7 bc 9d c6 c4 3d
       -0.083434865 0.040457364 -0.022393102 0.09608195
0003c0 98 9e 99 bd 8a 05 aa 3d 56 d7 0a 3e 98 3c 3e 3e
       -0.075009525 0.08301838 0.13558707 0.18577802
0003d0 5a 95 22 be fd 23 4c 3d a7 c5 a1 3d fa b5 36 be
       -0.15877286 0.04983901 0.07899027 -0.17842856
0003e0 6f 19 04 3e e3 39 60 3d 7d 1a 00 3d 95 03 a0 bc
       0.12900327 0.054742705 0.03127526 -0.019532958
0003f0 80 e2 44 bd 30 4b b5 bd da 2e ac bd 0a a7 73 3d
       -0.04806757 -0.088522315 -0.08407374 0.059485473

rnn.weight_hh_l1 f4 [192, 64]
000000 ce 9a b7 3c 8e c4 dd bc 4d e7 0e 3e af 71 11 be
       0.022412684 -0.027071264 0.13955422 -0.14203523
000010 f3 55 c7 3d 5e f6 6d 3d 6a 61 1e bd c3 e6 56 bd
       0.097331904 0.058096282 -0.03866712 -0.052466165
000020 d1 19 84 bc e3 ff ad bd b5 05 60 3d ef c0 55 38
       -0.016125591 -0.08496072 0.054692943 5.096284e-05
000030 35 c7 db bc b2 91 d5 bb 9c f0 3e 3c fe a3 0d be
       -0.026828388 -0.0065176124 0.011654045 -0.1383209
000040 24 0b b7 bb e4 a5 8f 3d 6a 53 3b 3a b9 52 09 3d
       -0.005586045 0.07014063 0.00071459136 0.033526156
000050 b4 eb 9b 3d 6c b3 63 3d a7 d1 3b 3d d3 03 bc bc
       0.07613316 0.055591032 0.045854237 -0.022951042
000060 39 ef e3 bd 54 2e 86 3d ca 66 cc bd 9f d7 a4 bd
       -0.111296125 0.06551805 -0.09980543 -0.08048939
000070 39 9e ec 3d 41 53 cd 3d da c4 07 3e e2 c0 5d bd
       0.11553616 0.10025645 0.13258687 -0.054139026
000080 05 5c 7f bd 90 a2 b4 bd 92 86 d2 3c e0 49 c8 3d
       -0.062343616 -0.08820069 0.025698934 0.097797155
000090 a8 fa 8e 3d 41 3e bf 3d c5 e0 14 be 5e d0 a3 3d
       0.06981403 0.09338046 -0.14538868 0.07998727
0000a0 60 3e bc bd b0 47 1c 3d 16 bd 76 3d da 24 d8 bb
       -0.091915846 0.038154304 0.06023892 -0.00659619
0000b0 fa b4 92 3c 2c cf b0 bd 17 7f ac 3d fa 92 d8 bc
       0.017908562 -0.08633265 0.08422678 -0.026437271
0000c0 ad a0 c9 bc e5 40 0a 3e 8c 2c fb 3d b1 2f e7 bd
       -0.024612749 0.13501318 0.12264356 -0.11288393
0000d0 b3 8e f0 3d d4 97 22 be ef 3d 8f 3d 37 22 d1 3d
       0.11745968 -0.1587823 0.06994235 0.10211604
0000e0 08 06 66 3d 8f b1 40 bd 0c da 92 3d 32 0a 99 bd
       0.056158096 -0.047044333 0.071704954 -0.07472648
0000f0 d8 e4 bd bc 9d ec a1 bc f8 d1 7d 3c 62 23 3b 3d
       -0.02318041 -0.019766146 0.015491955 0.04568804
000100 db bd 00 bd 30 a0 9d 3d 4c 85 9f 3d 71 40 cb bd
       -0.03143106 0.07696569 0.07789096 -0.099244006
000110 42 36 22 bd fe 39 ff bd 0d 14 d1 bc fe 88 ec 3d
       -0.039602526 -0.12462233 -0.025522256 0.11549567
000120 52 55 0f bd 9f 22 a3 3d 1c f8 a3 bd 89 e2 58 3d
       -0.034993477 0.07965588 -0.080063075 0.052950416
000130 b3 1e 82 bd 85 56 82 3b d5 97 d6 bc ee a5 79 3d
       -0.06353512 0.003977599 -0.026195446 0.06094926
000140 21 55 18 3e 8c ce 12 3e 28 54 e4 bd 9f 14 93 bd
       0.14876224 0.14336604 -0.11148864 -0.071816675
000150 d0 0f 60 bd 85 36 0a 3d 7a bb 4b 3d 3c 98 00 3e
       -0.05470258 0.0337434 0.04973934 0.12558073
000160 98 1b 1c be 41 e6 47 3d b9 44 58 bc c3 e0 ff 3d
       -0.15244901 0.04880357 -0.0131999785 0.12494042
000170 b8 30 90 bd 6b 95 4a 3d 3f e7 06 bd 59 ed ee 3d
       -0.07040542 0.049458902 -0.032935377 0.11666364
000180 aa e8 c9 3d 0b 5e 9f 3d 82 02 06 be 53 ca a6 bc
       0.0985883 0.07781609 -0.13086894 -0.020360148
000190 5c 98 b3 bb b6 ae 05 3d 16 0e 1d 3d 4f 48 94 3c
       -0.005480809 0.03263732 0.03834351 0.018100886
0001a0 1b 75 c4 bd b4 7e b9 3d c2 13 1b 3d 67 b6 0e 3e
       -0.095926486 0.0905737 0.03786064 0.13936768
0001b0 af 1a 45 3d 02 67 03 3e 5f 00 ff bd fb 2d b0 bd
       0.04812115 0.12832263 -0.12451243 -0.0860252
0001c0 57 d8 0c be 6d 7a 43 bd 1b e4 04 bd bc 81 10 3b
       -0.13754402 -0.047724176 -0.0324441 0.0022049984
0001d0 ca 0e 16 3e 2b f9 5e bd 74 f2 96 3c 1c 80 9c 3d
       0.14654079 -0.054436844 0.018426158 0.076416224
0001e0 93 b7 d7 3b c2 a8 9c 3d 52 5a b5 bd a2 94 89 bd
       0.006583163 0.076493755 -0.08855118 -0.067178026
0001f0 bd 9f 93 bd 6f 1d 3a 3d 2f a8 9b bd 62 bd 85 3c
       -0.07208202 0.045438226 -0.07600438 0.016325656
000200 bc 70 3d be 96 51 02 3e a3 e2 21 3d 31 0c b1 3d
       -0.18500036 0.12726435 0.03952278 0.086449035
000210 bc 63 a3 3d e9 2a 87 bd 5f d2 95 3d 18 4b 09 3c
       0.07978007 -0.06599981 0.07315516 0.00837972
000220 7f bc 75 3d 9b 2d 99 bd eb c0 7b 3d c7 30 50 3d
       0.059994217 -0.07479402 0.061463278 0.050827768
000230 f8 03 88 bd 3a 6c 94 3d 1e f8 9c 3d 0f be f6 3c
       -0.06641382 0.07247205 0.07664512 0.030119924
000240 54 65 51 bd 6e 8c 07 bd bb 56 ff 3d e9 4c d4 bd
       -0.051122025 -0.03309291 0.124677144 -0.10366232
000250 57 cc 00 bd d2 6f c1 3d e6 c1 08 3e f4 9d 1d be
       -0.031444874 0.09445156 0.13355216 -0.15392286
000260 ef b4 c0 3d dc 11 bf 3d 45 a3 16 3e 67 f0 75 bc
       0.0940951 0.09329578 0.1471072 -0.01501093
000270 d8 a4 8e bb 9d 46 0f be e7 c9 16 3d f6 d3 a0 3d
       -0.004353147 -0.1399178 0.036813643 0.07852928
000280 ec 49 d6 3c 3f 5a 6a bd b2 f2 49 bd 3d 30 aa bd
       0.026158296 -0.05721497 -0.049303718 -0.08309982
000290 a7 f5 05 bd 37 af 18 3e f8 70 da 3d 5c f3 3f 3d
       -0.032704975 0.14910589 0.10666078 0.046862945
0002a0 24 e4 fd 3d 9a d4 0e be b4 24 50 bd 74 d5 5a bd
       0.1239703 -0.13948289 -0.050816253 -0.05342622
0002b0 79 a1 30 bd 9f 73 1a bd 3d 9b 44 bd 0d 94 2a 3d
       -0.043122742 -0.03770792 -0.04799961 0.0416451
0002c0 33 c2 48 3e ec f8 c6 bd 43 26 0b 3e 86 f1 a6 3d
       0.19605331 -0.09715447 0.13588814 0.08151536
0002d0 a5 8f 16 bd fe 61 3c 3e 2e 98 00 3d 89 7f 11 be
       -0.036758084 0.18396756 0.03139513 -0.14208807
0002e0 d9 fb e1 3c a3 d4 4f 3d 64 a2 4f 3d f7 7e 8e bd
       0.02758591 0.050739896 0.050691977 -0.0695781
0002f0 1b f1 bd bd 81 70 c3 3c af 5b a4 3d dd 0f 77 3d
       -0.09274503 0.023857357 0.080253 0.060317863
000300 7a 6a d2 3c 39 12 a9 bd e6 01 84 bd 3e 0a 43 be
       0.025685538 -0.08255429 -0.064456746 -0.19046876
000310 4a fe 25 bb 0a 22 48 bd b8 09 b7 bc 62 05 e5 bc
       -0.002532857 -0.048860587 -0.022343501 -0.027956668
000320 8c 2f 9c bd 3b 39 cb bd d8 8f e2 3b af e9 5e 3d
       -0.07626256 -0.09923025 0.00691412 0.054422077
000330 0d 79 d9 3c ea ec 1e bd 77 17 d8 bd 64 35 8b 3d
       0.02654698 -0.038800158 -0.105513506 0.06797293
000340 3f 06 77 bd e3 5e 22 3d e0 b5 09 be 8c 2f c9 3d
       -0.06030869 0.039641272 -0.13448286 0.09823522
000350 a1 a0 bd bd 12 5e 1d bd ff 07 d2 bd ba 57 c4 3c
       -0.09259153 -0.03841979 -0.102554314 0.023967613
000360 f9 7a 41 bd 27 14 c9 bd 79 72 fa bc b4 17 f9 3d
       -0.047236416 -0.09818297 -0.030572163 0.12162724
000370 76 74 62 bd 97 9c 26 bd f8 6f 92 bc 87 a8 e1 bc
       -0.055286847 -0.04067668 -0.017875656 -0.02754618
000380 f9 69 21 3e cb 92 17 3e 0a c7 ad bd db 10 41 bc
       0.15763082 0.14802091 -0.08485229 -0.011783804
000390 30 4e b6 bd 0f 26 1d be 03 24 58 3d 0e 2e fc 3c
       -0.08901632 -0.1534655 0.05276872 0.03078368
0003a0 14 7e 09 be bb 97 7f 3d 40 00 2c be d9 64 1f 3e
       -0.13427001 0.06240056 -0.1679697 0.15565814
0003b0 1f cf 41 3d 43 51 a1 3d f9 fc 0c bd 95 a2 7d bd
       0.047316667 0.078768276 -0.03442094 -0.06192263
0003c0 df 17 c1 bd 77 28 c6 3d c2 78 1a be 0c c7 a9 3d
       -0.09428381 0.09675687 -0.15085128 0.08289918
0003d0 0f 59 ca bc 6f 15 0e be 0d f5 2d bd c2 b3 01 bd
       -0.02470067 -0.13875364 -0.042470027 -0.03166557
0003e0 44 c1 a5 bd 3b 65 bc bd 05 49 82 3d de 87 40 bc
       -0.08093503 -0.09198996 0.063615836 -0.011751143
0003f0 41 a7 16 3e c3 db ac bd 46 b8 8a bd 5c 92 83 3d
       0.1471224 -0.08440354 -0.067734286 0.064244

rnn.bias_ih_l1 f4 [192]
000000 63 e2 80 bc 66 17 73 bd 69 30 dd 3d 61 38 5d 3c
       -0.01573295 -0.059348486 0.10800249 0.013502211
000010 e3 18 3c 3e 18 d5 dc 3d 46 5d 84 bc 02 4a 40 bd
       0.18368869 0.10782832 -0.016157757 -0.04694558
000020 7b 23 02 3e 81 6b 82 3d b4 f7 f6 bc 78 d5 9d bd
       0.12708847 0.06368161 -0.03014741 -0.077067316
000030 2b 63 8c bd cc 66 b6 bd 7d 84 23 bd 47 03 a0 bd
       -0.06854852 -0.08906326 -0.039921273 -0.07813125
000040 a6 1f 1d 3d 88 d5 72 bd 77 80 13 3d 76 b4 4b 3d
       0.03836026 -0.05928567 0.036011185 0.049732648
000050 ce 1e 93 bb c4 9a 43 3d 67 79 b1 bc 38 00 1a 3e
       -0.004489756 0.047755018 -0.021664334 0.15039146
000060 23 e9 85 bc c8 73 bf bd 82 38 a8 bd d9 12 06 bd
       -0.01634652 -0.093482554 -0.08213903 -0.03273282
000070 d8 c4 c5 3d 31 1b f7 bd e4 7d ae bd 52 b3 dc 3d
       0.096566856 -0.12065733 -0.085201055 0.1077639
000080 a3 5d 84 bd 08 bc ce bb 68 98 36 3c e5 10 d4 3d
       -0.06463172 -0.006309036 0.011144735 0.10354785
000090 3b c8 3f bd 92 d2 e3 3c 60 ef b0 3d a3 4d ef 3c
       -0.046821814 0.027810369 0.08639407 0.029211825
0000a0 5a 3b 1c 3d 68 88 a7 3d 02 22 97 3c 97 5a 8d 3d
       0.03814254 0.08180314 0.018448833 0.06902044
0000b0 46 71 c5 3d 49 cb b2 3d e3 55 ed 3d fc 01 97 bd
       0.09640746 0.0873018 0.11588647 -0.07373425
0000c0 77 76 c7 bc ce 69 34 bd 29 3f ce bc 49 fb 23 bc
       -0.02434848 -0.044046216 -0.025176601 -0.0100086415
0000d0 f0 5e 48 bc 4a 4d 75 3c ce 3b 3a bb 13 85 90 bd
       -0.012229666 0.01497204 -0.0028416994 -0.07056632
0000e0 78 bb 84 3c 70 7a 4d 3a f0 e4 5a bd bb 71 88 bd
       0.016202673 0.0007838374 -0.053440988 -0.06662317
0000f0 16 41 59 bd a9 6a 7f 3d fa 81 6f 3c 32 00 c8 3d
       -0.053040586 0.06235758 0.014618391 0.09765662
000100 0a c9 28 3e 65 80 ea bd 48 53 6d 3d 7a fb 82 bd
       0.1648294 -0.114502706 0.05794075 -0.063956216
000110 88 b4 02 be 81 47 01 3d 25 ad 16 be a0 ff 23 bc
       -0.1276418 0.031562332 -0.14714487 -0.010009676
000120 aa 06 64 be 78 ab 97 3d ae 08 12 3d 70 f8 84 bd
       -0.22268167 0.07405752 0.03565281 -0.06492698
000130 ac 74 05 be 42 d6 1a 3d 01 d5 1d be be 5f 0a 3e
       -0.13032788 0.03780199 -0.15413286 0.13513085
000140 a8 eb 9d 3d 94 88 94 3d b9 a1 63 bd 5a 3b 85 bd
       0.077109635 0.07252613 -0.055574153 -0.06505461
000150 ac b0 5a bb bc 74 9f 3e 11 b4 e4 bd 7f d9 76 3e
       -0.0033369465 0.3114375 -0.111671574 0.24106406
000160 99 c6 8a 3d 95 59 c9 bd c8 74 47 be f0 ed 39 bc
       0.06776161 -0.098315395 -0.19478142 -0.011348233
000170 ff 80 ad 3d 87 7f 74 bd 5e 3a e9 bd d8 fa ac bd
       0.0847187 -0.059691932 -0.11388086 -0.08446282
000180 d2 b6 df 3d ff 44 a0 bd 2b 70 1a be a7 77 36 bd
       0.10923542 -0.0782566 -0.15081851 -0.044547703
000190 94 b5 14 bd fc d7 13 be 33 79 21 be fc 60 be 3d
       -0.03630598 -0.1443786 -0.1576889 0.09295842
0001a0 d5 15 72 bc f6 57 65 3d 42 eb 09 3e bf 2d 4b bd
       -0.014775713 0.05599209 0.1346865 -0.049604174
0001b0 9f 9d 01 be ea 43 36 be 31 29 c6 bd 33 19 b1 ba
       -0.12657784 -0.17799345 -0.096758254 -0.0013511538
0001c0 88 11 c4 3c 52 de 03 be 59 13 a6 bd 2e 21 fd bc
       0.02393414 -0.12877777 -0.08109159 -0.03089961
0001d0 34 bc b5 bd d7 6e 2a bd ae 97 c1 bd aa 1a 38 be
       -0.088737875 -0.04160961 -0.09452759 -0.17978922
0001e0 58 24 d1 3d fe ed 54 bd 7a 15 09 3d 1e 66 9a bd
       0.1021201 -0.05198478 0.033467747 -0.075390086
0001f0 ae 08 ff ba 05 2f f3 bd b6 b7 87 3d c3 9d 7f 3d
       -0.0019457543 -0.11874203 0.06626837 0.062406313
000200 80 20 7a 3c 0e b5 1d be fc 66 24 bd 2f 14 98 bd
       0.015266538 -0.15401098 -0.040137276 -0.07425725
000210 e9 15 24 3e ee b7 c3 bd 48 08 a1 3d 52 15 da bb
       0.16023983 -0.09556566 0.07862908 -0.0066553736
000220 ff e0 ca 3d 06 eb 8f 3d 3a 22 63 bd e3 07 08 3e
       0.09906196 0.07027249 -0.055452563 0.13284259
000230 df 85 7c bb 68 ca 15 be fa 41 8e 3d ab d6 9f bd
       -0.0038531942 -0.14627993 0.06946178 -0.078046165
000240 3f be d9 3d 4e 06 b6 bb 61 c4 4e 3c 66 82 29 3c
       0.1063199 -0.005554951 0.012620063 0.010346031
000250 60 c9 17 bc 1b 70 4b bd 0c 37 cd bb 3f c0 a8 3c
       -0.00926432 -0.04966746 -0.0062626656 0.020599483
000260 8f b3 8d 3c 5d e1 c7 3d f6 13 2f be 49 6e 1d 3d
       0.017297534 0.097597815 -0.17097458 0.038435254
000270 46 cc 0b 3d 1b 10 0f 3e d6 fd 5d bc 1b 91 60 3d
       0.034130357 0.13970987 -0.013549289 0.054825883
000280 62 e3 37 3d 9a 7b b0 bd b0 e8 c6 bd 12 fa df 3d
       0.044894584 -0.08617325 -0.0971235 0.10936369
000290 9e 8e 5d bd 1c 0a 22 bd 58 f8 9d 3c c0 6b 12 be
       -0.05409109 -0.039560422 0.019283459 -0.14298916
0002a0 ec 1e 0c 3d 28 2b a7 bd 08 bc 2b 3d fd c4 3c 3d
       0.034209177 -0.08162528 0.041927367 0.0460863
0002b0 cd be 3e bc 7a f7 7d bd 85 3e f3 bc 19 34 45 bd
       -0.01164217 -0.06200359 -0.029692898 -0.048145387
0002c0 44 cd 38 3d e9 85 3c 3d 47 5a d4 3d af 09 80 3d
       0.04511763 0.046026144 0.103687815 0.06251847
0002d0 7a 97 80 3d d6 32 4f 3c 2d 5f 85 3c ea d5 95 3d
       0.06278892 0.012646398 0.016280735 0.073161915
0002e0 55 99 f0 bd 77 60 8c 3b 16 7c 9d 3d 8b a9 ef bd
       -0.11747996 0.0042839604 0.07689683 -0.1170226
0002f0 45 9a e1 3d 9c cf ad 3d 23 32 c8 bd 07 37 f5 bd
       0.11015753 0.08486864 -0.09775188 -0.11973386

rnn.bias_hh_l1 f4 [192]
000000 e4 30 da 3d a5 62 04 be d8 99 dd 3d 62 fd e6 3d
       0.106538564 -0.12928255 0.10820359 0.11278798
000010 44 fc 37 bb 7e e4 1d 3e 59 f7 0b 3e 8e 5b 45 bd
       -0.0028073946 0.15419194 0.13668574 -0.048183016
000020 46 e8 8c 3e e8 41 c9 3d ce 49 33 bd 55 34 91 3b
       0.2752096 0.09827024 -0.043771558 0.0044312873
000030 81 a5 9d 3d 9f 8e ad bd 6b 63 c4 3d b9 b2 30 3c
       0.07697583 -0.084744684 0.09589275 0.010784798
000040 a2 88 a8 bc b6 f5 fc bc 0b 12 dd 3a 30 a1 00 bd
       -0.020572964 -0.030878883 0.0016866339 -0.03140372
000050 f5 7b a9 bd 23 b9 f3 3d 32 92 ae bd b9 a1 9b 3d
       -0.08275596 0.119005464 -0.08523978 0.075992055
000060 45 c1 ca 3d 05 30 ea bd f5 e7 19 bd 8b bb d1 3d
       0.099001445 -0.1143494 -0.037574727 0.10240849
000070 a0 b7 68 3e 28 54 7a 3b bb bb fe bc 9d d5 5c 3e
       0.22726297 0.0038197134 -0.031095376 0.21565862
000080 cc de fb 3d 10 65 9e 3d 52 6b dc bd b0 b2 5f 3d
       0.122983545 0.0773412 -0.10762657 0.05461377
000090 61 cd 55 bd aa b1 c0 3d 04 a0 e6 3d 79 23 ca 3d
       -0.052197818 0.09408887 0.11260989 0.09870047
0000a0 1a 82 1a bc fe ec d7 bd cc 64 1c bd 06 32 dc bd
       -0.009430433 -0.105432495 -0.038182065 -0.10751729
0000b0 2c 32 3b 3d 57 6d 99 bd 4b 50 1f bd ed 17 82 3d
       0.045702145 -0.07491558 -0.038894933 0.0635222
0000c0 ef cb 5d 3d e2 67 a6 bd 17 92 29 bb fe 91 0f 3e
       0.054149564 -0.08125283 -0.002587443 0.14020535
0000d0 ee 72 c2 3d ba db 06 3d ce a2 e0 3b cd e5 ab bc
       0.09494577 0.03292439 0.0068553453 -0.020983601
0000e0 90 b8 35 bc 2d 87 a0 bc 17 2f bf bd fb 32 1e 3c
       -0.011091366 -0.019595707 -0.093351535 0.009655709
0000f0 74 60 cf bd 98 11 e4 3c 1e fb 5c 3d 57 3d 0c be
       -0.10125819 0.02784042 0.05395042 -0.13695274
000100 48 fb 1b 3e 8d e1 54 bd de 82 9e 3d d5 b1 cd bb
       0.15232575 -0.051972914 0.07739805 -0.0062773027
000110 8f 89 2a bd 38 a6 8b bd 3d ed 29 bd dc 21 13 bc
       -0.041635092 -0.06818813 -0.041486014 -0.008980241
000120 35 5c 0d be 04 49 b2 3b 92 bd ac bd e2 3a dc bd
       -0.13804705 0.005440833 -0.08434595 -0.107534185
000130 c1 66 0f be 59 49 0c be 63 21 02 be 6f 2b fd 3d
       -0.14004041 -0.13699855 -0.12708049 0.123618
000140 7a dc 80 3d 55 1a ed bb a5 a8 d7 3c 49 73 89 3d
       0.062920526 -0.007235805 0.026325533 0.06711442
000150 d4 86 05 be 3f 63 bb 3d a7 52 a0 3d 8e 0e 40 3e
       -0.13039714 0.09149789 0.07828265 0.18755552
000160 d9 aa 07 3d 49 ac 05 bc bd 0c 9c bd e4 f0 e9 bc
       0.033121917 -0.008158752 -0.07619617 -0.028557248
000170 c8 bf d0 3d 85 43 33 bd 99 20 25 be d0 b2 2d be
       0.10192829 -0.043765564 -0.16125716 -0.16962743
000180 eb 67 bd 3d 1d a9 b7 3d 25 a5 1f be d9 e7 98 3c
       0.092483364 0.08967803 -0.15590341 0.018665241
000190 68 27 5c bd ef 99 84 3d 48 a4 51 be 49 91 c1 3d
       -0.05374852 0.06474673 -0.20472825 0.09451539
0001a0 32 9d f0 bc ae a4 91 bd 41 21 a6 bd d9 f9 aa 3d
       -0.029371832 -0.07111488 -0.081118114 0.08348436
0001b0 18 d3 b5 3c 94 fb 9f 3b 67 0b ab bd ee cc 5e 3d
       0.022195384 0.0048822854 -0.08351784 0.054394655
0001c0 0b 57 0c 3e b7 a6 f1 bc 56 f9 d8 3b fd c2 db bd
       0.1370508 -0.029498441 0.00662152 -0.107305504
0001d0 03 57 b6 3d 4b 37 8d ba 9c 71 ba 3d ef d5 d6 3b
       0.08903315 -0.0010773925 0.091037005 0.0065562646
0001e0 91 50 26 3d ac eb d8 bc 4d 14 22 3d 1f 82 a7 3d
       0.040604178 -0.026479565 0.03957014 0.081791155
0001f0 28 e2 70 bd 57 9e c2 bd 59 41 64 3d 94 58 9c 3c
       -0.05880943 -0.09502857 0.055726383 0.019085206
000200 55 f5 81 bd 57 21 0c bb fd f1 e6 3d f9 0f df 3c
       -0.063456215 -0.0021382177 0.11276624 0.027229296
000210 24 92 89 bd 69 e4 4c 3c cb 4d de 3c 51 6e b8 3c
       -0.06717327 0.012505629 0.027136704 0.02251354
000220 0a 63 0f 3e 2d e5 38 3d 50 5e ca 3d 22 6b cb 3d
       0.14002624 0.045140434 0.0988127 0.09932543
000230 d3 eb 02 be 80 b0 33 3d 99 17 f4 bd 98 49 6d 3d
       -0.12785272 0.043869495 -0.119185634 0.057931513
000240 2d 5d f0 bc cc 22 ff 3d 12 d1 20 3c ee 66 17 3d
       -0.029341305 0.12457809 0.009815471 0.036963396
000250 f7 a4 87 3c e5 36 3a bc ab 74 c7 bc 3c c4 8f bd
       0.016558154 -0.011365627 -0.024347624 -0.070198506
000260 90 99 9d bd 78 7f c8 3d 36 4c c4 bd 1b 28 66 3d
       -0.07695305 0.09789938 -0.095848486 0.05619059
000270 fc a7 c9 3d 86 fd d2 3c fd dc 03 3e b9 e9 c8 3d
       0.098464936 0.025755655 0.12877269 0.09810204
000280 ce f6 03 3d f8 fb 46 3d 9b 6d ea bd 2d 07 e4 bc
       0.032217793 0.04858014 -0.11446687 -0.027835453
000290 0e e6 dd 3d 35 ab 1e be 70 e2 48 bd 0b 8f 92 bd
       0.10834895 -0.15494998 -0.049044073 -0.071561895
0002a0 3f 12 c8 3d 4f 86 9f bd 3e 72 83 3d 5e a1 96 bd
       0.09769105 -0.07789289 0.06418274 -0.07354997
0002b0 05 1f 22 bb b7 62 e1 3d 72 d8 07 be 16 7f 92 3d
       -0.0024737727 0.110051565 -0.13266161 0.07153146
0002c0 5b 02 a8 3d da 5a 9e bb d0 5f 90 bd e5 70 0e 3d
       0.08203574 -0.0048326077 -0.07049525 0.034775633
0002d0 87 4f 19 3d ed 46 05 3e 0f 74 0b 3e e7 e2 fd 3d
       0.03742936 0.13015337 0.13618492 0.12396794
0002e0 ba 3e 88 3d 4b b0 e5 3d 70 df 14 bd b5 a1 76 bd
       0.06652589 0.11215266 -0.0363459 -0.06021281
0002f0 7c e8 04 3e 01 16 ec 3d cf c9 98 bd 70 fc 95 3d
       0.12979311 0.115276344 -0.07460367 0.07323539
