program/deep_learning/16 - Recurrent Neural Network/model/lstm/weights_50.pth (torch, 254057 bytes, 13 tensors)

rnn.weight_ih_l0 f4 [192, 1]
0.012367389 -0.011858626 -0.0498884 -0.1036757 -0.031286694 -0.06883924 0.043138586 0.14707643
0.07026009 0.06452545 -0.07570265 0.09459697 0.086025454 -0.0014176965 -0.11075904 -0.05557421
-0.04849092 0.0896921 -0.02637117 0.083054155 0.045205954 0.117151305 0.06448005 -0.07650875
0.05982371 0.05735031 -0.10743879 -0.05821097 0.094001055 0.072449446 -0.016118022 -0.020027485
-0.028154163 0.10426968 -0.022747073 -0.021463446 -0.059170432 0.086781256 -0.043985367 -0.04070365
-0.07625311 0.088908575 0.05400009 0.03967611 0.05354048 0.010817026 0.10497559 0.06435444
-0.007741517 0.027277974 0.044152115 0.075348884 -0.031764206 -0.04276259 -0.08206175 -0.028315648
-0.07177575 -0.0036988435 -0.0073511344 0.13857836 -0.064122185 0.067905314 -0.067269176 -0.08746492
-0.118497096 0.010850299 0.0005979013 0.017621389 -0.13256736 -0.11085517 -0.032581676 -0.07557183
-0.05568361 0.08498683 -0.0026443538 0.019754723 -0.088031664 -0.06745723 -0.054431036 0.09056899
-0.1558065 -0.14722857 0.056795124 -0.05209616 -0.08374266 -0.13938203 0.011961607 -0.018237758
-0.0093981065 -0.1875765 0.09200165 0.0004333736 -0.1569956 -0.015482546 -0.096263565 -0.005086173
-0.13993043 -0.16293105 -0.030710723 -0.19074692 -0.00014992125 -0.060789373 -0.13803558 0.021580786
0.10362882 -0.079667546 0.019589122 -0.06616312 -0.17198543 -0.11338873 -0.15334597 -0.0442962
-0.027345894 -0.11788049 -0.06447369 0.0023539325 -0.10813364 -0.15947835 0.072559334 -0.17541118
-0.1349668 -0.09723036 -0.15416776 -0.049423423 0.021667873 0.021995384 0.015166914 0.07348231
-0.089823544 0.030473696 0.12574022 -0.12082382 0.025800733 0.004321742 0.0910944 -0.08078696
-0.13334368 -0.0038042741 -0.050374545 -0.09887563 0.14243509 -0.10583755 0.11397323 0.05090607
-0.05255305 -0.057824053 0.077111915 0.12095411 -0.06769247 -0.09043205 -0.10223143 0.045192696
0.14006011 0.05723853 -0.044143025 0.059859358 -0.10813938 -0.10008098 0.09064559 0.10098276
0.13284719 0.10533944 0.045092233 0.09651819 0.045293305 0.09557345 -0.044027537 0.08648957
-0.020048078 -0.05632117 -0.08856897 -0.09751727 -0.14256726 0.12585537 0.0678448 0.11384374
-0.076700196 0.079515666 0.0774802 0.00857554 -0.09449989 -0.061550416 0.03863582 -0.056777176
0.09697163 0.09575082 0.07100504 0.09426814 -0.019528605 -0.10006398 -0.09488959 -0.11410395
00000000: 97a0 4a3c af4a 42bc c757 4cbd ed53 d4bd
00000010: 7a26 00bd 96fb 8cbd 16b2 303d 349b 163e
00000020: 86e4 8f3d eb25 843d fe09 9bbd 0ebc c13d
00000030: 1d2e b03d 00d2 b9ba a3d5 e2bd c8a1 63bd
00000040: 6a9e 46bd 7eb0 b73d 5a08 d8bc 4c18 aa3d
00000050: e129 393d 06ed ef3d 1e0e 843d 9fb0 9cbd
00000060: b509 753d 29e8 6a3d de08 dcbd a06e 6ebd
00000070: a083 c03d 6060 943d f109 84bc ae10 a4bc
00000080: 8fa3 e6bc 588b d53d 1258 babc 1cd4 afbc
00000090: b25c 72bd 5fba b13d 002a 34bd dfb8 26bd
000000a0: 972a 9cbd b315 b63d 332f 5d3d 6b83 223d
000000b0: 434d 5b3d e539 313c 71fd d63d 43cc 833d
000000c0: 8dac fdbb 0f76 df3c d9d8 343d 8450 9a3d
000000d0: 2f1b 02bd d327 2fbd fe0f a8bd 38f6 e7bc
000000e0: 2aff 92bd 4c68 72bb c9e1 f0bb 7ce7 0d3e
000000f0: 7e52 83bd f111 8b3d 6cc4 89bd cf20 b3bd
00000100: 9bae f2bd 74c5 313c 7abc 1c3a bb5a 903c
00000110: bdbf 07be 0908 e3bd 5d74 05bd 67c5 9abd
00000120: 7f14 64bd 930d ae3d e54c 2dbb a8d4 a13c
00000130: f249 b4bd 0427 8abd 14f3 5ebd 3c7c b93d
00000140: bd8b 1fbe 16c3 16be 01a2 683d c862 55bd
00000150: 4681 abbd 2aba 0ebe 9efa 433c 5a67 95bc
00000160: 84fa 19bc 0e14 40be 5c6b bc3d 6c36 e339
00000170: 74c3 20be 81aa 7dbc d525 c5bd e9a9 a6bb
00000180: ec49 0fbe 66d7 26be 0e95 fbbc 2953 43be
00000190: 2e34 1db9 47fe 78bd 3359 0dbe 30ca b03c
000001a0: 593b d43d bd28 a3bd 5e79 a03c 8880 87bd
000001b0: f31c 30be 5a38 e8bd ba06 1dbe ef6f 35bd
000001c0: 7f04 e0bc 546b f1bd c80a 84bd 6f44 1a3b
000001d0: 2b75 ddbd 4b4e 23be fd99 943d fd9e 33be
000001e0: bd34 0abe b620 c7bd 27de 1dbe 3770 4abd
000001f0: d380 b13c aa2f b43c a67e 783c e57d 963d
00000200: 68f5 b7bd f9a3 f93c 0bc2 003e 7b72 f7bd
00000210: 0f5c d33c 669d 8d3b b38f ba3d a273 a5bd
00000220: 3f8b 08be 2151 79bb 8a55 4ebd 4e7f cabd
00000230: 81da 113e 5bc1 d8bd cc6a e93d e282 503d
00000240: de41 57bd ead8 6cbd daec 9d3d cab6 f73d
00000250: 5aa2 8abd 7034 b9bd b65e d1bd fa1b 393d
00000260: eb6b 0f3e f372 6a3d 51cf 34bd 162f 753d
00000270: 2e78 ddbd 42f7 ccbd 65a4 b93d 0dd0 ce3d
00000280: 1809 083e 34bc d73d a2b2 383d 54ab c53d
00000290: 7985 393d 03bc c33d 3856 34bd 7221 b13d
000002a0: de3b a4bc 07b1 66bd a663 b5bd 22b7 c7bd
000002b0: 27fd 11be 3be0 003e 37f2 8a3d e826 e93d
000002c0: fe14 9dbd 1cd9 a23d f0ad 9e3d 6c80 0c3c
000002d0: 2989 c1bd 4a1c 7cbd 9840 1e3d 2f8f 68bd
000002e0: 1099 c63d 0219 c43d 176b 913d a80f c13d
000002f0: 74fa 9fbc 58ee ccbd 7955 c2bd 55af e9bd

rnn.weight_hh_l0 f4 [192, 64]
0.07920546 -0.08411374 -0.03110248 0.08655888 -0.05421078 -0.034298223 -0.10373256 -0.070053436
0.08393371 -0.0122950375 0.050879825 0.10553189 -0.05258117 -0.095463865 0.120822296 0.07513084
-0.051983267 -0.047876038 0.05689312 -0.10801191 0.008029375 -0.10598831 0.04745267 -0.056991056
0.1323453 -0.0065242373 -0.019541515 0.084784545 -0.07877356 0.03379869 -0.085972935 -0.008557543
0.12675072 -0.08241717 -0.013530443 0.03156489 0.026212225 0.06709534 0.024145912 0.018793212
-0.12996292 -0.028827157 -0.07033973 -0.08462347 0.11008398 0.022582173 -0.08245549 -0.02567908
0.02995057 0.056620564 0.097790554 0.10836265 -0.10046969 -0.1283695 0.14405106 0.061710663
0.04727708 0.0041732336 0.09759618 0.10888602 0.02738943 0.06814884 0.09257381 -0.08916702
-0.06252408 -0.08960161 0.029959287 0.016684154 0.0035284692 0.040060356 -0.1249393 -0.052952733
-0.1155101 0.005156715 -0.09789553 -0.10455381 -0.026715552 -0.06688122 0.031343956 -0.08713831
0.046701133 0.0037073898 -0.06057805 0.11230683 -0.051581737 -0.09184281 -0.036441457 0.009284321
-0.03921252 -0.02894394 0.06756247 0.107193284 -0.09060886 -0.057001103 0.06925498 0.020471022
-0.08731216 0.0706687 0.04196821 0.024533752 -0.052718308 0.013180348 -0.012180547 -0.10401686
0.106132105 0.09640178 -0.0028406968 -0.11656818 0.039569236 -0.12621328 0.076267205 0.07346825
0.07871832 -0.079116866 -0.031276003 -0.11992545 -0.034599982 -0.009442559 0.08264183 0.1304894
0.09633917 -0.13069466 -0.063499086 0.08702133 -0.10106142 0.12187189 -0.039563604 0.04517489
0.022138892 -0.10715101 0.1415326 -0.13915396 0.10337883 -0.054639388 -0.09728469 -0.06854638
-0.0064860135 -0.10198139 -0.05252811 0.060249668 0.103807315 0.006759149 -0.06910512 0.12511499
-0.04884117 -0.12343053 0.094772086 -0.024959698 -0.051471323 0.02627153 0.026310556 0.14655937
0.11853092 0.08692287 -0.12453633 -0.017370058 -0.11128586 0.09886217 0.0018673227 -0.026794385
0.12117039 0.05315401 0.09843835 -0.045769665 0.076040626 -0.07828721 -0.037843183 0.049392246
0.054439217 -0.12907843 -0.040625546 -0.011086577 -0.1216428 -0.0668565 -0.06736429 0.003916184
0.010512839 -0.003111917 0.07729009 -0.022922259 -0.09882651 0.05584905 0.1224865 0.08303043
-0.07767998 0.03293577 -0.07058427 0.053646754 -0.07541656 -0.013165603 -0.059013456 0.057249818
-0.111990154 -0.06334795 0.010653092 -0.0546138 0.010142834 -0.019574774 -0.029933289 0.026063131
0.09658851 -0.06963697 -0.080523714 0.029994668 -0.009520481 0.012072438 0.02892046 0.088086694
-0.015728075 -0.12637654 -0.08877955 0.040744428 -0.1122371 -0.12871166 -0.03762545 0.1319462
0.11558532 0.09513347 0.08237023 -0.042383794 -0.026805352 -0.04065708 -0.010408303 0.12921695
-0.09996638 0.007329868 -0.0576427 0.061992414 -0.05748461 0.117075354 0.0023968043 0.0130160665
0.046896044 -0.12477964 0.026537202 -0.08346491 0.095657706 0.016400257 -0.03846313 0.03315553
-0.07960489 0.11522742 -0.066408865 0.048504237 -0.09167204 -0.10820456 0.057475463 0.07341678
0.048893455 0.081614904 -0.06204626 0.022483222 -0.11881022 0.103358775 -0.030980507 -0.09351642
00000000: 7936 a23d d343 acbd a1ca febc c845 b13d
00000010: 1f0c 5ebd 4b7c 0cbd bd71 d4bd 2d78 8fbd
00000020: 70e5 ab3d 2071 49bc 5d67 503d 1b21 d83d
00000030: 5a5f 57bd 8f82 c3bd ae71 f73d 33de 993d
00000040: 68ec 54bd aa19 44bd c308 693d 5935 ddbd
00000050: a48d 033c 6610 d9bd bb5d 423d 746f 69bd
00000060: 8785 073e 45c9 d5bb 8715 a0bc 85a3 ad3d
00000070: 0854 a1bd 7f70 0a3d 9412 b0bd f034 0cbc
00000080: f1ca 013e 55ca a8bd cbae 5dbc 304a 013d
00000090: 05bb d63c 4869 893d a6cd c53c 39f4 993c
000000a0: 0015 05be ee26 ecbc 470e 90bd 124f adbd
000000b0: b673 e13d 40fe b83c 6dde a8bd ef5c d2bc
000000c0: e65a f53c f7ea 673d 6a46 c83d 3ded dd3d
000000d0: 0ec3 cdbd 4b73 03be 1f82 133e 52c4 7c3d
000000e0: 9da5 413d 9fbf 883b 82e0 c73d a2ff de3d
000000f0: cc5f e03c 9e91 8b3d 5697 bd3d 339d b6bd
00000100: a00c 80bd 0d81 b7bd 2e6d f53c 35ad 883c
00000110: e43d 673b 5416 243d 2de0 ffbd f7e4 58bd
00000120: 8f90 ecbd a9f9 a83b 747d c8bd 4f20 d6bd
00000130: 93da dabc 05f9 88bd 8562 003d 9275 b2bd
00000140: b049 3f3d aef7 723b b020 78bd 2001 e63d
00000150: 5f47 53bd 1518 bcbd a343 15bd 441d 183c
00000160: 4f9d 20bd d71b edbc 315e 8a3d 2788 db3d
00000170: 2391 b9bd fd79 69bd 8ed5 8d3d d8b2 a73c
00000180: b8d0 b2bd c0ba 903d dce6 2b3d 02fb c83c
00000190: 27ef 57bd 63f2 573c eb90 47bc cb06 d5bd
000001a0: ca5b d93d 4c6e c53d fc2a 3abb 4cbb eebd
000001b0: 5a13 223d 0e3e 01be fb31 9c3d 8676 963d
000001c0: 1237 a13d 0608 a2bd 441b 00bd 799b f5bd
000001d0: b6b8 0dbd f7b4 1abc 1f40 a93d 039f 053e
000001e0: 794d c53d d2d4 05be cf0b 82bd 3d38 b23d
000001f0: 4af9 cebd f897 f93d 720d 22bd 4e09 393d
00000200: 9f5c b53c fd71 dbbd eced 103e 607e 0ebe
00000210: 48b8 d33d 8dcd 5fbd 323d c7bd 0b62 8cbd
00000220: a088 d4bb 9edb d0bd b727 57bd 5bc8 763d
00000230: ee98 d43d da7b dd3b fc86 8dbd 251e 003e
00000240: ae0d 48bd 25c9 fcbd de17 c23d 4878 ccbc
00000250: 98d3 52bd 6437 d73c 3c89 d73c a913 163e
00000260: 57c0 f23d 9e04 b23d e70c ffbd a74b 8ebc
00000270: d7e9 e3bd 4078 ca3d f4c0 f43a e67f dbbc
00000280: 2e28 f83d 05b8 593d 0c9a c93d f978 3bbd
00000290: 30bb 9b3d 0b55 a0bd 7401 1bbd 864f 4a3d
000002a0: a8fb 5e3d 232d 04be f966 26bd 79a4 35bc
000002b0: dc1f f9bd 10ec 88bd 4af6 89bd 5553 803b
000002c0: 0b3e 2c3c 4ef1 4bbb 444a 9e3d 76c7 bbbc
000002d0: 8e65 cabd f9c1 643d 34da fa3d dc0b aa3d
000002e0: ae16 9fbd a8e7 063d 7c8e 90bd b3bc 5b3d
000002f0: ff73 9abd 8bb4 57bc 18b8 71bd c97e 6a3d
00000300: 185b e5bd 92bc 81bd 4e8a 2e3c b8b2 5fbd
00000310: 212e 263c 475b a0bc a836 f5bc 5982 d53c
00000320: 32d0 c53d d49d 8ebd 9ee9 a4bd 61b7 f53c
00000330: cbfb 1bbc 7acb 453c 9aea ec3c cc66 b43d
00000340: 2ad8 80bc da68 01be 0dd2 b5bd a1e3 263d
00000350: 91dc e5bd fdcc 03be 251d 1abd e81c 073e
00000360: ffb7 ec3d 56d5 c23d b9b1 a83d a19a 2dbd
00000370: e696 dbbc 0a88 26bd 9687 2abc 7351 043e
00000380: 2cbb ccbd 642f f03b c01a 6cbd c2eb 7d3d
00000390: fb74 6bbd 34c5 ef3d b413 1d3b 5741 553c
000003a0: 1116 403d 788c ffbd 8c64 d93c a7ef aabd
000003b0: 30e8 c33d d559 863c 848b 1dbd 18ce 073d
000003c0: e307 a3bd 5bfc eb3d 5f01 88bd 61ac 463d
000003d0: 8dbe bbbd 5a9a ddbd 646b 6b3d 895b 963d
000003e0: 8144 483d b725 a73d 3824 7ebd bc2e b83c
000003f0: c652 f3bd c4ad d33d d5ca fdbc 8985 bfbd

rnn.bias_ih_l0 f4 [192]
0.06960893 0.01612328 -0.11803596 0.052802812 -0.022009935 0.1526518 -0.031956434 0.048447113
0.1184972 0.040631752 -0.039998796 0.0587008 0.034044005 -0.03911352 0.111616455 0.07455436
0.09482077 0.074911274 -0.044504087 0.0997 0.103015594 -0.018906811 -0.063296646 0.07974967
-0.0564127 0.025252843 0.1315091 0.02928538 -0.16453041 -0.1248622 0.0036680147 0.02635294
-0.08978325 -0.034661945 -0.12097836 -0.055787247 -0.066057764 0.04724891 -0.06335128 -0.09332499
-0.111816645 0.08398126 -0.033144128 -0.109482095 -0.0026328417 0.03763878 0.034407336 -0.08954827
0.07090149 0.071895346 0.09593005 -0.12680545 0.057997562 -0.11866708 -0.056487598 -0.09198097
0.06654601 0.09628636 0.021931164 0.03436153 0.040514342 0.017017229 -0.0012578825 0.02444086
-0.07622272 -0.06724247 -0.13517097 0.07613752 -0.12239124 -0.057431273 0.01583121 -0.11955668
0.03715518 0.12342006 0.029993538 -0.17026463 -0.04773989 -0.12604529 -0.14559284 -0.11067246
0.025371475 0.067165814 -0.1192413 -0.007383518 -0.06297685 -0.07093919 0.017351242 -0.10578237
-0.10532269 0.08289598 -0.12477782 -0.12702386 0.033145472 -0.020128723 -0.022250045 0.040476486
-0.11839024 -0.05470158 -0.018490456 0.034175273 -0.16791132 -0.11723295 0.0518115 -0.017180238
-0.11772318 0.01994057 0.05375819 -0.0078187445 -0.04577488 0.038629718 -0.14546216 0.029622613
-0.15784031 -0.15949011 0.013463011 -0.044853125 -0.038782217 -0.03819378 0.062507994 0.034936305
-0.007803959 -0.024473181 -0.057580885 0.0067476924 -0.05522596 -0.09331713 -0.11327572 -0.14762446
-0.026331842 -0.015269634 0.097506955 0.10908256 -0.07184137 -0.083825506 -0.010910495 0.0004274741
-0.025706155 -0.039952587 0.0030059947 -0.04432804 0.050920837 -0.017812349 0.0034462388 -0.09270532
-0.07202658 -0.059710786 -0.016759474 -0.013273698 0.08295991 -0.038675856 0.14509921 -0.05023834
0.09774079 0.060936015 0.12342499 -0.103582695 0.03705233 0.06692737 0.037877534 0.112584874
-0.05658442 0.00047204274 0.046041053 -0.11964206 0.015208583 -0.12487277 -0.02297782 -0.10341548
-0.054160904 0.038465623 0.09378452 0.07022811 0.09562834 0.036668055 0.13459398 0.11447229
0.028079528 -0.09672716 0.024180312 -0.017880198 0.10742777 0.10803187 0.13682865 -0.048653025
0.041603588 0.0955613 0.10175709 -0.08550557 0.019308059 0.13270861 0.058133073 0.042161852
00000000: 208f 8e3d f814 843c d6bc f1bd c347 583d
00000010: 2e4e b4bc c150 1c3e c0e4 02bd 7b70 463d
00000020: a9ae f23d 7b6d 263d c7d5 23bd 4070 703d
00000030: ba71 0b3d 8035 20bd 2b97 e43d f5af 983d
00000040: 6431 c23d 156b 993d eb49 36bd 832f cc3d
00000050: d7f9 d23d 75e2 9abc aca1 81bd cc53 a33d
00000060: 0111 67bd 0ddf ce3c 52aa 063e e5e7 ef3c
00000070: a97a 28be c1b7 ffbd 1363 703b 1fe2 d73c
00000080: 48e0 b7bd aff9 0dbd 81c3 f7bd 2b81 64bd
00000090: 4b49 87bd 1388 413d 51be 81bd 2c21 bfbd
000000a0: 2000 e5bd 5efe ab3d 23c2 07bd 2638 e0bd
000000b0: c18b 2cbb 1f2b 1a3d b5ee 0c3d 1565 b7bd
000000c0: cd34 913d de3d 933d f976 c43d 4ad9 01be
000000d0: da8e 6d3d ba07 f3bd 8a5f 67bd 8560 bcbd
000000e0: 4649 883d c831 c53d fca8 b33c adbe 0c3d
000000f0: 5ef2 253d b767 8b3c 88df a4ba 3338 c83c
00000100: a81a 9cbd 6cb6 89bd 426a 0abe fded 9b3d
00000110: 42a8 fabd 0e3d 6bbd 74b0 813c 22da f4bd
00000120: 0830 183d a8c3 fc3d 02b5 f53c da59 2ebe
00000130: e78a 43bd 0412 01be 4a16 15be 3ea8 e2bd
00000140: d7d7 cf3c 3b8e 893d c834 f4bd 70f1 f1bb
00000150: 02fa 80bd 9148 91bd 3124 8e3c 6da4 d8bd
00000160: 6cb3 d7bd 5ec5 a93d 848b ffbd 8b12 02be
00000170: 8cc3 073d fee4 a4bc ba45 b6bc acca 253d
00000180: 9576 f2bd c40e 60bd 4c79 97bc 5ffb 0b3d
00000190: f2f0 2bbe d417 f0bd 4c38 543d 92bd 8cbc
000001a0: da18 f1bd 685a a33c 8c31 5c3d 311a 00bc
000001b0: 717e 3bbd 323a 1e3d 08f4 14be 1fab f23c
000001c0: e4a0 21be 6051 23be f693 5c3c e9b7 37bd
000001d0: 1ada 1ebd 1571 1cbd 3104 803d 5f19 0f3d
000001e0: 5ab8 ffbb fb7b c8bc efd9 6bbd bf1b dd3b
000001f0: 9e34 62bd 0d1d bfbd 1afd e7bd de2a 17be
00000200: e0b5 d7bc 7d2d 7abc bab1 c73d ad66 df3d
00000210: 9121 93bd b5ac abbd efc1 32bc 9a1e e039
00000220: b795 d2bc 53a5 23bd 3900 453b 5291 35bd
00000230: 5e92 503d 34eb 91bc 4bda 613b 49dc bdbd
00000240: ac82 93bd 4c93 74bd 2a4b 89bc ed79 59bc
00000250: e3e6 a93d 936a 1ebd e394 143e b8c6 4dbd
00000260: 532c c83d 0b98 793d 3ec6 fc3d 2a23 d4bd
00000270: 2fc4 173d 3811 893d 7925 1b3d e692 e63d
00000280: 11c5 67bd 817c f739 8b95 3c3d e506 f5bd
00000290: 6c2d 793c 4bbd ffbd fb3b bcbc 7fcb d3bd
000002a0: d3d7 5dbd 218e 1d3d 1912 c03d c1d3 8f3d
000002b0: cbd8 c33d 3e31 163d 01d3 093e 7370 ea3d
000002c0: 0a07 e63c e418 c6bd ca15 c63c 7e79 92bc
000002d0: 1703 dc3d d03f dd3d cf1c 0c3e 6548 47bd
000002e0: 8668 2a3d a5b5 c33d 0566 d03d 8b1d afbd
000002f0: ef2b 9e3c c4e4 073e f21c 6e3d e8b1 2c3d

rnn.bias_hh_l0 f4 [192]
-0.046251316 -0.030326834 0.04922633 0.094928235 -0.012529295 -0.060486723 -0.09868786 -0.07820221
0.0022191934 0.06574875 0.05746714 -0.030810429 -0.026821038 -0.086974785 0.12419841 0.08833943
-0.09343646 -0.0775612 0.0046987603 -0.068680234 0.113645636 -0.013156959 0.05379033 0.061824232
-0.050814603 -0.057993885 0.10383865 0.096866645 -0.07225367 0.038976606 0.04531568 -0.0028553319
0.13299288 -0.018174125 0.097341225 -0.07862301 -0.07921139 0.110003814 -0.05504762 0.03679716
-0.046019543 0.07145213 -0.08223873 0.012458756 -0.022087255 -0.028502125 0.0450729 -0.06171952
-0.0966717 -0.12644948 -0.020693865 -0.04696147 0.038530104 -0.020479836 0.098171495 -0.07439075
-0.0627239 0.097727895 0.032928348 -0.004856312 0.09906316 0.03648218 0.11773681 -0.117212534
-0.024434304 -0.095507644 -0.0797902 0.018222887 -0.07362575 -0.116501816 0.023495322 -0.17424929
-0.047878202 0.08877178 -0.19569917 -0.1761915 -0.03767361 0.052508637 -0.1543548 -0.0082577085
-0.034717083 -0.0057261125 0.04881459 -0.15685424 -0.10632322 -0.10022489 0.0343836 -0.14157972
-0.053193122 0.03683268 -0.11202433 0.034288827 0.07634789 0.021399206 0.04683901 -0.09959497
0.016198216 -0.15149456 -0.10580293 -0.009921781 -0.1628126 -0.15827668 0.03353285 0.0068845586
0.043500762 -0.13477162 0.009107182 0.018225076 -0.026857598 -0.15378053 -0.033271994 -0.051433783
-0.117210954 -0.06775395 -0.15871306 0.024841653 -0.15078424 0.0710764 0.052729476 0.10513582
-0.14670685 -0.12807146 -0.024494577 -0.09554686 -0.062309846 -0.029442424 0.058045503 0.056253683
0.08083836 -0.08056732 0.09268976 0.14027983 -0.12710255 0.06599934 0.06084559 -0.11130215
0.0039809393 -0.09112117 0.092673585 0.0569169 -0.11464399 -0.07838136 -0.14636081 -0.12373845
0.0068586264 -0.016991977 -0.024759477 -0.087320544 0.060878396 -0.0072480473 -0.0070618712 0.06278968
-0.06460402 0.03021225 0.08124807 0.073762976 -0.054495696 -0.12291725 0.060628466 0.074298956
0.054481473 0.07007586 -0.019282147 0.0358123 0.11435319 -0.06927557 -0.04454775 -0.01850606
0.1442124 -0.06042631 0.060323294 -0.011453109 0.08532999 0.009107931 0.13814406 0.10815407
0.031522185 -0.010105605 0.021318639 0.10833913 -0.123072825 0.039874986 -0.048670787 -0.033089247
-0.011497389 -0.058121122 -0.021509806 -0.117534116 -0.03923849 -0.05573951 -0.015051481 0.037595227
00000000: 0572 3dbd fb6f f8bc 8ca1 493d bc69 c23d
00000010: ac47 4dbc edc0 77bd dc1c cabd 7b28 a0bd
00000020: e36f 113b 48a7 863d aa62 6b3d 2766 fcbc
00000030: cbb7 dbbc d61f b2bd bc5b fe3d 4eeb b43d
00000040: 9d5b bfbd 68d8 9ebd 0ff8 993b 39a8 8cbd
00000050: 0bbf e83d 4990 57bc 4053 5c3d 683b 7d3d
00000060: f922 50bd ff8a 6dbd 5ca9 d43d 0562 c63d
00000070: bbf9 93bd efa5 1f3d ef9c 393d 8520 3bbb
00000080: 492f 083e e7e1 94bc d65a c73d 1a05 a1bd
00000090: 9539 a2bd ae49 e13d 9d79 61bd 9eb8 163d
000000a0: fd7e 3cbd 7f55 923d c76c a8bd cf1f 4c3c
000000b0: 55f0 b4bc 4a7d e9bc 5c9e 383d 9bcd 7cbd
000000c0: d0fb c5bd f97b 01be 2e86 a9bc ac5a 40bd
000000d0: bed1 1d3d 54c5 a7bc 230e c93d 2d5a 98bd
000000e0: 6375 80bd 9025 c83d e0df 063d b321 9fbb
000000f0: a0e1 ca3d 576e 153d ff1f f13d 200d f0bd
00000100: 732a c8bc 8399 c3bd 0b69 a3bd 2a48 953c
00000110: 19c9 96bd 8198 eebd 4379 c03c 686e 32be
00000120: ef1b 44bd fbcd b53d 5d65 48be 8b6b 34be
00000130: a54f 1abd 4c13 573d 2f0f 1ebe 574b 07bc
00000140: 8033 0ebd 1da2 bbbb cff1 473d 669e 20be
00000150: fdbf d9bd b542 cdbd d1d5 0c3d 46fa 10be
00000160: 08e1 59bd dddd 163d 036d e5bd 7172 0c3d
00000170: 485c 9c3d 634d af3c 43da 3f3d 73f8 cbbd
00000180: 1fb2 843c 6421 1bbe 35af d8bd f78e 22bc
00000190: 59b8 26be 4813 22be be59 093d dd97 e13b
000001a0: db2d 323d 9201 0abe 4a36 153c c14c 953c
000001b0: 7704 dcbc a578 1dbe 3748 08bd 3bac 52bd
000001c0: 4c0c f0bd 95c2 8abd ad85 22be b980 cb3c
000001d0: 2f67 1abe 8190 913d ddfa 573d 7351 d73d
000001e0: 523a 16be 2a25 03be daa8 c8bc 12ae c3bd
000001f0: 9c38 7fbd 3d31 f1bc 1fc1 6d3d 436a 663d
00000200: 958e a53d 7b00 a5bd 21d4 bd3d 84a5 0f3e
00000210: 2c27 02be a92a 873d 3a39 793d 62f2 e3bd
00000220: 8a72 823b bc9d babd a6cb bd3d b221 693d
00000230: 78ca eabd 6886 a0bd 9cdf 15be 966a fdbd
00000240: 54be e03b c232 8bbc 63d4 cabc 1dd5 b2bd
00000250: a05b 793d 0781 edbb 4567 e7bb e097 803d
00000260: 1d4f 84bd ae7f f73c 6365 a63d 0b11 973d
00000270: e136 5fbd 0abc fbbd 8e55 783d 0d2a 983d
00000280: f727 5f3d ef83 8f3d 98f5 9dbc ebaf 123d
00000290: 0132 ea3d 5ae0 8dbd b477 36bd 059a 97bc
000002a0: 6aac 133e 9481 77bd 8f15 773d d2a5 3bbc
000002b0: 7dc1 ae3d 6e39 153c a375 0d3e e27f dd3d
000002c0: 681d 013d fb91 25bc 6da4 ae3c e8e0 dd3d
000002d0: 9b0d fcbd f453 233d 055b 47bd 9788 07bd
000002e0: 8b5f 3cbc 6a10 6ebd 5535 b0bc bab5 f0bd
000002f0: 8ab8 20bd 1d4f 64bd 7d9a 76bc 74fd 193d

rnn.weight_ih_l1 f4 [192, 64]
0.091233104 0.010112769 -0.026979424 -0.09534264 0.038317468 -0.040384978 -0.023725806 0.050803635
-0.035768483 -0.097793795 0.07991889 -0.12594135 0.098726116 -0.1311351 0.029796356 -0.092491075
0.0172744 -0.11394855 0.03275168 0.09043489 0.050930757 -0.01370344 -0.10204924 -0.032210167
0.017555188 -0.014429599 0.09335751 -0.0013964229 0.012121376 0.03245962 -0.00948663 0.069331735
0.06812713 0.015053918 -0.027639227 0.006534428 -0.08845888 -0.08246338 0.03451099 0.13696457
-0.12190611 -0.07014617 0.05866095 -0.072331026 -0.12399988 0.09589051 0.14839916 -0.046766963
0.015101619 -0.02555829 0.12783083 -0.06127837 0.07352595 0.10180004 0.09273307 0.07382193
-0.03648865 0.07930357 -0.005675597 0.10430449 -0.07204339 0.041279133 0.07847611 -0.10492264
-0.114195235 -0.011242241 -0.05878565 0.02776233 0.13113454 -0.08329485 -0.047741298 0.017855132
-0.054495182 0.13224816 0.06820049 -0.11795858 -0.010395506 0.011084985 0.04094715 -0.036025096
0.019484175 -0.05437292 0.07942222 0.022408169 0.027767716 -0.1076316 0.033264752 0.021389415
0.1044788 -0.0042944765 0.031157408 0.011254086 -0.14441857 -0.11303252 0.010894646 -0.058558542
0.012681107 0.040298276 -0.05324264 -0.08842812 0.04821736 0.13604967 -0.13449413 0.07326957
-0.1359061 -0.12438448 -0.08934399 0.07437958 -0.10411209 -0.008165353 -0.06775158 0.061467335
-0.107921995 0.14612131 -0.01979248 0.019518804 -0.09578019 -0.010284282 0.02684363 0.07811363
0.005346508 -0.02096062 -0.061091684 0.14690897 0.041607995 -0.062988624 0.03962819 -0.002979871
-0.10458645 -0.05073958 0.088503875 -0.077565216 -0.012601592 -0.05278588 0.02030483 -0.053341378
0.0016259362 0.08530827 -0.06367946 -0.049369536 -0.050356 0.09691306 0.09406646 0.036937468
-0.00432542 -0.10277375 0.093944825 0.12536106 0.03719703 -0.055401582 -0.005377123 0.087015435
-0.07431376 -0.09268824 -0.04954364 0.083447665 -0.10551938 0.102562696 0.028497687 -0.01414959
-0.0849259 -0.0391971 0.007762013 -0.07153902 -0.105782494 0.12399605 -0.1172677 0.110097304
-0.044022147 -0.062307067 0.02240093 -0.045455363 -0.043697417 0.010498029 -0.071652 0.06106226
0.051642824 -0.04499118 0.10862709 -0.051293295 0.036350895 -0.1291836 0.04809501 0.025779948
0.08069513 0.06417306 0.07042869 -0.041832097 -0.06915077 -0.05062071 -0.12993526 0.07097654
0.037420183 -0.017735057 0.08119629 -0.14205496 -0.030207248 -0.09752347 -0.060475435 0.048574504
-0.08537243 -0.018963622 -0.047486108 0.070352994 0.045795944 0.011598479 0.11294236 0.020610515
0.06968738 0.05834491 0.032762863 -0.0022823939 -0.000966748 0.07882638 -0.032323103 0.09448383
0.1309443 0.09302786 0.009458936 -0.013192659 -0.06860055 0.020075668 0.0430745 0.075498424
-0.029624177 -0.06661238 0.08115287 0.048040353 0.10831753 -0.042151384 0.050304923 0.055098187
-0.021082256 0.079890095 0.07359478 -0.07635524 -0.0743112 0.04635242 -0.040770393 0.07279919
-0.10532419 0.043189242 0.11506783 0.09951969 -0.14754881 0.089782834 0.046425574 -0.14626466
0.10634639 0.055026192 0.017387476 -0.038597353 0.061010078 -0.06255958 -0.052156907 0.07480513
00000000: 6cd8 ba3d 07b0 253c f403 ddbc 0143 c3bd
00000010: c7f2 1c3d b86a 25bd 9f5c c2bc 7917 503d
00000020: f981 12bd 1d48 c8bd 84ac a33d c5f6 00be
00000030: eb30 ca3d 4848 06be 7d17 f43c f66b bdbd
00000040: 0b83 8d3c db5d e9bd a026 063d ed35 b93d
00000050: c59c 503d 6584 60bc 31ff d0bd cfee 03bd
00000060: e6cf 8f3c 206a 6cbc 3932 bf3d 2d08 b7ba
00000070: bc98 463c 61f4 043d cf6d 1bbc ccfd 8d3d
00000080: 3d86 8b3d b5a4 763c a96b e2bc c11e d63b
00000090: ee29 b5bd 90e2 a8bd 655b 0d3d 7140 0c3e
000000a0: e9a9 f9bd cca8 8fbd 7746 703d 4a22 94bd
000000b0: a6f3 fdbd 3e62 c43d f3f5 173e b78e 3fbd
000000c0: c86c 773c 9e5f d1bc 16e6 023e 07ff 7abd
000000d0: c694 963d 8a7c d03d d6ea bd3d f42f 973d
000000e0: 1f75 15bd e969 a23d 5cfa b9bb 989d d53d
000000f0: 7c8b 93bd 4f14 293d 15b8 a03d aee1 d6bd
00000100: 31df e9bd 6031 38bc 39c9 70bd d36d e33c
00000110: 2248 063e 7e96 aabd 618c 43bd ed44 923c
00000120: 5736 5fbd 106c 073e b3ac 8b3d 4594 f1bd
00000130: ea51 2abc cc9d 353c 33b8 273d 0d8f 13bd
00000140: 479d 9f3c 24b6 5ebd 1ea8 a23d 5691 b73c
00000150: 1f79 e33c f56d dcbd 9f40 083d db38 af3c
00000160: fbf8 d53d aeb8 8cbb d23d ff3c 0f63 383c
00000170: 76e2 13be 987d e7bd 757f 323c 15db 6fbd
00000180: 6bc4 4f3c ce0f 253d f414 5abd cd19 b5bd
00000190: 917f 453d 9b50 0b3e d4b8 09be 5b0e 963d
000001a0: f82a 0bbe 4abd febd fbf9 b6bd 5254 983d
000001b0: b838 d5bd f9c7 05bc 57c1 8abd 2cc5 7b3d
000001c0: 3506 ddbd d3a0 153e d723 a2bc e6e5 9f3c
000001d0: 6728 c4bd 687f 28bc 2ce7 db3c 0afa 9f3d
000001e0: c331 af3b 9bb5 abbc 463b 7abd 4e6f 163e
000001f0: 256d 2a3d 2e00 81bd 2b51 223d f049 43bb
00000200: 6c31 d6bd 4ed4 4fbd 8541 b53d 83da 9ebd
00000210: e876 4ebc 0236 58bd 5156 a63c 7d7c 5abd
00000220: 5e1d d53a 1ab6 ae3d 606a 82bd b637 4abd
00000230: 1842 4ebd 5b7a c63d eba5 c03d be4b 173d
00000240: 41bc 8dbb 0b7b d2bd 2566 c03d a65e 003e
00000250: ea5b 183d c5ec 62bd 9432 b0bb 2635 b23d
00000260: d031 98bd 55d3 bdbd 46ee 4abd 9ce6 aa3d
00000270: 8b1a d8bd 640c d23d fb73 e93c afd3 67bc
00000280: a1ed adbd 238d 20bd 7c58 fe3b 0d83 92bd
00000290: 7ea4 d8bd a4f1 fd3d 0c2a f0bd b27a e13d
000002a0: 9150 34bd b235 7fbd 2882 b73c 672f 3abd
000002b0: 10fc 32bd edff 2b3c 49be 92bd 6c1c 7a3d
000002c0: 6d87 533d ac48 38bd e177 de3d eb18 52bd
000002d0: ade4 143d b548 04be 46ff 443d 7830 d33c
000002e0: 7d43 a53d 2a6d 833d eb3c 903d 2258 2bbd
000002f0: eb9e 8dbd a957 4fbd c00d 05be 265c 913d
00000300: e845 193d 1c49 91bc 3e4a a63d db76 11be
00000310: 3175 f7bc 63ba c7bd 17b5 77bd 0ff6 463d
00000320: bed7 aebd 9959 9bbc cb80 42bd 3b15 903d
00000330: 8794 3b3d 8c07 3e3c 534e e73d 62d7 a83c
00000340: 42b8 8e3d 13fb 6e3d 5a32 063d 3794 15bb
00000350: 5c6d 7dba ba6f a13d 3b65 04bd bd80 c13d
00000360: 4316 063e 6485 be3d a7f9 1a3c 0626 58bc
00000370: 727e 8cbd ba75 a43c e36e 303d eb9e 9a3d
00000380: 67ae f2bc 126c 88bd 7a33 a63d f6c5 443d
00000390: 95d5 dd3d eea6 2cbd 890c 4e3d a3ae 613d
000003a0: b2b4 acbc 6b9d a33d dcb8 963d 2360 9cbd
000003b0: 7830 98bd 09dc 3d3d dbfe 26bd be17 953d
000003c0: 35b4 d7bd 34e7 303d afa8 eb3d fbd0 cb3d
000003d0: 0917 17be 10e0 b73d be28 3e3d 67c6 15be
000003e0: 23cc d93d 2563 613d 2e70 8e3c 4218 1ebd
000003f0: b4e5 793d 3d1f 80bd 7ba2 55bd 6f33 993d

rnn.weight_hh_l1 f4 [192, 64]
0.020903358 -0.033966444 0.12754424 -0.14823365 0.08309154 0.064602695 -0.034471996 -0.057699937
0.001759393 -0.08551842 0.04418964 0.019994542 -0.03224143 -0.01487614 0.011740109 -0.1216311
-0.0024458896 0.073724866 0.0033055712 0.03458927 0.07768942 0.074767366 0.042828284 -0.060873613
-0.113897316 0.06383037 -0.14014186 -0.07429886 0.117118314 0.117934234 0.13973296 -0.058883023
-0.051466078 -0.08910788 0.021650268 0.100428365 0.07449967 0.093694 -0.13924631 0.07313417
-0.08577197 0.026419232 0.060885288 -0.0079240585 0.008928878 -0.10175474 0.08033802 -0.0068208524
-0.011854392 0.14712276 0.12130837 -0.112204686 0.12344616 -0.13432814 0.07530079 0.11192183
0.056610473 -0.053874765 0.082265 -0.07419706 -0.023837948 -0.017173458 0.015231393 0.04178736
-0.043471396 0.06801393 0.07324055 -0.10023343 -0.025476271 -0.14069246 -0.023947429 0.107417755
-0.00076717243 0.09590621 -0.086088955 0.075226 -0.07181702 -0.007792505 -0.023881713 0.074924104
0.1498462 0.14301364 -0.12524053 -0.07733232 -0.052872088 0.008416485 0.051155087 0.053764373
-0.13944556 0.054881975 -0.060749516 0.136125 -0.08736913 0.06794298 -0.027423399 0.12758887
0.10468476 0.070835106 -0.13382986 0.0030952808 -0.012849495 0.0330522 0.05226648 0.011799418
-0.097845204 0.06864159 0.039575625 0.13072306 0.037546877 0.08097287 -0.12760516 -0.067110136
-0.129748 -0.02805542 0.025129503 -0.01158062 0.15095612 -0.07113677 0.03487701 0.086789526
0.0047086 0.025309674 -0.0805315 -0.07667409 -0.06501033 0.05967784 -0.07956394 -0.005314587
-0.10073219 0.087431334 0.044397563 0.032377075 0.096787006 -0.04237838 0.11656239 -0.0331279
0.07792051 -0.06523943 0.11406182 0.08708116 -0.1242703 0.03923478 0.036735095 -0.13078949
-0.010055817 0.0147757 0.077802815 -0.053884838 -0.08778957 0.13191767 0.09383084 -0.12049376
0.017143648 0.12911631 0.06821051 0.02932186 0.07991515 -0.10138023 0.0733995 0.067947865
0.078519985 -0.002990307 -0.09113659 -0.095736325 -0.10644886 0.10958344 0.028211152 0.004982965
0.06390331 -0.06495711 -0.1246654 0.0076152654 -0.092458986 0.06911079 -0.07801904 -0.06841081
0.094504885 -0.051853236 0.1009897 0.008078091 0.009203421 -0.03023288 0.078273445 -0.09575112
-0.016559966 -0.034758035 0.08565693 -0.11106604 -0.06117766 0.063385345 0.12810214 0.026949823
0.009950346 -0.0694438 -0.071132354 -0.14994639 0.023309777 -0.076550975 -0.046643313 0.011106017
0.037142333 -0.07386917 0.013086831 0.040426582 0.06438623 -0.01075529 -0.088270515 0.064368054
-0.088683106 0.0032172294 -0.1357786 0.08807765 -0.059702393 -0.09038059 -0.08470995 0.027130034
-0.030062176 -0.07994487 -0.0026572738 0.09145952 -0.0074014943 -0.06867326 -0.035923928 -0.0033528525
0.15426263 0.12724014 -0.06539184 -0.0936021 -0.11889909 -0.1502028 0.093676746 0.039228715
-0.10488358 0.045706913 -0.13550757 0.10341941 0.06412051 -0.008230994 -0.010732129 -0.05651341
-0.11909617 0.07706486 -0.06395748 0.039426018 -0.03056857 -0.14862862 -0.05723871 -0.063133396
-0.083106816 -0.07202792 0.047561616 -0.013046447 0.15122359 -0.0991638 -0.08806664 0.075398155
00000000: 853d ab3c 6620 0bbd f59a 023e 90ca 17be
00000010: e62b aa3d 6b4e 843d 8232 0dbd c556 6cbd
00000020: 6f9b e63a 4824 afbd 3200 353d 98cb a33c
00000030: 970f 04bd 0ebb 73bc 9659 403c ba19 f9bd
00000040: 384b 20bb 10fd 963d 48a2 583b 7aad 0d3d
00000050: a11b 9f3d a21f 993d b66c 2f3d 9c56 79bd
00000060: ff42 e9bd 7fb9 823d 5981 0fbe 002a 98bd
00000070: badb ef3d 8187 f13d 2816 0f3e 532f 71bd
00000080: 18ce 52bd 317e b6bd e75b b13c 63ad cd3d
00000090: 4893 983d a4e2 bf3d 9696 0ebe 5ec7 953d
000000a0: 37a9 afbd 256d d83c da62 793d e9d3 01bc
000000b0: 6e4a 123c ca64 d0bd 4388 a43d 7581 dfbb
000000c0: ec38 42bc 59a7 163e 8670 f83d 92cb e5bd
000000d0: 57d1 fc3d 518d 09be 4d37 9a3d 4637 e53d
000000e0: 62e0 673d c9ab 5cbd 8d7a a83d a1f4 97bd
000000f0: cd47 c3bc 5aaf 8cbc 188d 793c 3929 2b3d
00000100: 100f 32bd e34a 8b3d 24ff 953d 2f47 cdbd
00000110: 9db3 d0bc af11 10be 662d c4bc d7fd db3d
00000120: 121c 49ba 7a6a c43d 684f b0bd 1710 9a3d
00000130: cd14 93bd 4558 ffbb 95a3 c3bc cf71 993d
00000140: 4871 193e 2b72 123e 0e3f 00be 6860 9ebd
00000150: 6790 58bd 4ce5 093c ff87 513d 0838 5c3d
00000160: d1ca 0ebe eccb 603d 7cd4 78bd 5a64 0b3e
00000170: 96ee b2bd b025 8b3d 09a7 e0bc a8a6 023e
00000180: f764 d63d ff11 913d b20a 09be 32da 4a3b
00000190: b086 52bc be61 073d 6015 563d 5952 413c
000001a0: 1163 c8bd f693 8c3d 0d1a 223d 44dc 053e
000001b0: c1ca 193d 1bd5 a53d edaa 02be 0a71 89bd
000001c0: a9dc 04be 7bd4 e5bc 63dc cd3c a4bc 3dbc
000001d0: 3e94 1a3e 28b0 91bd 32db 0e3d b5be b13d
000001e0: 9a4a 9a3b 3c56 cf3c b3ed a4bd 4e07 9dbd
000001f0: 2324 85bd c070 743d 6bf2 a2bd fd25 aebb
00000200: ae4c cebd 330f b33d 38da 353d d39d 043d
00000210: 4438 c63d f494 2dbd 43b8 ee3d 1fb1 07bd
00000220: ca94 9f3d 409c 85bd 3e99 e93d 9b57 b23d
00000230: 6d81 febd a6b4 203d 8a77 163d aeed 05be
00000240: 27c1 24bc c715 723c 1557 9f3d 59b6 5cbd
00000250: 05cb b3bd 6d15 073e 622a c03d 6fc5 f6bd
00000260: d670 8c3c 1137 043e f4b1 8b3d 6634 f03c
00000270: 8eaa a33d 70a0 cfbd 7a52 963d 4028 8b3d
00000280: 16cf a03d 07f9 43bb d2a5 babd 6811 c4bd
00000290: dc01 dabd 486d e03d 131b e73c 2448 a33b
000002a0: bddf 823d 3c08 85bd 9350 ffbd 7a89 f93b
000002b0: 235b bdbd f589 8d3d 72c8 9fbd f71a 8cbd
000002c0: c78b c13d 0f64 54bd b0d3 ce3d f859 043c
000002d0: f2c9 163c f2aa f7bc d44d a03d 2a19 c4bd
000002e0: c4a8 87bc 715e 0ebd e76c af3d 9876 e3bd
000002f0: 6d95 7abd 2dd0 813d 352d 033e e0c5 dc3c
00000300: c706 233c 8d38 8ebd d7ad 91bd 8c8b 19be
00000310: 25f4 be3c c2c6 9cbd 0f0d 3fbd 03f6 353c
00000320: 8f22 183d b848 97bd 266a 563c 5896 253d
00000330: eedc 833d f536 30bc 2cc7 b4bd 66d3 833d
00000340: 7d9f b5bd 27d8 523b 8c09 0bbe 0e62 b43d
00000350: 7f8a 74bd 7519 b9bd 697c adbd ce3f de3c
00000360: f444 f6bc 23ba a3bd a825 2ebb 214f bb3d
00000370: 3c88 f2bb 91a4 8cbd f824 13bd 88bb 5bbb
00000380: 06f7 1d3e 3d4b 023e 28ec 85bd 75b2 bfbd
00000390: 5e81 f3bd c3ce 19be 98d9 bf3d 4aae 203d
000003a0: 34cd d6bd 2c37 3b3d 7fc2 0abe 8ecd d33d
000003b0: 9d51 833d 4bdb 06bc d0d5 2fbc 9b7a 67bd
000003c0: b1e8 f3bd 2ed4 9d3d 24fc 82bd 2d7d 213d
000003d0: f06a fabc 1a32 18be 2373 6abd 154c 81bd
000003e0: e833 aabd 6083 93bd f8cf 423d c4c0 55bc
000003f0: 5bda 1a3e 6416 cbbd 485c b4bd 596a 9a3d

rnn.bias_ih_l1 f4 [192]
0.003563263 -0.024558485 0.0983159 0.025574453 0.08310252 0.04779355 -0.0070522586 -0.05758896
-0.078225054 0.05436871 0.0025581014 -0.07777231 -0.079078116 -0.034568015 -0.024824606 -0.13412586
0.059284855 -0.06698636 0.020338 0.07908168 0.0008201992 -0.064337954 -0.0035757709 0.030334223
0.025414893 -0.064566165 -0.081376776 -0.012526288 -0.04346799 -0.11461187 -0.06004215 0.0015101618
-0.049578037 -0.0032132617 0.022529995 0.050630573 -0.09974848 0.020584084 0.06313063 0.04731124
0.036901195 0.12669896 0.034851205 0.10303674 0.13852201 0.066649415 0.12544423 -0.10094273
-0.059274856 -0.03445089 -0.06503444 -0.04573563 0.005027025 -0.029191203 0.046501122 -0.063027665
0.06554311 -0.04639858 -0.009540955 -0.026325628 -0.050644003 0.04014257 0.052854393 0.09493462
0.03091379 -0.15618485 -0.013537733 -0.0700434 -0.0017909887 -0.032174528 -0.17095162 0.01572911
-0.07971725 0.042430133 -0.054220777 -0.0308045 -0.11933813 0.032996196 -0.17762728 0.061797336
0.058430456 0.05383567 -0.10927524 -0.102775045 -0.011877487 0.06599344 -0.12880145 0.040297884
0.009425883 -0.1292286 -0.14342009 -0.025103893 -0.00060615415 -0.06257763 -0.094653375 -0.057448074
0.06398366 -0.103211045 -0.15329935 -0.0472762 -0.14675762 -0.16893509 -0.13331181 0.064517684
-0.033955533 -0.021138616 0.06374832 -0.041007824 -0.17487046 -0.14590031 -0.094460316 -0.056825414
-0.07358997 -0.11842766 -0.05286846 -0.053129647 -0.13131629 -0.10010007 -0.13635571 -0.15799062
0.044544704 -0.09221765 0.013120608 -0.13529015 -0.018381387 -0.122898 0.03595977 0.03196232
0.015454308 -0.14865398 -0.005193849 -0.064715534 0.13676354 -0.10414706 0.07051054 0.0022781873
0.07414365 0.08813446 -0.024142671 0.115510195 0.014357911 -0.12424915 0.07046336 -0.1042931
0.090459004 -0.01597112 -0.012635317 0.010339347 -0.005819522 -0.06065802 0.0041551124 0.058283783
0.007282701 0.119857915 -0.13180336 0.026703523 0.051415995 0.13236968 -0.031493552 0.08419761
0.041066505 -0.08697868 -0.076878816 0.10298293 -0.08067505 -0.027215254 0.028805103 -0.12564947
0.022857044 -0.073862605 0.039349522 0.043455627 -0.005670938 -0.05781889 -0.013038259 -0.059943985
0.02335976 0.029980661 0.07757592 0.014027678 0.060311735 -0.01089561 0.015934657 0.05944434
-0.12111024 0.0037776642 0.06748388 -0.1398678 0.14099927 0.08445383 -0.094597325 -0.1367681
00000000: a285 693b e02e c9bc d959 c93d 8481 d13c
00000010: a731 aa3d 2bc3 433d a216 e7bb 67e2 6bbd
00000020: 7534 a0bd b9b1 5e3d d2a5 273b 1747 9fbd
00000030: b5f3 a1bd 3197 0dbd f95c cbbc 4a58 09be
00000040: add4 723d 2530 89bd e19b a63c 93f5 a13d
00000050: a302 573a 9ec3 83bd 7b57 6abb 7a7f f83c
00000060: e532 d03c 443b 84bd dea8 a6bd 0f3b 4dbc
00000070: 7e0b 32bd a1b9 eabd c2ee 75bd 9ff0 c53a
00000080: 5712 4bbd 9695 52bb d390 b83c 0162 4f3d
00000090: ee48 ccbd f49f a83c a24a 813d 6ec9 413d
000000a0: b525 173d 5fbd 013e 23c0 0e3d ed04 d33d
000000b0: b7d8 0d3e 7d7f 883d 7474 003e 10bb cebd
000000c0: 31ca 72bd 601c 0dbd c730 85bd 4955 3bbd
000000d0: beb9 a43b 6422 efbc f677 3e3d a614 81bd
000000e0: 773b 863d 700c 3ebd aa51 1cbc d8a8 d7bc
000000f0: 1670 4fbd 896c 243d d97d 583d 156d c23d
00000100: eb3e fd3c ecee 1fbe 5ecd 5dbc ea72 8fbd
00000110: 9cbf eaba 70c9 03bd f10d 2fbe 56da 803c
00000120: cc42 a3bd 38cb 2d3d 9b16 5ebd b859 fcbc
00000130: 8d67 f4bd 0527 073d ede3 35be 341f 7d3d
00000140: c654 6f3d cb82 5c3d b2cb dfbd b97b d2bd
00000150: cb99 42bc 9227 873d 87e4 03be 650f 253d
00000160: 056f 1a3c 8154 04be b7dc 12be aea6 cdbc
00000170: 51e6 1eba b328 80bd a1d9 c1bd ac4e 6bbd
00000180: dd09 833d 5060 d3bd 81fa 1cbe b0a4 41bd
00000190: a147 16be 52fd 2cbe e482 08be d921 843d
000001a0: f514 0bbd e42a adbc 7b8e 823d d2f7 27bd
000001b0: 3e11 33be e466 15be 6974 c1bd c4c1 68bd
000001c0: 57b6 96bd 338a f2bd 998c 58bd 799e 59bd
000001d0: c777 06be 4401 cdbd d5a0 0bbe 4bc8 21be
000001e0: 8274 363d 9bdc bcbd d2f7 563c 8089 0abe
000001f0: 9094 96bc f2b1 fbbd 8d4a 133d ecea 023d
00000200: 1134 7d3c c038 18be 2a31 aabb 9489 84bd
00000210: be0b 0c3e 0e4b d5bd d467 903d a44d 153b
00000220: a0d8 973d d77f b43d dac6 c5bc 9c90 ec3d
00000230: 723d 6b3c 5776 febd 184f 903d 9f97 d5bd
00000240: 9242 b93d ded5 82bc 5c04 4fbc 5d66 293c
00000250: b0b1 bebb 8b74 78bd 9c27 883b faba 6e3d
00000260: b9a3 ee3b 1178 f53d 76f7 06be 59c1 da3c
00000270: 9499 523d eb8b 073e 62ff 00bd cc6f ac3d
00000280: 5a35 283d e121 b2bd a472 9dbd b7e8 d23d
00000290: f638 a5bd 86f2 debc aef8 eb3c 41aa 00be
000002a0: b23e bb3c 4745 97bd f72c 213d 87fe 313d
000002b0: 47d3 b9bb 80d3 6cbd 6c9e 55bc d387 75bd
000002c0: f85c bf3c 019a f53c 20e0 9e3d 59d4 653c
000002d0: 7009 773d 8083 32bc 6689 823c e97b 733d
000002e0: a508 f8bd b092 773b fd34 8a3d 8139 0fbe
000002f0: 1d62 103e 21f6 ac3d 3ebc c1bd f00c 0cbe

rnn.bias_hh_l1 f4 [192]
0.12705776 -0.09519238 0.09851847 0.12585318 -0.10525943 0.094620734 0.14732003 -0.05883886
0.07137689 0.089303054 -0.011202328 0.0045415973 0.0679019 -0.030206218 0.112348504 -0.04432043
-0.00023780392 -0.038295373 -0.01432992 -0.0028663615 -0.07822893 0.007625268 -0.06778715 -0.04480942
0.14191654 -0.08564206 -0.03636659 0.12396679 0.088535555 0.01111026 -0.0053953324 0.11048438
0.13991462 0.081273995 -0.09742898 0.001207092 -0.10517813 0.08752558 0.089608796 0.11749508
-0.011147678 -0.062409583 -0.022346232 -0.075266816 0.087309495 -0.09719068 -0.030885544 0.037686918
0.020008361 -0.07202981 -0.04221933 0.10598097 0.113274716 -0.011059246 0.05629513 -0.012948851
0.03797603 -0.06698196 -0.0498506 0.050716367 -0.099343665 0.0052801496 0.09258005 -0.14202161
0.018285094 -0.09302964 0.0061140964 -0.011787499 0.08507605 -0.13292271 -0.064235374 0.016768854
0.005763885 -0.02687286 -0.17542005 -0.07383796 -0.12914813 -0.14355291 -0.15030445 0.05016941
0.044099174 -0.026723985 -0.026556276 0.030716013 -0.14020845 -0.15614627 0.06305286 -0.013745865
-0.025560277 -0.038170148 -0.023648681 -0.042485055 0.016775569 -0.046491876 -0.14250344 -0.14346449
0.047063723 0.06640336 -0.15843543 0.016569132 -0.16437444 0.0422819 -0.18082139 0.06609026
-0.048697606 -0.14951715 -0.1542151 0.09341192 -0.024608884 0.038804986 -0.08108733 -0.0005219544
0.040658277 -0.018155284 0.035722233 -0.13029957 0.04823296 -0.059162624 0.05106523 0.030218983
-0.017586464 -0.06645738 0.019284105 0.023463545 -0.07581378 -0.098947234 0.025312357 -0.01179213
-0.06289662 -0.0019641288 0.12804699 0.033332877 -0.07073832 0.017462224 0.023357762 0.030722465
0.12992063 0.055698033 0.12392406 0.07979643 -0.09820488 0.061325684 -0.11993319 0.05045393
-0.04313434 0.11841984 -0.00865856 0.039794017 0.022094076 -0.073834516 -0.013691245 -0.035156924
-0.09044519 0.11968994 -0.06002801 0.047441166 0.10291591 0.015370847 0.11746839 0.1247279
0.031361308 0.048898164 -0.101143815 -0.038037483 0.08991886 -0.1449578 -0.04679157 -0.06314295
0.09496758 -0.066566125 0.06842534 -0.076530114 -0.005509606 0.084739745 -0.11734745 0.06784844
0.063954875 -0.013376982 -0.07803968 -0.024967786 0.03887197 0.09320413 0.14161576 0.11135009
0.06457132 0.107810415 -0.04045758 -0.08525148 0.11285305 0.104655795 -0.06841746 0.076524094
00000000: 6e1b 023e 39f4 c2bd 0dc4 c93d a8df 003e
00000010: 4292 d7bd 84c8 c13d 10db 163e 0401 71bd
00000020: 0c2e 923d 85e4 b63d f889 37bc aed1 943b
00000030: 2710 8b3d 0873 f7bc f916 e63d 5789 35bd
00000040: 015b 79b9 9cdb 1cbd 0ac8 6abc 91d9 3bbb
00000050: 7d36 a0bd 62dd f93b fdd3 8abd 158a 37bd
00000060: 9252 113e 1b65 afbd 22f5 14bd 4de2 fd3d
00000070: 2152 b53d cf07 363c 54cb b0bb a245 e23d
00000080: c745 0f3e fb72 a63d d888 c7bd 4937 9e3a
00000090: a267 d7bd 9c40 b33d d184 b73d 43a1 f03d
000000a0: c0a4 36bc 31a1 7fbd 720f b7bc 7d25 9abd
000000b0: 52cf b23d e80b c7bd ae03 fdbc 995d 1a3d
000000c0: 93e8 a33c 5d84 93bd 2dee 2cbd 8d0c d93d
000000d0: 93fc e73d d731 35bc b995 663d 6b27 54bc
000000e0: c18c 1b3d d62d 89bd 2530 4cbd f7bb 4f3d
000000f0: b174 cbbd 1b05 ad3b 9c9a bd3d 1d6e 11be
00000100: 9fca 953c 5386 bebd c258 c83b 5b20 41bc
00000110: 5a3c ae3d e41c 08be d68d 83bd d65e 893c
00000120: f9de bc3b 7924 dcbc 50a1 33be 5b38 97bd
00000130: 683f 04be 89ff 12be 69e9 19be 707e 4d3d
00000140: 56a1 343d 42ec dabc 8c8c d9bc 26a0 fb3c
00000150: ce92 0fbe cfe4 1fbe dc21 813d 5636 61bc
00000160: c963 d1bc 4d58 1cbd e1ba c1bc cf04 2ebd
00000170: eb6c 893c 446e 3ebd 6cec 11be 5be8 12be
00000180: e4c5 403d 7cfe 873d e63c 22be fdbb 873c
00000190: c651 28be c92f 2d3d 3e29 39be 555a 873d
000001a0: 2477 47bd 061b 19be 90ea 1dbe c04e bf3d
000001b0: 9298 c9bc faf1 1e3d 1d11 a6bd c4d3 08ba
000001c0: 4b89 263d 64ba 94bc 7a51 123d 406d 05be
000001d0: ed8f 453d 8254 72bd c629 513d cd8d f73c
000001e0: 7d11 90bc cf1a 88bd b3f9 9d3c 9f36 c03c
000001f0: 4144 9bbd d9a4 cabd dc5b cf3c c733 41bc
00000200: f1cf 80bd 9db8 00bb c01e 033e 0e88 083d
00000210: 41df 90bd f00c 8f3c c758 bf3c aead fb3c
00000220: ea09 053e 9f23 643d e6cb fd3d 506c a33d
00000230: a41f c9bd a430 7b3d 889f f5bd c8a8 4e3d
00000240: a2ad 30bd 1a86 f23d a2dc 0dbc 0dff 223d
00000250: a3fe b43c 8d36 97bd 3e51 60bc b500 10bd
00000260: 543b b9bd 0020 f53d eedf 75bd ab51 423d
00000270: 94c5 d23d 01d6 7b3c 4493 f03d 5771 ff3d
00000280: b774 003d 7149 483d 7d24 cfbd 31cd 1bbd
00000290: 6127 b83d d16f 14be 84a8 3fbd 1751 81bd
000002a0: 5d7e c23d d253 88bd 9622 8c3d d2bb 9cbd
000002b0: ed89 b4bb 088c ad3d dc53 f0bd 1ff4 8a3d
000002c0: c6fa 823d 212b 5bbc 45d3 9fbd 3e89 ccbc
000002d0: 3738 1f3d cfe1 be3d b903 113e 840b e43d
000002e0: f83d 843d b5cb dc3d d9b6 25bd 5498 aebd
000002f0: 801f e73d c755 d63d 741e 8cbd aab8 9c3d

rnn.weight_ih_l2 f4 [192, 64]
0.081214055 0.010230709 -0.011326367 -0.12415371 0.027315237 0.020299684 -0.09077095 -0.0005235578
0.0013502486 0.05530614 -0.0903132 0.017414557 0.019788781 0.007342815 0.04887165 -0.048357125
-0.012553473 0.04313156 0.051097576 0.061880868 0.06199629 0.010613544 -0.05645962 -0.068194665
-0.016876541 0.027079357 -0.029572222 0.14398107 0.04086699 0.047091063 0.0054617226 0.090763934
-0.041839007 0.01777831 -0.093239605 0.14169967 -0.058307208 -0.14273444 0.090025194 0.028876971
-0.08048555 0.11908718 -0.012438898 0.024773011 -0.14760917 -0.03321517 -0.048947476 0.069238774
-0.06757692 -0.017481918 -0.031936478 0.03697985 -0.0022834484 -0.007743549 0.111798294 -0.0899603
-0.06268891 -0.052980967 0.09051168 -0.029975664 -0.0020785157 0.036401358 0.094271116 -0.04835402
-0.0065891854 -0.026279604 -0.054131623 -0.09819381 0.09267996 -0.02071805 0.05363798 -0.045525957
0.11673568 0.090894766 0.06638277 -0.051171515 -0.15841243 -0.05046293 -0.117673256 -0.065079786
-0.086716264 0.10983564 0.064808354 0.12495509 0.07156893 0.047722455 -0.10728325 -0.062001176
-0.12335634 0.06120606 0.018835004 0.06667179 0.024715107 0.08210206 0.019344486 0.085446015
-0.0044113453 0.08602073 0.08599268 0.06689257 -0.07419601 -0.04038145 -0.13502939 0.0051345117
-0.08750961 -0.042614587 0.058222853 -0.11522947 0.007419353 0.026085652 -0.051280756 0.08079365
0.054096714 -0.07776246 0.030380206 0.081741646 0.03899524 -0.12745897 0.031289373 -0.034610663
-0.12584521 -0.08908969 0.019253904 -0.082363605 0.051200747 0.039450556 -0.063190155 -0.115038715
-0.08584139 -0.004104481 0.050458256 -0.023139402 -0.08912242 -0.0348166 -0.026103562 -0.109176986
0.14832959 0.009406813 -0.060688425 0.12000492 0.05200069 -0.03949647 -0.088420734 -0.029287089
0.102809176 0.15263192 -0.03693394 0.005794818 -0.06240179 0.06630334 -0.14893873 0.15423341
-0.0667198 -0.006822035 -0.042349663 -0.08292132 0.08192432 0.1314901 0.075521104 0.06363144
0.030974837 -0.037204612 -0.068200156 0.0630643 0.00417212 -0.105626576 -0.1489861 -0.050481156
-0.011614368 0.07540498 -0.13168454 0.11438558 -0.062614314 0.02426096 -0.020585993 0.051105496
-0.037814375 0.0846051 -0.08488025 -0.10408442 -0.054969758 0.06001341 0.031466637 0.024660772
-0.06601162 -0.060869645 -0.038563244 -0.039173193 0.07757641 0.07838675 0.02446881 -0.021432515
0.014251903 0.060305197 0.101017855 0.0035796212 0.05328052 -0.029180525 0.033533752 0.08515647
-0.06009798 0.13283299 0.03833152 0.0644303 -0.14863387 -0.014694912 -0.022628453 0.0031823718
-0.063022345 -0.07468578 0.04078867 -0.030364633 -0.1443639 -0.017701864 -0.13472918 0.03526527
-0.08673618 -0.07662759 0.0849185 -0.035574432 0.058693018 0.15362924 0.022816466 0.10854262
-0.018882057 -0.03126487 0.011687149 0.04073504 0.0047294716 -0.009416897 0.08377512 0.08241488
-0.004530931 0.048619997 0.04931451 0.08470079 0.08674613 -0.0433094 -0.11264348 0.038318805
-0.03846963 0.039162938 0.09697208 -0.005499759 -0.058899105 -0.025181672 0.041581437 0.10720694
-0.017973136 0.014488724 0.06278651 -0.0058014453 0.026288282 0.056678582 0.08432778 0.09744111
00000000: 8e53 a63d b49e 273c 3a92 39bc 4d44 febd
00000010: 34c4 df3c 864b a63c 1fe6 b9bd 5f3f 09ba
00000020: d3fa b03a b188 623d 21f6 b8bd f9a8 8e3c
00000030: 151c a23c ff9b f03b a42d 483d 1f12 46bd
00000040: 15ad 4dbc b8aa 303d b14b 513d cb76 7d3d
00000050: d2ef 7d3d 6ee4 2d3c 3442 67bd a5a9 8bbd
00000060: ac40 8abc 87d5 dd3c 7241 f2bc c66f 133e
00000070: 2564 273d 8fe2 403d 40f8 b23b 71e2 b93d
00000080: 615f 2bbd d2a3 913c 68f4 bebd b819 113e
00000090: 8ad3 6ebd fa28 12be 215f b83d 668f ec3c
000000a0: 9cd5 a4bd fbe3 f33d 85cc 4bbc c5f0 ca3c
000000b0: dc26 17be a10c 08bd 267d 48bd 0fcd 8d3d
000000c0: c565 8abd 3d36 8fbc d3cf 02bd 2f78 173d
000000d0: e8a5 15bb 99bd fdbb 81f6 e43d 1b3d b8bd
000000e0: 0b63 80bd 9202 59bd 305e b93d 868f f5bc
000000f0: b537 08bb 9719 153d 3711 c13d dd0e 46bd
00000100: 18ea d7bb 5348 d7bc 1fb9 5dbd d619 c9bd
00000110: fece bd3d e6b8 a9bc 80b3 5b3d 6d79 3abd
00000120: 1e13 ef3d 0927 ba3d b1f3 873d 3999 51bd
00000130: de36 22be 38b2 4ebd adfe f0bd 8d48 85bd
00000140: 4c98 b1bd 82f1 e03d 3eba 843d 74e8 ff3d
00000150: bb92 923d 9f78 433d 52b7 dbbd f2f4 7dbd
00000160: 40a2 fcbd 35b3 7a3d de4b 9a3c 388b 883d
00000170: 5677 ca3c 2025 a83d 5478 9e3c 52fe ae3d
00000180: 0c8d 90bb a32b b03d ee1c b03d f9fe 883d
00000190: 14f4 97bd 0567 25bd 2545 0abe 683f a83b
000001a0: 3d38 b3bd a28c 2ebd 167b 6e3d 6efd ebbd
000001b0: 0b1e f33b 94b1 d53c c50b 52bd 2477 a53d
000001c0: 8494 5d3d ed41 9fbd e9df f83c 2a68 a73d
000001d0: 79b9 1f3d 9b84 02be 4929 003d e9c3 0dbd
000001e0: 91dd 00be a874 b6bd 5dba 9d3c 40ae a8bd
000001f0: e0b7 513d e896 213d d769 81bd 6b99 ebbd
00000200: 9ccd afbd e27e 86bb 51ad 4e3d d88e bdbc
00000210: d185 b6bd da9b 0ebd 23d7 d5bc 2f98 dfbd
00000220: b6e3 173e 091f 1a3c 6d94 78bd 24c5 f53d
00000230: adfe 543d 0dc7 21bd ee15 b5bd 7aeb efbc
00000240: 9e8d d23d 8b4b 1c3e 0b48 17bd 75e2 bd3b
00000250: 0599 7fbd 0cca 873d 6583 18be 5def 1d3e
00000260: 64a4 88bd 618b dfbb d776 2dbd a7d2 a9bd
00000270: f0c7 a73d 57a5 063e cfaa 9a3d 3351 823d
00000280: f1be fd3c dd63 18bd 86ac 8bbd db27 813d
00000290: 47b6 883b bf52 d8bd d08f 18be 54c5 4ebd
000002a0: 314a 3ebc ed6d 9a3d 50d8 06be fd42 ea3d
000002b0: ef3b 80bd ecbe c63c f5a3 a8bc ff53 513d
000002c0: 3fe3 1abd 7045 ad3d b2d5 adbd 362a d5bd
000002d0: f827 61bd 9fd0 753d 29e3 003d 6305 ca3c
000002e0: 1a31 87bd 7352 79bd 7ef4 1dbd 1274 20bd
000002f0: 61e0 9e3d 3b89 a03d d072 c83c 3e93 afbc
00000300: d080 693c 9502 773d 73e2 ce3d 1498 6a3b
00000310: ad3c 5a3d ff0b efbc b05a 093d 8466 ae3d
00000320: 4d29 76bd 5f05 083e 8301 1d3d 08f4 833d
00000330: 7a33 18be eec2 70bc 4e5f b9bc 578f 503b
00000340: dc11 81bd dcf4 98bd 0512 273d 40bf f8bc
00000350: 21d4 13be 8003 91bc 72f6 09be 5172 103d
00000360: bda2 b1bd edee 9cbd c0e9 ad3d 7fb6 11bd
00000370: 1768 703d fc50 1d3e 99e9 ba3c 984b de3d
00000380: 8bae 9abc 980f 00bd 757b 3f3c c9d9 263d
00000390: aff9 9a3b 5449 1abc 4a92 ab3d 22c9 a83d
000003a0: 3478 94bb c325 473d 03fe 493d 9c77 ad3d
000003b0: f4a7 b13d 3365 31bd a0b1 e6bd 2ef4 1c3d
000003c0: 5592 1dbd 5169 203d 4c99 c63d 5337 b4bb
000003d0: 3040 71bd cb49 cebc 4c51 2a3d 508f db3d
000003e0: 663c 93bc 1d62 6d3c 3796 803d 0d1a bebb
000003f0: 865a d73c cd27 683d 0bb4 ac3d 348f c73d
