program/deep_learning/16 - Recurrent Neural Network/model/lstm/weights_150.pth (torch, 254064 bytes, 13 tensors)

rnn.weight_ih_l0 f4 [192, 1]
00000000: ef0c 063e 7443 8fbd 0012 1c3c e28a f7bd
00000010: 74a2 b43d fb4e 5cbd e433 003a 1e2d 023e
00000020: 3724 083e 44a7 9e3d 1ae9 c8bd f418 363e
00000030: bc5b 0c3e ca01 023e a041 e6bd bb1a 973c
00000040: be00 a0bd 4712 b83d 7fdf 26bd 9ac1 163e
00000050: 5596 3f3d 5536 a83d ad00 573e db28 b5bd
00000060: 69ae 593d dc27 1d3d 69e6 363b d2ac ffbd
00000070: 7169 913c 4761 363d c905 c5bc 23a1 93bc
00000080: 9ef7 64bd be8a 5d3d 7a60 a2bd b0c3 5bbd
00000090: 80ac a2bd 4187 4e3e 0e31 86bd 3194 f53d
000000a0: 768a ddbd bca6 b33d 7eb3 db3c a554 323e
000000b0: 8acf d03d 389d d63d ef84 ca3d 36a6 033e
000000c0: 4b73 c83d ca55 d0bb 2056 c03c 2219 ba3d
000000d0: 90ea 72bd 5bcc 92bd 4925 afbd ff46 aabd
000000e0: e178 7dbd 837a 563d 7c3a fabc 3efa 823e
000000f0: a962 89bd 632d 3f3e 9a61 e7bd 9cc9 c7bd
00000100: 8f24 1dbe fc42 f1bc 34aa 2c3c c681 db3b
00000110: e732 95be 97b9 9cbe 03ff 16bd 0615 71bd
00000120: 308f 11bd 7a17 023e 1b72 97bb e8a2 2fbb
00000130: f5b7 6cbd d1f2 a9bd a30f 59bd 0760 9d3d
00000140: 8c58 dcbd 1456 31be fcf9 653d 3e3f 6fbd
00000150: 8454 d8bd 10ea 9abd 6d61 c0bd a7b8 f2bc
00000160: 7075 633c e850 d8bd ff3a 013e 4285 5ebb
00000170: dfa2 e8bd 3c37 cb3b b053 7bbd a1d0 483c
00000180: 2ad8 e1bd e1c0 e0bd b779 86bd 525a fcbd
00000190: 08e8 353d 86c9 febd e891 d8bd 1f32 89bd
000001a0: 7d75 ea3d e672 66bd 0a77 4cbd ad95 aabd
000001b0: acaf 04be 29b4 b5bd 94a5 c8bd 2ccf 13bd
000001c0: a8b4 c6bd 3ccf bdbd a1aa 33bd 1fc4 aabc
000001d0: 999c b0bd fa8a 92bd 1b43 8f3d f6e7 04be
000001e0: 586e b3bd e2ba 94bd 734c b7bd 1383 9bbd
000001f0: 847c b1bc 92e9 06bd 3fd4 103c 9565 aa3d
00000200: 7b5e 92bc 00e6 313d a32d 213e 9c60 97bd
00000210: 8fc5 1abd d244 473d 7f5a ca3d 0978 6abd
00000220: 51b3 05be 09b4 debb 829b 59bd 6819 89bd
00000230: 9db7 b33d 417c 7bbd 09ab 633d 7f44 8f3c
00000240: d3eb 4dbd 00d1 b0bd 3647 7d3d bb42 a13d
00000250: 3276 4ebd 4484 77bd d177 62bd ec39 293d
00000260: 43da 043e acfb 613d 8494 fa3c 77ef 613d
00000270: b382 4cbd 1d92 febd 5613 b93d e2e7 dd3d
00000280: 114c 893d feed 683d d10f 4f3d be75 4a3d
00000290: f92f 5b3d e28d 273d 7ac9 1abd 6327 73bc
000002a0: 7778 fdbc 82fd 29bd 4d67 89bd a224 4bbd
000002b0: 3453 ccbd 4323 c33d 1733 773d 59d3 223e
000002c0: d991 c7ba 450f 413d 7599 8b3d edd2 7e3c
000002d0: 722d 5fbd b3a6 4bbd 7261 1d3d 5b1d 45bd
000002e0: 2b1e a43d 2f24 9a3d 9af3 3c3d 852a 653d
000002f0: 2cfc 11bd 75db 84bd 65a6 8cbd 6abd 9dbd
0.13090871 -0.069952875 0.009525776 -0.12087037 0.08820048 -0.05378626 0.0004890545 0.12712523
0.13295065 0.07746747 -0.098100856 0.17782956 0.13706869 0.12695995 -0.11242986 0.018445363
-0.078126416 0.08987861 -0.040740486 0.1472229 0.046774227 0.08213488 0.20996352 -0.08845683
0.053144846 0.03836809 0.0027908331 -0.12484135 0.017750474 0.044526365 -0.02405061 -0.018021172
-0.05590021 0.054087393 -0.07928558 -0.05365342 -0.07943058 0.20168783 -0.06552325 0.11991156
-0.10817425 0.087720364 0.026818987 0.17415102 0.10195835 0.10479206 0.09888636 0.12856373
0.097876154 -0.006357883 0.023478568 0.09086825 -0.059305727 -0.07167884 -0.085520335 -0.08314323
-0.061882857 0.05236293 -0.030545466 0.25581545 -0.06708271 0.18669657 -0.11297913 -0.09755251
-0.15345977 -0.029450886 0.010538626 0.00669882 -0.29140398 -0.30610344 -0.036864292 -0.05885794
-0.035536945 0.12704268 -0.0046217567 -0.002679998 -0.057792623 -0.08298267 -0.052993428 0.076843314
-0.107590765 -0.17317992 0.056146607 -0.05840992 -0.10562995 -0.07564175 -0.093935825 -0.029629065
0.01388298 -0.10562307 0.12620161 -0.003395394 -0.1135919 0.006201653 -0.061359107 0.012256772
-0.11027558 -0.10974289 -0.06566184 -0.12321915 0.044410735 -0.12440781 -0.105747044 -0.06699013
0.1144819 -0.05626192 -0.049918212 -0.0832933 -0.12957639 -0.088722534 -0.097972065 -0.036086246
-0.09702426 -0.092680424 -0.043863896 -0.020845471 -0.08623619 -0.07155414 0.06995221 -0.12979111
-0.08761281 -0.072622076 -0.089501284 -0.0759336 -0.021665819 -0.032937594 0.008839666 0.083201565
-0.017867317 0.043432236 0.15740065 -0.07391474 -0.037786063 0.048649617 0.09880542 -0.05724338
-0.13056685 -0.006796364 -0.05312682 -0.06694299 0.08775256 -0.061397795 0.055583034 0.017488716
-0.050273728 -0.086336136 0.06183549 0.07874056 -0.05040569 -0.060428873 -0.055290047 0.041315004
0.12973885 0.055171654 0.030588396 0.055160012 -0.049929332 -0.12430213 0.09036891 0.10835244
0.06703962 0.056867592 0.050552193 0.049428694 0.053512547 0.040906794 -0.0377898 -0.0148409335
-0.030941231 -0.04150153 -0.06709156 -0.049595483 -0.09976807 0.0952821 0.060351457 0.15900935
-0.0015225961 0.047133703 0.06816379 0.015553218 -0.0544867 -0.049719524 0.03842301 -0.0481237
0.080135666 0.07526433 0.046130754 0.055948753 -0.03564088 -0.064871706 -0.06867675 -0.077021435

rnn.weight_hh_l0 f4 [192, 64]
00000000: e6ef f83d 3f3e 813c 1cdf c13d dd65 a33d
00000010: 362a 15be 7cae c93d 0282 bc3c 1839 52be
00000020: 4c32 4d3c d029 40bd 23dc 1bbe 05d9 9a3c
00000030: 74af 813d 1134 d9bd 1e18 f63d 240a af3c
00000040: 2d29 57be 7f77 7bbe d41d 3c3e b6bc 2dbd
00000050: 6786 2abd 4388 6bbe 2b9c 733d 0406 ec3d
00000060: e592 7e3e f74a 183e 9857 cc3d 1829 543e
00000070: 3057 30be 7c12 9ebd 4f7c 303d 9eda eb3d
00000080: ba1f 573e 4606 373d a20c ea3d 4947 063e
00000090: 43f7 513e 2a66 a23c 062a b7bd 2cf5 d5bc
000000a0: 9864 efbd 40d2 2bbe 9d60 1fbe 3f95 a3bd
000000b0: adb9 11bc 5809 af3d 5dd1 973d 5b9b d33d
000000c0: a272 773d cd99 393e ee04 713e ed61 493e
000000d0: 323b 6cbe 0031 38be c384 9a3e 5f74 b1bd
000000e0: 7cbb 3b3e b64b 6f3d 029f 6f3e 9c22 313e
000000f0: cf5e 92bd 046c a03d 1ef5 1a3c 41c7 40be
00000100: 6643 fcbd fd91 20be 59a4 993c 4acf 273e
00000110: fd4c 293d 8ff2 4abc 4577 21be 3ac6 acbc
00000120: 957f dfbd 199c b1bd 84d6 35bd d6ef 90bc
00000130: 4465 00be 6b3e 3bbe 941b 1d3d 9262 02be
00000140: f756 be3d 988e 003d 0290 debd 4acf 423d
00000150: 074f d5bc 7a09 5bbd 05e4 373d 3afa 85bd
00000160: 4d5b a2bd 5ef8 83bd be58 ea3d c399 70bc
00000170: 12de 94bc 055c 86bc e003 193d 814d d639
00000180: 317e 6fbe 1021 163d 160c a5bb bb68 2fbd
00000190: 3364 a5bd 7423 c43c 2422 de3c 1e24 86bd
000001a0: 10f9 393e e499 163e 36e7 b73d f618 12be
000001b0: b148 e93d c201 0dbe 5452 603d e32d 8e3d
000001c0: 8798 0f3d 35b8 cabd b891 83bd 81f6 12be
000001d0: 0e20 1c3c 5da9 923d 40cf 583d 6d08 3b3e
000001e0: a198 8c3d d1d6 28be f17e dcbd 3e10 633d
000001f0: 6b8c b43b 3619 af3e 0e36 bf3d 07a8 1d3e
00000200: 1291 ec3c 6434 2cbe 1f0c d43d 6f8a 05be
00000210: 1e70 353e f02a 23be 2e61 10be 530d 08bd
00000220: 80df 823c a12b 16bd 8c63 953c e469 2d3d
00000230: a9cd 923d 93ae 04bd 93de 81bd 97be 4f3e
00000240: f467 dcbc c2f6 89bd be52 0d3d cd7c 65bc
00000250: 63bb 393c 0431 4e3d 82fc e83b f3c0 d83d
00000260: 6377 b33d 7c1b 4e3d 2aa3 8bbe 2bf6 7dbd
00000270: d49d dcbd d407 123e 7ab3 0abd 3330 80bd
00000280: bd6a e23d e712 203d 9ea3 f43d a4fc 24bd
00000290: bbbe 223d a06e c0bd 3b56 c1bd 25a6 853d
000002a0: 518b a73d a4d3 00be a9d5 95bd 6ae9 4a3c
000002b0: 7199 c9bd c8b4 41bd 59bf 94bd 7ab2 28bd
000002c0: f25a 4b3d f265 90bb 2a12 1e3d 9b29 dcbd
000002d0: 5407 6bbd 6044 b63d a657 bc3d 5a86 933d
000002e0: 5066 d8bd 0ee2 5f3d a2de b6bd db3a c13d
000002f0: d96b 423b f057 b7bc cf72 46bd cf5f 243e
00000300: 9739 0dbe 9806 aabd baf6 a23b 5bd3 2abd
00000310: 6daa 903b 516c 0dbd 3643 43bd 788f ff3c
00000320: c4d0 633d 8e4e d3bd f682 4cbd 04c0 0e3d
00000330: ea9d 05bd b73d 0bbd a7f0 c33d 3806 0c3d
00000340: 1a72 58bb 0b28 fdbd fdb5 efbd 3bcd 90bc
00000350: f6f1 89bb 4c18 ecbd a8e2 bcbb d073 d93d
00000360: 7ba7 f23d ef60 b63d fc68 1e3e 743c 93bd
00000370: f8c2 f13a 4b4b 44bc 9fd5 77bc 843a 013e
00000380: 6aa5 f9bd d0f5 3bbc 83ee 9abd 65ef 4d3d
00000390: e677 72bd e1a0 de3d f19c 173c d138 233d
000003a0: 7081 2a3e fbb8 bdbd ae85 123e 584d cbbd
000003b0: fc96 003e 03b7 833d 4e54 05bd 5c22 2d3d
000003c0: d696 ddbd 3361 133d 5788 8fbd c6d0 d63c
000003d0: fe30 a1bd befa 203c 15c0 2b3d f67b bc3d
000003e0: a53f 2e3d 43bd 0b3e 94c0 9ebd 592c a6bc
000003f0: 9374 c9bd 7023 ba3d 8c47 e83d fa11 1cbd
0.12155132 0.015776752 0.09466383 0.07978413 -0.14566883 0.098477334 0.023011211 -0.20529592
0.012524199 -0.046914876 -0.15220694 0.018902311 0.06332293 -0.10605634 0.12016319 0.02136714
-0.21011801 -0.24557303 0.18370754 -0.042416297 -0.041632082 -0.23001198 0.059475105 0.11524585
0.24860723 0.14872347 0.09977645 0.20718801 -0.1722076 -0.07718369 0.0430873 0.11516307
0.21008196 0.044683717 0.11428191 0.1311313 0.20504479 0.019824106 -0.08943562 -0.026117884
-0.116891086 -0.16779423 -0.15564199 -0.07987451 -0.008894366 0.08546704 0.0741298 0.10332366
0.060412057 0.18125077 0.23537037 0.19666262 -0.23069456 -0.17987442 0.30179414 -0.08664774
0.18333238 0.058421813 0.234005 0.17298359 -0.071469896 0.07833102 0.009457855 -0.1882601
-0.12317543 -0.1568069 0.018755125 0.16387668 0.041333187 -0.012386932 -0.15768154 -0.021090616
-0.10913006 -0.086723514 -0.04439403 -0.017692488 -0.1253863 -0.1828553 0.03835638 -0.12732914
0.09293931 0.031385988 -0.10867311 0.047560968 -0.02603866 -0.053475834 0.04489519 -0.065418676
-0.079275705 -0.06443857 0.114427075 -0.014685097 -0.018172298 -0.0164013 0.03735721 0.00040875006
-0.23387982 0.036652625 -0.005036841 -0.042824488 -0.08075752 0.023942687 0.027115889 -0.065498576
0.18161416 0.14707142 0.08979647 -0.14267334 0.11390818 -0.13770202 0.054766014 0.06942346
0.03505757 -0.09898416 -0.06424278 -0.14351846 0.009529127 0.0716121 0.052932024 0.18264933
0.06865049 -0.16488196 -0.107664 0.05543541 0.005509903 0.34198922 0.09336482 0.15396129
0.028877769 -0.1681686 0.103538744 -0.1304109 0.1771855 -0.15934348 -0.14099571 -0.033215832
0.015975714 -0.0366627 0.018235944 0.042337313 0.07168133 -0.03239305 -0.06341281 0.20287548
-0.026905037 -0.067365184 0.034502737 -0.014006806 0.01133618 0.050339714 0.0071101794 0.10583677
0.087630056 0.05031918 -0.27272922 -0.062002342 -0.10772291 0.14260799 -0.03386257 -0.06259193
0.11055515 0.039080527 0.1194527 -0.04028 0.039732676 -0.093961 -0.09440275 0.0652583
0.08180869 -0.12580734 -0.07316143 0.012384752 -0.0984372 -0.047291547 -0.07263059 -0.041185834
0.04964728 -0.004406684 0.03859154 -0.10750123 -0.057380036 0.0889976 0.09196405 0.0720336
-0.105663896 0.054658942 -0.089291826 0.09435054 0.0029666333 -0.022380799 -0.048449334 0.16052173
-0.137915 -0.08302039 0.0049732598 -0.04170547 0.0044148476 -0.034527127 -0.04767152 0.03119634
0.055619016 -0.103177175 -0.04992958 0.03485109 -0.0326213 -0.033994403 0.09567385 0.03418562
-0.0033026994 -0.12361153 -0.117046334 -0.017675987 -0.004209752 -0.11528072 -0.005764324 0.106177926
0.118483506 0.08905207 0.15469736 -0.07189265 0.0018444946 -0.011980842 -0.015126615 0.12619978
-0.12189753 -0.0114721805 -0.07565024 0.050277133 -0.059196375 0.10870529 0.009253726 0.039849106
0.16650939 -0.09263798 0.14308807 -0.099268615 0.12557596 0.06431391 -0.032551102 0.042269096
-0.10819785 0.03598137 -0.07008427 0.026222598 -0.07870673 0.009825407 0.04193123 0.09203331
0.042541165 0.13646416 -0.07751575 -0.020284818 -0.09836688 0.090887904 0.113417715 -0.03810308

rnn.bias_ih_l0 f4 [192]
00000000: 09d8 483e 1d8f 8a3d 0c23 c9bd cdb6 083e
00000010: 71bb 073e 94a5 363e 3fca 92bd 4c1e 99bb
00000020: 1493 e13d 9837 d03d a456 a9bd d459 7f3d
00000030: 2010 c63d 46a1 353e 8878 923e e966 843e
00000040: 0f2f 883d 4dd6 7c3d 8f46 bebd 558f 613e
00000050: abe3 223e d346 9bbd d038 993d f49b 6d3d
00000060: 8f3f 0abd 1bb0 f1bb 11a3 783e 80c1 2d3c
00000070: 381d 63be f807 5abe dc9d 2abc f788 003c
00000080: 8730 a5bd a9a5 a6bd a4f1 c7bc a98f 10bd
00000090: 2e5c 7dbd b3ad ad3d 0512 db3b 8d29 a43d
000000a0: ae26 93bd 2fb8 0c3d 2f5f 253d fe68 17bd
000000b0: d123 4b3d efb0 fb3d 0252 453b 676e dabd
000000c0: edf3 713e 3624 333e 5ba6 5e3d acfc f1bd
000000d0: 1513 4b3c 3592 4abd 8442 b0bd f72a b1bd
000000e0: 4417 003d b975 553e 598d b8bb 1879 193e
000000f0: f2ed a33d 58f7 d43d b822 803c 57f2 e43d
00000100: 9572 98bd c914 e7bd 9e95 0abe ec18 b03d
00000110: d13f 02be 4c42 3abe cffc cdba af81 ddbd
00000120: 698f e63c 3e76 d23d 1d50 973c 1ee2 2fbe
00000130: 98ac 8f3a c908 38be 36f2 f6bd 8784 1fbe
00000140: e5f9 853d de45 73bd 236d cbbd 699f ed3c
00000150: f524 103c 71dc 4dbd 2f05 3d3c ad71 96bd
00000160: d6cc c6bd 79ed 0a3e 3876 66be fc51 d0bd
00000170: d935 053e 4732 fcbc d307 b0bc 028d 233d
00000180: 9753 42bd e5d9 3e3c a9f4 c9bc a257 dd3d
00000190: aa35 14be 16eb 02be b4a7 2bbd 9e20 e0bd
000001a0: 497d debd d641 b63d 82c1 a43c 6ace e3bb
000001b0: 7c2e 28bd bb7c 073d 6427 26be 5993 3f3c
000001c0: 1c2d 4ebe f954 60bd 7825 b13c e1f2 a1bc
000001d0: 6fec 4c3c 525a 0d3e 22b4 863d ce1b ac3c
000001e0: 7e6e 213c 4405 b0bc 1918 6cbc 89db 8e3c
000001f0: 9dae 16be b015 b5bd af94 fdbd 2f0b f0bd
00000200: 58b6 8a3d f6d5 56bd 86d5 0a3e a9b0 843e
00000210: 77dd 12be a215 95bd 58a4 f73b 8929 fb3b
00000220: a500 85bc 131f 96bd 0eb7 42bd 71fc 1b3d
00000230: 58d6 68bc 2088 793c abd1 b8bd 8a22 36be
00000240: e1f7 7fbd 2529 d3bd 2033 22bd 92fd 12be
00000250: db79 1a3e e7fb 23bd 61ee a53e fa1e 96bd
00000260: 2208 b13d 3b0a 5c3d cb0c 373e 7bdc 00be
00000270: 59a8 303e f2ca 063d e913 5d3d 98c5 033e
00000280: c963 3cbe 38b7 79bd e579 0a3c f0f6 60be
00000290: a9bb 203d 1903 83be b911 3e3c 3d8e 60be
000002a0: 13c1 37bb f373 a43d 863f 823e c40f 1a3e
000002b0: 0f63 f03d 9ccf 02bd bf59 143e 4d9a fc3d
000002c0: d697 3a3e 6761 59be 319d 223d 2fc6 3dbc
000002d0: 78c4 143e e2c4 423e ff9d 153e 4f80 55bc
000002e0: 1792 5c3d dc96 cb3c 746f a23d b2d8 25be
000002f0: 09e3 803d efc2 873e 3299 1e3e b8b8 f23d
0.19613661 0.06765578 -0.09821138 0.13350983 0.13255097 0.178366 -0.07167482 -0.004672801
0.11014381 0.10166854 -0.082684785 0.062341526 0.09671044 0.17737302 0.28607583 0.25859764
0.06649601 0.06172781 -0.09290802 0.22027333 0.15907161 -0.07581868 0.07481539 0.058010057
-0.03375202 -0.0073757297 0.24280955 0.010605216 -0.22179115 -0.21292102 -0.010413613 0.007845155
-0.080658965 -0.08137066 -0.024407215 -0.035293255 -0.061855488 0.08480396 0.0066854977 0.08015738
-0.07185112 0.03435534 0.040373977 -0.036965363 0.049594704 0.12289607 0.0030108695 -0.10665589
0.23628207 0.17494282 0.054357868 -0.118157715 0.012394686 -0.04945584 -0.08606437 -0.08650773
0.031272188 0.20845689 -0.0056320843 0.149876 0.08004369 0.103987396 0.015641555 0.11179035
-0.0744373 -0.11283261 -0.13533637 0.085985035 -0.12719657 -0.18189353 -0.0015715602 -0.10815751
0.028144555 0.10276459 0.018470818 -0.171761 0.0010961471 -0.17972101 -0.12057917 -0.15577899
0.06541804 -0.059392802 -0.099329256 0.029006677 0.008797874 -0.050259057 0.01153688 -0.07345901
-0.09707038 0.13567151 -0.22506034 -0.10171887 0.13008823 -0.030785693 -0.021488106 0.039929397
-0.047443 0.01164863 -0.024652796 0.1080773 -0.14473596 -0.1278499 -0.04190798 -0.10943721
-0.1086374 0.08899276 0.020111803 -0.0069520967 -0.041059956 0.033077937 -0.16225964 0.011692845
-0.20134395 -0.054768536 0.021624312 -0.019769134 0.012507542 0.13803986 0.06577326 0.021009352
0.009853004 -0.021486886 -0.014410042 0.017438667 -0.14715047 -0.08842027 -0.12381875 -0.11720883
0.067730606 -0.052450143 0.13558015 0.2591603 -0.14342295 -0.07279517 0.007557433 0.0076648635
-0.016235659 -0.07330146 -0.047537856 0.038082544 -0.01421126 0.015230209 -0.09024366 -0.17786613
-0.062492255 -0.10310582 -0.039599538 -0.14354542 0.15085547 -0.040035155 0.3240843 -0.07330127
0.08644129 0.053720694 0.17875974 -0.12584107 0.1725172 0.032908387 0.053974066 0.12868345
-0.1839744 -0.060965747 0.0084519135 -0.21969199 0.039241467 -0.255883 0.011600905 -0.2192926
-0.0028038665 0.08029928 0.2543909 0.15045077 0.11737644 -0.031936273 0.1448736 0.12334118
0.18221983 -0.21228562 0.03970069 -0.011582895 0.14528072 0.19020417 0.14611052 -0.013031079
0.05385026 0.024852209 0.07931414 -0.16195944 0.062933035 0.2651591 0.15488127 0.118516386

rnn.bias_hh_l0 f4 [192]
00000000: 3910 a63d bb5f b03c 0506 8b3d ac8c 333e
00000010: 7e5f 113e dc54 08bd 3a40 0dbe 6b91 05be
00000020: 7763 aebb 1ca6 013e 7e04 673c b773 d9bc
00000030: 5c90 143d 5cf6 043e 2ade 983e 3969 8b3e
00000040: 6bac f6bd 1aaa b7bd 896c 34bd 965f 593d
00000050: d2b2 2d3e 6895 8fbd a4ab 433e 06b3 243d
00000060: fcf4 e6bc 6767 b8bd fd7f 5c3e c328 9f3d
00000070: 7848 05be 29ba 4dbd 757c fd3c eb55 adbc
00000080: 2cef 0f3e c11d 85bd 2001 453e 5271 6dbd
00000090: 436e 99bd d3a6 163e aca1 743c 7865 563e
000000a0: 1771 d5bb 6e84 b33c 9242 09bc 0449 ac3d
000000b0: bd05 f83c 9e5c 6a3d 88da 5e3c 17d6 a1bd
000000c0: d51c 8f3d 7c5b b4bc 81b4 7bbd ba37 1fbd
000000d0: d54d e3bb 7ecb 443d 1c45 8a3d fe64 8dbd
000000e0: b2d9 c6bd 01ed 563e 8449 ad3b 4130 e33d
000000f0: 0a80 0d3e 498d fc3d 0504 093e 6588 ecbc
00000100: 8480 bcbc 2448 10be fe8a a4bd 2344 e93c
00000110: 0353 a1bd 3253 76be f1e2 c53b 055e 26be
00000120: 7f95 66bd 75ff 8b3d bd94 52be fee8 35be
00000130: babb 353c 3e39 1ebb f461 04be a082 5dbd
00000140: 8e63 bc3b 30f0 06be 0959 8a3d 7b92 f4bd
00000150: 5d45 0cbd 0e7d a2bd 6d10 e93c c03e dfbd
00000160: 7391 39bd 2f2d b83d 357e 59be 2e7b 6f3d
00000170: fb23 313e b53f 2b3c 62ff 403d 6016 cbbd
00000180: 778c b03d a6fd acbd 470e e4bd 89a9 833d
00000190: 6206 0fbe 52a7 2cbe 5600 76bd f32f afbd
000001a0: 4cc8 523d 5a61 84bd 3b78 c6bc c0e8 9a3c
000001b0: dc79 b6bc b5c7 21be 4d4b 50bd b6e5 8cbd
000001c0: f6dc 24be 2dcb 143d f0ee 18be 6080 4a3d
000001d0: a229 cabd bb76 7c3e 66a2 653d 95ca b93d
000001e0: 2627 03be 3cb1 febd 631a 973c 6052 acbd
000001f0: 95e2 1dbe 0abb ccbc 27ab 3d3d 0695 ae3d
00000200: c208 553e 809a e5bd ddab 033e d7db a53e
00000210: 3626 5fbe 99f0 963d bb3b 9f3d df0f c4bd
00000220: efa1 463d 16bd fbbd 15bc 173d b542 193e
00000230: a559 39be 37e8 1a3b 8463 8bbe 07c9 63be
00000240: 4866 9b3c 2701 59bd 622e 65bd d9d6 52be
00000250: 4241 023e e552 ba3b eb87 1f3e 42c9 b63c
00000260: bd26 9dbd ea24 b23c a6fa 3c3e 9eee 223d
00000270: 921f 363d 8d63 15be 5160 9e3d 10cd bc3d
00000280: 6df4 bebd cce4 a23c bc55 5dbd 5097 adbd
00000290: aa26 0d3e 9fc7 5dbe ed3e 41bb 2c57 38be
000002a0: 6654 583e c39c abbc 0da5 5b3e f92a c23d
000002b0: 2185 e13d 420d c8bd c20f 193e faf9 033e
000002c0: 73cc 3e3e 723f eebd 4234 fd3c ab3e e63d
000002d0: 7154 a0bd 91aa 0a3e 848c 20bd 5ee5 a33b
000002e0: 91a5 ebba ec9c 1cbe b484 55bd 241c 4dbe
000002f0: 4dad 0c3d 7688 8d3d f822 f83d 3d5c 043e
0.08108563 0.021530023 0.067882575 0.17534131 0.14196584 -0.033284053 -0.13794032 -0.13043754
-0.0053219157 0.12661022 0.014100192 -0.026544435 0.036270484 0.12984604 0.29856998 0.27228716
-0.12044605 -0.08967991 -0.04404882 0.053069673 0.16962746 -0.07010919 0.19108444 0.040209793
-0.02819299 -0.090040974 0.21533199 0.077714466 -0.13015926 -0.050226364 0.030943135 -0.021159133
0.1405608 -0.06499816 0.1923871 -0.0579694 -0.07491734 0.14712076 0.014931124 0.20937145
-0.0065137255 0.021913733 -0.008377688 0.08412364 0.030276174 0.057217233 0.013601907 -0.079021625
0.06987921 -0.02201628 -0.06145144 -0.038871504 -0.0069367685 0.048045628 0.06751463 -0.06904028
-0.09709491 0.20988847 0.0052883048 0.11093188 0.13818374 0.123316355 0.1338044 -0.028873632
-0.0230105 -0.1409002 -0.08034323 0.028474873 -0.07877161 -0.24055174 0.0060390164 -0.16246803
-0.056294914 0.06835834 -0.20564552 -0.1776466 0.011092121 -0.0024143006 -0.12927991 -0.05407965
0.0057491725 -0.13177562 0.06755263 -0.119420014 -0.034245837 -0.079340085 0.028450215 -0.109006405
-0.045304727 0.08992993 -0.2123955 0.058467083 0.17298882 0.010452201 0.047118552 -0.09916377
0.086205415 -0.08446817 -0.11135536 0.06428821 -0.13967279 -0.16860703 -0.060058914 -0.085540675
0.05146055 -0.06463881 -0.024227252 0.018909812 -0.022274904 -0.15798838 -0.050853062 -0.068797514
-0.16099915 0.036326576 -0.14934897 0.049438834 -0.09871222 0.24654667 0.05606308 0.090718426
-0.12807903 -0.124361485 0.0184452 -0.08414149 -0.15418465 -0.02499153 0.0463058 0.08524518
0.20804122 -0.11211109 0.1285853 0.32394287 -0.2179192 0.07370109 0.077750646 -0.0957334
0.048494276 -0.12291925 0.037044603 0.14966853 -0.18100603 0.0023636946 -0.27224362 -0.22244655
0.01896967 -0.052979615 -0.055952437 -0.2058977 0.12720206 0.0056861513 0.15579192 0.022312764
-0.07673404 0.021746118 0.1845499 0.039778344 0.0444637 -0.14588757 0.07733215 0.092188
-0.09323964 0.01988449 -0.05403684 -0.08476126 0.1378428 -0.2165818 -0.002948697 -0.18002003
0.21125945 -0.020948773 0.2144968 0.09480853 0.110117204 -0.09768154 0.14947417 0.12888327
0.18632679 -0.11633195 0.030908708 0.11242422 -0.07828606 0.13541628 -0.039196506 0.005001708
-0.001797842 -0.15294236 -0.05212851 -0.20030266 0.03434496 0.069107935 0.12116045 0.12925811

rnn.weight_ih_l1 f4 [192, 64]
00000000: 56b6 b53d dc43 123c 848b 07bd 2c65 d2bd
00000010: a295 523d f3c3 4abd 7edf e8bc f609 6d3d
00000020: b6f9 dabc c2e8 b3bd 7408 ae3d 96e9 f9bd
00000030: 794e bd3d 4ef9 00be baf4 f03c a0cd aebd
00000040: 3126 eb3c bdd0 c0bd 5de0 023d 6e91 bc3d
00000050: 2cd2 403d b6a3 fcbb 0860 e6bd c7a0 14bd
00000060: 4f67 243c 15a7 c9bc dda3 733d 153a b3bb
00000070: fb31 5a3c 1c65 143d d530 86bc d83f 7e3d
00000080: 422b 8a3d 8068 293c 64f8 01bd b4bd 763b
00000090: 2e24 cdbd b7eb 9abd fd9e 5f3d 72c4 0e3e
000000a0: 1ccb 01be 1184 87bd 6a65 473d 0ad0 8cbd
000000b0: 8a92 eebd 8836 bd3d 6a61 053e bba5 65bd
000000c0: 951d 483c d4ee bbbc 9d96 f13d f610 71bd
000000d0: 404f 9f3d 599d c03d 0378 b33d 3811 a63d
000000e0: b769 32bd 398d 9a3d ff19 41bc f137 d43d
000000f0: 041f 9abd 0f83 093d 8b31 943d 7f6e d9bd
00000100: 2105 f8bd 25eb f43c 0d89 80bd d889 23bc
00000110: 84af 283e daec d4bd 1d79 32bd 499c a43c
00000120: ad54 2dbd 4242 263e c7ea 543d d0dc fabd
00000130: d640 f7bb 1225 b93c 329d 403d c266 0fbb
00000140: 2e01 913c ce44 25bd 0847 bd3d e940 363d
00000150: 2474 a5bc 81e5 d8bd a969 1abc 2d7b 1a3d
00000160: 3bf7 cc3d daac 0dbc 2355 92bd 6390 ca3c
00000170: 8f92 1ebe ca87 f2bd 1134 d23b 5ff9 7fbd
00000180: 82bc cc3c 4198 323d b0d9 f3bc 14ad 9fbd
00000190: b631 1f3d 1ee0 193e 534f 29be 4658 9c3d
000001a0: 7ee4 2fbe a570 08be 0119 14be fc3a 9f3d
000001b0: 7798 d6bd ed8b 35bb e540 a8bd 0218 403d
000001c0: a788 e2bd 9952 3d3e 8bf8 cbbc 7597 423d
000001d0: 3ec1 c7bd 0cc5 d1bd 9fa3 f13c dd5f 733d
000001e0: 3f18 f33a 1e77 82bc 2463 6fbd 358b 283e
000001f0: 6eab 0bbd a7c6 bbbd 5a32 4dbb 63cd ddbc
00000200: ccba e0bd 73ea dfbd a96c 7d3d dc34 22bc
00000210: 9b9a 1c3b a7f5 bbbd b1bb 8abc a587 a9bc
00000220: f228 a13c 0d1e 8039 81ae 31bb 546b 953c
00000230: a175 d5bd df97 833d 251d 973d c76e cbbb
00000240: fea5 203d 1196 9ebd 6a9d 123d 6d6b fe3b
00000250: fc11 ce3d cc1e 81bc fac4 4c3d d612 763c
00000260: cb7b debd 6fb3 fdbd 1b01 9bbc 9dab 413b
00000270: 7a39 30bd 322f 163e 6e26 453b 849e 2bbd
00000280: e24f 25be abe2 a3bd 0329 6fbd 5bbb 01be
00000290: 727b 12be 5713 ea3d a74b 58bd 2cc7 f43d
000002a0: d6d5 f63c 2b86 91bb ff1e 1c3e f645 85bd
000002b0: fdf0 c2ba 527b febc da74 c0bd 770d 463d
000002c0: c60b 243d ab70 0dbe f1b8 a03d b29c c7bd
000002d0: 0ed6 9d3d b32d ca3c 5fe5 423b a0e8 b63d
000002e0: c956 5b3d 2e24 243d c9ee e53c 11e4 bebd
000002f0: 79ce 023d 32eb 38bc 3d87 823c aa2c 273e
00000300: 4d20 7b3d 38a2 56bc eab4 be3d 85ee 24be
00000310: 978f 33bd 7ba9 5dbd 0986 2bbd 11fb 213d
00000320: 0eea 8abd be5a 25bc 8dfb a8bd ebea 9e3d
00000330: d29f 403d 63da 443d 33d6 d23d 5992 fd3c
00000340: 31b3 693d c1cd 133d cd90 4f3d 0019 0ebb
00000350: 32f7 bfbc f9f1 853d 06a9 47bd 5946 df3d
00000360: 7a99 093e 96ca d73d 906e 48bd 2587 e7bb
00000370: 56a2 93bd 3aa9 61bb 0d12 5c3d 3521 b33d
00000380: b534 04bd 9574 70bd f3f1 ca3d a792 413d
00000390: 3cda fe3d 27fe 37bd ec7d ff3d 6fcf fc3c
000003a0: 44aa 5abd 2448 8e3d f536 123d c4d6 8cbd
000003b0: e7f4 97bd 37d6 313d 7ac2 16bd 8abf a43d
000003c0: 8e21 a1bd 4649 8c3d 4080 fc3d efcf 213e
000003d0: 3d4a 1bbe bec2 803d d6b7 843d 6053 28be
000003e0: 049d ee3d 1c08 5c3d 9d08 d33c a0fb d3bc
000003f0: 5e1c 5dbc ec93 abbd bcc3 9ebd 7b37 853d
0.088726684 0.008927312 -0.033092037 -0.10273203 0.051412232 -0.049503278 -0.028426882 0.057870828
-0.0267304 -0.087846294 0.08497706 -0.12202756 0.09243483 -0.12595102 0.02941357 -0.085353136
0.028704735 -0.09414814 0.03195225 0.09207426 0.047075436 -0.0077099456 -0.11248785 -0.03628614
0.010034396 -0.024615804 0.059482444 -0.0054695704 0.01331758 0.036229238 -0.016380707 0.062072605
0.06746532 0.010339856 -0.031731024 0.0037649693 -0.10016666 -0.0756449 0.054594982 0.13942125
-0.12675136 -0.066169865 0.0486807 -0.06875618 -0.11649044 0.09238917 0.13025442 -0.056066256
0.012214084 -0.02294103 0.11796305 -0.058854066 0.077787876 0.09405012 0.08763125 0.08108753
-0.04355785 0.07546467 -0.011785983 0.103622325 -0.07525447 0.033572253 0.07236012 -0.106167786
-0.12110353 0.029897282 -0.0627614 -0.009981595 0.16473204 -0.10396738 -0.043572534 0.020094054
-0.04231708 0.16236213 0.051981714 -0.12249148 -0.007545571 0.022600684 0.047024913 -0.0021881317
0.017700758 -0.04034882 0.09242064 0.044495497 -0.020196982 -0.105906494 -0.009424605 0.037715126
0.10008093 -0.008647168 -0.07145145 0.024727052 -0.15485595 -0.11842306 0.006414898 -0.06249368
0.024992231 0.043602232 -0.029766887 -0.07796684 0.038865767 0.150269 -0.16534166 0.07634024
-0.17177007 -0.1332422 -0.14462663 0.07774922 -0.10478299 -0.002770181 -0.08215503 0.046897896
-0.110612206 0.1848854 -0.024898788 0.047507722 -0.09753655 -0.10242662 0.029496966 0.059417594
0.0018546655 -0.01592594 -0.058444157 0.16459353 -0.034099035 -0.09168749 -0.003131053 -0.027075475
-0.10973129 -0.109333895 0.061871205 -0.009900298 0.0023895863 -0.09177714 -0.016935201 -0.020694563
0.019672845 0.00024436452 -0.002711207 0.018239655 -0.104228266 0.064254515 0.07378606 -0.006208274
0.039220802 -0.07743467 0.035794653 0.007764271 0.10062024 -0.015761755 0.04999254 0.015019139
-0.108634554 -0.1238774 -0.018921426 0.0029551752 -0.043023564 0.14666441 0.003008272 -0.04189922
-0.16143754 -0.08002218 -0.05838872 -0.12669127 -0.14304903 0.1142947 -0.052806523 0.119520515
0.030131262 -0.004441043 0.15246199 -0.065074846 -0.0014872845 -0.031064663 -0.09397288 0.048352685
0.04005029 -0.1381251 0.07847775 -0.09746684 0.07706843 0.024679994 0.0029738767 0.089310884
0.05354956 0.040073566 0.028067963 -0.09320844 0.03193519 -0.011286544 0.015933627 0.16325632
0.0613101 -0.013100199 0.0931185 -0.16106613 -0.04383811 -0.054116707 -0.041875873 0.039546076
-0.06782924 -0.010092435 -0.082511045 0.07759651 0.047027417 0.048059832 0.102947615 0.030953573
0.057055656 0.036084894 0.050675202 -0.0021682382 -0.023433302 0.06540293 -0.048745178 0.109020896
0.13437453 0.10536687 -0.048933566 -0.007065671 -0.072086975 -0.0034433142 0.053728152 0.08746568
-0.032276828 -0.05870493 0.099094294 0.047259 0.12443969 -0.044920113 0.124751896 0.03086063
-0.053385034 0.069473535 0.035696942 -0.06876901 -0.07419758 0.04341718 -0.03680656 0.08044346
-0.07867728 0.06849913 0.12329149 0.15801977 -0.15165038 0.06287144 0.064803764 -0.16438055
0.11651042 0.05371867 0.025760943 -0.02587682 -0.013495533 -0.08377823 -0.07752177 0.06504723

rnn.weight_hh_l1 f4 [192, 64]
00000000: bd11 c23c 4e97 e5bc 798e 0e3e 4e58 13be
00000010: a9c0 c53d 2ff8 6e3d 9866 1cbd 5f32 5bbd
00000020: 950e 77bc 7c6e aebd e539 5d3d 8674 1b3b
00000030: 398b e8bc 7168 fabb 2221 3a3c 5d48 0dbe
00000040: 9a08 a2bb b380 913d 8ef1 733a 6f3e 0b3d
00000050: eab6 9b3d 8c09 663d 2d17 3a3d 0b11 cdbc
00000060: 6b9d e5bd a859 863d b176 d6bd dddc a3bd
00000070: 8975 ef3d 000b d13d c308 093e 437e 62bd
00000080: c2fd 7abd 55fe b4bd 6f30 cb3c d164 cb3d
00000090: b1a8 903d 60c4 be3d 56c0 15be 9d58 a23d
000000a0: 6e1f bcbd d01c 1d3d 41f6 763d 1e76 bdbb
000000b0: 1fd3 8a3c 027d b1bd be75 ab3d bdeb d2bc
000000c0: 03b1 c0bc 1e4e 0c3e 6e8f fe3d 33c8 e4bd
000000d0: 6188 f23d e5b8 20be d05d 913d 225e d43d
000000e0: 365f 653d bb73 3fbd 70b7 953d 07f1 99bd
000000f0: 4d3b bdbc fa76 9cbc 3976 7d3c b3fc 3a3d
00000100: c515 ffbc c339 a03d 11cd b03d 2f77 c7bd
00000110: 9521 24bd acaf f4bd 70bb e2bc 9ec3 f23d
00000120: 6ceb 19bd ec95 aa3d e645 9cbd d44f 503d
00000130: 6e5d 78bd aaf5 be3b ae83 bfbc f30a 7b3d
00000140: 61a5 163e 53ee 0f3e 2078 f2bd eb8d 93bd
00000150: f2cd 5ebd 07a4 a43c 46e4 593d 4fb7 f93d
00000160: 842c 18be c0cf 543d 0e22 2dbc c482 fe3d
00000170: d0a0 bebd f350 413d 4a26 17bd 785c f33d
00000180: 3410 c63d 4a6b 9e3d 0e51 04be d376 c8bc
00000190: d59d 99bb 784b 153d 905c 223d d502 a73c
000001a0: c757 c5bd df85 d33d 097c 343d 5fac 0a3e
000001b0: 8bf4 4e3d 2426 093e 4725 f8bd 8f62 b6bd
000001c0: da06 0fbe fcff 42bd a667 dbbc 02df 56bb
000001d0: 8681 153e fcc2 9dbd 97e6 8c3c ec8d 963d
000001e0: bbeb bc3b e84f 9c3d dc29 bbbd 8c14 9dbd
000001f0: fba8 8cbd 8e33 423d cec3 9fbd 88ad 843c
00000200: 2e64 3dbe 52e9 013e b174 8d3c 501f aa3d
00000210: ac9e b73d d1cf 7ebd 4a04 9d3d 6392 bc3b
00000220: 7c4d be3d d366 b7bd 289f 453d b40d 5f3d
00000230: f02f 91bd ab86 8d3d c5b1 a03d 1c97 efb9
00000240: 669c 45bd e260 f6bc ea5e 0a3e 36bd d8bd
00000250: 9b9f 0ebd 63e8 d23d 4623 073e 58f0 26be
00000260: 1a31 b33d 7294 a23d ebb8 133e 51c6 2abc
00000270: 3f23 723d 868d 0bbe 1ccb 273d ca83 963d
00000280: b97c fa3c 4df5 60bd 3c71 59bd 8525 a4bd
00000290: 1b18 20bd 378c 193e 61de cb3d ed63 2d3d
000002a0: d5ff 023e 3660 2abe 9784 81bd 7224 5abd
000002b0: 0576 43bd 0d0b 2ebd b0b9 4ebd 4cb6 663d
000002c0: c1f3 4a3e 45a3 c0bd f5e8 cc3d 5577 ad3d
000002d0: 15cc 07bd fa70 103e c4d9 c13c 80a3 0cbe
000002e0: 7fff 013d 3cba 273d 048a 603d d441 38bd
000002f0: e0d5 c6bd 0138 dd3c 645f ab3d 4c96 733d
00000300: 524a cf3c 12d6 98bd 9003 68bd 74a0 34be
00000310: 48e3 e43b b1e8 85bd ce40 08bd ca8b cdbb
00000320: cc2c 4abd a23e b3bd 7775 863c 4da6 2e3d
00000330: a180 1b3d f37c c1bc 2cf1 d1bd e90a 793d
00000340: 4ec5 92bd 2515 df3c 4326 0bbe efb5 c63d
00000350: 0748 a7bd cecb 99bd e2dc c4bd db71 273d
00000360: 145e 2fbd b170 b2bd 96e1 97bb a546 d73d
00000370: a114 27bd 119e 73bd 6dd5 e6bc 157d 6fbc
00000380: 6585 1a3e ad67 0b3e e02e 9bbd 70bd fcbc
00000390: 1ff6 c4bd cbee 1dbe e64e 6e3d c27b 1e3d
000003a0: 9497 06be 4fa6 8b3d 0424 20be 8362 133e
000003b0: a0d2 673d c1f5 c03d 79eb bcbc 9ce5 86bd
000003c0: 3cec dfbd 4627 bf3d c234 debd 6af9 873d
000003d0: c6bd ecbc 62c6 1ebe 1292 43bd 32e4 47bd
000003e0: c242 aabd 202f acbd 7d9f 5b3d c7f7 a5bc
000003f0: 24a7 193e 4b9b b6bd 5757 97bd 88ac 953d
0.023690099 -0.02802625 0.13921537 -0.14389154 0.09655888 0.058342155 -0.03818378 -0.053514834
-0.01507916 -0.08517167 0.05401029 0.0023720576 -0.028386699 -0.007641845 0.011360439 -0.13797136
-0.004944873 0.071046256 0.0009305709 0.03399509 0.076032475 0.05616145 0.04543226 -0.02503254
-0.11211666 0.06560069 -0.10471857 -0.08001111 0.1169234 0.10207176 0.13382249 -0.055296194
-0.06127716 -0.088375725 0.024803368 0.099313386 0.07063425 0.09314799 -0.14624152 0.07927058
-0.09185682 0.038357556 0.06029344 -0.005781903 0.016946374 -0.086664215 0.08372067 -0.025747174
-0.023521906 0.13701674 0.12429701 -0.111709975 0.118424185 -0.15695532 0.070979714 0.10369517
0.055999003 -0.04674123 0.073103786 -0.075166754 -0.023099566 -0.019099701 0.015470081 0.04565115
-0.03113831 0.07823517 0.08632863 -0.09739529 -0.04007109 -0.11947569 -0.027677268 0.11853717
-0.03757803 0.083293766 -0.076305196 0.05085738 -0.060635976 0.0058276253 -0.02337822 0.06128974
0.14711525 0.14055757 -0.11839318 -0.07204803 -0.054395624 0.020097746 0.053196214 0.121931665
-0.14860731 0.05195594 -0.010567201 0.12427285 -0.09308016 0.04719634 -0.03690175 0.118828714
0.09671059 0.077353075 -0.12921545 -0.024470722 -0.0046880045 0.036448926 0.039639056 0.020387093
-0.09635883 0.10328268 0.0440636 0.13542317 0.050526183 0.13393456 -0.12116485 -0.08905517
-0.13967457 -0.047607407 -0.026782822 -0.0032786732 0.1460019 -0.07703206 0.017199798 0.07351288
0.005765406 0.076324284 -0.091388434 -0.07669935 -0.06868168 0.047412448 -0.07801019 0.016196027
-0.18495247 0.12686661 0.017267557 0.08306754 0.08965811 -0.062209908 0.07666834 0.0057547553
0.09292123 -0.08955159 0.048247486 0.054456428 -0.070892215 0.069104515 0.07846407 -0.00045698218
-0.048244856 -0.030075494 0.1351277 -0.10582964 -0.03482018 0.102982305 0.1319705 -0.16302621
0.087496 0.0793847 0.1442601 -0.010423259 0.059115645 -0.13628206 0.040965185 0.073493555
0.03057705 -0.054921437 -0.053086504 -0.08014969 -0.03908549 0.14994894 0.09954525 0.042331625
0.12792905 -0.16638264 -0.06324118 -0.053257413 -0.047719974 -0.042491008 -0.050470054 0.056326196
0.19819547 -0.09406141 0.100053705 0.084700264 -0.033153612 0.14105597 0.023663409 -0.13734245
0.0317378 0.04094909 0.054819122 -0.044984654 -0.09708762 0.027004244 0.08367804 0.059469506
0.025303993 -0.07462706 -0.056644022 -0.17639333 0.006985102 -0.06538523 -0.033264928 -0.0062727677
-0.049359128 -0.08752181 0.016413433 0.042639066 0.037964467 -0.02361915 -0.10251078 0.06080142
-0.07166539 0.027231762 -0.13588814 0.0970267 -0.08168035 -0.07509576 -0.096124426 0.040880065
-0.04281433 -0.087129004 -0.0046350462 0.10511521 -0.040791158 -0.059476916 -0.028177941 -0.014617224
0.15089948 0.13613768 -0.075773 -0.03085205 -0.096172564 -0.15423124 0.058180712 0.038692243
-0.1314376 0.0681883 -0.15638739 0.14393048 0.056597352 0.09421874 -0.0230615 -0.06586763
-0.1093373 0.09333663 -0.108499065 0.06639369 -0.028899085 -0.15505365 -0.047746725 -0.04880161
-0.08313514 -0.08407426 0.053618897 -0.020259751 0.15005165 -0.089163385 -0.07389706 0.07308298

rnn.bias_ih_l1 f4 [192]
00000000: bc51 5ebc 04e0 78bd 14fe db3d fb58 d53b
00000010: 6c35 443e 0b64 cc3d 3ede eabc 94f5 56bd
00000020: 75ca fb3d fd33 823d 4840 00bd 8acd a6bd
00000030: 57a9 9ebd e521 c0bd 34cb 31bd d284 b6bd
00000040: 2d4e 173d 99da acbd 9ca1 f43c 9695 4b3d
00000050: 25a8 a0bc fe57 193d cf9c d9bc 313b 0c3e
00000060: 2c75 43bc 136f c2bd 5d8e b9bd 22f2 05bd
00000070: 0e22 9b3d 71eb f9bd 7e78 babd aa59 c53d
00000080: f954 84bd 2391 dabb 3b13 063c 5509 af3d
00000090: b3de 55bd c9cf 5a3c 7de1 7b3d 71b6 023d
000000a0: 7c45 0c3d 337b b33d 7aa3 633c 228d 993d
000000b0: 0df3 cb3d 3ebb 5d3d 8ebf e73d 0565 98bd
000000c0: 7c11 f2bc 6feb 6abd 15f5 94bc 3f3a 9fbc
000000d0: 1140 3ebc bb71 4d3b 9463 c1ba efff 92bd
000000e0: 4385 ff3b 67d5 a7bc e189 5fbd 2fd5 85bd
000000f0: 1f91 58bd 0fe2 693d cdd0 753c dc86 b33d
00000100: 9f55 163e 07ba fbbd beeb 633d a66d 6dbd
00000110: cc98 e0bd bff6 7a3c c1ef 0fbe 2d2b 62bb
00000120: d950 56be f650 8e3d c561 b23c 6a58 64bd
00000130: e131 febd d15b 343d 8c52 21be 1e42 e13d
00000140: c542 9d3d 6eb7 a73d 05ee 83bd bde5 8ebd
00000150: 1c3f 3d3b 5000 4b3e d237 f0bd ee2c 4d3e
00000160: 1430 6e3d fbff d3bd b05c 34be 5b12 01bc
00000170: 0111 033d 3250 7abd 8d73 d9bd 716a a3bd
00000180: d516 e13d c461 b5bd 4788 16be 815d 2fbd
00000190: cb3a 2bbd dedb 17be 8590 1abe 3002 b63d
000001a0: eb6f c2bc ce29 453d fba1 ec3d 626c 3dbd
000001b0: af97 0abe 0899 2bbe 6980 c2bd 94d9 64bc
000001c0: fbaf c43b 8fdd ebbd f34c b9bd f74e 52bd
000001d0: 1cc2 bfbd a8b7 95bd 3f7f cbbd 7ba6 37be
000001e0: ee29 bf3d f591 53bd 0141 e53c f5c6 afbd
000001f0: f0ef 8bbb ad04 efbd 625b 7d3d 2e21 6c3d
00000200: f0c3 703c c26a 1dbe ed65 1cbd 14f2 97bd
00000210: 171d 1e3e a0b6 c3bd dd2c 9d3d 67ff a7bb
00000220: 77c5 c93d 76fd 8f3d 1a82 4fbd da46 043e
00000230: 695c 873b 945e 0fbe 3e29 943d 3d51 a1bd
00000240: 9887 d63d ae8a 19bc 2c8e 753c ef2b 3b3c
00000250: 9a49 cdbb d79a c9bc 0a07 70bb 2374 a83c
00000260: 88b2 6d3c 6f42 ce3d 97f2 24be a657 103d
00000270: 01a7 013d d849 0e3e 4cc4 91bc 795e 4f3d
00000280: 9046 363d f8e0 acbd 5550 c6bd 0667 d83d
00000290: 7981 5ebd 5215 13bd b8c6 ea3c 9401 16be
000002a0: 8f9b 1c3d 16e3 a3bd c125 223d 7148 2e3d
000002b0: 871e 4ebc 1904 8abd 8fdd d3bc 597a 44bd
000002c0: 8d22 2a3d 7f10 203d 4782 9f3d 76dd 753d
000002d0: 3f6a 823d ecc5 7b3c b1d0 533c 875d 8f3d
000002e0: 01a3 f0bd 315e e03b e012 9c3d 202d f0bd
000002f0: 8dc8 dc3d c0d5 a93d b2d5 c9bd c3d1 f6bd
-0.013569292 -0.060760513 0.10741821 0.0065108514 0.19161004 0.09980019 -0.028670426 -0.052480295
0.12294475 0.06357572 -0.031311303 -0.08144672 -0.07747143 -0.09381465 -0.04340668 -0.08912052
0.03693979 -0.08440132 0.029862218 0.049703203 -0.019611428 0.03743743 -0.02656403 0.13694455
-0.011929791 -0.09493842 -0.09060357 -0.03270162 0.07574855 -0.1220311 -0.09105013 0.09636243
-0.0646152 -0.0066701337 0.008183296 0.08546702 -0.052214336 0.013355204 0.06149434 0.03191227
0.034245953 0.08763733 0.013893956 0.07497622 0.09958468 0.054133646 0.11315833 -0.07441143
-0.029549353 -0.057353433 -0.01818327 -0.019436954 -0.011611954 0.0031348306 -0.0014754408 -0.07177722
0.0077978685 -0.0204875 -0.05457485 -0.06534802 -0.052872773 0.057100352 0.015003395 0.08765957
0.146811 -0.12291341 0.055644743 -0.057965897 -0.10966644 0.015317618 -0.14056303 -0.0034510598
-0.20929278 0.06949036 0.021775136 -0.05574838 -0.124118574 0.044032875 -0.15754145 0.10998939
0.07678751 0.08189283 -0.06441883 -0.06977413 0.0028876727 0.19824338 -0.11729397 0.2003667
0.05815132 -0.10351559 -0.17613482 -0.007877911 0.031998638 -0.061111636 -0.10617743 -0.079792865
0.10990683 -0.08856538 -0.14700423 -0.04281378 -0.041804116 -0.14829966 -0.15094192 0.08887136
-0.023735007 0.04813557 0.11554333 -0.04624594 -0.13534425 -0.16757596 -0.094971485 -0.01396789
0.006002424 -0.11516868 -0.0904788 -0.051344838 -0.09363195 -0.0731042 -0.0993638 -0.17934601
0.09334169 -0.051652867 0.027985098 -0.0858287 -0.004270546 -0.11670814 0.061854728 0.05764883
0.014695153 -0.15372756 -0.03818314 -0.074192196 0.15440784 -0.09556317 0.076745726 -0.005126882
0.098521166 0.07030766 -0.050661184 0.12917653 0.004130889 -0.14000922 0.07234429 -0.07876823
0.10475081 -0.009371443 0.01498751 0.011424049 -0.0062648775 -0.024609966 -0.003662529 0.02056319
0.014507897 0.10071265 -0.16108166 0.035239838 0.031653408 0.13895357 -0.017793797 0.050627206
0.044500887 -0.08441347 -0.09683291 0.10566525 -0.054322693 -0.035909005 0.02865921 -0.1464904
0.03823429 -0.080022976 0.039586786 0.042549554 -0.0125805205 -0.06739063 -0.025862483 -0.047968242
0.041536856 0.039078232 0.0778852 0.060025655 0.06367921 0.0153670125 0.012928174 0.07000261
-0.117498405 0.006847166 0.076207876 -0.11727357 0.107804395 0.08292723 -0.09855212 -0.120517276

rnn.bias_hh_l1 f4 [192]
00000000: 395c df3d ed0a 06be b267 dc3d 5f45 d93d
00000010: 978e 953b c7cf 153e a03a ff3d f50a 5cbd
00000020: 4b02 8b3e b33f c93d 6138 38bd 0e29 9939
00000030: 4740 8c3d 0143 b7bd 2f12 be3d dc17 7238
00000040: 0198 b5bc b902 65bd 7c89 95bb ecba 01bd
00000050: 0eed c8bd e305 df3d 52fd b8bd 6049 7f3d
00000060: 2c7f d43d a34b edbd de09 3cbd d99c d23d
00000070: 46cb 533e bb5a 383b dbab 16bd 3a7c 513e
00000080: c009 fd3d 3b29 9e3d 9b33 e3bd 4e0c 153d
00000090: 71f4 6bbd 787d a33d e7c9 b33d b016 d03d
000000a0: e3a5 5cbc 9a1b cdbd 05bc 2fbd 5e10 d1bd
000000b0: ee98 473d c355 debd 705b 2cbd 3289 813d
000000c0: 1b71 493d 33e2 c1bd 408e 923b 8b5e 063e
000000d0: 925c c43d 112e ad3c ce2b 073c cc9e b4bc
000000e0: 375f a0bc 38a3 27bd 24bf c1bd 78c6 363c
000000f0: e352 cfbd fe2a b83c 7a08 5f3d 572f 17be
00000100: 347e 093e 8393 76bd 23ed 993d 7e37 f5b8
00000110: 3abe bfbc 4b85 adbd d4b0 0dbd 2781 1ebb
00000120: e9c9 febd 87ff 2f3a fde2 c9bd 89b0 c9bd
00000130: 8d12 09be 066f 06be fc89 05be 489c c93d
00000140: 7d1d 803d 717b f83a 632e 913c 3a95 803d
00000150: 9412 ffbd 8b0c b7bc 87f4 953d a038 163e
00000160: 52c5 bf3c 6b84 56bc 5c4a 6abd 76ed cdbc
00000170: c1c3 493d f0e2 38bd c561 1dbe 682c 29be
00000180: dcad be3d ee8f a33d 5ec1 1bbe 0ca3 a83c
00000190: 8be2 72bd ccaa 7b3d ecdf 4abe eb34 b93d
000001a0: 402e 1dbd 4c80 a2bd 5ca3 cebd 47a8 b23d
000001b0: 5b35 633c aac0 813c 194e a7bd a7cb 2b3d
000001c0: 8ca3 f43d 2d89 7fbc 4e4d 24bb 250c 03be
000001d0: ee63 ad3d e1ec 04bd e1a8 b13d 035f f73b
000001e0: a49d 013d f195 d5bc 2eb2 0b3d 4314 933d
000001f0: a617 7bbd 544f bebd be0c 523d 44a7 683c
00000200: 68e4 83bd 3bb5 deba 2a65 e73d 0f9c dd3c
00000210: d494 93bd 4e4a 573c c2bb cf3c 5f12 c43c
00000220: 1bfe 0f3e db0c 3a3d 80bf cd3d cb40 c13d
00000230: 7072 edbd 9843 513d 9b50 edbd 5828 673d
00000240: 7b07 03bd 9a1a f83d 8d69 2c3c 706e 163d
00000250: 59c4 a03c f57b 07bc 9327 b5bc 99b8 8abd
00000260: e792 a4bd e7a9 ce3d 98e1 abbd d0e1 583d
00000270: f603 d03d 4abe c73c e007 fd3d 8093 c33d
00000280: 79bc 013d 4f02 4d3d 8e2e e9bd 716e 00bd
00000290: 93a4 d83d fc6a 1bbe 2103 31bd 1d01 9abd
000002a0: b576 d43d 83ba 99bd c315 803d 58bf 9cbd
000002b0: 894f 80bb 8cd8 c73d 1149 04be 4cc6 933d
000002c0: 48c6 a13d b5c2 2bbc 946b 9ebd c40b b63c
000002d0: efdd 1c3d 03a9 013e e898 073e 029b f83d
000002e0: 1cfc 8b3d 88c2 e23d b887 18bd e298 7abd
000002f0: cb25 043e 5907 e93d 050c 9abd 75cd 953d
0.10906262 -0.13090105 0.10761966 0.106089346 0.004564117 0.14630042 0.12462354 -0.053721387
0.27150187 0.09826603 -0.044975642 0.00029213022 0.068481974 -0.08948327 0.09280812 5.7719517e-05
-0.022167208 -0.0559108 -0.0045635086 -0.031672403 -0.098108396 0.10889795 -0.09032692 0.062325835
0.103758186 -0.11586692 -0.045907848 0.102838226 0.20683011 0.0028130251 -0.036784988 0.20457545
0.12355375 0.07722708 -0.11093827 0.036388688 -0.057606164 0.07982916 0.08778744 0.10160577
-0.013467285 -0.1001503 -0.04290392 -0.102082 0.04872983 -0.108562015 -0.04207939 0.06324996
0.04918013 -0.09466972 0.004472524 0.13122003 0.09587969 0.02114013 0.00825019 -0.022048377
-0.019576652 -0.040927142 -0.09460285 0.011155717 -0.10123231 0.022481438 0.054451443 -0.14764152
0.13427049 -0.060199272 0.07515933 -0.000116928466 -0.023406137 -0.08472689 -0.034592465 -0.0024185868
-0.12440855 0.0006713797 -0.09857748 -0.098481245 -0.13385983 -0.1312829 -0.13040918 0.098442614
0.062556244 0.0018957687 0.017722314 0.06278463 -0.12454715 -0.022344848 0.073220305 0.14670038
0.02340952 -0.013093094 -0.05719982 -0.025137644 0.04925895 -0.0451383 -0.15369327 -0.16520846
0.09310505 0.07986437 -0.15210482 0.02058556 -0.05929808 0.06144218 -0.19811982 0.090432964
-0.038374186 -0.07934627 -0.10089752 0.087235026 0.013867701 0.01583894 -0.08169193 0.041942265
0.119452566 -0.01559667 -0.0025070491 -0.12797602 0.08466326 -0.032452468 0.08674789 0.007549168
0.03164448 -0.026072474 0.034105472 0.07181599 -0.06130185 -0.092924744 0.051281683 0.0142000355
-0.064400494 -0.0016991267 0.112985924 0.027051954 -0.07206121 0.013140274 0.025358085 0.023934541
0.14061777 0.045422416 0.10046291 0.094361864 -0.11594093 0.051089853 -0.1158764 0.05643496
-0.031989556 0.12114449 0.010523212 0.036726415 0.019624876 -0.0082693 -0.022113597 -0.067734905
-0.08035832 0.10091 -0.08392638 0.052949727 0.101570055 0.02438273 0.12355018 0.09549618
0.031673882 0.05005103 -0.11385833 -0.031355325 0.10578265 -0.1517753 -0.043215875 -0.075197436
0.10374204 -0.075062774 0.06254151 -0.076536834 -0.0039157313 0.097581 -0.12918498 0.072155565
0.07899147 -0.0104834335 -0.07735363 0.022222407 0.03829759 0.12662129 0.13241923 0.121389404
0.068351954 0.1107226 -0.037238806 -0.061180957 0.12905042 0.113783546 -0.07521824 0.073145784

rnn.weight_ih_l2 f4 [192, 64]
00000000: 833e 9c3d 3292 2e3c 183a 8bbc 3565 f8bd
00000010: b4d7 3a3d 0a03 b73c 4b77 bbbd 4968 59bc
00000020: 9d9c a73c c0ae 513d ac61 c7bd b898 b53c
00000030: 0999 8a3c 7536 d93b d780 573d b076 24bd
00000040: 5a5f 65bc 6cdf 273d ef62 5b3d 3ede 723d
00000050: e301 853d e4fd 013d 85ac 65bd b56b f7bd
00000060: fb7c 80bc 8c7a b43c 1a65 30bd 96e3 123e
00000070: 5a63 363d a879 4c3d e16d bc3b b716 b43d
00000080: 2770 1dbd 4bf6 a63c 1598 b9bd 256c 1b3e
00000090: 7185 57bd 7cc3 0dbe 40ee b93d 0020 d53c
000000a0: 2513 9bbd e1e3 e33d 98b3 1abc 9ad3 9e3c
000000b0: 6350 16be 55a5 48bd a7ef 46bd a498 993d
000000c0: ec41 68bd d694 7bbc 9070 82bc d890 1c3d
000000d0: cd3f 2cbb 7afe f33b 5b68 db3d 03b5 adbd
000000e0: e1e9 72bd d020 65bd c167 bb3d f9e4 d5bc
000000f0: d2cb 69bb 84a6 1d3d 9f09 bb3d 82db 46bd
00000100: f90d c7bb a07c dfbc bf80 35bd 48d7 d2bd
00000110: 15c2 e53d 20a7 d4bc 37ab 633d c40e 68bd
00000120: 0694 943d 1c28 bf3d 56f5 923d 91f6 40bd
00000130: 25f0 2fbe 6eb2 5abd 39d0 fabd 5400 90bd
00000140: ecf9 abbd 008f f33d 36f2 843d 060f 023e
00000150: 43cb 833d 11e6 793c d7af e3bd fea9 13bd
00000160: 2519 03be 8342 843d 90a2 573c 29f3 893d
00000170: 9d27 e03c c88b a63d aca6 be3c 06dd b53d
00000180: bef0 25bb b348 b33d b1e7 ad3d de31 bf3d
00000190: a1cd 92bd 1371 28bd 9977 1cbe 8fe0 ba3b
000001a0: f2a2 ccbd d534 13bd e0ca 6d3d 8cd8 c8bd
000001b0: 0df4 063c bb17 453d 1eb6 62bd cd50 963d
000001c0: f14e 4e3d 6122 8abd 4705 3e3d 4ac3 9e3d
000001d0: d115 1b3d 97be 16be 4d37 1d3d ccc3 e5bc
000001e0: 9939 ffbd 1a8e d1bd edcd 973c 03a2 b7bd
000001f0: 0609 5b3d 98f8 333d c7a9 77bd 46f7 edbd
00000200: ac0f dabd 2c28 1b3c ae42 273e eb90 1b3c
00000210: 2b2a f5b9 fae1 15be 2d86 42bd 9c00 a5bd
00000220: bc80 5d3e 88fa 7f3d 8413 be3c 68f7 aa3d
00000230: bb5d eb3c 7a44 8cbc 0b16 d9bd f2e6 13be
00000240: 107a 993d 06f1 173e 9fa4 d6bd 58db 3e3c
00000250: 8d58 7dbd 4aed cfbd e1c3 0fbe be26 b03e
00000260: 4c38 84bd 04fe 2a3d d1f0 7e3c de9b d5bd
00000270: cced 543e 9006 c63d 1edd 883d 58e4 db3d
00000280: 1fb4 323c 3f87 4bbd aec4 38bd a404 e43d
00000290: d65c a2bd dbeb 0ebe 75e8 59be 4d47 ffbc
000002a0: 169e aabd 5689 df3d 6821 f2bd c997 fc3d
000002b0: 4dbd 2fbd d07f 103e 487c b2bb 2f0f 76bd
000002c0: 1f19 09be 145e 7b3d 1b3d 903d 8021 2cbe
000002d0: 39ef 9bbd 5250 6ebd 1dca ca3c 9190 2c3c
000002e0: eb9d 9abd 8084 02bd 65c7 8ebd 546e cabd
000002f0: c171 023e efc2 c53d 364d ca3c 673e 05bd
00000300: 2314 a13c 9c08 853d 8a4e 113e df7b 333c
00000310: c2b5 dd3d ce5e 9cbd f5ea d53c 3efc c13d
00000320: 90ab 69bd 3ef2 1e3e 7e3f 9d3d a4d5 473d
00000330: 28dd 2ebe 01a8 01bc f93c 10bd 901a 40bd
00000340: 09ca 90bd f904 8ebd 52c7 ae3c 1960 bdbc
00000350: e14f 19be d96c 03be d553 09be 6c9b 1d3e
00000360: 965f bebd 1dc0 5fbd b747 ef3d da1b 35bd
00000370: a97d d63d ee71 0a3e d04e b53c ed39 043e
00000380: 6af1 c3bc 44eb 04bd adb4 9d3c 684a b13d
00000390: 6f53 cabc 39a1 c0bc 30cd 1e3d 76d2 b93d
000003a0: 2c2e 2fbd 6182 8f3d 6353 4a3d 33cd d93d
000003b0: 81b1 c23d 9706 733d 6d60 debd 884d 08bc
000003c0: b41d a6bd b9df 0a3d 5c6b 513e cdf3 11bd
000003d0: ca9a 86bd 0fd0 d7bd c9a0 333d b082 d33d
000003e0: 1207 bbbc 72ce a23c 9e0b 4c3d 288e 09bd
000003f0: ce29 3f3d 7cb8 863d 9dcb b23d 4ede ba3d
0.07629111 0.010654973 -0.016995475 -0.12128679 0.045615867 0.022340316 -0.09153613 -0.013269492
0.020460421 0.051192045 -0.09735426 0.022167549 0.016918676 0.0066288062 0.052613106 -0.04015225
-0.013999784 0.040984556 0.053561147 0.059293978 0.064945005 0.03173627 -0.05607273 -0.1208109
-0.015684595 0.022031091 -0.043065168 0.1434463 0.044528343 0.049920708 0.0057504033 0.08793395
-0.038437035 0.020381114 -0.090622105 0.15177973 -0.052617494 -0.13844103 0.09078646 0.026016235
-0.07572011 0.11127449 -0.009442233 0.019388009 -0.14679103 -0.048985798 -0.048568394 0.07499817
-0.056703493 -0.0153553095 -0.015922815 0.03822407 -0.0026283145 0.0074461075 0.107132636 -0.08481791
-0.059305076 -0.055939496 0.09150649 -0.02611016 -0.0035674465 0.03848888 0.091326945 -0.048549183
-0.0060746637 -0.027281106 -0.044312235 -0.10294968 0.11218659 -0.025958598 0.055583205 -0.056654707
0.07254796 0.09333822 0.071757 -0.047110144 -0.17181452 -0.05339282 -0.122467466 -0.070313126
-0.08397278 0.118925095 0.064915106 0.12701043 0.064352535 0.015252606 -0.11117523 -0.03605079
-0.1280256 0.064579986 0.0131613165 0.06735832 0.02736264 0.0813213 0.023272835 0.088800475
-0.0025320495 0.08754101 0.08491457 0.09335683 -0.07168127 -0.04112346 -0.15279998 0.005703039
-0.09992017 -0.035939056 0.058054805 -0.09806928 0.008236897 0.048118334 -0.05534946 0.0733963
0.050368253 -0.067448385 0.04639175 0.07752092 0.037862603 -0.14721142 0.038382817 -0.028047465
-0.12462158 -0.10232182 0.01853081 -0.08966448 0.053475402 0.04393825 -0.060464647 -0.11619429
-0.106475204 0.009470027 0.1633403 0.009495 -0.0004676146 -0.14636984 -0.04749124 -0.08056757
0.2163114 0.062494785 0.023202665 0.0834797 0.028731218 -0.017122496 -0.105999075 -0.14443567
0.07493985 0.14838037 -0.10480618 0.011648975 -0.061852027 -0.10152681 -0.14039566 0.34404558
-0.0645605 0.041746154 0.015560345 -0.1043012 0.20793837 0.096692204 0.066828 0.107369125
0.010907202 -0.049689528 -0.045109443 0.11133698 -0.07927863 -0.13957159 -0.21280082 -0.031161929
-0.08330934 0.109148666 -0.11822778 0.12333638 -0.04290514 0.14111257 -0.0054469444 -0.060073074
-0.13388489 0.061369017 0.07042905 -0.16809654 -0.076139875 -0.05818207 0.024754578 0.010532514
-0.07549652 -0.031864643 -0.06971625 -0.09884325 0.12738706 0.09656321 0.02469502 -0.032530215
0.019662922 0.06495783 0.14190117 0.010954826 0.10825683 -0.0763527 0.026113013 0.094719395
-0.05704838 0.15522096 0.07678126 0.048787728 -0.17076552 -0.00791359 -0.035214398 -0.046900332
-0.07069785 -0.06934542 0.021335278 -0.023117112 -0.14971878 -0.12834491 -0.13410886 0.1539132
-0.09295575 -0.054626573 0.116836004 -0.044216014 0.104731865 0.13520023 0.022132307 0.12912722
-0.023918826 -0.03245093 0.019251192 0.0865677 -0.024697987 -0.023514377 0.0387699 0.09073345
-0.042768642 0.0700729 0.04939593 0.10634842 0.095065124 0.059332456 -0.108582355 -0.008319266
-0.08111134 0.033904765 0.2045111 -0.035632897 -0.065724924 -0.10537731 0.04385451 0.10327661
-0.02283052 0.019873831 0.049815767 -0.033582836 0.046670727 0.06578156 0.087302424 0.091244325
