program/deep_learning/16 - Recurrent Neural Network/model/lstm/weights_100.pth (torch, 254064 bytes, 13 tensors)

rnn.weight_ih_l0 f4 [192, 1]
000000 47 08 eb 3d b9 79 81 bd e2 b0 5c bd 1f ef ea bd
       0.11476188 -0.06322045 -0.053879626 -0.1147139
000010 e5 74 6b 3d 79 aa 59 bd ad 87 85 3b 05 8d e2 3d
       0.057484526 -0.05314109 0.0040750117 0.110620536
000020 f9 f5 f3 3d 6f 07 80 3d ca 29 e8 bd a4 d0 03 3e
       0.1191215 0.06251418 -0.11336096 0.12872559
000030 8b 44 14 3e c0 44 ba 3d c4 4f c3 bd b1 4f 1b 3c
       0.14479272 0.09095144 -0.095366985 0.009479449
000040 b9 d1 85 bd bf fc a6 3d 89 ae 1c bd 47 dc 09 3e
       -0.06534142 0.08153676 -0.038252387 0.13462935
000050 ef 88 22 3d 7a 82 a8 3d 4a 87 39 3e f5 83 ac bd
       0.03968137 0.082280114 0.18118015 -0.08423606
000060 93 26 84 3d c0 4c e9 3c 51 21 a2 bb 86 00 b0 bd
       0.0645267 0.02847898 -0.0049478193 -0.0859385
000070 3a 61 d0 3c 32 0d 43 3d a7 6c d1 bc 8b 0e 04 bd
       0.025436986 0.047620006 -0.025564505 -0.03224043
000080 e9 66 54 bd f2 74 6f 3d 38 7b 81 bd 79 76 58 bd
       -0.051855955 0.058461137 -0.0632233 -0.05284736
000090 d0 3f a7 bd db 15 39 3e fa c1 69 bd e9 19 d0 3d
       -0.08166468 0.18074743 -0.057069756 0.10161192
0000a0 60 74 cb bd 00 71 ad 3d 5a b4 03 3d 3f b8 0d 3e
       -0.09934306 0.08468819 0.03215442 0.13839816
0000b0 de 2c b1 3d 8a e8 95 3d c6 32 b1 3d a3 ad a9 3d
       0.08651136 0.07319744 0.086522624 0.08285072
0000c0 7e 42 96 3d 09 e7 db bb 08 44 a7 3c b1 d7 a9 3d
       0.07336901 -0.006710891 0.020418182 0.08293093
0000d0 cc 54 62 bd aa 22 8e bd 58 57 b6 bd d9 9a 98 bd
       -0.05525665 -0.069402054 -0.08903378 -0.0745141
0000e0 55 ac ab bd a3 99 0f 3d 1e 6d a6 bc a6 77 71 3e
       -0.08382479 0.03505863 -0.020315703 0.23580799
0000f0 e9 2a 8c bd 5f c4 2f 3e 52 67 d4 bd 35 c1 c7 bd
       -0.06844122 0.17164753 -0.10371269 -0.09753648
000100 1f c8 11 be dd 7f 4a bd 94 5c bd bb 3c 38 d2 3b
       -0.14236496 -0.049438346 -0.0057788584 0.006415395
000110 78 3f 81 be 50 52 74 be 64 07 31 bd 10 7b a5 bd
       -0.25243735 -0.23859525 -0.04321994 -0.08080113
000120 ec d9 75 bd 8f 25 de 3d 62 3b f0 bc 79 26 ac 3a
       -0.06002228 0.108470075 -0.029325191 0.0013134024
000130 9b 07 ab bd 4f 44 b7 bd 4d ac 8d bd 1a 94 b5 3d
       -0.0835106 -0.08948576 -0.069176294 0.08866139
000140 74 15 11 be b2 20 3a be e1 42 64 3d 2e 85 81 bd
       -0.1416834 -0.18176535 0.055727843 -0.0632423
000150 21 bf b1 bd 05 7b 05 be 37 ca 29 bd 9a 0d 16 bd
       -0.08679033 -0.1303521 -0.041452613 -0.036634065
000160 d4 00 3e bc 98 79 22 be 8e 60 00 3e 6f d1 e9 bc
       -0.011596877 -0.15866697 0.12536833 -0.028542249
000170 76 b2 0a be 26 34 e2 bc 5d d4 ca bd d1 08 0e bc
       -0.1354464 -0.027612757 -0.09903786 -0.008669094
000180 17 59 05 be 6d 01 0f be 1b af 5c bd eb 97 42 be
       -0.13022266 -0.13965388 -0.05387793 -0.19003265
000190 6d 28 54 bc 14 c1 cf bd f9 33 30 be d0 88 26 bd
       -0.012949091 -0.101442486 -0.17207326 -0.04065782
0001a0 7d 38 cf 3d 8f 89 63 bd c6 57 58 bc f0 ed af bd
       0.10118196 -0.055551108 -0.013204521 -0.08590305
0001b0 6e 37 2b be 9c 23 f0 bd 8b 74 13 be c9 3b 5c bd
       -0.16720363 -0.11725542 -0.14399926 -0.053767953
0001c0 2d 3b a0 bd 29 94 f5 bd ca 15 8c bd af 60 3d bc
       -0.07823787 -0.1199115 -0.068400934 -0.011558696
0001d0 ae f9 d7 bd e7 32 0c be 75 86 95 3d 97 53 2f be
       -0.105456695 -0.13691293 0.07301036 -0.1712173
0001e0 4a c9 00 be af 05 d6 bd 14 66 10 be 4b 75 83 bd
       -0.12576786 -0.10450303 -0.1410144 -0.06418856
0001f0 3e 76 e1 bc b4 5f 3d bc 39 21 c3 3c e9 4d 97 3d
       -0.027522203 -0.011558462 0.023819553 0.07387907
000200 b0 e9 b4 bc 0c 53 28 3d f9 fc ee 3d 62 ea 94 bd
       -0.022084087 0.041094825 0.116693445 -0.072712675
000210 d6 5d 6f bc 53 5f 13 3d 05 8d ae 3d 9d 53 89 bd
       -0.014609775 0.03597958 0.08522991 -0.06705401
000220 12 d8 db bd a0 da 34 bc ab 95 4f bd f5 4c 99 bd
       -0.107345715 -0.011038452 -0.050679844 -0.074853815
000230 d8 ad b2 3d e2 c7 7b bd 1c a0 67 3d 9d 20 c2 3c
       0.08724564 -0.06146992 0.056549177 0.023697192
000240 da f6 44 bd 96 a8 a3 bd 44 1f 7c 3d 0b 4e ab 3d
       -0.04808698 -0.079911396 0.061553255 0.08364495
000250 d9 0a 5f bd 96 32 98 bd 41 8d 59 bd 24 58 24 3d
       -0.054453705 -0.074315235 -0.053113226 0.04012312
000260 5a 82 e6 3d fe 66 61 3d 9c 1d 4e 3c 0e a0 4b 3d
       0.11255331 0.05502986 0.012580302 0.049713187
000270 7c 83 53 bd b0 ba c5 bd c3 ba ae 3d 75 5f c0 3d
       -0.051639065 -0.096547484 0.08531716 0.09393207
000280 94 09 8e 3d dd a8 83 3d 92 c4 36 3d 3b e5 51 3d
       0.06935421 0.064286925 0.044621058 0.051244
000290 25 12 5b 3d 21 bf a6 3c 7f 5b 36 bd b0 25 1d 35
       0.0534841 0.02035481 -0.04452085 5.85419e-07
0002a0 ae 42 f1 bc fb 99 22 bd 9d 7f 82 bd db 71 61 bd
       -0.02945074 -0.03969763 -0.063719966 -0.05504022
0002b0 15 0f d0 bd 44 68 ba 3d 3e cd 80 3d 4f bd 01 3e
       -0.10159127 0.09101918 0.06289147 0.12669872
0002c0 ae 41 8d bb f1 a9 54 3d 31 23 8f 3d c4 6c 64 3c
       -0.004310808 0.05191988 0.06989134 0.013941947
0002d0 f8 cb 76 bd a1 db 5c bd ec 45 16 3d 8f 5a 4d bd
       -0.060253114 -0.053920392 0.036687776 -0.05013519
0002e0 da f4 9e 3d 1a 0f 99 3d d9 77 5e 3d 45 65 82 3d
       0.077615455 0.074735835 0.054313514 0.06366972
0002f0 5f 17 db bc 33 3f 84 bd 6a 09 88 bd 14 b7 9a bd
       -0.026744543 -0.06457367 -0.066424206 -0.07554451

rnn.weight_hh_l0 f4 [192, 64]
000000 94 29 de 3d 5b c3 8d 3c 1c 45 99 3d 93 9c 90 3d
       0.10847774 0.017305067 0.07483885 0.07061114
000010 11 35 02 be 06 15 aa 3d c1 fd fb 3b c5 c1 47 be
       -0.12715556 0.08304791 0.007690162 -0.19507511
000020 6c 01 ca 3b 87 55 0b 3c c8 86 06 be 23 cc fd 3b
       0.0061647203 0.008504278 -0.13137352 0.0077452823
000030 af 0b 52 3d a6 ed cc bd a3 c5 05 3e 95 1e 45 3d
       0.051280674 -0.10006265 0.13063674 0.04812487
000040 b7 63 49 be 36 45 6a be e3 80 2f 3e be 89 af bc
       -0.19666944 -0.22877964 0.1713901 -0.021427985
000050 28 4b 18 bd b7 c9 59 be ad f1 37 3d 4f 16 de 3d
       -0.03718105 -0.21268354 0.044908214 0.10844099
000060 ea 7a 77 3e a4 ac 0a 3e 53 a9 ac 3d 54 0a 51 3e
       0.24167982 0.1354242 0.084307335 0.20414096
000070 7e 55 2f be d5 1b 73 bd ea a7 fa 3c 1b 5a cf 3d
       -0.17122456 -0.059352715 0.030597646 0.10124608
000080 53 d6 63 3e ba 21 18 3d c5 d3 b5 3d 41 00 02 3e
       0.22249727 0.03714154 0.088782825 0.1269541
000090 09 5c 42 3e df 87 08 3d 2f 6c c7 bd 99 18 24 bc
       0.18980421 0.0333327 -0.09737431 -0.01001563
0000a0 a5 58 fe bd b1 f4 22 be 6a 83 1b be d2 c1 a7 bd
       -0.12419251 -0.15913655 -0.15186849 -0.08191265
0000b0 76 18 6e 3a 12 9f c9 3d 7c 61 77 3d f6 58 b0 3d
       0.00090826245 0.098447934 0.060395703 0.08610718
0000c0 0a 20 47 3d 54 03 28 3e a8 79 62 3e 05 3e 2b 3e
       0.04861454 0.1640752 0.2211672 0.16722877
0000d0 55 0c 61 be e5 a9 39 be 69 ff 93 3e 0c f6 95 bd
       -0.2197736 -0.18131216 0.289058 -0.0732232
0000e0 66 ea 2b 3e 70 92 8d 3d d0 84 65 3e 89 1d 28 3e
       0.16788635 0.06912696 0.22413945 0.16417517
0000f0 f5 71 ae bd 0e ab 90 3d 6c f9 eb 3b 90 21 3a be
       -0.08517829 0.07063876 0.0072013643 -0.18176866
000100 82 b4 01 be e7 29 0e be d2 69 83 3c 33 60 97 3d
       -0.12666515 -0.13883172 0.01604167 0.073913954
000110 a9 59 2e 3d 29 41 de bb 6b ba 17 be 06 c4 f9 bc
       0.042565975 -0.00678267 -0.14817207 -0.03048898
000120 95 3b e0 bd 38 0d 92 bd 0a 50 4d bd db 57 71 bd
       -0.10948864 -0.071314275 -0.05012516 -0.058921676
000130 68 ec 8c bd 36 45 2c be 07 28 7f 3d f4 1b f0 bd
       -0.068810284 -0.16823277 0.062294032 -0.11724082
000140 05 63 9d 3d 65 67 c2 3c c5 d3 d6 bd 3e 53 a0 3d
       0.07684902 0.023730943 -0.104896106 0.07828377
000150 9b d6 1e bd 0f da 8e bd 56 fc 9c 3c ee d9 33 bd
       -0.038778882 -0.06975185 0.019163292 -0.043909006
000160 c7 53 6c bd 43 b6 66 bd 0f dd da 3d fe 98 4d 3d
       -0.057697084 -0.056326162 0.10686695 0.050194733
000170 72 5a 3e bd 2a 9c e5 bc 55 13 47 3d 6e e7 a7 3b
       -0.046472974 -0.028028566 0.04860242 0.005124024
000180 b4 78 1c be b7 14 4e 3d 60 62 2c 3c ef 76 81 bc
       -0.1528042 0.050312724 0.010521501 -0.015803782
000190 6a 45 a5 bd 45 ea 03 3d 99 ed 63 3c 70 4d 7e bd
       -0.0806988 0.03220584 0.013911628 -0.06208557
0001a0 9a 50 25 3e ac c6 13 3e 4d 83 80 3d aa a7 24 be
       0.16144028 0.14431256 0.06275044 -0.16079584
0001b0 d7 82 91 3d 49 d7 f8 bd da dc 85 3d 4a fa 8b 3d
       0.07105034 -0.121504374 0.06536265 0.06834848
0001c0 3d 32 c6 3c 23 50 b2 bd d0 a8 60 bd 01 b9 1c be
       0.024193877 -0.08706691 -0.054848492 -0.15304948
0001d0 09 e2 81 3a ba ce ae 3c f2 19 40 3d f3 40 24 3e
       0.0009909283 0.02133881 0.046899743 0.16040401
0001e0 5d 2d a0 3d 8d 09 f3 bd c7 bf c2 bd df 64 97 3d
       0.07821152 -0.11867056 -0.09509235 0.073922865
0001f0 c7 c2 d7 bc 01 71 38 3e 90 56 8d 3d 2c 45 e9 3d
       -0.026337994 0.18011858 0.06901276 0.113901466
000200 1c 8b 14 3d dc 86 5e be 59 e1 f9 3d be 9a ed bd
       0.036265478 -0.21731132 0.12201185 -0.1160178
000210 cb 0b 16 3e 34 22 01 be 73 4a f3 bd 9d 18 31 bd
       0.14652936 -0.12610704 -0.118794344 -0.043236364
000220 56 eb 41 3c 4e 8c ef bd 83 fd 34 bc 79 cb 9e 3d
       0.011835894 -0.11696683 -0.01104677 0.07753653
000230 c7 c0 ab 3d 2c 64 5e 3c 3a 5a ae bd 71 60 07 3e
       0.08386379 0.0135736875 -0.08513303 0.13220383
000240 8b 74 ca bc f2 63 c1 bd 64 89 71 3d d4 dd 31 bd
       -0.024713775 -0.09442891 0.058968917 -0.043424442
000250 91 73 30 bc 24 af 2e 3d 4d 5c 4f 3d 69 c3 e2 3d
       -0.010769741 0.042647496 0.050625134 0.11072428
000260 9a c0 cc 3d cd 80 83 3d 88 cc 3d be e9 5f 2f bd
       0.09997673 0.06421051 -0.18535054 -0.042816076
000270 86 55 b7 bd 2e ac e4 3d d7 c6 7f bc cc f1 36 bd
       -0.08951859 0.11165653 -0.015611372 -0.04466419
000280 a4 9f c7 3d dd 4e f8 3c 6a 73 90 3d 81 fc 93 bd
       0.09747246 0.030311042 0.070532635 -0.07225896
000290 a4 36 52 3d fd f6 c5 bd e4 4a 96 3d 50 9b 1b 3d
       0.05132164 -0.0966625 0.07338503 0.037989914
0002a0 ee 72 93 3d 87 b0 ca bd 5b 35 9d bc b8 d0 23 3b
       0.071996555 -0.09896951 -0.019190481 0.0024996232
0002b0 d8 62 ce bd 07 ba 9f bd d6 8e aa bd 60 9c 4f bc
       -0.10077447 -0.07799154 -0.08328025 -0.01267156
0002c0 f3 41 dc 3c b6 30 31 bd 03 f8 5d 3d 7b 09 ed bd
       0.026886916 -0.043259345 0.0541916 -0.11574074
0002d0 0c 89 90 bd 04 57 de 3d 48 f4 ba 3d 18 94 f7 3d
       -0.070573896 0.10856441 0.09128624 0.120887935
0002e0 ef a4 ca bd e1 c3 bd 3c f3 6b bb bd 86 5f 20 3d
       -0.0989474 0.023164691 -0.09151449 0.0391536
0002f0 4f 93 84 3c 66 6a bd 3a f9 7b f1 bc 14 48 c4 3d
       0.016183523 0.0014451265 -0.02947806 0.0958406
000300 bf a1 0d be 72 c3 d2 bd aa dc d4 3b 2c 32 15 3c
       -0.13831232 -0.102911845 0.006496032 0.0091062
000310 ed a1 6d 39 e1 cd 06 bd 21 e2 3c bd dd 00 fc 3c
       0.00022662403 -0.032911185 -0.04611409 0.03076213
000320 fe 95 a4 3d 52 df d8 bd 19 85 42 bd 42 5b 50 3d
       0.08036421 -0.1058947 -0.047490213 0.05086828
000330 57 2e c0 bc 3c 77 55 bd 64 0c 86 3d 96 26 f6 3c
       -0.023459597 -0.052115664 0.06545332 0.030047696
000340 ab d8 69 bb 86 52 05 be 82 52 f6 bd 04 67 af bc
       -0.0035682123 -0.13019761 -0.12027456 -0.021411426
000350 35 94 1d 3a 91 49 f2 bd df ee d9 3b 76 35 cb 3d
       0.0006011159 -0.11830438 0.00665079 0.09922306
000360 32 3a f3 3d 37 97 b2 3d 82 6c 21 3e 15 64 99 bd
       0.11876334 0.08720248 0.15764049 -0.07489792
000370 eb 95 9a 3c 41 83 5b bc 37 32 49 bc b9 b6 02 3e
       0.018870315 -0.013397993 -0.012280039 0.12765016
000380 98 8c 15 be 8d ff 3f bc 55 17 a4 bd be 4b e3 3c
       -0.14604414 -0.011718643 -0.08012263 0.027746078
000390 57 d2 76 bd cf a7 de 3d 7d 96 ea 3c 6d 1c 19 3d
       -0.06025919 0.10871851 0.028636212 0.037380625
0003a0 b9 c1 24 3e ba 9b c7 bd af 33 03 3e 29 50 e2 bd
       0.16089524 -0.09746499 0.12812684 -0.110504456
0003b0 bc fc e1 3d 6f 45 4e 3d 95 60 e5 bc cd f5 3b 3d
       0.110345334 0.050359186 -0.028000155 0.04588871
0003c0 9e dc df bd aa 39 e1 3c 55 c4 8d bd 04 5e c0 3c
       -0.10930751 0.027493317 -0.06922213 0.02348233
0003d0 07 35 9a bd fc 1e 22 3d 68 72 1c 3d dc e9 c1 3d
       -0.075296454 0.03958033 0.038195044 0.09468433
0003e0 d3 ef 39 3d 05 83 08 3e 94 af a2 bd 7d 9d b5 bc
       0.04539473 0.1333123 -0.07943645 -0.022169823
0003f0 56 fe 82 bd 3e cb d2 3d 58 10 cc 3d 1a 69 1c bd
       -0.06396167 0.102926716 0.09964055 -0.03818617

rnn.bias_ih_l0 f4 [192]
000000 b6 69 4e 3e 6f ef 76 3d 73 87 09 be ff d0 0b 3e
       0.20157513 0.060286935 -0.13430576 0.13653944
000010 e1 d6 0b 3e 1b 2a 35 3e ae 72 dd bd a1 58 01 bd
       0.13656189 0.17691843 -0.10812889 -0.031578664
000020 c8 31 bd 3d 59 91 27 3d 7f 74 bc bd 12 6c bf 3d
       0.09238011 0.0409101 -0.09201907 0.09346785
000030 b0 13 d3 3d c2 65 08 3e 25 c8 8a 3e 48 47 7e 3e
       0.103064895 0.13320068 0.27105823 0.24831879
000040 ed 52 7e 3d 5c 97 6b 3d f8 05 a9 bd 93 30 5e 3e
       0.062090803 0.057517394 -0.082530916 0.21698217
000050 25 8b 1a 3e 6c 9f 9d bd b3 4c 7d 3d c1 0f 68 3d
       0.15092142 -0.07696423 0.061840724 0.05665565
000060 39 79 0a bd 6a d0 f9 bc b7 87 7b 3e 8d af 29 ba
       -0.033807013 -0.030494887 0.2456349 -0.00064729975
000070 72 43 62 be 50 28 66 be 17 6f a4 bc b9 47 33 bc
       -0.22096041 -0.22476315 -0.020072503 -0.010942393
000080 a6 7a a6 bd 3e 10 9f bd 03 17 76 bc 2e c7 76 bd
       -0.08128862 -0.0776677 -0.015020135 -0.060248546
000090 1c a9 8c bd 3f c4 cc 3d 68 f1 9b bb 1c 15 a2 3d
       -0.068681926 0.099983685 -0.0047590025 0.079141825
0000a0 12 cc 9e bd a2 4e 15 3d 0a 06 1b 3d fb 44 29 bd
       -0.07753767 0.036451943 0.037847556 -0.04132555
0000b0 b1 f8 32 3d d9 70 f2 3d b1 e4 1d bc a2 95 d1 bd
       0.0436942 0.1183793 -0.009637044 -0.10233618
0000c0 e3 04 6b 3e fc b8 2e 3e e7 c6 53 3d 98 8d fa bd
       0.22951083 0.17062753 0.05170336 -0.12234038
0000d0 21 69 13 3c cf 62 50 bd 59 57 ab bd 8b f9 c4 bd
       0.008997233 -0.05087548 -0.083662696 -0.09617909
0000e0 49 62 c2 3c 9a 71 46 3e 0c 61 47 bc 13 38 21 3e
       0.023728507 0.19379273 -0.012169134 0.15744047
0000f0 28 14 89 3d ad d9 c7 3d 49 89 6b 3c ee 3f d5 3d
       0.066932976 0.09758315 0.014375993 0.10412584
000100 09 83 ab bd b4 86 fe bd fb 48 07 be 4b 8d a3 3d
       -0.08374602 -0.12428036 -0.13211434 0.07985934
000110 c9 90 5a be 52 92 02 be 95 05 5d 3c ab 72 eb bd
       -0.21344294 -0.1275113 0.0134901 -0.114964806
000120 44 41 01 3d 4e 61 fb 3d cb 0b d8 3b 7b a4 36 be
       0.031556383 0.12274419 0.0065932027 -0.17836182
000130 5b 30 db bc 00 7c 23 be fc 9f 17 be c1 c4 0c be
       -0.026756456 -0.15965271 -0.14807123 -0.1374693
000140 cc 16 71 3d f0 8e c8 3c 4f d2 cf bd 5d 9c 9e 3a
       0.05885963 0.02448222 -0.10147535 0.0012101043
000150 16 91 e2 bc 52 74 7b bd 60 78 39 3c a4 fa c7 bd
       -0.027657073 -0.06139023 0.011320204 -0.09764603
000160 9d da cb bd 19 13 ff 3d 37 30 5f be cb 43 0d be
       -0.099538065 0.124548145 -0.21795736 -0.13795392
000170 29 a5 b7 3d c5 e2 fd bc 18 21 b0 bc d1 ff 2c 3d
       0.08967049 -0.030991921 -0.021500155 0.042236153
000180 19 81 a6 bd 00 14 47 bc a8 b6 3d bc 96 5e 28 3d
       -0.08130092 -0.012150764 -0.011579193 0.04110583
000190 2f 1b 37 be e8 b4 0b be 7f 5b 6f bc a5 99 b5 bd
       -0.17881463 -0.13643229 -0.014609217 -0.08867196
0001a0 99 7e cb bd a5 26 a0 3d 2c d2 82 3d a2 29 99 bc
       -0.09936256 0.07819871 0.06387743 -0.01869661
0001b0 7d e6 34 bd c2 6b 13 3d b9 78 09 be bf ee d0 3c
       -0.044165123 0.035991438 -0.13424958 0.025504468
0001c0 75 cf 47 be 64 ff 0e be b9 3d 74 3c 36 35 c4 bc
       -0.19512732 -0.13964611 0.014907294 -0.023951154
0001d0 79 cf 54 bc ca 7a be 38 5f d8 95 3d 1a 23 34 3d
       -0.012988918 9.082777e-05 0.0731666 0.043978788
0001e0 84 e2 13 3c 19 2d dd bc a8 58 09 bd e5 2e bb 3b
       0.0090261735 -0.026999043 -0.033531815 0.0057123774
0001f0 d8 de dc bd 32 bc c3 bd ef 81 ae bd 18 b3 ff bd
       -0.107846916 -0.0955738 -0.085208766 -0.12485331
000200 f3 b9 9c 3d 2c 01 7b bd 31 37 9d 3d 3d e1 84 3e
       0.076526545 -0.061280414 0.076765426 0.25953093
000210 23 f5 12 be a2 35 9c bd 8c f7 cc bc 3a 6a c6 3c
       -0.14351325 -0.07627417 -0.025020383 0.024220575
000220 99 4f 49 3c 32 e4 78 bd 11 84 29 bc 8b b6 36 3d
       0.012287044 -0.0607645 -0.0103464285 0.04460768
000230 43 2b c1 bc 4e 43 67 3d 47 eb d0 bd ef e1 29 be
       -0.0235802 0.05646067 -0.102011256 -0.16590093
000240 5f 4c 5a bd b5 de 89 bd c8 bb 3e bd 70 30 10 be
       -0.05329549 -0.06731931 -0.0465658 -0.14080977
000250 22 f5 14 3e 67 16 2c bc 08 fc a3 3e 06 a2 97 bd
       0.14546636 -0.010503388 0.32028222 -0.074039504
000260 cf 37 58 3d fe 44 3c 3d 54 17 40 3e 9c 83 05 be
       0.0527876 0.045964234 0.18758899 -0.13038486
000270 23 53 2e 3e 60 38 9b 3d 32 4f bb 3c 5f 7d d6 3d
       0.17023902 0.07579112 0.022864912 0.104731314
000280 6e c5 39 be 47 66 84 bd 09 ff fa b9 12 65 61 be
       -0.1814172 -0.0646482 -0.00047873732 -0.22011212
000290 b3 6f a6 3c b3 a9 88 be 16 d2 86 3c 22 06 68 be
       0.020316934 -0.2669197 0.016457599 -0.2265859
0002a0 84 1b d5 bb 89 f8 aa 3d 3a be 7d 3e 36 11 22 3e
       -0.0065035243 0.083481856 0.24779597 0.15826878
0002b0 8e f9 11 3e 66 5c 73 bd a6 22 02 3e 68 92 b8 3d
       0.14255354 -0.05941429 0.1270853 0.090123
0002c0 5c f4 3a 3e 5e e1 57 be 87 c3 79 3c 0c a1 70 bc
       0.18257278 -0.21082065 0.015244371 -0.014686834
0002d0 65 da 20 3e c5 63 40 3e df cc 0b 3e 36 25 0a bb
       0.15708311 0.18788059 0.13652371 -0.0021079308
0002e0 1a d5 a0 3c 71 ec 7a 3c c8 87 93 3d 18 68 23 be
       0.019632865 0.015315161 0.072036326 -0.15957677
0002f0 7d b6 5d 3d 68 b8 87 3e 72 fe 1d 3e c4 99 f3 3d
       0.054129113 0.26507878 0.15429094 0.11894563

rnn.bias_hh_l0 f4 [192]
000000 e2 5f b0 3d 2e 5d 65 3c e6 97 04 3d 55 cd 36 3e
       0.08612038 0.013999267 0.032371424 0.17851765
000010 95 83 15 3e c1 4d 11 bd 75 d1 32 be 61 92 21 be
       0.14600976 -0.035474543 -0.17462714 -0.15778495
000020 54 70 c0 bc 3b 0b 87 3d f6 4e a7 3b 23 e9 8b 3b
       -0.023491062 0.06593939 0.0051058484 0.0042697354
000030 f3 b8 2d 3d 33 1e af 3d 82 33 91 3e 25 2c 86 3e
       0.04241271 0.08550682 0.2835961 0.26205555
000040 20 85 00 be 20 60 c1 bd 7c 37 09 bd 8e 7c 49 3d
       -0.12550783 -0.094421625 -0.03350018 0.04919105
000050 02 64 25 3e 66 e3 91 bd 5b cd 36 3e 50 e5 1e 3d
       0.16151431 -0.07123451 0.17851774 0.03879291
000060 7f 3f e7 bc 9e 58 e8 bd 6d 4b 5f 3e ba 98 88 3d
       -0.02822852 -0.113450274 0.21806116 0.06669755
000070 4a 1a 04 be 9d e4 7b bd d1 8c af 3c ed 09 24 bd
       -0.12900653 -0.06149732 0.021429451 -0.04004853
000080 d4 15 10 3e 61 d4 7a bd 79 65 4f 3e 2d fe a9 bd
       0.14070827 -0.061237697 0.20253552 -0.08300433
000090 53 81 a7 bd 73 6b 26 3e 88 65 66 3b 00 d2 55 3e
       -0.081789635 0.16251926 0.0035155732 0.2088089
0000a0 38 21 44 bc c6 55 c4 3c 22 75 35 bc f5 39 a4 3d
       -0.011970811 0.023966681 -0.01107529 0.08018867
0000b0 3f 21 c7 3c 96 ea 56 3d c6 ea 81 3a 77 ca 98 bd
       0.024307845 0.052469812 0.0009911887 -0.07460492
0000c0 80 0c 80 3d 27 60 dd bc 26 1f 84 bd a9 35 2f bd
       0.06252384 -0.027023388 -0.064512536 -0.042775784
0000d0 8a 6d 2a bc dd 61 40 3d e7 4a 90 3d 76 13 a1 bd
       -0.010402093 0.04696833 0.070455365 -0.0786504
0000e0 fd 38 d7 bd 30 ea 47 3e 28 a6 9e ba ab 66 f2 3d
       -0.105089165 0.19522929 -0.0012103962 0.118359886
0000f0 a9 48 00 3e 2e 93 ef 3d 28 25 08 3e d7 ae 17 bd
       0.12527718 0.11697994 0.13295424 -0.037031975
000100 e5 a3 03 bd f9 1a 1c be 17 8c 9d bd 62 6e b5 3c
       -0.032138724 -0.15244664 -0.07692736 0.022147361
000110 e8 cd 28 be 1e d9 3e be 5a 13 ad 3c 7f 88 2d be
       -0.16484797 -0.18637511 0.021127392 -0.169466
000120 c4 d2 59 bd 33 ab b4 3d 9d 8c 5f be bd b0 3c be
       -0.053179517 0.08821716 -0.21830983 -0.18426795
000130 b7 03 89 bc ab b8 95 3c d0 90 20 be 11 0d 11 bd
       -0.016725404 0.018276533 -0.15680242 -0.03541285
000140 d0 85 85 ba e1 3d 45 bd 1e 27 87 3d 90 48 17 be
       -0.0010186974 -0.048154715 0.06599258 -0.14773774
000150 cd 1a 91 bd 91 7e b9 bd 94 c6 e7 3c 90 84 08 be
       -0.0708519 -0.09057344 0.028292932 -0.13331819
000160 9c ee 42 bd 1d 11 a1 3d a3 2c 52 be 82 bb ba 3c
       -0.047590837 0.07864592 -0.2052484 0.022794489
000170 33 e8 07 3e ea 3d 2a 3c 1c ef 41 3d fd 5c c7 bd
       0.1327217 0.010390738 0.047347173 -0.09734533
000180 47 56 58 3d 4c 6c de bd 8f e7 c9 bd c8 ec 39 bb
       0.052816655 -0.108605 -0.098586194 -0.0028369892
000190 44 e7 31 be ab 96 35 be 5a 72 06 bd e5 7c 84 bd
       -0.17373377 -0.17733257 -0.032823898 -0.06469134
0001a0 ed 12 7b 3d 57 97 9b bd 60 c8 9e 3c 6d c4 ed 3b
       0.061297346 -0.07597225 0.019382656 0.007256082
0001b0 5e 5f cf bc d2 7b 1f be 0c ed b7 bc 17 61 62 bd
       -0.02531403 -0.15574577 -0.0224519 -0.055268373
0001c0 09 5a 1e be 1c 8e 45 bd 25 6d 20 be 08 5e 3a 3d
       -0.15464033 -0.04823123 -0.15666635 0.04549983
0001d0 ca 2d ff bd 36 30 df 3d 8a e3 81 3d 86 55 e9 3d
       -0.124599054 0.108978674 0.06342228 0.113932654
0001e0 fe 7e 04 be 41 5c 05 be 64 21 13 ba 48 11 c5 bd
       -0.12939069 -0.13023473 -0.00056125806 -0.09622437
0001f0 cc 53 eb bd 16 c1 02 bd 79 21 af 3d c5 61 a0 3d
       -0.11490592 -0.031922422 0.08551306 0.07831148
000200 27 eb 55 3e 82 75 fc bd e1 76 6d 3d 77 14 a6 3e
       0.20890485 -0.123271 0.0579747 0.32437488
000210 08 2d 58 be e7 c6 95 3d 0d 69 30 3d 87 75 b8 bd
       -0.21110928 0.07313328 0.043068934 -0.090067916
000220 9c d4 78 3d 9b 63 e3 bd dc 3d bf 3d 8a 9f 13 3e
       0.060749635 -0.111029826 0.093379706 0.14416328
000230 b0 9e 3f be 8b 1d dd 3c f2 d1 94 be 5f 7a 56 be
       -0.18712878 0.026991626 -0.29066426 -0.20945118
000240 12 91 17 3d 90 c6 d3 bc f6 d2 88 bd 93 a6 4d be
       0.037003584 -0.025851518 -0.066808626 -0.20083074
000250 33 b4 f9 3d 18 df ca 3c 1e 62 1a 3e 0a 87 a4 3c
       0.121925734 0.024764583 0.15076491 0.020083923
000260 b5 9e d3 bd fa ad 7f 3c 2f ca 45 3e 9c 4d 1c 3d
       -0.10333005 0.015605444 0.19315408 0.03815995
000270 68 85 16 3d 37 78 e3 bd f0 2f 18 3d 9e 1a 87 3d
       0.03674832 -0.111069135 0.03715509 0.06596874
000280 45 32 b8 bd cb 87 a3 3c 1b 43 85 bd 41 97 ad bd
       -0.08993963 0.019962212 -0.0650694 -0.08476115
000290 8c 2e dd 3d 20 a3 61 be 2f 02 73 3b ae 7d 36 be
       0.10799894 -0.22034883 0.003708016 -0.1782138
0002a0 6e dc 51 3e dd ba 9f bc f4 b6 54 3e 1f 7e aa 3d
       0.20494244 -0.019498283 0.20772916 0.08324837
0002b0 ec 45 02 3e a8 f8 d6 bd 55 dc 08 3e f3 3e b5 3d
       0.12721986 -0.10496646 0.133653 0.08849897
0002c0 e4 41 3c 3e 0c 4e e2 bd 07 15 22 3c cf ff e2 3d
       0.1838451 -0.110500425 0.009892709 0.11083948
0002d0 02 57 81 bd 14 6b 09 3e 21 da 59 bd 4f c2 e5 3c
       -0.063154235 0.13419753 -0.05318654 0.028046755
0002e0 8a 64 48 bd 12 da 20 be 60 8f 7e bd e4 4a 46 be
       -0.048924007 -0.15708187 -0.06214845 -0.19364506
0002f0 b8 d6 5e 3c 96 4d 89 3d 73 f7 f3 3d d7 a2 05 3e
       0.013600998 0.067042515 0.119124316 0.130504

rnn.weight_ih_l1 f4 [192, 64]
000000 57 35 b8 3d e6 77 8b 3c ac 10 00 bd 31 22 d5 bd
       0.08994549 0.017024945 -0.0312659 -0.10406912
000010 64 a0 3d 3d 4d b1 3c bd 8e 0a d8 bc f7 b0 64 3d
       0.04629554 -0.046067525 -0.02637222 0.05583283
000020 33 d2 f7 bc 49 ef bb bd a8 0b a4 3d c1 5d fd bd
       -0.030251598 -0.091764994 0.08010036 -0.12371398
000030 e5 0f c4 3d e3 6b 03 be 99 aa 03 3d 95 4a b1 bd
       0.09573344 -0.12834124 0.032145116 -0.086568035
000040 52 09 c5 3c 99 3c cd bd cb bf 05 3d 0b c8 c0 3d
       0.024052296 -0.10021324 0.03265361 0.09413155
000050 56 61 36 3d 15 89 21 bc 3a 73 e7 bd 7d 7a 06 bd
       0.04452642 -0.009859343 -0.113012746 -0.032831658
000060 62 80 43 3c 31 04 b0 bc 61 53 80 3d c3 73 3a bb
       0.011932464 -0.021486374 0.06265903 -0.0028450347
000070 6d ef 42 3c d7 85 0d 3d 1d 26 6c bc cf 25 83 3d
       0.011897904 0.034551468 -0.014413384 0.06403696
000080 51 c9 8e 3d 58 eb 4d 3c 14 72 df bc b0 80 cb 3b
       0.06971992 0.012568317 -0.027276076 0.006210409
000090 eb a1 c8 bd e2 18 9e bd 38 7d 1f 3d 69 1e 0d 3e
       -0.097965084 -0.0771959 0.038937777 0.13781132
0000a0 9f 29 02 be dc da 89 bd 1b b7 46 3d dd 98 92 bd
       -0.1271119 -0.06731197 0.048514467 -0.071580626
0000b0 06 1c f7 bd 32 85 c3 3d c9 a3 0a 3e 29 a0 5d bd
       -0.12065892 0.09546889 0.13539042 -0.05410782
0000c0 0c 9e 62 3c fc 34 a1 bc 74 ff f7 3d 3c 02 6b bd
       0.013831627 -0.019678585 0.12109271 -0.057375178
0000d0 c9 0c 9c 3d c6 d3 b4 3d 0a f4 b5 3d 65 7d 9a 3d
       0.07619626 0.08829455 0.088844374 0.07543448
0000e0 22 6a 29 bd 46 88 a1 3d 9d 45 18 bc 84 e0 d8 3d
       -0.04136098 0.0788732 -0.009293941 0.10589698
0000f0 9a dc a5 bd 51 54 04 3d 0c d5 93 3d fb 12 db bd
       -0.08098717 0.032306973 0.0721837 -0.106969796
000100 37 37 01 be e4 4c c4 3c 5f 06 88 bd 23 9d 91 bb
       -0.12618719 0.023962446 -0.0664184 -0.004443781
000110 74 c1 2d 3e 9d dc e9 bd 26 01 4c bd bd 75 d0 3c
       0.16968328 -0.11419032 -0.049805783 0.025446767
000120 d2 23 3c bd da 61 1e 3e 76 2b 70 3d f2 bb f3 bd
       -0.0459326 0.15467015 0.058635198 -0.11901082
000130 61 8e 0f bc df 66 68 3c 83 c7 54 3d 04 b6 1c bc
       -0.008761973 0.014184683 0.05194808 -0.00956488
000140 54 72 c0 3c b8 2f 0c bd 98 95 b0 3d 95 0a 24 3d
       0.023492016 -0.034225196 0.08622283 0.040049154
000150 9a 4d a8 bc eb c0 d0 bd c6 07 91 bb 00 1a f9 3c
       -0.020544816 -0.10193046 -0.0044259755 0.030407906
000160 93 b4 c0 3d cc 05 5f bc 59 67 81 bd 7a a1 8a 3c
       0.09409442 -0.013612222 -0.0631854 0.016922701
000170 a8 61 1c be 7c b9 e5 bd ec bd 76 3a ba 59 8b bd
       -0.15271628 -0.11217019 0.0009412456 -0.06804223
000180 50 fe d3 3c 3a b0 24 3d f9 1b 14 bd 45 78 a1 bd
       0.025878102 0.040207125 -0.03615949 -0.07884268
000190 14 6e 04 3d 0d 2e 1d 3e 49 c2 2c be 50 b4 a5 3d
       0.03233154 0.15349598 -0.16870989 0.080910325
0001a0 28 83 25 be fc 08 01 be 55 46 02 be a0 a4 92 3d
       -0.16163313 -0.12601084 -0.12722142 0.07160306
0001b0 63 34 d8 bd 9f 25 8f bb 65 af b2 bd ac 54 2f 3d
       -0.10556867 -0.0043684985 -0.0872486 0.04280536
0001c0 45 17 f1 bd 76 69 3a 3e b0 53 f3 bc 36 12 31 3d
       -0.117720164 0.18204293 -0.029702991 0.043230258
0001d0 17 dc c1 bd 07 ce d8 bd 03 cf cc 3c 68 e0 85 3d
       -0.09465807 -0.105861716 0.025001055 0.06536943
0001e0 07 5d 1d bb 66 94 89 bc a7 12 80 bd f1 3b 25 3e
       -0.0024011747 -0.016794395 -0.06253558 0.16136147
0001f0 f7 a7 55 bc 13 ae b9 bd 4b ce 45 3c 25 73 9e bc
       -0.013040534 -0.09066405 0.01207311 -0.019342015
000200 38 6e d4 bd 49 cf df bd f0 0c 85 3d 57 94 e3 bc
       -0.10372585 -0.109282084 0.06496608 -0.027780695
000210 76 fc 25 bb 65 a1 a7 bd 5c cb 2d bc ac 4f d4 bc
       -0.002532748 -0.081850804 -0.010607567 -0.025916897
000220 86 8f 13 3d f8 85 1a 3c 97 63 0a bc df 98 58 3a
       0.036025546 0.009431355 -0.008446596 0.00082625257
000230 ef 84 c2 bd b7 76 a1 3d d1 bc 8a 3d 6a 02 ce 3b
       -0.09498011 0.07883971 0.06774295 0.006286909
000240 df 72 0b 3d 65 6a aa bd 35 44 34 3d 24 6b 11 3d
       0.034045096 -0.083210744 0.04401036 0.035502568
000250 0d 90 e7 3d 9a bd a7 bc 68 6f 18 3d 65 6a e1 3c
       0.113067724 -0.020476151 0.03721562 0.027516553
000260 79 be cc bd c9 ed fa bd 4a b6 f1 bc bc 66 e1 3c
       -0.09997267 -0.12252385 -0.029505868 0.027514808
000270 a2 3f 48 bd 99 e6 0f 3e eb 22 16 3c 6d 24 16 bd
       -0.04888881 0.1405281 0.0091635985 -0.036655832
000280 d2 c8 24 be da 3e a1 bd d4 1c 4d bd 19 6a 0a be
       -0.16092232 -0.07873316 -0.05007632 -0.13517036
000290 ad e9 0b be 64 13 e1 3d fc bf 25 bd 95 6a e9 3d
       -0.13663359 0.109900266 -0.040466294 0.11397282
0002a0 73 a8 19 3c 85 92 87 bc 4a 1f d6 3d ad 54 46 bd
       0.00937854 -0.016549358 0.10455187 -0.048420597
0002b0 83 a8 e4 ba 83 48 0f bd 5d f1 b6 bd 65 f9 5a 3d
       -0.001744524 -0.034981262 -0.08932755 0.053460497
0002c0 57 13 3d 3d 30 ff 12 be 22 b0 ac 3d 03 49 c8 bd
       0.046161022 -0.14355159 0.08432032 -0.09779551
0002d0 71 73 96 3d 5a da f6 3c 71 61 0f 3b b8 f6 af 3d
       0.073462375 0.030133415 0.0021878148 0.0859198
0002e0 96 a5 68 3d 7a f5 39 3d f6 0d fe 3c 1a 69 cb bd
       0.05679854 0.04540012 0.031012516 -0.09932156
0002f0 5e 69 92 3c 03 68 fd bc 1b 91 c3 bc a8 7e 0d 3e
       0.017872509 -0.030933386 -0.023872903 0.13817847
000300 9b c0 17 3d f9 03 f7 bc 83 77 99 3d b6 ea 23 be
       0.037048917 -0.030153261 0.07493498 -0.16007504
000310 a5 ac b6 ba ea 08 ee bd 0c c3 80 bd a5 ee 64 3d
       -0.001393695 -0.11622794 -0.06287202 0.05589165
000320 29 9a 9b bd cb 07 fb bb 62 71 56 bd 9b e6 9b 3d
       -0.07597763 -0.007660841 -0.052354224 0.07612344
000330 8c f7 23 3d 4b ff a3 3c 8c c6 f5 3d 94 93 0b 3d
       0.040031 0.020019194 0.120007604 0.03407629
000340 a5 c1 9f 3d 23 55 8d 3d 2a ab 08 3d 0f fa 54 3b
       0.07800607 0.06901004 0.03336636 0.003249768
000350 65 e3 58 bc 26 e3 a2 3d a7 c7 53 bd b0 f6 c1 3d
       -0.013237809 0.079534814 -0.051704075 0.0947088
000360 71 77 f8 3d 70 4f af 3d 05 55 8d bd 6b 74 59 bc
       0.12132157 0.085600734 -0.06900982 -0.013272385
000370 e9 78 8b bd f3 75 95 3c 84 eb 16 3d 04 60 8a 3d
       -0.06810171 0.01824472 0.0368457 0.06756595
000380 df 9f e5 bc 9a 53 8d bd 27 e3 a3 3d 1d c1 46 3d
       -0.028030334 -0.06900711 0.0800231 0.04852401
000390 2b 47 c9 3d a5 c5 ed bc 29 84 c8 3d e8 52 6a 3d
       0.09828027 -0.029024908 0.097908325 0.05720797
0003a0 20 4d 1b bd 40 38 aa 3d 61 26 5e 3d df 87 a0 bd
       -0.03791535 0.0831151 0.05423582 -0.07838415
0003b0 28 12 8d bd 08 40 42 3d 9f 10 6b bd f9 bd 77 3d
       -0.06888229 0.047424346 -0.057388898 0.060483906
0003c0 70 7a d7 bd 31 83 66 3d 3c a5 d9 3d ac 40 da 3d
       -0.105214 0.056277458 0.10627219 0.106568664
0003d0 a2 55 12 be ff 32 7b 3d 31 d0 2a 3d 29 92 14 be
       -0.14290479 0.06132793 0.041702453 -0.1450888
0003e0 c6 79 cb 3d 91 cf 67 3d f0 b0 60 3c 27 48 0a bd
       0.09935336 0.056594435 0.01371406 -0.033760216
0003f0 6c 6e 33 3d c2 83 ab bd 00 e3 83 bd ec ca 93 3d
       0.04380648 -0.0837474 -0.06439781 0.07216439

rnn.weight_hh_l1 f4 [192, 64]
000000 be 43 b4 3c 39 f7 de bc ae 19 0c 3e 79 c1 12 be
       0.022004958 -0.027217494 0.13681671 -0.14331616
000010 d2 47 b3 3d 85 87 70 3d 48 0e 20 bd 7a 3f 5b bd
       0.08753933 0.05872299 -0.03907612 -0.053527333
000020 20 18 3f bc c5 30 b0 bd a1 7b 53 3d a9 86 42 3b
       -0.011663467 -0.08603052 0.051631574 0.0029682314
000030 14 20 d7 bc 68 ef f6 bb 4b 6d 50 3c 9b 53 09 be
       -0.026260413 -0.0075358637 0.01272137 -0.13410799
000040 18 5d b8 bb 30 ef 8f 3d fe a3 1e 3b be 03 0a 3d
       -0.005626332 0.07028043 0.0024206634 0.033694975
000050 f0 2c a0 3d 3a 53 77 3d ad 12 3e 3d 62 e9 c3 bc
       0.07821071 0.060382105 0.04640453 -0.023914997
000060 79 c6 e2 bd 36 87 84 3d fe 54 d8 bd d4 53 a6 bd
       -0.11073012 0.06471102 -0.10563086 -0.08121458
000070 4a 15 f6 3d db ab d1 3d 8b 3c 09 3e d1 af 69 bd
       0.12015779 0.10237857 0.13402002 -0.057052437
000080 f5 df 7d bd 9b ed b5 bd d0 3b cc 3c e5 16 c9 3d
       -0.06198116 -0.0888321 0.024930865 0.0981882
000090 d2 4f 94 3d 59 0a c0 3d 62 e5 11 be 07 15 a3 3d
       0.07241787 0.09376974 -0.14247659 0.07962995
0000a0 1b fc b4 bd 04 30 18 3d 55 33 83 3d bf c0 e6 bb
       -0.08837148 0.037155166 0.06406275 -0.00704202
0000b0 c6 37 94 3c e6 e8 b8 bd c5 22 ac 3d 6a 01 b7 bc
       0.018093001 -0.09028797 0.08405069 -0.022339541
0000c0 f2 4b a7 bc bb c3 0b 3e 09 a2 fc 3d bf f2 da bd
       -0.020421956 0.13648884 0.12335593 -0.106908314
0000d0 91 01 f2 3d 88 52 16 be 00 30 8e 3d 31 a2 d3 3d
       0.11816705 -0.1467992 0.06942749 0.1033367
0000e0 ec 5e 6a 3d d2 d2 2e bd 0f 3b 96 3d f6 57 96 bd
       0.05721943 -0.042681523 0.07335483 -0.07340996
0000f0 3c 5a c3 bc 9d 0b a7 bc 4e 98 67 3c 36 49 42 3d
       -0.023846738 -0.02039128 0.014135433 0.0474331
000100 f0 79 1c bd 05 b7 a3 3d 4b 30 b6 3d 6e eb bc bd
       -0.038202226 0.079938926 0.0889593 -0.09224592
000110 df b9 1b bd 11 48 02 be 34 39 05 bd 32 9a fc 3d
       -0.038019057 -0.12722804 -0.032525256 0.12334098
000120 3b 71 9f bc 20 8a b2 3d 41 a3 9a bd 4f 01 3d 3d
       -0.019463172 0.087177515 -0.075506695 0.046143826
000130 a3 1a 5d bd 21 ae 19 3c 77 54 96 bc 5c f8 6e 3d
       -0.05398048 0.0093798945 -0.018350823 0.058342323
000140 e4 4e 12 3e 0b b2 09 3e 8f 05 fc bd 91 a3 9e bd
       0.14287907 0.13446824 -0.12305748 -0.077460416
000150 e2 a6 4b bd 30 cc 78 3c fe 71 72 3d ab a0 f4 3d
       -0.0497197 0.015185401 0.059190743 0.119447075
000160 ac 5b 0e be 37 7d 51 3d cd 15 93 bb 49 af f9 3d
       -0.13902158 0.051144805 -0.004488683 0.12191636
000170 5d 66 c1 bd d2 9f 2e 3d 0a 15 27 bd ae 5a fc 3d
       -0.09443352 0.042632885 -0.04079155 0.12321983
000180 a4 ca b8 3d b4 a1 9e 3d f4 36 01 be 11 34 fc bc
       0.09023026 0.07745686 -0.12618619 -0.030786546
000190 62 f7 20 bc f6 e1 18 3d 6e 5b 47 3d 7c a5 d2 3c
       -0.009824606 0.03732487 0.04867118 0.025713675
0001a0 6b 54 c2 bd 6b 70 d1 3d fb 35 49 3d 80 e1 01 3e
       -0.09488758 0.1022652 0.049123745 0.12683678
0001b0 0c e1 5f 3d 4d ac fb 3d 2f 11 ef bd 88 e3 bb bd
       0.05465798 0.12288723 -0.116731994 -0.091742575
0001c0 72 5a 12 be a7 5d 4f bd 33 f5 12 bc 4f 26 22 b9
       -0.14292315 -0.050626423 -0.008969593 -0.00015463795
0001d0 38 de 11 3e ae e0 93 bd bc 8b 4f 3c 73 c9 8b 3d
       0.14244926 -0.072205886 0.012667593 0.06825533
0001e0 3a 46 f4 3b 81 f6 a2 3d 35 6b c6 bd ce 92 9a bd
       0.0074546607 0.07957173 -0.09688417 -0.07547532
0001f0 c9 0b 8c bd cf 95 45 3d 5a d6 a7 bd 5b 3b 6f 3c
       -0.06838185 0.04823857 -0.08195181 0.014601554
000200 e4 c0 32 be 65 e7 00 3e 73 e4 e3 3c 54 e3 9d 3d
       -0.17456394 0.1258827 0.027818894 0.07709375
000210 56 75 d6 3d b5 87 86 bd a5 98 aa 3d 06 e2 a5 3b
       0.10471599 -0.06568853 0.08329896 0.0050623445
000220 55 5e ef 3d fb c2 c0 bd 30 98 88 3d 3f b0 79 3d
       0.11687914 -0.094121896 0.066696525 0.060959097
000230 b0 3c a6 bd 88 64 84 3d 65 e4 9e 3d 50 a2 35 bd
       -0.08117044 0.06464487 0.077584065 -0.044344246
000240 fc e0 2e bd 72 60 c1 bc 73 33 03 3e ba 3c c4 bd
       -0.04269503 -0.023605559 0.12812595 -0.09581895
000250 31 2c 2b bd 97 33 d9 3d a0 76 01 3e 90 09 26 be
       -0.04179019 0.10605543 0.12642908 -0.16214585
000260 48 37 8f 3d a8 7e c1 3d fa e7 0b 3e 64 5e 8c bb
       0.06992966 0.09447986 0.13662711 -0.004283713
000270 fb e0 db 3d e9 9d 05 be 43 23 3b 3d 6c 9b 95 3d
       0.10736271 -0.13048519 0.045687925 0.07305035
000280 6a e6 28 3d f7 37 70 bd 12 84 67 bd 0a d1 9b bd
       0.041235365 -0.058647122 -0.056522436 -0.076082304
000290 0c c3 67 bd d2 6f 12 3e 16 be b6 3d 45 51 03 3d
       -0.056582496 0.14300469 0.08922975 0.032059927
0002a0 5f 5a f5 3d 69 65 2b be ee b0 93 bd 82 46 60 bd
       0.119801275 -0.16737904 -0.07211481 -0.05475474
0002b0 f2 89 64 bd 49 ed cd bc 7f ee 55 bd 31 c8 2d 3d
       -0.055795617 -0.02513756 -0.0522294 0.042427246
0002c0 83 be 35 3e c9 77 b5 bd 7a 0a 9f 3d 3c 46 6d 3d
       0.17748456 -0.08860738 0.0776567 0.05792831
0002d0 b8 dd c5 bc e5 af ab 3d 9e e3 be 3c 7d 14 05 be
       -0.024153575 0.083831586 0.023301896 -0.12996097
0002e0 62 df de 3c 82 6a 0d 3d b6 5d 7c 3d 08 49 59 bd
       0.027206127 0.034525402 0.061612807 -0.053048164
0002f0 e4 b6 bc bd d3 41 ff 3c ad dd b4 3d 4c 99 70 3d
       -0.09214571 0.031159317 0.08831344 0.058739945
000300 de 7c df 3b 4f cd 71 bd 49 f2 61 bd 13 06 14 be
       0.0068203053 -0.05903369 -0.0551627 -0.14455442
000310 60 9c 77 3d 87 e3 ae bd 5d c9 57 bd cc 96 12 3d
       0.060451865 -0.08539491 -0.05268227 0.035788342
000320 bc 33 1a 3d 6c 57 a0 bd a0 df cc 3c 10 35 a0 3c
       0.037646994 -0.078291744 0.025008976 0.019556552
000330 80 8c 86 3d a8 38 94 ba 0a 17 b3 bd 49 8c 5c 3d
       0.06569767 -0.0011308389 -0.08744629 0.053844724
000340 46 8f be bd b9 b9 10 3b cf e1 0a be 23 14 b1 3d
       -0.09304671 0.0022083356 -0.13562702 0.08646419
000350 bd 63 74 bd b5 21 00 be 2d 4c a1 bd 06 3d b0 3d
       -0.05966543 -0.12512858 -0.078758575 0.08605389
000360 db f7 d1 bc ac cb a4 bd c7 8e 24 3d 3c cc a6 3d
       -0.025630882 -0.0804666 0.040175226 0.08144423
000370 b4 06 e4 bb 80 f9 b2 bd 77 d7 32 bd 40 e8 ff 3b
       -0.006958807 -0.087389946 -0.043662515 0.007809669
000380 40 07 0b 3e ac b9 f0 3d 88 5a 77 bd ac 9b a7 bd
       0.13576984 0.11754164 -0.06038907 -0.08183989
000390 1d 6e e8 bd 64 f6 18 be b5 f7 ae 3d f1 2a 56 3d
       -0.113491274 -0.1493774 0.0854334 0.052287046
0003a0 10 c0 eb bd 3c a9 67 3d 14 4e 08 be 13 5a d0 3d
       -0.115112424 0.05655788 -0.13311034 0.1017343
0003b0 c4 61 99 3d 00 31 36 3d 67 75 a0 bb c7 ca 90 bd
       0.074893504 0.044480324 -0.004896808 -0.07069927
0003c0 cd 0e 02 be f7 ae 88 3d b1 24 6f bd 7a bf 58 3d
       -0.12700959 0.06673997 -0.0583846 0.05291698
0003d0 c0 38 26 bd 00 80 26 be c7 33 94 bd 1d e7 98 bd
       -0.040581465 -0.16259766 -0.07236438 -0.07465956
0003e0 1d 12 a0 bd 2c eb 05 bd 57 23 0d 3d ac af 5a bc
       -0.07815955 -0.03269498 0.03445753 -0.0133475475
0003f0 b8 98 19 3e cb a4 d1 bd 48 53 b5 bd 91 a8 af 3d
       0.14999664 -0.1023651 -0.08853775 0.08577073

rnn.bias_ih_l1 f4 [192]
000000 04 b5 30 bc 94 5d 80 bd fc 1a dd 3d 72 8a 64 bb
       -0.010785345 -0.062678486 0.107961625 -0.003487256
000010 01 34 42 3e ba f4 b8 3d 12 4f 02 bd 16 83 6a bd
       0.1896515 0.09031053 -0.03181369 -0.05725392
000020 ad 1f d9 3d bf 63 6d 3d e0 3f ec bc 13 5e aa bd
       0.10601745 0.057956453 -0.028839052 -0.083187245
000030 84 da dc bd 42 9c bf bd 78 52 31 bd b5 d4 ce bd
       -0.10783866 -0.09355976 -0.04329154 -0.100991644
000040 5e 6f 1a 3d 13 79 d3 bd 6a 9a 04 3d 62 fd 57 3d
       0.037703864 -0.103258274 0.032373823 0.05273188
000050 59 9d 0a bd 81 64 08 3d a0 fc f1 bc d1 e7 ee 3d
       -0.033841465 0.033298973 -0.029539406 0.11665309
000060 70 dc 16 bc 8d 57 bd bd 13 52 da bd 21 07 01 bd
       -0.00920783 -0.092452146 -0.10660186 -0.03150094
000070 20 e7 1d 3d 59 cd fa bd 0d 5c c6 bd 8b c2 a4 3d
       0.038550496 -0.12246198 -0.09685526 0.080449186
000080 24 d5 87 bd 61 2c bf bb 12 18 e2 3b 3f 05 9d 3d
       -0.0663245 -0.005834148 0.006899842 0.07667016
000090 12 9c 76 bd dd 2d 7e b9 75 74 2b 3d 47 90 00 3d
       -0.060207434 -0.00024240413 0.04185911 0.031387594
0000a0 f9 39 d0 3c 21 88 bf 3d c9 29 0c 3c bb 3b ae 3d
       0.025418269 0.093521364 0.008554884 0.085074864
0000b0 7e f7 d6 3d ba 91 d5 3c 54 89 e5 3d 4f ba 9e bd
       0.10496424 0.026070464 0.11207834 -0.07750379
0000c0 fe 45 21 bd 6d 53 7c bd 9b 4e 2a bd bc 54 1a bd
       -0.03937339 -0.061603 -0.04157887 -0.037678465
0000d0 b6 c4 24 bc 9e 64 ae bc 6e 93 86 bb c6 7c 97 bd
       -0.010056665 -0.021288212 -0.0041069305 -0.073968455
0000e0 5d 9d 1d 3c 8c 29 07 bd 82 15 4d bd b4 97 8d bd
       0.009620038 -0.032998607 -0.05006934 -0.06913701
0000f0 82 17 7e bd 4a 44 4e 3d 92 63 a4 3c 8b 69 b8 3d
       -0.062034138 0.050358094 0.02006701 0.09004506
000100 2c ca d8 3d e3 d1 00 be af e6 14 3d c0 dc 34 bd
       0.10585436 -0.12580065 0.03635281 -0.044155836
000110 54 15 79 bd be e9 85 bc fa 14 0d be c1 e0 55 3b
       -0.060811356 -0.016346809 -0.13777533 0.0032635184
000120 78 5f 2f be 9f a0 71 3d 6f 45 48 bc cb db 07 bd
       -0.17126262 0.05899107 -0.0122235855 -0.033168595
000130 78 3e f4 bd c3 36 3b 3d ed 28 26 be 0d 2a ac 3d
       -0.119259775 0.04570652 -0.1622655 0.08406458
000140 5e 18 a0 3d c5 fd a7 3d c0 86 a7 bd 13 6c a2 bd
       0.07817148 0.082026996 -0.081799984 -0.0793077
000150 3f 67 ad 3b 65 14 82 3d 15 ab f5 bd bb 39 cb 3d
       0.005291849 0.06351546 -0.11995522 0.099231206
000160 dd 56 5b 3d 8b 4c ef bd 60 26 15 be 0c f4 1e bb
       0.053549636 -0.11684521 -0.1456542 -0.002425435
000170 4a 0a 6d bb 62 ba 64 bd 8b f5 b6 bd b3 1f 61 bd
       -0.0036169463 -0.05584181 -0.08933552 -0.05496187
000180 85 30 e9 3d 06 f1 c9 bd 2e d4 09 be e4 75 46 bd
       0.113862075 -0.09860425 -0.13459846 -0.048452273
000190 b3 93 bf bd 85 04 1c be 4e cb 11 be 5b 61 b4 3d
       -0.09354343 -0.15236099 -0.14237711 0.088076316
0001a0 b2 16 fc bc 40 a6 63 3d 83 0c b0 3d 98 40 25 bd
       -0.03077254 0.05557847 0.085961364 -0.040344805
0001b0 33 79 13 be 0e 7e 1f be 17 bf b7 bd 89 af 04 bd
       -0.14401703 -0.1557543 -0.08971994 -0.032393966
0001c0 68 0a 04 bd e8 10 d2 bd 14 4a c0 bd 80 bb 86 bd
       -0.032236487 -0.10257131 -0.09389129 -0.065787315
0001d0 f7 f5 cc bd 16 d2 10 be de 4f da bd 25 55 2c be
       -0.100078516 -0.14142641 -0.10659765 -0.16829355
0001e0 ef 81 9e 3d 20 e0 aa bd e4 b7 e4 3c 7e 76 d2 bd
       0.077396266 -0.0834353 0.027919717 -0.10276507
0001f0 5e 2f df bb 8c dc e1 bd ce 80 4f 3d ff ea 5b 3d
       -0.0068110665 -0.11028394 0.050659947 0.053690907
000200 4d 9b 49 3c cf a2 16 be f5 db 17 bd dc bc 8b bd
       0.012305093 -0.14710544 -0.037075 -0.068231314
000210 9e 58 11 3e 7b 1f be bd c5 2d 8d 3d 97 c9 65 ba
       0.14193961 -0.09283348 0.068934955 -0.0008765696
000220 c6 61 b8 3d b4 69 91 3d 21 e7 40 bd 20 70 f9 3d
       0.09003024 0.071002394 -0.04709542 0.12179589
000230 ad fd a9 3c ff f1 01 be 1c f9 a0 3d f7 7d 9b bd
       0.020750845 -0.1268997 0.07860014 -0.07592385
000240 48 14 c8 3d 61 eb ae bc 32 0f 90 3c 4e 0f 13 3c
       0.09769493 -0.021352472 0.01758537 0.008975817
000250 36 eb 56 3a ed fd 64 bc a0 11 39 3b 8b 89 96 3c
       0.00081985013 -0.013976556 0.0028239265 0.018376132
000260 6f ab 72 3c 12 25 d3 3d d3 1f 0e be 99 ca ed 3c
       0.014811381 0.10309805 -0.13879327 0.02902727
000270 55 a0 b0 3c e1 11 0b 3e ec 89 fc bc ec a5 3b 3d
       0.021560827 0.13581039 -0.030827485 0.045812532
000280 68 fe 27 3d 94 17 ad bd bc 37 b3 bd 3a f0 bc 3d
       0.041014105 -0.08451763 -0.08750865 0.09225507
000290 82 7c 5e bd 1e 8e d5 bc 67 17 52 3d 0a b5 0d be
       -0.05431796 -0.026068743 0.05129185 -0.13838592
0002a0 06 17 3c 3d 37 af a6 bd 8e ef 35 3d cc fe 19 3d
       0.045920394 -0.08138888 0.04441791 0.03759651
0002b0 71 3f d1 bb 64 ee 9d bd 03 a5 8d bc bf e3 42 bd
       -0.0063857366 -0.07711485 -0.017290598 -0.047580477
0002c0 e4 c5 26 3d 6e d2 bd 3c d2 12 6d 3d 07 1f 85 3d
       0.040716067 0.02317163 0.057879277 0.065000586
0002d0 ee 2d 7e 3d 30 70 20 3d ec 29 28 3b 7a ff 80 3d
       0.06205552 0.03916949 0.0025659753 0.06298728
0002e0 a3 74 ed bd 27 82 8d 3c e3 50 94 3d 3d 82 f1 bd
       -0.11594512 0.017273976 0.072419904 -0.11792419
0002f0 db 60 d5 3d 07 ee 9c 3d 4a 95 cf bd 34 e8 ed bd
       0.10418864 0.076625876 -0.101358965 -0.11616555

rnn.bias_hh_l1 f4 [192]
000000 9c f1 e5 3d 48 42 08 be d7 84 dd 3d ce 82 c5 3d
       0.11227724 -0.13306534 0.10816353 0.0964409
000010 9c 65 ff 3a ec 42 0c 3e cf e4 f9 3d 0b 9d 6f bd
       0.0019485238 0.13697404 0.12201845 -0.058499377
000020 f2 9b 82 3e 77 fd bd 3d 53 4a 2e bd ce 38 98 ba
       0.25509602 0.0927686 -0.04255135 -0.0011613609
000030 73 37 1e 3d 6f b5 b6 bd 60 49 bf 3d d7 6b 3c bc
       0.0386271 -0.089213245 0.09340167 -0.01150032
000040 a4 08 b1 bc 63 eb 98 bd 89 65 0e bb 79 fd ec bc
       -0.021610565 -0.074667715 -0.0021728 -0.028929459
000050 23 a2 e6 bd b0 0f d7 3d a5 8a bf bd 96 19 2b 3d
       -0.11261394 0.10501039 -0.09352616 0.041772448
000060 2c e7 da 3d b9 5a e8 bd b8 ec 7c bd c7 0b d6 3d
       0.10688624 -0.11345429 -0.06174919 0.10451465
000070 a2 2c 2e 3e 6d d0 38 3b 36 ab 2d bd 3f 94 41 3e
       0.17009214 0.0028200403 -0.042399608 0.18904208
000080 f9 e3 fa 3d f4 79 a0 3d 79 af e6 bd cf 9e e0 3c
       0.122505136 0.07835761 -0.112639375 0.027419476
000090 d7 62 86 bd c6 1e 88 3d cd c3 8b 3d f0 83 cf 3d
       -0.06561821 0.066464946 0.068244554 0.10132587
0000a0 4a 03 b8 bc 51 68 c2 bd 8d 6b 46 bd b3 a7 bd bd
       -0.022462506 -0.09492553 -0.048442412 -0.09260502
0000b0 90 e6 5c 3d 33 7d 0c be 88 03 33 bd a0 62 78 3d
       0.05393082 -0.13719635 -0.04370454 0.06064093
0000c0 b0 55 22 3d 06 db ca bd cb 5d 9a bc 8f 76 e8 3d
       0.0396325 -0.09905057 -0.018843552 0.11350738
0000d0 c3 51 c8 3d 9b 01 53 bb 72 3b b9 3b e9 23 c5 bc
       0.0978122 -0.0032197002 0.0056528384 -0.024064975
0000e0 6a 3b 92 bc 4d 2d 5b bd aa ce b8 bd e6 32 fa 3b
       -0.017850596 -0.05351 -0.09023793 0.007635462
0000f0 10 6f e2 bd 36 e1 7f 3c 49 57 74 3d 9e 96 15 be
       -0.1105634 0.015617659 0.059653554 -0.14608237
000100 47 04 bf 3d 22 c0 80 bd 08 1d 65 3d 10 ad 63 3c
       0.09326988 -0.062866464 0.05593589 0.013896242
000110 94 f5 d2 3c c1 16 ef bd 82 bf 00 bd ce e3 8c 3b
       0.025751866 -0.11674262 -0.031432636 0.0042996174
000120 ea 4a b0 bd 90 fa 24 bc d0 30 08 be e5 c0 9b bd
       -0.08608039 -0.010069504 -0.1329987 -0.07605151
000130 d3 21 04 be c4 59 05 be 6e 47 0a be f9 6e 94 3d
       -0.12903528 -0.13022524 -0.13503811 0.07247729
000140 ea d8 82 3d fe 44 e5 3a 7d 07 25 3a af 05 5c 3d
       0.06389029 0.0017491875 0.00062953663 0.053716358
000150 94 10 fb bd b4 a2 21 be 08 e0 91 3d b3 dc 39 3d
       -0.122590214 -0.15784723 0.07122809 0.04537649
000160 1b 13 99 3c dd da d5 bc 80 76 d7 bc e3 c1 a1 bc
       0.018685868 -0.026105339 -0.026301622 -0.019745773
000170 84 86 60 3c 4b 12 23 bd 79 4e 0c be b2 0d 10 be
       0.013703946 -0.039812367 -0.1370181 -0.14067724
000180 9a a8 c6 3d b2 36 90 3d ed 11 0f be 09 8a 78 3c
       0.09700127 0.07041682 -0.13971682 0.015169629
000190 c8 87 e3 bd 3e 0c 6e 3d 2c 46 42 be ee 96 b7 3d
       -0.111098826 0.058117144 -0.18972081 0.089643344
0001a0 77 37 3a bd be 2c 94 bd a5 63 06 be da b3 bf 3d
       -0.04546305 -0.072350964 -0.13123949 0.09360476
0001b0 f6 64 bb 3b 86 df e7 3c 51 74 9c bd be 40 c2 3c
       0.0057188226 0.028304826 -0.07639373 0.023712512
0001c0 37 24 a7 3d 2f a6 2d bb 0f d9 b7 bb ab 1c 12 be
       0.08161204 -0.0026496758 -0.005610592 -0.14268748
0001d0 41 78 a1 3d 2c 18 ce bd d6 2e a4 3d 44 c2 9d 3c
       0.07884265 -0.10063204 0.08016746 0.019257672
0001e0 16 aa 7d 3c 1a 9b 6c bd 39 84 0b 3d d9 0d 63 3d
       0.015482446 -0.057765104 0.034061644 0.055433128
0001f0 c3 28 83 bd 69 fb b0 bd 3c 0b 24 3d 92 4e 25 3c
       -0.06404259 -0.08641703 0.040049776 0.010089533
000200 85 64 89 bd 31 a5 62 3b 41 ad e1 3d f0 d5 07 3d
       -0.06708626 0.0034583325 0.11019374 0.03316301
000210 53 69 a6 bd 43 3c 94 3c 47 25 9d 3c 84 d1 e5 3c
       -0.08125558 0.018095141 0.019182814 0.028054006
000220 02 6d 0a 3e 48 3e 2d 3d 91 d5 d1 3d b3 4c ae 3d
       0.13518146 0.042295724 0.10245813 0.08510723
000230 8e a0 c2 bd 00 7f 81 3d 4e 2b e1 bd 3a b5 6c 3d
       -0.095032796 0.063230515 -0.10994588 0.05779002
000240 d4 51 21 bd 37 6e e0 3d 7e e1 58 3c 00 7d 0f 3d
       -0.039384678 0.10958522 0.013237355 0.03503132
000250 1b 5f d5 3c a2 d0 36 bc 4c 7b 81 bc 16 68 88 bd
       0.026046326 -0.01115814 -0.015805863 -0.06660478
000260 6c a2 a4 bd 2a 90 d1 3d e2 6d 80 bd ad 07 40 3d
       -0.08038792 0.10232575 -0.062709585 0.04688232
000270 8b dc c1 3d f4 aa a4 3c 2a ec e3 3d 90 61 bf 3d
       0.09465893 0.020101048 0.11129029 0.093447804
000280 e4 c3 ee 3c 3a e2 4e 3d 9a 38 da bd 55 a6 42 bd
       0.029146142 0.050508715 -0.10655327 -0.047521908
000290 59 29 d8 3d 31 5d 11 be 59 76 bc bc 8b f0 8d bd
       0.105547614 -0.14195706 -0.023005651 -0.069306456
0002a0 1c 51 f5 3d bc 56 9e bd cd 11 93 3d 08 88 a5 bd
       0.11978361 -0.07731387 0.071811296 -0.080825865
0002b0 60 2e 84 ba e2 bb a3 3d 9c fd f6 bd 1b b4 97 3d
       -0.0010084622 0.0799482 -0.12060091 0.07407399
0002c0 de 50 a0 3d e3 f3 c9 bc ba 92 be bd d3 a5 d5 3c
       0.07827924 -0.024652427 -0.093053296 0.026080048
0002d0 92 c6 16 3d c1 20 14 3e 1f 99 ff 3d 1f 42 ec 3d
       0.036810465 0.1446562 0.124803774 0.11536049
0002e0 ab 02 91 3d 5d 6e f5 3d e9 cb 22 bd 86 6e 82 bd
       0.07080587 0.11983941 -0.039745245 -0.06368737
0002f0 a1 3c fd 3d ae 9b d7 3d d8 af 9c bd 6b 5f a1 3d
       0.1236508 0.105277404 -0.07650727 0.07879528
