program/deep_learning/16 - Recurrent Neural Network/model/bigru/weights_200.pth (torch, 703152 bytes, 25 tensors)

rnn.weight_ih_l0 f4 [192, 1]
00000000: 5ae9 bb3d 3c0c c4bc 6909 243e c6f3 c33d
00000010: 0ffa e1bd 3e9a 653d 0a2a fd3a 7008 19be
00000020: df6b b3bd 52ed b8bd a7de eebd 177e c0bd
00000030: e096 0f3e 40b3 853d 4928 ab3d c41e ec3d
00000040: 2290 14bc 5e61 acbc 27f2 d4bd 7c91 8c3d
00000050: 771f 98bc 8419 d33d d9a0 183c 17d5 6b3d
00000060: 61cc 743c 3cf0 6f3d 0b34 88bb f8e5 8cbc
00000070: 1f11 01bd 9803 02bc 3ef3 533e d091 52bd
00000080: 121b 283e 726d a13d bac0 333e fc24 123e
00000090: ecad 8b3d 9585 083e f291 a2bd f18e a33d
000000a0: b565 afbd ce95 353e be1c d73c b97c 1f3e
000000b0: ec9b 913d e10e 433d 9965 f03d ac5b 633d
000000c0: 8ac3 33bd d60e 2b3d 75e3 ec3d 59cf f5bd
000000d0: cef2 08be d184 eabd fe20 723d 1b25 6d3d
000000e0: 0eb3 153e 33e6 ba3d b0dc 0fbc 341a ec3d
000000f0: dc82 f23d 3164 f23d 87ee cfbd c9b2 1dbc
00000100: 5347 18be bf0e 47bd 0a23 bbbd 4a40 db3c
00000110: aaa2 72bd 3371 2fbd b6bf 12be 19b7 21be
00000120: 5157 c7bd e597 dfbd fba5 133c 346f f43c
00000130: dde4 1c3e 09bb 893a fb14 48bc 670d 67bd
00000140: aad8 863c 1f4e 56be 63ff 3f3d 36ec 5fbe
00000150: 262c 34be e0a4 173d 879f f2bd 2102 90be
00000160: f20d 543c c09a 093e 324c 90bd 9ed2 d1ba
00000170: d7cd ec3c a226 3dbd 6e4c 283e 518f 9c3b
00000180: e6fb 06be 1737 3cbe f97b 0fbd 2a37 7abd
00000190: 3935 37bd 8a87 6c3d 0d3f 11bd 6a65 b1bc
000001a0: ed72 f9bd bf46 6abd 933c c2bd a4e9 e6bd
000001b0: 1d37 71be c92f fbbb c3f2 0a3d f0c4 59be
000001c0: 46af 02be 7192 03be f9f1 353c 5a9e 853c
000001d0: 4b81 18be 4eeb e3bd 1d02 ecbd 0f77 473d
000001e0: 8bc6 e1bd 01bb 46be d5df 853d e4e9 23be
000001f0: 930a 9c3d 875c 15be f083 91bc d60e 11be
00000200: 7bce 033d 1122 edbc 6fc4 ed3d 27ba b33d
00000210: a3e9 bd3d 5b08 40bd fbb6 213d 2a57 39bd
00000220: 0159 ccbd 5c93 84bd ad28 833d b759 ab3d
00000230: 6834 b63c 63b1 dbbc 24e8 e03d 62c3 813d
00000240: 2c47 51bd bcbb b33d 93d4 1a3e c52c 9a3d
00000250: 401e 25be 1efa d9bc 9e6d 80bd 8b49 96bd
00000260: 44b2 a43d b12f a2bc 89e9 09bd a066 9f3d
00000270: bde4 cc3d 2153 0e3c 329c 72bc ad9a e23c
00000280: 9d08 c1bd 86e2 84bd 174f bdba 2328 69bd
00000290: f47b 94bc 9271 d23c 6ba6 823d 78a7 edbc
000002a0: 75cf a0bd 47d7 cebd b59e b2bd 75af 10bd
000002b0: af9d fc3d c744 93bb df90 9f3c 313e dabd
000002c0: 4137 97bd 12f6 103e f631 85bd 0bbc a4bd
000002d0: 607d ac3d f55f 88bd 4dc7 b5bc fbc0 b2bd
000002e0: d3c5 bc3d dcac 8dbd 7b58 643d 2eab e83d
000002f0: 772e c7bd d05e 4e3d 0ae2 87bd c2b3 c13d
0.09175368 -0.023931615 0.16019215 0.095679805 -0.11034023 0.0560553 0.0019314897 -0.14944625
-0.08760809 -0.0902964 -0.11663561 -0.0939905 0.14022398 0.0652833 0.08357293 0.115293056
-0.009067567 -0.021042522 -0.103977494 0.068636864 -0.018569691 0.10307601 0.009315693 0.057576265
0.014941306 0.058578715 -0.0041565946 -0.017199501 -0.03151047 -0.007935427 0.20698258 -0.05140859
0.16416577 0.07882203 0.17553988 0.14271921 0.06820282 0.13332208 -0.07937993 0.07986248
-0.08564321 0.17732927 0.026258823 0.15574922 0.07109818 0.04762161 0.11738128 0.055507347
-0.043887652 0.041762196 0.115668215 -0.12002439 -0.13373873 -0.11451114 0.059113495 0.057896715
0.14619085 0.09125938 -0.008780643 0.11528435 0.11841366 0.11835516 -0.10152917 -0.009625145
-0.14870958 -0.048598047 -0.091375425 0.026764054 -0.05923716 -0.042832565 -0.14330944 -0.15792502
-0.09733451 -0.109176435 0.009011741 0.029838182 0.1532168 0.0010508011 -0.012212033 -0.056409266
0.016460735 -0.20928238 0.046874415 -0.21867451 -0.17594966 0.03702247 -0.11846834 -0.28126624
0.012942778 0.13437939 -0.07045783 -0.0016008203 0.028906746 -0.04617942 0.16435406 0.004777827
-0.13182029 -0.1838039 -0.03503034 -0.061087765 -0.04472849 0.057746448 -0.03546052 -0.021654803
-0.121801235 -0.057196375 -0.0948421 -0.11275032 -0.2355618 -0.0076656085 0.033922922 -0.21266532
-0.12762174 -0.12848832 0.011105054 0.01631086 -0.14893071 -0.11128865 -0.115238406 0.048697527
-0.11024197 -0.19407274 0.06536833 -0.16007191 0.07619204 -0.14586078 -0.017763108 -0.14165816
0.032179337 -0.028946908 0.11609732 0.0877574 0.09273078 -0.04688297 0.039481144 -0.04524914
-0.09977914 -0.06473419 0.06404243 0.08366721 0.022241786 -0.026817983 0.10981777 0.063360944
-0.051093265 0.08776042 0.15120153 0.0752807 -0.1612482 -0.026608523 -0.06270908 -0.07338246
0.08041814 -0.019798132 -0.033669982 0.07783246 0.10004566 0.008686812 -0.014807748 0.027661646
-0.09425471 -0.064885184 -0.0014443126 -0.056923043 -0.018125512 0.02568892 0.06379398 -0.02901052
-0.07852069 -0.10099655 -0.08721677 -0.03532358 0.12334763 -0.004494283 0.01947826 -0.10656393
-0.07383586 0.14156368 -0.0650367 -0.08043679 0.08422351 -0.06658927 -0.02218976 -0.08728214
0.092174195 -0.06917736 0.055748444 0.11360775 -0.09725659 0.05038339 -0.066349104 0.09458114

rnn.weight_hh_l0 f4 [192, 64]
00000000: ef80 c83d dd8e 7c3c dc2b babc 820c e83d
00000010: e539 27bd 3c9c 7abe c58e aa3d e6cb 7b3d
00000020: 4425 21bd 15e1 1ebb eef4 04be 0c2f d43d
00000030: 4c0a f2bd 9011 b2bd 49f0 973c fcfd 49bd
00000040: 4065 0cbb 2799 10bd d784 1c3e fa4a 423e
00000050: 2b91 23be 63c3 56be f234 a93d f48b 78be
00000060: 4fe6 14b9 c351 17be 9085 f33a 0a85 bb3d
00000070: 1ac9 bcbc e8b0 8dbd 7a83 673c e02d 553e
00000080: a3c5 7cbc 81c0 6fbd c0f9 033e 2638 fc3c
00000090: a4f3 473d 2181 3e3e 4b1b 143d c213 1d3e
000000a0: a4a0 d4b6 6da4 f4bd 6a55 26be 7290 eabc
000000b0: 370d 26bd b7ee c6bb e0cf 3fb8 5f49 c53c
000000c0: 5b87 65bd 1e53 983c e680 f0bc e41c 9bbd
000000d0: b1d9 04be c072 2abd 4fe9 3ebe 53c1 fabd
000000e0: 2a45 adbd 7b7e b7bd 8c2b 613e e5a4 dd3d
000000f0: 2b09 40bb c134 1d3e 6b38 3bbd 0c14 633c
00000100: 00e3 cebd 4779 5b3d ea04 ce3d 3c37 ad3d
00000110: 766f 7d3d 0c1c a13c 56b0 493d 280b c8bd
00000120: 6c08 4bbd 1636 633d ad4a be3d b7c3 913d
00000130: 8d58 31bd 51a1 fcbd 4568 063e f5a1 e0bd
00000140: 0fbb cebd 3a85 a6bd 2a65 0a3e 2035 c23d
00000150: 68d5 d7bc 879e 12be 58cf 673c cdcd b03d
00000160: 120c 043e 8674 afbd c802 5dbd 0764 773d
00000170: e5bd 1c3d 44b6 58bc 0f54 bb3c 0f44 123e
00000180: d0d1 a3bd 700f 703d 74c5 0d3d 8ed5 74bd
00000190: 0268 a2bd d3f4 023e 18a0 9e3b 7cc4 613c
000001a0: c19d ffbd 1edc e8bd 08be 02bd 20bf 00be
000001b0: dd42 133e a8b4 713d c818 0c3e dece dcbd
000001c0: 8357 95bd b03c a2bb 16d7 bdbd c25b 013d
000001d0: 4f00 ad3c 2488 a43c 0e3a 07be ea28 0dbe
000001e0: 04c6 933c e922 14be 3e53 f63c df87 a03d
000001f0: 2ecd e8bc 262e 75bc 90d5 74bd 9e28 84bd
00000200: b660 4a3d 1875 1a3c 368d 153d 347e 093c
00000210: e5f0 903d d84e 5ebb 297a 1a3e 01aa 9d3d
00000220: b511 55bd 0009 ad3c 0c51 453d 8bd5 e13d
00000230: 1e5e ab3d 64b4 87bd 406f acbc 2a94 763d
00000240: 0a1d 0abe 9c44 8dbc 279c 0cbb 8b85 593d
00000250: 8466 0cbe 031a 3bbe 63b0 9e3d 84b0 1dbe
00000260: b915 3b3d 363c 8bbd b41e 1ebe 479b aebd
00000270: f03f 323e db0a 72ba fc1a 8c3c afb3 793d
00000280: 0cbf 033d 20de 3fbe 4544 ea3d f8e2 3cbd
00000290: dfea e8bd 5652 6b3d 90fa bd3d b6e4 d83d
000002a0: 494e 653c 2822 a5bb 50c0 dbbd 88b7 9cbb
000002b0: 24dc da3d 1bd9 b2bd 5535 a93d bd82 8a3d
000002c0: b30a 66bd 3345 693c 881e 1bbe a777 ad3b
000002d0: a8bd f53d 3d96 58bd ecd5 6dbd 2d9b d0bd
000002e0: eb9d a43d 07ed 02be bd40 043e e8c1 3b3c
000002f0: dd98 10bd eb8b 393e 2469 58bd 358b 813d
00000300: 9e4d 1d3d 3682 643d b892 59bd 3873 d8bd
00000310: 05f5 99bd 2415 223e ee20 9bbd e660 0ebe
00000320: 019f 0c3d 4c88 a3bd 6586 173e 9353 fb3d
00000330: 1f25 95bc ee9b 233e 3bd0 e53d a5a9 c83d
00000340: 9874 4d3d dea1 993d dc4e d9bd 2459 cf3d
00000350: 057c a73c 70dd 85bd 8a57 693c 5b41 8c3d
00000360: 3162 c13c 582f c1bc 0c91 66bd 54f8 e23d
00000370: ab1e d63d a792 863d bfa9 bfbc e216 40bd
00000380: 08d7 493c f7b1 18bd c284 27bc 6f54 383c
00000390: ac0d 0bbb 5689 2ebe 0ca9 053e cfaa 8fbd
000003a0: 24be 5f3c d985 873d 0ad2 33bc 2170 7fbd
000003b0: 4153 ee3d fdc7 23bd 4cf9 cbbd 918d b0bd
000003c0: 51d3 a43d d1ca 653c 6191 76bd 8eaf 923c
000003d0: d52c 223d 9aab 02be fff5 a73d f025 b03c
000003e0: d01a de3d 4674 fabc 2523 7f3d 41e3 563c
000003f0: 64c9 d23d 80ce acbd d6d7 e1bd aacf a43c
0.09790217 0.015414921 -0.022725992 0.11330511 -0.040826697 -0.24473661 0.083280124 0.06147375
-0.03934218 -0.0024243046 -0.12984058 0.10360536 -0.1181837 -0.08694756 0.018547194 -0.049314484
-0.0021422654 -0.035302307 0.1528505 0.18973914 -0.15973346 -0.20972972 0.08262052 -0.24272138
-0.00014200177 -0.14777283 0.0018579233 0.091562346 -0.023045111 -0.06918508 0.014130468 0.20818281
-0.01542798 -0.058533195 0.12888241 0.030788492 0.04881634 0.18603946 0.03615884 0.15339568
-6.3367934e-06 -0.11945424 -0.1624352 -0.02863333 -0.040539946 -0.0060709375 -4.5731547e-05 0.024082838
-0.05603729 0.01859432 -0.029358339 -0.0757387 -0.12973668 -0.04161334 -0.18643688 -0.12243905
-0.084604576 -0.08959671 0.21989268 0.10822467 -0.002930234 0.15352155 -0.0457081 0.01385976
-0.101018906 0.053582456 0.10059531 0.08457801 0.061873876 0.019666694 0.049240433 -0.09767753
-0.04956858 0.055471502 0.09291587 0.07117408 -0.04329734 -0.12335456 0.13125713 -0.10968391
-0.10094272 -0.0813088 0.13515154 0.09482789 -0.026346877 -0.14318286 0.014148556 0.086330034
0.1289523 -0.08567147 -0.05395773 0.060398128 0.038267035 -0.013227049 0.02286723 0.14283775
-0.07999003 0.058608472 0.034612134 -0.059773974 -0.07929994 0.12788706 0.004840862 0.013779756
-0.12481261 -0.11370109 -0.03191951 -0.12572908 0.14380975 0.059010178 0.13681328 -0.10781644
-0.07292082 -0.004951082 -0.0926954 0.031581648 0.021118311 0.020084448 -0.1320574 -0.13785139
0.018038757 -0.14466442 0.03006899 0.07838415 -0.02841815 -0.014964616 -0.05977398 -0.064530596
0.049408637 0.009427331 0.036511622 0.008391906 0.07077197 -0.0033921506 0.15085663 0.07698441
-0.05201884 0.021122456 0.048172995 0.11027058 0.08367561 -0.06626204 -0.021049142 0.060199894
-0.1348764 -0.01724463 -0.0021455379 0.053105872 -0.13710982 -0.18271641 0.07748487 -0.15399367
0.045675013 -0.06798594 -0.154414 -0.085257106 0.17407203 -0.0009233185 0.01710271 0.060962375
0.03216462 -0.18737078 0.11438803 -0.04611489 -0.11372923 0.05745157 0.09276307 0.10590498
0.013995715 -0.005039472 -0.1073004 -0.004782621 0.1068652 -0.08732816 0.082621254 0.067632176
-0.056162547 0.01423769 -0.15148365 0.0052938047 0.11999065 -0.052877653 -0.05806534 -0.101858474
0.08037933 -0.12785731 0.1291532 0.011459805 -0.03530203 0.1811978 -0.052834645 0.0632538
0.0384041 0.05578824 -0.053118438 -0.10568851 -0.07517437 0.15828377 -0.0757464 -0.13904151
0.034331325 -0.07984981 0.14797361 0.122718 -0.018206177 0.15977451 0.112213574 0.09797982
0.05016002 0.07501577 -0.10610744 0.10124424 0.02044488 -0.065363765 0.014242062 0.06848403
0.023606392 -0.023582146 -0.05629067 0.11082521 0.10455068 0.065709405 -0.023396371 -0.046896823
0.012319334 -0.037279096 -0.010224523 0.011250599 -0.0021217866 -0.17044577 0.13052768 -0.07015001
0.013656173 0.06617326 -0.01097537 -0.062362794 0.11636973 -0.039985646 -0.09959659 -0.08620752
0.08048118 0.014025406 -0.060197238 0.017905977 0.039593536 -0.12760773 0.08201217 0.021502465
0.10844958 -0.030573022 0.062289376 0.013115705 0.102923185 -0.08437824 -0.110274956 0.020118553

rnn.bias_ih_l0 f4 [192]
00000000: 8672 ed3d c7f9 f03d cb6e a13d e314 aabd
00000010: 34eb 21bd c88c 1b3e 60d3 71bb 1a97 d53d
00000020: dba1 003e 0fd3 173e 9178 093e 1a87 44bd
00000030: 61b4 373e 9365 7c3d 14b9 953d 6fca 223e
00000040: 86b9 953d 16bb a13c cca5 4bbc 9dbd 403d
00000050: b063 fa3d 6ca6 b33d 944b 533e 0804 b33d
00000060: 666c 86bd 93fe d13c 3b0b 8bbc e885 99bd
00000070: f134 b7bc be17 403d 0650 ab3d a963 993d
00000080: 847c 9e3d 0680 083e 9895 cb3d 02b2 04bd
00000090: 0421 3c3c f78d 993c ee4a 4fbc f699 733d
000000a0: f848 a93c 7d33 133e e28d f23d d583 163c
000000b0: 8c05 83bd 0edc 33bc e99d a03d 8e0b 0c3d
000000c0: 5a80 aa3d 7e32 f83d ce55 ca3d d0e9 f53d
000000d0: f028 873d ee0c 0c3e 2625 b8bc d643 423d
000000e0: d1f9 4a3a 391d 72bd c685 973d feda 02be
000000f0: 7448 cd3d 0019 ef3c dbc2 8a3d ad4c e53c
00000100: 79b6 fd3d e2f6 dbba d31e abbc d326 ccbb
00000110: c89d d4bd b135 1cbe 0760 69be fc53 17be
00000120: bcda 16be 5eb3 4e3d cc2d f2bd 874e e1bd
00000130: 7cdc cfbd 65db b3bc 1bc5 1bbd e42b 22bd
00000140: 402f 45bc 7959 99bd 54b6 1bbe 3050 9fbd
00000150: 8eb3 c9bd a755 95bd 4129 54bc 38e7 9bbe
00000160: f3f7 08be e854 3b3d 4d51 00be c26e 39be
00000170: d8d4 a63d efb6 c63d 2adb 023d 426f 52bd
00000180: 195e 803c e92b 2fbe 72d0 a1bc 5dc6 eebb
00000190: c12f a93c 4d2e 993d b48f 803d 9416 8bbe
000001a0: 0a1d 4cbd 40bd 6dbe 8a6b 8dbe 8283 f6bb
000001b0: b8e9 54be 5b67 e73d 0375 62bd 71af 60bd
000001c0: 84f5 10bd 13a4 05be 35f7 bd3d 8f7f e53a
000001d0: 066a c9bc b0ff c83c ab78 6cbc be10 e53c
000001e0: fc57 c1bd 9f95 5fbe e799 dfbd abb9 d4bc
000001f0: 4ed5 d9bd 2cbc 71bd e90f b83d 0bad 63be
00000200: 5026 c3bd dbd9 acbd 87e5 21be b482 1bbd
00000210: 73bb ce3d 3e84 19be df60 133d 114a d8bd
00000220: 1e63 f1bc 8760 11bb ab13 783d d493 d7bd
00000230: 6ea6 bdbd e743 af3d a367 e4bd 1156 24bc
00000240: 2386 cabc 67b0 65bd 6107 b03d dd04 ea3c
00000250: 4a3e 12be 949f 6d3b 8dc7 283c cd58 0abe
00000260: cf3b 96bb 4a25 00be 9c56 d43d 5eff 78bd
00000270: d4eb 273d 67d6 cebd 2f2c e2bd d26d 103e
00000280: 165b 083e 2e3c 2dbe 58af f53d 43bc c73d
00000290: 1f24 65bd 0a69 ab3c 439e 08be 174e 5bbd
000002a0: d179 cdbd eca3 8e3c 0e4f 0a3c 9e22 d43d
000002b0: e23f e3bd c3fd cabd 13a6 a5bd ab97 a0bd
000002c0: 1aef a83d 69f3 433d 1b85 083e 826f 103e
000002d0: cf02 303d cd2d 793c e7bb dcbd 4a95 573d
000002e0: 4958 8dbc 55f9 1dbe ad93 223c d827 9b3d
000002f0: a328 00bd 5048 413d 7b48 a2bd 9b13 07be
0.11594109 0.11766391 0.0788246 -0.08304765 -0.039530948 0.15190423 -0.003689967 0.10429211
0.12561743 0.14826606 0.13424899 -0.047980405 0.17939903 0.061620306 0.073106915 0.15897535
0.073107764 0.01974253 -0.012429666 0.04705583 0.12226045 0.08771977 0.206343 0.08741003
-0.06563644 0.025634086 -0.016973129 -0.07496244 -0.022364112 0.046897642 0.08364873 0.07489712
0.07738593 0.13330087 0.09940642 -0.032396324 0.011482481 0.018744452 -0.012652142 0.059473
0.020664677 0.1437511 0.11843468 0.009186705 -0.06397542 -0.010977758 0.07842619 0.034190707
0.08325262 0.121190056 0.09879647 0.12007487 0.06599605 0.13676807 -0.022478651 0.047427975
0.0007742914 -0.0591099 0.07398562 -0.12778851 0.10023585 0.029186726 0.06775447 0.027990663
0.123883195 -0.0016781951 -0.020888722 -0.006230214 -0.10381657 -0.15254857 -0.22790538 -0.14778131
-0.14731878 0.050464027 -0.11825141 -0.11001306 -0.10149476 -0.021955201 -0.03802977 -0.03959264
-0.012035191 -0.07487769 -0.15206271 -0.077789664 -0.098487005 -0.072917275 -0.012949289 -0.30449843
-0.13375835 0.04573527 -0.12531014 -0.18108657 0.081460655 0.097028606 0.031947292 -0.051375635
0.01566987 -0.17106594 -0.019752715 -0.0072868303 0.020652654 0.07479534 0.06277409 -0.27165663
-0.04983238 -0.23216724 -0.27621108 -0.007523001 -0.20792282 0.1129901 -0.055287372 -0.054854814
-0.035390392 -0.1305087 0.092756666 0.0017509329 -0.024586689 0.024535984 -0.014433066 0.027962085
-0.0944061 -0.2183442 -0.109180264 -0.02596744 -0.10636388 -0.059017345 0.089874096 -0.2223398
-0.09528792 -0.0843999 -0.15810214 -0.037966445 0.10094347 -0.14991853 0.035981055 -0.10561002
-0.029466208 -0.002218278 0.06056563 -0.10526243 -0.092602596 0.08557873 -0.1115258 -0.010030285
-0.024722164 -0.056076434 0.085951574 0.028566772 -0.14281574 0.0036258446 0.010301483 -0.13510437
-0.0045847665 -0.12514225 0.10368082 -0.060790412 0.040996388 -0.10099488 -0.110435836 0.14104393
0.13315997 -0.16917488 0.11996335 0.09752705 -0.05594265 0.02092411 -0.13341622 -0.05354127
-0.10033 0.017412148 0.0084417 0.10358165 -0.11096169 -0.099116825 -0.08088317 -0.07841428
0.0824873 0.047839556 0.13332026 0.14105037 0.04297143 0.015208674 -0.10778027 0.052632608
-0.017254012 -0.15427144 0.009922904 0.07575959 -0.031288754 0.047188103 -0.07923981 -0.13191073

rnn.bias_hh_l0 f4 [192]
00000000: 2079 75bd 6e97 ce3d c72c 3dbd ad83 2fbd
00000010: 8683 eabc aa75 b4bd 8f4d ca3d 2aca 3c3e
00000020: cc88 db3c aae8 933c 4c2a 53bd 7c35 013e
00000030: 10f3 6bbd 5f93 79bd f5c4 cbbb 69c6 20bd
00000040: 86f8 c4bd cfbe 0abd 39a3 c33d 035f c83d
00000050: c040 433d ffd4 2c3d 8171 663d eb40 253e
00000060: bca7 ed3d 0664 d83d a1d8 9bbc bc99 103e
00000070: c9e0 2cbc 1776 683d fe04 4d3e ae1c 13ba
00000080: f112 3c3e a606 0e3e a465 dd3d 94ec e63d
00000090: c04b 0d3e 96c0 d8bc e53b 83bb 8ef8 b63d
000000a0: 9c38 da3b 96c3 b13d 8130 153e f01f 823d
000000b0: 0c70 ddbd 48df f43d 60de d0bd cdfd 1cbb
000000c0: 8ed4 7dbc 29d6 c3bc aec6 c23d eee0 a5bc
000000d0: 9fdf 403e 88b1 583e 9763 dbbc 0f9e 8c3d
000000e0: eb8e 313e fbc6 693d a835 c2bc cedb ae3d
000000f0: 5554 513d 393c f4bb b1b1 c83b 8480 5e3d
00000100: 7a54 f6bc 542c cfbd ccfe cebd 1fe6 923d
00000110: a7e5 0a3d 8248 09be 8aa8 64bd 6353 8cbd
00000120: 3002 debc 4103 b5bd 590e 15be ab85 81bc
00000130: 05c9 613d 6a08 e43d 8d0e 38bc b226 563c
00000140: 41db 9e3d 705d 32be 0fc0 f4bd f327 acbc
00000150: e9a1 efbd 3814 e8bd 6bb8 e3bd 46bb c1bd
00000160: 3f25 89bd d88d 8b3d ab31 943d 0fbe 0fbe
00000170: fab6 a33d 4c34 09bd df85 553d 04ac 17be
00000180: 3cfa e9bd 6943 21bd 2790 183e 2641 8e3d
00000190: ed3b f3bd 8d39 bbbb 35da 66bc da6b 09bd
000001a0: ce85 b6bd 2a8c bebd a733 91be ff2f 62bd
000001b0: 8b0c 61bd c838 dabd f9bc 07bd 6b81 8b3c
000001c0: 510c f93c da3b eabd fc8f 8ebd bc40 a9bd
000001d0: 654b ddbd f38f ea3c 75d0 11be 0ed1 2a3c
000001e0: 689e 42bd 9a35 b5bd bcc5 9f3c 7048 92bd
000001f0: 4e7e 833d c0c3 93bd 982f 5b3d e9ce 77bc
00000200: 3f9b 5d3d 86c9 963d d0c3 acbc d822 49bd
00000210: 1a3e 873d 6338 503d fc4b 933c 8c03 0c3d
00000220: f181 0f3e 5550 e9ba 9547 1bbd 1902 babc
00000230: 9cad e5bd 0027 913d 5173 89bd 2b19 a6bd
00000240: 598b 903d 2143 54bd 7113 f13c c6d1 ad3d
00000250: 75c6 2bbe 30cc 2abd b4d5 263d c7c6 b6bd
00000260: c410 db3d 8db3 37be 3816 183d 0bc4 85bd
00000270: e831 1d3c 054a 1b3c d34e 66be c84a 74bc
00000280: eeb7 9e3d f0ac 80bd ab9b 9ebd d35d 3f3c
00000290: 9489 c13d 8830 cc3d fe34 32bd f13d b7bc
000002a0: 9fc3 8d3d 4bc0 67bb 2421 53bd ada8 a33c
000002b0: a311 7bbd 04af 88bc 8045 b73d 82ce ae3d
000002c0: a207 f23d 5d41 d2bd 6d36 c53d 6cc1 b33d
000002d0: e298 f23c 62a7 f53d 587a 09be a6ab 8d3d
000002e0: 6cbc 723d 08e8 18bd a0e2 0a3e 2283 54bc
000002f0: a6e3 623c 7c04 0c3e 1a64 c23d 094d 01bc
-0.059929967 0.10087477 -0.04618528 -0.042850185 -0.028627168 -0.08811505 0.098780744 0.18436494
0.026798628 0.018055279 -0.05155401 0.12618059 -0.05760485 -0.06093156 -0.0062185475 -0.03925172
-0.096177146 -0.033873376 0.095526166 0.09783747 0.047669172 0.042195316 0.05626059 0.16138045
0.116042584 0.10565953 -0.019024195 0.14121145 -0.01055164 0.056753244 0.20021436 -0.00056118786
0.183666 0.13869724 0.10810402 0.112755924 0.13798428 -0.02645902 -0.0040049427 0.08934127
0.0066595804 0.08679883 0.14569284 0.06353748 -0.10812387 0.1195665 -0.10198665 -0.0023954988
-0.0154925715 -0.02390583 0.095105514 -0.020248856 0.18835305 0.21161473 -0.026780887 0.06866085
0.17339675 0.05707453 -0.023707226 0.08538018 0.051105816 -0.007453468 0.006124698 0.05432178
-0.030069578 -0.10115877 -0.101071924 0.07172798 0.03391042 -0.13406566 -0.055824794 -0.06851842
-0.027100652 -0.08838511 -0.14556254 -0.015810808 0.055123348 0.11134417 -0.011233938 0.013070749
0.07756663 -0.17418456 -0.11950695 -0.021015143 -0.11700804 -0.113319814 -0.11119159 -0.09459548
-0.06696557 0.06814164 0.07236036 -0.14037345 0.079938844 -0.03349714 0.052129623 -0.14811713
-0.114246815 -0.039370928 0.1489874 0.0694602 -0.11876664 -0.0057136477 -0.014090111 -0.03355012
-0.0891224 -0.09304078 -0.2835972 -0.055221554 -0.054943603 -0.106553614 -0.033139203 0.017029485
0.03040138 -0.11437197 -0.069610566 -0.082643 -0.10805396 0.028633093 -0.14239676 0.010425819
-0.04751435 -0.08848114 0.019503467 -0.071427226 0.06420575 -0.07215071 0.053512186 -0.015125015
0.054103132 0.07362656 -0.021089464 -0.049105495 0.06603642 0.050835025 0.017980568 0.03418307
0.14014412 -0.001780043 -0.037910063 -0.022706078 -0.11214754 0.07087517 -0.06711448 -0.08110269
0.070578285 -0.05182183 0.029428216 0.08487277 -0.16774924 -0.041698635 0.040731147 -0.089246325
0.10696557 -0.17939587 0.037130564 -0.06531533 0.009594418 0.009478097 -0.22491007 -0.014910407
0.077499256 -0.06282985 -0.07744535 0.011680084 0.09450069 0.09970194 -0.04350757 -0.022368403
0.069220774 -0.0035362418 -0.051545277 0.019977892 -0.061296117 -0.016685016 0.08948803 0.08535482
0.11817862 -0.10266373 0.096295215 0.08777127 0.029613916 0.11994816 -0.13425577 0.06917505
0.059261724 -0.037330657 0.13563013 -0.012970718 0.013848221 0.13673586 0.09491749 -0.007891902

rnn.weight_ih_l0_reverse f4 [192, 1]
00000000: e88c 893d 633b c03d 62b9 e0bc d66b 243d
00000010: 5824 a63d 6698 963d b50b 1c3e 11f6 883d
00000020: fd48 123e 40df 8dbc 7ebe b43c 2b1b e8bc
00000030: f415 9fbd f7cc 1f3e 2607 9dbd 48ba da3d
00000040: 8ddc b5bd 812b f23c c0b9 8cbc b397 9b3d
00000050: 4700 5dbd 3e02 1ebd b230 b03d 001d cd3d
00000060: 3158 06be 7583 b43d 17f8 e0bb 6409 81bc
00000070: 3681 c9bd 2dd9 5bbd 66a8 8d3d dc3c 933d
00000080: d94d 00be 63cd fe3d 7f53 4bbc d3f6 51bd
00000090: ac84 acbd 5454 c3bc 2ce7 0b3e 8873 b4bd
000000a0: 67c8 f0bd 8d7d 87bd e66d 103d a621 5f3d
000000b0: a913 403c a685 5fbd 1f7c b8bd 715d ad3d
000000c0: 5890 993d 0e33 dfbc 2d9a 983d f4a1 a33d
000000d0: 1d4a 623d bfe8 323d 8c8c 0b3d 51d4 b5bc
000000e0: 62eb 77bc 4177 00bd df7b 0e3e 3bce 2bbd
000000f0: 2fbc 123e 50f4 f03d d9ad 913d cb14 883d
00000100: 6af5 733d 8bc4 01bb 2e91 cbbd afcc 03bb
00000110: af83 b03d e6c7 66bd e8ed a6bd ee7c 02be
00000120: 4f5e 9fbc 83c0 17bc a33c bcbc d630 223d
00000130: 8f4a 72bd 1d9f 58bd f8e9 be3c 879e ac3d
00000140: 4fa9 3d3d 8706 aebc 7867 a4bd f99e 4f3c
00000150: 292f 723d 7e90 bb3d 74c8 e33c 4049 0f3d
00000160: 7726 cc3d 8aaf d8bd a766 8f3b 160e a7bd
00000170: b25e 663d 0425 b53d 62bd aabd 9b69 8ebd
00000180: 049d 8ebe 8977 cabc f81f f43d 0748 97bd
00000190: d30c 82bd 830f 0fbc 26c2 55bd e3e5 943a
000001a0: f3a2 993d b2f4 8e3d a89d 4abd 7e69 efbc
000001b0: d401 a7bc a1be 9ebd fea8 b93d 9b39 3cbe
000001c0: cbee babc 6c15 bbbd 2f24 d0bd c93b 94bc
000001d0: 4e32 abbd d0ee e93b b754 c6bd b213 853d
000001e0: 4835 4bbe 9e3c c0bc df22 f23d 426a 5b3d
000001f0: 8b68 22bd b87e c63d 28e4 85bd 377f 21bd
00000200: 1d02 fc3d de0a d63d ca58 c8bc 0aa6 a93c
00000210: f837 01be d9e3 403d 02e9 09bd 3061 a1bd
00000220: 66ea 6e3b acc4 57bd 4534 c63d 0804 b43d
00000230: 801c a8bd 6ef7 82bd bd20 3a3d 2a92 133b
00000240: 07a7 8abd 4299 3cbd bfc4 cc3c 007f c43d
00000250: 9c68 14be 867a 093e 17f0 413c d08c af3d
00000260: d2f6 7bbd a91f d83c d42b babd cb2d 173d
00000270: 77c7 c4bd a92b a83d 6a44 8e3d 7cbe 063e
00000280: 723b 763d 1e6a 973d 5525 e0bc fdd8 15bd
00000290: 4b8c 173d 29a9 973d 55b2 d2bd 46ff cebd
000002a0: d4dd 6fbd 3130 4a3d e6a3 b1bd 1748 603d
000002b0: 76d1 783d a054 04be 6a6a a83d e98d afbc
000002c0: 4103 b03d 8ae9 453d cd7a ccbd 7f79 2f3c
000002d0: 3684 653d 5cc3 c1bd 0b55 45bc af87 443d
000002e0: 0ae6 853d 4470 02bd 20d1 873d fa01 6b3d
000002f0: 2f57 bebd 6534 5bbd 1450 f63d e38c cbbd
0.06716329 0.09386327 -0.027432147 0.040141903 0.08112401 0.073532864 0.15238841 0.066875584
0.14285655 -0.017318368 0.02206349 -0.028333267 -0.07767859 0.15605532 -0.07667379 0.106800616
-0.08879957 0.02956176 -0.017178416 0.07597294 -0.053955343 -0.038576357 0.08603038 0.10015297
-0.1311958 0.08814136 -0.006865512 -0.015751548 -0.09839098 -0.05367391 0.06916885 0.071893424
-0.12529697 0.12441518 -0.012410044 -0.05126078 -0.08423743 -0.023843922 0.13662404 -0.08811098
-0.11756974 -0.06615744 0.035261057 0.05447545 0.011723437 -0.054570816 -0.09008049 0.08465088
0.074982345 -0.027246024 0.07451282 0.079898745 0.05524646 0.043678995 0.034069583 -0.022195967
-0.015131803 -0.03136373 0.1391444 -0.041944724 0.14329599 0.11765349 0.07113237 0.06644591
0.059560217 -0.0019800987 -0.099398 -0.0020111015 0.08618867 -0.05634298 -0.08150846 -0.1274297
-0.01945415 -0.009262207 -0.022978133 0.039597355 -0.059153136 -0.052886117 0.023304924 0.08428674
0.046304043 -0.021243347 -0.080275476 0.012672179 0.059127007 0.09158419 0.027805544 0.034981966
0.09968274 -0.105803564 0.004376251 -0.081569836 0.056242652 0.08844951 -0.08336903 -0.069537364
-0.27854168 -0.024715202 0.1192016 -0.07386785 -0.06350102 -0.008731726 -0.052187108 0.0011360015
0.07501783 0.06980266 -0.04946676 -0.029225107 -0.020386614 -0.07751203 0.09065436 -0.1838135
-0.022818943 -0.09134945 -0.101631515 -0.018094914 -0.08359204 0.0071390644 -0.09684127 0.06497897
-0.19844544 -0.023466405 0.118230574 0.053568132 -0.03965048 0.096921384 -0.06537658 -0.039427962
0.123050906 0.104512915 -0.0244564 0.020709056 -0.12619007 0.047092292 -0.03366948 -0.07879865
0.003645563 -0.052677795 0.09677938 0.087898314 -0.08208561 -0.0639485 0.045441378 0.002251754
-0.06770139 -0.046044596 0.02499616 0.09594536 -0.1449303 0.13425645 0.011837027 0.0857178
-0.061514683 0.026382284 -0.09090391 0.036908906 -0.096083574 0.082114525 0.06946643 0.13158602
0.060115285 0.07393287 -0.027361551 -0.03658389 0.03699903 0.074053116 -0.102879204 -0.10107283
-0.05856116 0.049362365 -0.08673839 0.05475625 0.060746633 -0.12922907 0.08223422 -0.021429973
0.08594371 0.048318423 -0.0998436 0.010710119 0.05603429 -0.0946109 -0.012044202 0.04798096
0.06538017 -0.031845346 0.06631684 0.057374932 -0.09293973 -0.053516764 0.120269924 -0.099389814

rnn.weight_hh_l0_reverse f4 [192, 64]
00000000: 6b5c b43c e290 0c3e 2594 033e 18d4 80ba
00000010: 38d6 2c3d 2a9e 80bd a1ef cebd b98c 9ebd
00000020: 31aa a23c d021 453d 03bf c3bd 88ac 803d
00000030: 7f1d a4bd fe0b 60bd c39b 983d a40e 4abd
00000040: 5de7 cd3b f99a 213d 19b9 94bd e370 8f3d
00000050: fbc0 62bd 68da 023e 70af a33c dfdd 5cbc
00000060: 6ff2 0fbd 05a6 d5bd 8b9c 00be 5255 693d
00000070: a18a 8e3d 2b9e 7b3d 4f4f e7bd 72cd 073e
00000080: c2b2 173e d69a 85bc dc81 043e 7965 bbbc
00000090: 6e56 d1bd 19aa 19bb 47ca 173c b00c 76bd
000000a0: b1f3 74bd f08f 183e 4557 2ebe dd95 2d3e
000000b0: ddde 8cbc d569 633d a6d7 b93d ffdd d7bd
000000c0: f751 5f3d 049f e63a b096 5fbd 6cef bc3c
000000d0: 337a 1fbd c6c9 f7bd 1479 92bd 3261 1dbd
000000e0: 37d6 20bc 05bc dc3c 3e2c c9bd e42f 9b3d
000000f0: 8338 05be 4215 4abe 0438 573d c28e b8bd
00000100: c26a c43c 2c7d 48bd d689 c33d 7ba8 73bd
00000110: 7773 633c 7ca2 8e3d cd9b 1fbd 3e28 75bd
00000120: 46dd c6bd 534b 0e3e c855 0b3d 3ca4 c3bd
00000130: 65a0 0dbe 5daa 173e 998e 03bd 47cf ffbb
00000140: 50d3 793d 6ebd 4d3a e9d1 4d3d 6125 cdbb
00000150: d6f7 893c d373 06bd 0745 7b3c 7b39 d23d
00000160: 3d07 75bb 6abf c33d 250a bc3d 3dab 673c
00000170: 9daf e23c a6e0 bebd ac62 823d 9d98 9fbd
00000180: f29e c6bc eccf e23c 1924 123d 5491 58bc
00000190: ea47 8d3d 4daf 06be 385d 9bbd 2c3c b1bd
000001a0: bf9b 0b3e f020 b9bd 3b3a a93c 8bc1 9dbd
000001b0: fa8c 013e 64ab 66bd 61bd a9bd a1b3 85bc
000001c0: ad32 a33d de8b 3c3d c6e7 93bd c87f 2f3c
000001d0: 2a67 b93c 9560 b63d 740e 03be 1f79 96bb
000001e0: 8c59 b0bd ce03 b9bd ce72 33bd 034f 35be
000001f0: b026 f63c 90ce 2f3c d1e3 10bd 015e 9abc
00000200: 7845 873d 1b56 5e3c a583 5fbd 2218 aa3c
00000210: f1d7 6abd 11c6 c43d 4874 773c b164 58bd
00000220: 9d0c 143e 5add 763e 5e79 e23c c831 b33c
00000230: a0db 85bc 2f4c 09be 4d86 68bd 8497 113e
00000240: 2790 053b 372d 3dbe 34e2 533d 7099 6e3e
00000250: 8247 c1bc e543 5a3e 8de0 cd3d dcf6 423e
00000260: ba84 07be 9402 153e eade 1bbe aca8 0d3e
00000270: 76f5 c73d 1cd8 363e ab7c 533e ccf8 2c3e
00000280: 6d23 38be 9146 2f3e 6d84 5c3e 6e78 3dbd
00000290: 24cd 693e f890 bc3d 2ae2 eabd c129 45be
000002a0: fefc e93b 5b51 773e a18c 0abe 5eeb 2ebd
000002b0: 429d d23d 7c2b 39be a020 593e 6751 a03c
000002c0: 8c12 673e 3e87 083e 1891 35be 2bb3 393e
000002d0: 36ca 103e fc94 49be 6230 7abc aaa4 5e3b
000002e0: c283 983c 4469 b3bd 1de3 b3bd 0fdc e23b
000002f0: 40bc 8fbd cccf 27bc 3a29 7fbc 546b 1dbe
00000300: 4c1b 043e 5837 043e 06b7 573b 16ba 6c3c
00000310: 4a23 fcbc 0979 633c 5de8 fabd 1d23 f0bc
00000320: 32b2 eabc ff77 d7bd e744 98bd 1c94 ee3d
00000330: 595c a5bd 2fb0 a5bd ab00 dfbc 05c8 4cbc
00000340: 0ccf 0ebe 976e 8c3d b433 ca3d 1471 1a3e
00000350: 73a0 0cbe d8d0 d13d d8f0 803d 2d3c fcbb
00000360: 75dd 12be f195 e73d 90ae f13c b4cd 663d
00000370: dd15 5d3d 534c 84bd 1ac5 083e fd75 d23d
00000380: 1e8b d7bd 8794 69bd 9143 f9bd 5bec 713a
00000390: 62b9 c93d 0b10 c03c bb8e 22bd a81c fdbd
000003a0: 68cf 2abe 2dfd 33bd 26c9 0abe 19b8 c13d
000003b0: b562 eabc 6e85 5bbd c635 283c c797 46bd
000003c0: 0225 d93d bba3 cabc 6054 17bd 99c7 7abc
000003d0: 36ea a53c 2856 fd3b 1d92 d2bc 7529 963d
000003e0: 10f4 48bd c220 abbd 0ddf 2b3d 6991 123e
000003f0: d6aa a8bd 0183 71bc 0a78 babc 60e6 f8bd
0.022016725 0.13727143 0.12849481 -0.0009828834 0.042196482 -0.062801674 -0.10104299 -0.077416845
0.019856544 0.04812795 -0.09557917 0.06282908 -0.080134384 -0.054698937 0.07451584 -0.04933037
0.006283684 0.039454434 -0.07261867 0.07003953 -0.05535982 0.12778628 0.019981116 -0.013480633
-0.035143312 -0.10432056 -0.12559716 0.056966133 0.06960035 0.061430138 -0.11294424 0.13261965
0.14814284 -0.016309183 0.12940162 -0.022875534 -0.10221563 -0.0023447333 0.009264535 -0.060070693
-0.059802715 0.14898658 -0.17025478 0.169517 -0.017196113 0.05552085 0.09074335 -0.10540389
0.054521527 0.0017594998 -0.054587066 0.023063384 -0.038934898 -0.12099032 -0.07152 -0.03842277
-0.009816698 0.026945123 -0.09822892 0.07577494 -0.13009839 -0.19734672 0.052543655 -0.09011604
0.023976687 -0.0489475 0.095477745 -0.059486847 0.013882509 0.06964585 -0.038966943 -0.05985283
-0.09710173 0.13895921 0.034017354 -0.095528096 -0.13830717 0.14811082 -0.032118414 -0.007806692
0.06099254 0.00078483566 0.050249014 -0.0062605594 0.01684181 -0.032825302 0.015336282 0.1026487
-0.0037388348 0.09557994 0.091816224 0.0141399475 0.02767163 -0.09320192 0.063664764 -0.077927805
-0.024245713 0.027687036 0.035678957 -0.013218243 0.06898482 -0.1315281 -0.075861394 -0.08654055
0.13633631 -0.090394855 0.02065765 -0.07702931 0.12651435 -0.056315795 -0.08288074 -0.016321005
0.0796865 0.046031825 -0.07221942 0.010711618 0.0226322 0.0890514 -0.12798482 -0.0045920755
-0.0861083 -0.09033929 -0.04381066 -0.17705922 0.030047745 0.010730401 -0.035373513 -0.018843653
0.06605047 0.013570334 -0.054568905 0.02076346 -0.057334844 0.09608091 0.015103407 -0.0528304
0.14457937 0.24107876 0.027645763 0.021874323 -0.016340077 -0.13407968 -0.056768704 0.14217955
0.002038011 -0.1847428 0.051729396 0.2330072 -0.023593668 0.21314962 0.10052595 0.19039482
-0.13234225 0.14551765 -0.15221754 0.13833874 0.09763615 0.17855877 0.20653026 0.16891783
-0.17982264 0.17116763 0.21534891 -0.04625743 0.22832161 0.09207338 -0.114689186 -0.19254209
0.0071407547 0.24152128 -0.13530208 -0.042704932 0.10283901 -0.18082994 0.21203852 0.019570066
0.22565669 0.13332841 -0.1773113 0.18134753 0.14139637 -0.1968574 -0.015270324 0.003397266
0.018617515 -0.08760312 -0.08783553 0.0069232057 -0.07018328 -0.010242414 -0.015573794 -0.15372974
0.12901038 0.12911737 0.0032915487 0.014448663 -0.030778546 0.0138838375 -0.12251351 -0.029313618
-0.028649423 -0.10520934 -0.07435017 0.11649343 -0.080742545 -0.08090245 -0.027221998 -0.01249886
-0.1394617 0.06857031 0.09873143 0.15082198 -0.13733082 0.10244912 0.06295937 -0.007697603
-0.14342292 0.11307896 0.029502183 0.056348518 0.05397593 -0.0645987 0.13356438 0.10276411
-0.105245814 -0.057026412 -0.121710904 0.000922864 0.09849812 0.02344515 -0.0396869 -0.12358981
-0.16680682 -0.04394262 -0.13553295 0.09458942 -0.02861152 -0.053594045 0.010266727 -0.04848459
0.10602762 -0.024736276 -0.0369457 -0.015306377 0.020253282 0.007731218 -0.025704438 0.07332126
-0.04906088 -0.083558574 0.041960765 0.14313282 -0.08235709 -0.014740706 -0.022762317 -0.121533155

rnn.bias_ih_l0_reverse f4 [192]
00000000: 4879 84bd bff7 0a3e e100 7e3d 44d6 bebc
00000010: 8c09 083e ca89 00be e796 61bd d5cf 94bc
00000020: c017 bf3d f181 9dbd f669 bcbc 6345 b1bd
00000030: 9af8 5c3d 8aff d13d b212 bf3d a7dc 72bd
00000040: 84f9 923d 113f bb3d 916d 7a3d 31cb acbd
00000050: 5153 9dbd 8c78 bf3d 2c6e dd3d ed63 143e
00000060: 34fa 8f3d cce0 b73d 107f 1dbd 1aeb 9cbd
00000070: 0661 dc3d bbcc a0bd 058c f13d 5c29 e2bd
00000080: b136 cabc 0462 853c f330 333e 8bd8 3dbd
00000090: 4d21 8abb a0d4 2c3d a0d2 7bbc 7f3a fbbd
000000a0: 87a9 043e 8f6b 79bc 2557 f33d d13c 3b3c
000000b0: 56e4 dbbd 1b00 e4bd 1082 c53d dd2e 8a3d
000000c0: 64d4 293e c32b 75b9 5113 7ebd ab28 503d
000000d0: 7c7c 083d 1f62 1c3d 00c9 1e3d b704 a03d
000000e0: 6ad2 8f3d 8795 b6bd 74d1 2c3e 0d9b d3bd
000000f0: a94a d23c 9e93 dfb9 5a1d 383e fd79 58bd
00000100: d0ab a23d 0380 bf3d d05e 0fbd 5db6 80bb
00000110: 9d10 443d 19f8 77bd f53d 2fbc 01b2 e9bd
00000120: 485a a3bb 6717 40bd d6c4 673d b4c3 a93c
00000130: 0df4 103e 3ef6 023d 963a bfbd 3fd9 163d
00000140: 7e92 cbbd e866 efbb c709 babc 256f 83bd
00000150: 3afa 24be 824c 0abe 6cac d53d 4d95 c23d
00000160: 8981 443d e6e4 df3d 5931 5a3d 2b72 8abd
00000170: 0bd6 ec3a a01c a5bd 61d5 223d 8dc5 d6bd
00000180: df69 86be 39d5 b0bc 81a7 55bd 50f0 213e
00000190: 155a a8bc 0d55 133d a12a 5d3d d28a 2b3d
000001a0: 8a21 cabd f2a7 c63d e21a 923d 4844 a03d
000001b0: 2d3d a33d 7e20 813c 24ec 37bd 742b 45be
000001c0: 64dd aa3d 5f19 ffbc bf6e e03b 0ad8 453d
000001d0: c6cf 923d b646 d6bc cc21 27bc 963a d8bc
000001e0: cf5c d1bd dbcb e63d 3584 043e d921 6ebd
000001f0: 97c0 dabd c971 373d 9ee8 bfbd 6bc4 ab3c
00000200: 5552 783c 6315 9e3d d059 443d 421f 473b
00000210: 4103 1dbe a195 08be 7738 d73c 2452 d2bd
00000220: 410a 4cbd 47fa c83d f230 28bd 1888 a2bd
00000230: de74 e2bd 0bd6 103d a939 2ebe fc1c b33d
00000240: 152b 50bd fad9 c0bd 80ca 24bd 3726 a8bd
00000250: 3076 43bc 9836 873d 2465 8bbd 3085 393d
00000260: 8acd 9ebb 2da3 e2bd 6b45 c0bd bc13 1d3d
00000270: e0bf 083e f446 a5bd 7f3c e0bd 142e 703d
00000280: a434 863c 4eca 6bbd 5810 38bc 3a4d cb3d
00000290: 191b 083c ef7d f9bd 55fc 99bd cf6b debd
000002a0: 3bc2 3ebd 0312 2d3d fde8 e83d ca50 a4bc
000002b0: 2da5 9e3b 7b27 ffbd 60f2 023e 3237 ee3c
000002c0: efa5 3fbd 0441 813a 207a 5f3c 0795 9ebd
000002d0: 9c8c 913d 1c65 be3d 8f62 a0bd da50 133e
000002e0: 64c6 093e e309 d7bd 2145 b9bd 11ce ddbd
000002f0: dc62 0d3e 1186 d4bd 0cd2 613d 85c8 ee3d
-0.06468445 0.1357107 0.062012557 -0.02329553 0.13284892 -0.12552562 -0.055075552 -0.018165508
0.09330702 -0.076908 -0.022999745 -0.086558126 0.053948022 0.10253818 0.09329738 -0.05929246
0.071764976 0.09142888 0.061139647 -0.08437193 -0.07681907 0.09349164 0.10812029 0.14491244
0.07030144 0.089784235 -0.038451254 -0.076620296 0.10760693 -0.07851549 0.11794285 -0.11043045
-0.024684282 0.016282089 0.17499141 -0.04634909 -0.0042153955 0.042194963 -0.015370041 -0.122670166
0.12955295 -0.015223398 0.11881856 0.011428074 -0.10736911 -0.111328326 0.09643948 0.0674722
0.16584927 -0.00023381323 -0.06203014 0.050820034 0.033321843 0.038179513 0.038765907 0.07813399
0.07022555 -0.08915239 0.16876775 -0.10332308 0.025670366 -0.00042643858 0.17979947 -0.052850712
0.07942927 0.09350588 -0.03500253 -0.0039279894 0.047867406 -0.06053934 -0.010695924 -0.11410905
-0.0049851276 -0.04689732 0.0565842 0.020723201 0.14155598 0.031973116 -0.09337346 0.036828276
-0.099400505 -0.0073059686 -0.02270974 -0.064176835 -0.16111079 -0.13505748 0.104332775 0.09501133
0.047975097 0.10932331 0.053269718 -0.06760057 0.0018069161 -0.080621004 0.039754275 -0.104868986
-0.26252648 -0.021586047 -0.052161697 0.15814328 -0.020550767 0.035969783 0.053995732 0.041880436
-0.09869678 0.09700002 0.07134034 0.078255236 0.07970653 0.015762564 -0.044902936 -0.19254857
0.08343008 -0.031140028 0.0068491395 0.048301734 0.07168536 -0.026156764 -0.010200929 -0.026395123
-0.1022278 0.11269351 0.12941058 -0.05813775 -0.10681265 0.04478625 -0.0937054 0.020967683
0.015156348 0.07718923 0.047937214 0.0030383621 -0.15333273 -0.13338329 0.026272042 -0.10269573
-0.049814466 0.098133616 -0.041062303 -0.07936114 -0.11057447 0.035360377 -0.17014183 0.08745763
-0.050822336 -0.09416576 -0.04023218 -0.08210414 -0.011930034 0.0660221 -0.068064004 0.045293033
-0.0048462795 -0.110662796 -0.093882404 0.0383489 0.13354445 -0.08070174 -0.10949039 0.058637694
0.016382523 -0.05756598 -0.011234365 0.09926839 0.008307242 -0.12182223 -0.07518832 -0.108604066
-0.04657195 0.042253505 0.11372564 -0.020058054 0.004841468 -0.12458702 0.12787771 0.029079054
-0.046789106 0.0009861295 0.013639957 -0.077432685 0.07106897 0.09296629 -0.078312986 0.14386311
0.13454586 -0.104999326 -0.090463884 -0.1083032 0.13807243 -0.10377134 0.055131957 0.1165934

rnn.bias_hh_l0_reverse f4 [192]
00000000: 7e60 0fbd fbd4 993d 2379 103d dc71 a9bd
00000010: 8de2 4a3d bfeb e3bd 0010 b03d 70d6 7c3c
00000020: f341 f53d 11a5 0a3e 6c2b 8b3d 6dbf 903d
00000030: f7d5 803d c6ef cfbd 5b09 9bbd 9b20 b1bd
00000040: ad8b 4dbd 8164 f93b 2e2f 053d 1787 8cbc
00000050: 9998 113e 9605 cf3d 6d1b beba 0956 65bd
00000060: 4c45 bd3c d4ba 8d3d d916 053e f6f9 aa3d
00000070: 62f8 f73d bb8e 6f3d 344e 4dbd f8d2 513d
00000080: eb5e d83c 1746 a7bd f0cf 8e3d e6cd a7bd
00000090: 13c5 ff3d 5c49 7fbc 78d3 973d f2df 7dbd
000000a0: dc06 a23d d4f3 833c 1421 903d 0aac afbd
000000b0: 4cf8 7cbd 6e3f c23d 2a2a 8ebd acb0 893d
000000c0: b1f9 c43c b3bf 9abd 9a2f d93d 3ccd b3bd
000000d0: 7b9d 3d3d 3d0d 93bc 94a5 4c3d 2f8e e13d
000000e0: 1907 033e fe1c 253c e8b3 3bbd 7517 f73d
000000f0: 01ee bc3d f1bf 8dbc 5838 87bc 2c23 b4bc
00000100: 64b2 ba3b 057e 81bd 064f 793d 0f7f 8c3d
00000110: 10e9 3abd 60f6 1d3e bdaa f6bc a0a1 3f3d
00000120: b7de 41bd 45dd b83d 056c 5c3d 37cb f2bd
00000130: 089b c13d a2e4 cf3d 3e4a dbbd 7772 eabd
00000140: a673 403c 0b5c 343d e801 a83d 13de a23d
00000150: 3d4c ac3c dcb6 c23d ae3c 00bd e889 81bd
00000160: dc59 f93d b6a1 b2bc c04a 9a3d 9770 b13d
00000170: 334c 6bba 1093 a2bd fb33 4b3e dbfe 1cbe
00000180: 347f 81be d409 833d 681d 053d 32b2 203d
00000190: ff59 b13d d066 9a3d 5b95 d73d b4b5 08bd
000001a0: c7cd bbbc f455 6f3d 05f9 20bd cb21 a1bc
000001b0: 16e2 44bc baed 41bd 93f6 36bd e86f 90bd
000001c0: dac7 1b3d 2e0e 7c3c 7107 a03d 05c6 0cbd
000001d0: b7c4 5bbd c3f6 6f3b 9019 2f3c da25 e5bd
000001e0: cc88 36be 990c 633d b75f 8a3d 2903 a93d
000001f0: bc86 0fbe 27f9 af3d a69c 03be d7e8 6bbd
00000200: 7427 ca3d 9ad4 b0bd 025b 183e 3ceb ddbd
00000210: 23b6 66bc d6e3 a6bd 8451 df3d 7bc9 163d
00000220: c7ae 28bd 45d4 203d bfef d1bd eefa 7b3b
00000230: ca4a f8bd 8b84 383d bf83 0fbe b2a2 8a3d
00000240: 5b69 c8bd 8912 843c 1639 143d d243 9e3a
00000250: f6e5 cabc 6d02 6d3d 9bc3 89bd 3cdb f7bb
00000260: 01b2 dcbd e72f 32bd f319 013e f6aa 9b3d
00000270: d172 00bd 468e 8c3d 0ef5 46be 9ff7 18bd
00000280: 86c8 09be fc65 97bc ac6a 923d cf10 653d
00000290: 41fd 06bd 98ac 34be eaca e03d 4edd 13bd
000002a0: 2654 d33c 5016 c13d 7372 893d 10e9 32bc
000002b0: 68c5 9cbb 74eb f4bc 6b9c 943c 5ace 823d
000002c0: f91d 973d 129b 863d 5956 0abe 220b e43d
000002d0: 882f 96bd 5a46 10bd af91 763d 0bbc 23bd
000002e0: 8c02 0d3b 3e19 993d a079 a4bc fa26 313d
000002f0: c826 3b3d 39e5 a2bc b977 d93d 2245 dcbd
-0.03500413 0.07511326 0.035271775 -0.0827367 0.049532462 -0.111289494 0.08596802 0.015431985
0.119754694 0.1353953 0.067953914 0.070677616 0.062908106 -0.10153155 -0.07570144 -0.08648797
-0.050182033 0.007610858 0.032515697 -0.01715426 0.14218368 0.10108487 -0.0014504023 -0.055990253
0.023104332 0.069204 0.12996997 0.083484575 0.12107922 0.058485728 -0.05012341 0.051226586
0.026412448 -0.081676655 0.06973255 -0.08193569 0.12488761 -0.015581455 0.07413381 -0.06198115
0.079114646 0.016107477 0.07037559 -0.08577736 -0.06176023 0.094847545 -0.06941636 0.067231506
0.024044843 -0.07556095 0.106047824 -0.0877938 0.046292763 -0.017950648 0.049962595 0.110134475
0.12795676 0.010077713 -0.04582587 0.12065021 0.09225083 -0.017303439 -0.016506359 -0.021989428
0.0056975354 -0.063228644 0.06086638 0.06860172 -0.045632422 0.15426016 -0.030110711 0.046784997
-0.047331538 0.09026579 0.053813953 -0.118551664 0.09453398 0.1015103 -0.1070752 -0.11447614
0.011746323 0.04403309 0.082034886 0.079525135 0.021032447 0.09507534 -0.03130787 -0.06325132
0.121753424 -0.021805625 0.07533789 0.08664053 -0.0008975893 -0.07938206 0.19844048 -0.15331595
-0.2529236 0.06398359 0.032498747 0.03923244 0.086597435 0.07539141 0.10526534 -0.03337641
-0.02292527 0.05843158 -0.039299984 -0.019669434 -0.012016794 -0.047345854 -0.044668745 -0.070525944
0.03803239 0.01538424 0.07813919 -0.034368534 -0.0536544 0.0036615587 0.010687247 -0.1118886
-0.17825621 0.055431936 0.067565374 0.08252556 -0.14016241 0.08592444 -0.12852725 -0.0575951
0.09870806 -0.086343005 0.14878467 -0.10835883 -0.014081511 -0.08148925 0.1090422 0.03681324
-0.041182306 0.039264936 -0.10250806 0.0038449126 -0.1212364 0.045048278 -0.14015101 0.06769313
-0.0978572 0.01612212 0.036187254 0.0012074655 -0.024767857 0.05786364 -0.06726762 -0.0075639766
-0.10776139 -0.043502714 0.12607555 0.076009676 -0.031359497 0.06863074 -0.19429418 -0.037345525
-0.134554 -0.018481247 0.07149252 0.055924233 -0.032956365 -0.17643964 0.10976203 -0.036099724
0.025796961 0.09428084 0.067112826 -0.010919824 -0.004784275 -0.029897429 0.018140992 0.06387015
0.07378764 0.06572546 -0.13509502 0.11134936 -0.073332846 -0.035223342 0.06019753 -0.039974254
0.002151641 0.07475518 -0.020077527 0.04325006 0.04569128 -0.019884693 0.106185384 -0.107553735

rnn.weight_ih_l1 f4 [192, 128]
00000000: 93d4 c5bd f3e6 d93d 2773 223d 8212 25bd
00000010: f858 02be a916 f23d 11ef f6bc 4c09 a5bd
00000020: 53b3 bc3d c168 013e d7cd 763c a1b4 c6bb
00000030: 76a2 bdbd 13ac 21bd e60d d33d 59ee 8bbd
00000040: 6aeb 663c 66d6 303d 01cf 33bd a2b1 f2bd
00000050: 6edf 89bd a785 3d3d 92ba 59bd 642a 8ebd
00000060: a3a4 a43b 951c b63c 13d3 f93d 72ca babd
00000070: e6de 873d 6259 e03d f8ae 7a3d af69 8a3d
00000080: f815 7eba 3dcd 6abd 71ca cfbd af83 5abb
00000090: 3c76 94bd ba03 aabd a2c0 153d 61d4 0a3e
000000a0: 09e5 803d e9b1 053e 877e 12bd eace 1c3d
000000b0: 9c9d dfbd b522 183e e7e3 68bc d330 f7bd
000000c0: 2460 40bd 985b a5bc b400 0ebd 32f3 4b3d
000000d0: 7307 313c 8296 8fbd f546 7f3c c1ca dfbd
000000e0: ce6a 01be 3f50 b93d 3e9b 40bd bd20 86bd
000000f0: f57b dabc 9887 ddbc 4924 9f3d 8436 18bd
00000100: 8048 c0bd 5667 3dbd b7c2 993c cba6 0a3d
00000110: 5d68 6abd 2d4f bcbd ee7c d3bb 6476 8d3d
00000120: 99e7 eebc 01b5 19bd 4cd7 b4bd fb1c 90bd
00000130: 8e91 11bc 03f1 d6bc 6d77 a1bc e378 bdbb
00000140: db7a 5d3d 3bc1 043d 6db9 c1bd 5b3a 00bd
00000150: aae7 5fbd 6d09 fabc c90a 47bd e665 fdbd
00000160: 8d1c 00bd 1dca c13d 2403 843d f6e9 0dbe
00000170: ef43 dbbd f331 933d c93b 23bd def6 03bd
00000180: 40d4 72bd 8590 303d c23d 273d 93e2 013e
00000190: 1c0d 2f3d c087 70bd 966e 25bc 3a63 40bd
000001a0: e436 693c 40ba ab3d 2fb8 943d cf60 e0bd
000001b0: 7939 ffbd aefc 8b3c 6fe5 89bd 0bb1 07be
000001c0: c370 47bd dc16 bfbd a30c ac3d 4633 2fbd
000001d0: e8b4 dabd 1feb bdbd 224c 6ebc 0c07 71bd
000001e0: a434 9bbd 0994 7e3d cac4 04bc 6a4b 95bd
000001f0: 1c7c df3d 4b8b c2bc f93b c23d 5af2 a8bd
00000200: 6a05 023e 8811 67bd b5ee 853a 340f e7bd
00000210: 85a7 febd ac08 a43d 8944 b2bd b57a ef3d
00000220: 2c94 b8bd 5d37 0d3e 92a5 bb3b d285 663d
00000230: cadc a43d 1f68 a83d aabc 00be e297 7c3d
00000240: 16e9 b8bd 35bd e7bd 0083 8abd 37a9 653d
00000250: 3fc9 d73d 3e9a eb3d ea93 08bc 033c 6f3c
00000260: 67f8 b3bc 655b 183e dee3 0f3e c0e0 5c3d
00000270: 0941 0d3d 7be9 d03d d412 7ebd db53 82bd
00000280: be16 c3bd f08e a33d 2259 94bd 6dfc aebd
00000290: 054c 15bd c8b4 cabd c022 4e3d 6ebe a13d
000002a0: 5d55 27bd 1636 2e3d 05a2 a7bc 5ff5 173d
000002b0: 816b b23d f765 41bd 64c2 e33c 58ba 1fbd
000002c0: a4fb 453d cfe6 a2bd d819 c0bc 6db0 a23d
000002d0: 0384 ab3c 80f3 65bd 5e18 2fbd d0b5 cd3c
000002e0: 02ff f2bd 7df9 b73d 6e64 b83d e2e4 eabd
000002f0: 93a6 c63d 1b6a d4bd 5bfc 8cbd 5ea6 99bd
00000300: a85a 06bd 6f12 c83c e3e3 e0bd 0ca0 bb3d
00000310: 76db a7bd 423e cebd 08ff b53d f196 c5bd
00000320: 6869 ab3d a928 a23d ee06 993d 3e71 52bd
00000330: 66b6 013e f48a 49bd 19cd 6ebc 5617 fabd
00000340: c7fd 93bd 89f9 c7bd fe0e c3bd a9c2 02be
00000350: aa49 373d bc48 36bc 4665 83bd e2bb 243d
00000360: 8df8 32bc c7a1 5cbc 234c bf3d cc80 a5bd
00000370: 4ecc c1bd 934f 73bd f7d0 debd d40f 003c
00000380: 63e9 403d e9ef e83d 33cb dc3c 5103 0f3e
00000390: 4bf6 50bd 26cb e4bc caab 923d 6b8c 053e
000003a0: 609e c43b 3ccf 553d a21a 07bc 0885 443d
000003b0: 14d6 c4bc bc50 8f3d 25d2 b1bc 48ea b8bd
000003c0: dd20 c2bc 47e2 e5bd eec9 36bd 439d e43b
000003d0: a7cb 4b3b 181a e5bc 3ed6 cdbc c6ac c83d
000003e0: e722 61bd a02e d1bd 0f27 dfbc b8eb 8abc
000003f0: 5066 b7bd b1a7 b13d 3b96 533d 3ccb ab3d
-0.09659686 0.10639753 0.0396606 -0.040300854 -0.12729251 0.11820728 -0.030143293 -0.08058414
0.09213891 0.12637617 0.0150637245 -0.006064013 -0.092595026 -0.039470743 0.10305385 -0.068325706
0.014094213 0.043173216 -0.043898586 -0.11850287 -0.06732069 0.04627004 -0.053156443 -0.06941679
0.005024509 0.022230426 0.12198462 -0.09120645 0.066343114 0.109545484 0.06120202 0.06758439
-0.00096926047 -0.057324637 -0.101460345 -0.003334265 -0.07249114 -0.08301492 0.036560662 0.13557579
0.06293685 0.13056149 -0.035765197 0.038283266 -0.109187335 0.1485699 -0.014214492 -0.12069859
-0.046966687 -0.020185277 -0.03466864 0.049792476 0.010804999 -0.07011129 0.015580882 -0.10927344
-0.12638399 0.09048509 -0.04702305 -0.06549213 -0.026670435 -0.027042195 0.07770593 -0.037161365
-0.09388828 -0.046241127 0.018769605 0.033850472 -0.057228435 -0.09194789 -0.0064541018 0.06907347
-0.029163169 -0.037526134 -0.08830127 -0.070367776 -0.008884801 -0.02623797 -0.019710267 -0.005782233
0.054072242 0.03241084 -0.09459195 -0.031305652 -0.05466429 -0.030522073 -0.04859427 -0.12372951
-0.03127723 0.09462378 0.064459115 -0.1385878 -0.10706317 0.071872614 -0.039851937 -0.032217853
-0.05928445 0.043106575 0.04083038 0.12684087 0.04273711 -0.05872321 -0.0100971665 -0.04696963
0.014234278 0.08385134 0.07261693 -0.10955965 -0.12462134 0.01708826 -0.06733214 -0.1325113
-0.048691522 -0.09330532 0.08400848 -0.042773508 -0.106790364 -0.092733614 -0.014544519 -0.05884461
-0.075784 0.062152896 -0.008103559 -0.07289775 0.10912344 -0.02374806 0.09484095 -0.0824935
0.12697378 -0.056413203 0.0010218235 -0.11282197 -0.124342956 0.080094665 -0.08704478 0.116933264
-0.090126365 0.1379065 0.0057265246 0.056279965 0.08049925 0.082229845 -0.1257197 0.061668284
-0.090288326 -0.11315385 -0.067632675 0.05606958 0.105364315 0.11504029 -0.008336047 0.01460171
-0.021969033 0.14878614 0.14051768 0.053925276 0.03448585 0.10200783 -0.062029675 -0.063636504
-0.09525822 0.079862475 -0.07243563 -0.0854424 -0.03644945 -0.098977625 0.05032611 0.0789765
-0.040852893 0.04253205 -0.020463 0.03709924 0.08711911 -0.047216382 0.027802654 -0.03899607
0.048335686 -0.079541795 -0.023449823 0.07943807 0.020936972 -0.056140423 -0.042747848 0.025111109
-0.11865045 0.08983133 0.090035304 -0.11469437 0.0969974 -0.103718005 -0.068840705 -0.07502435
-0.0328013 0.024422852 -0.10980966 0.09161386 -0.08196156 -0.100704685 0.08886534 -0.096479304
0.08369714 0.079179116 0.07472025 -0.051377527 0.12667236 -0.04920478 -0.014575266 -0.12211482
-0.072261386 -0.09764392 -0.09524344 -0.1276957 0.044747986 -0.01112574 -0.06415801 0.04021824
-0.010923517 -0.013466305 0.09340694 -0.08081207 -0.09462796 -0.05940206 -0.10879701 0.007816274
0.047097575 0.11373884 0.026952362 0.13966109 -0.051016133 -0.0279289 0.071616724 0.13041846
0.006000325 0.052199587 -0.008246096 0.04797843 -0.024027862 0.06997821 -0.02170665 -0.090290606
-0.023697311 -0.112247996 -0.04462617 0.006976755 0.0031096728 -0.027966544 -0.025126573 0.09798579
-0.054964926 -0.10213971 -0.027240304 -0.016958103 -0.089550614 0.08674563 0.051656943 0.08388373
