program/deep_learning/16 - Recurrent Neural Network/model/bigru/weights_150.pth (torch, 703152 bytes, 25 tensors)

rnn.weight_ih_l0 f4 [192, 1]
0	0x3da1dc53	0.07903352
1	0xbcd9e711	-0.026599439
2	0x3e1df26e	0.15424511
3	0x3dbde6ea	0.09272559
4	0xbde0e2dd	-0.10980771
5	0x3d6cd0d6	0.05781635
6	0x374b7fee	1.2129529e-05
7	0xbe162483	-0.14662366
8	0xbd9d164c	-0.076702684
9	0xbdc3b204	-0.09555438
10	0xbdea1517	-0.11429804
11	0xbdc01cf7	-0.093805246
12	0x3e0a9d9b	0.13536684
13	0x3d853ddb	0.065059386
14	0x3db0fb1a	0.08641644
15	0x3de78b91	0.11305917
16	0xbc18354d	-0.009290052
17	0xbc49c64c	-0.012315344
18	0xbdda067b	-0.10645767
19	0x3d8b4e7c	0.06802079
20	0xbd0807bf	-0.033210512
21	0x3dd3bd23	0.10338809
22	0x3bc865c8	0.006115649
23	0x3d5ec9a1	0.054391507
24	0x3c6bb810	0.014387146
25	0x3d4dbeec	0.050230905
26	0xbbcc4ad9	-0.0062345085
27	0xbc9f16c3	-0.019420033
28	0xbd044952	-0.032296486
29	0xbc55d7cd	-0.013051939
30	0x3e4848b7	0.19558989
31	0xbd5e2a66	-0.054239653
32	0x3e267384	0.16255003
33	0x3da0fdc0	0.07860899
34	0x3e28467b	0.16433136
35	0x3e1400dd	0.14453454
36	0x3d684ba2	0.056712754
37	0x3e0182f3	0.1264761
38	0xbda3ae1f	-0.07992195
39	0x3d9e17e9	0.07719404
40	0xbdab0162	-0.08349873
41	0x3e2e129e	0.1699929
42	0x3cbc7238	0.023003682
43	0x3e0f52e3	0.13996463
44	0x3d978e4f	0.0740019
45	0x3d3c710b	0.046006244
46	0x3deeef37	0.1166672
47	0x3d6ecef0	0.05830282
48	0xbd2ccd39	-0.042187903
49	0x3d2e9a1e	0.042627446
50	0x3dd73924	0.105089456
51	0xbdeec2d7	-0.116582565
52	0xbe012ebb	-0.12615483
53	0xbde48ced	-0.11159692
54	0x3d6ee287	0.058321502
55	0x3d685f56	0.056731544
56	0x3e0fcb4c	0.14042395
57	0x3db9af89	0.09066684
58	0xbc39e28c	-0.011345517
59	0x3deaf7a4	0.11473015
60	0x3df17981	0.11790753
61	0x3de8e1e1	0.11371208
62	0xbdcc469b	-0.099744044
63	0xbbdeaae1	-0.0067952727
64	0xbe0d0bc3	-0.13774018
65	0xbd3c765a	-0.046011306
66	0xbdb7ef22	-0.08981158
67	0x3ced18f7	0.028942568
68	0xbd733c1c	-0.059383497
69	0xbd32dd09	-0.043667827
70	0xbe10a5aa	-0.14125696
71	0xbe1f1037	-0.15533529
72	0xbdcaffff	-0.09912109
73	0xbddeed45	-0.10885099
74	0x3bbe8a3e	0.0058148196
75	0x3cba6694	0.022753991
76	0x3e1cbccd	0.15306397
77	0x3a844885	0.0010092413
78	0xbc71714d	-0.014736486
79	0xbd6f721c	-0.058458433
80	0x3c8c8dfc	0.017157547
81	0xbe5537ea	-0.20822111
82	0x3d3e5aab	0.046473186
83	0xbe5919fa	-0.21201316
84	0xbe2dade5	-0.16960867
85	0x3d1fbe89	0.039000068
86	0xbde16301	-0.110052116
87	0xbe8ad0e5	-0.271125
88	0x3c520b09	0.012820014
89	0x3e08c3ba	0.13355914
90	0xbd9cdf8f	-0.07659828
91	0x3c38f3c2	0.011288585
92	0x3d078205	0.03308298
93	0xbd3d7ce6	-0.04626169
94	0x3e288cfd	0.16460033
95	0x3c2c79f4	0.010527123
96	0xbe028466	-0.12745818
97	0xbe38dfe0	-0.18054152
98	0xbcd32413	-0.025774037
99	0xbd74e74c	-0.059790894
100	0xbd171f05	-0.036894817
101	0x3d5db084	0.054123417
102	0xbd022066	-0.03176918
103	0xbc868611	-0.01642135
104	0xbdf92d85	-0.12166885
105	0xbd63ffd7	-0.05566391
106	0xbdbe81f5	-0.09302131
107	0xbde4d45c	-0.11173317
108	0xbe6708c4	-0.22561938
109	0xbc2ccace	-0.010546399
110	0x3d12651d	0.03574096
111	0xbe4fc762	-0.20290902
112	0xbe024cb2	-0.1272457
113	0xbe02787b	-0.12741272
114	0x3c8b56d6	0.01700918
115	0x3c845027	0.0161515
116	0xbe15dd0e	-0.14635107
117	0xbddf3dc1	-0.109004505
118	0xbde4486b	-0.11146625
119	0x3d4a9156	0.04945501
120	0xbddd5897	-0.10807913
121	0xbe41097d	-0.18851276
122	0x3d801442	0.06253864
123	0xbe217c52	-0.1577008
124	0x3d9bd66a	0.076092556
125	0xbe146a1d	-0.14493604
126	0xbc88fce2	-0.016722146
127	0xbe0d40a1	-0.13794185
128	0x3d0a279d	0.033729184
129	0xbce9c7f5	-0.02853773
130	0x3dd98e6d	0.10622869
131	0x3db55cfd	0.08855627
132	0x3dbb4acf	0.09145128
133	0xbd3d3f0a	-0.046202697
134	0x3d223f7a	0.039611317
135	0xbd2a4f69	-0.041579638
136	0xbdc4742b	-0.0959247
137	0xbd8614ed	-0.0654696
138	0x3d7bf630	0.06151408
139	0x3daa4d38	0.083155096
140	0x3cd8cf36	0.026465993
141	0xbcd85708	-0.026408687
142	0x3ddb9fe1	0.10723854
143	0x3d77d797	0.060508337
144	0xbd520119	-0.051270578
145	0x3dac5e46	0.08416419
146	0x3e172bbc	0.14762777
147	0x3d958dc9	0.07302434
148	0xbe1fa685	-0.15590866
149	0xbcdc543c	-0.026895635
150	0xbd78dd7c	-0.0607581
151	0xbd917b8a	-0.07103641
152	0x3da2ebdd	0.079551436
153	0xbc76bae1	-0.015059204
154	0xbd082d71	-0.03324646
155	0x3d98c2cc	0.074590296
156	0x3dcb9b7f	0.09941768
157	0x3bb544b9	0.005531874
158	0xbb90025c	-0.0043948125
159	0x3ccb8e86	0.024848234
160	0xbdc0a57d	-0.094065644
161	0xbd82aaa7	-0.063802056
162	0xbb2c3eb3	-0.0026282489
163	0xbd688604	-0.056768432
164	0xbc9572dc	-0.018243246
165	0x3cc05698	0.023478791
166	0x3d811084	0.06301978
167	0xbcd77964	-0.026303
168	0xbd9c6e7c	-0.07638261
169	0xbdc54f42	-0.09634258
170	0xbdadd0a0	-0.08487058
171	0xbd14a6fc	-0.03629206
172	0x3dfb58f4	0.12272826
173	0xbb61bae8	-0.003444368
174	0x3c99c7d5	0.018772045
175	0xbdc6115a	-0.09671278
176	0xbd9765d0	-0.07392466
177	0x3e0f78c7	0.14010917
178	0xbd86028a	-0.06543453
179	0xbd9f10f9	-0.07766909
180	0x3da0a607	0.07844167
181	0xbd8545c3	-0.065074466
182	0xbcafdcdd	-0.02146762
183	0xbdb3c76e	-0.087782726
184	0x3dbe4884	0.09291175
185	0xbd86ace3	-0.06575944
186	0x3d63c18f	0.055604514
187	0x3de45f64	0.11151007
188	0xbdc5f769	-0.0966633
189	0x3d478ecc	0.048720166
190	0xbd88d7f3	-0.06681814
191	0x3dbe6353	0.09296288

rnn.weight_hh_l0 f4 [192, 64]
0	0x3e064dee	0.13115665
1	0x3cbb94c4	0.022898085
2	0xbc7137a7	-0.014722741
3	0x3dcce924	0.100054055
4	0xbd5365b9	-0.051610682
5	0xbe67fd03	-0.2265511
6	0x3d8ff36c	0.07028851
7	0x3d75c5c4	0.060003057
8	0xbd1dcaa9	-0.03852335
9	0x3a8fe5fd	0.0010978576
10	0xbe07a28f	-0.13245605
11	0x3dc20de9	0.094753094
12	0xbdd3010f	-0.10302936
13	0xbd96cc0f	-0.0736314
14	0x3ca1812b	0.019714912
15	0xbd64659a	-0.055760957
16	0x3bdbd2bc	0.006708471
17	0xbd1cd5a0	-0.038289666
18	0x3e0b8b12	0.1362727
19	0x3e366ddb	0.17815344
20	0xbe15636b	-0.14588706
21	0xbe49ef39	-0.19720162
22	0x3d815417	0.06314867
23	0xbe67ecec	-0.22648972
24	0xbc44aeb9	-0.012004548
25	0xbe057d07	-0.13035975
26	0x3c008192	0.007843392
27	0x3dbd5ff8	0.0924682
28	0xbd0057b7	-0.03133365
29	0xbd6590f2	-0.056046434
30	0x3cf0f88b	0.02941539
31	0x3e48f929	0.19626297
32	0xbcef29a9	-0.02919467
33	0xbd31f14e	-0.043443017
34	0x3e0421f9	0.12903585
35	0x3c97b557	0.018519087
36	0x3d1e82ea	0.038699068
37	0x3e39565a	0.18099347
38	0x3d3bc5dc	0.04584299
39	0x3e29fc87	0.16600238
40	0x3c5cff98	0.013488673
41	0xbdca79bf	-0.098865025
42	0xbe15535b	-0.14582579
43	0xbc9f7684	-0.019465692
44	0xbd52813c	-0.05139278
45	0xbb8ddc8e	-0.0043292707
46	0xbc2ad651	-0.010427074
47	0x3c137f73	0.009002554
48	0xbd6e74ef	-0.058216985
49	0x3ba2d20a	0.0049688863
50	0xbceb4715	-0.028720418
51	0xbdb2c117	-0.08728235
52	0xbdf40101	-0.11914254
53	0xbd5a38ee	-0.05327695
54	0xbe2da38f	-0.16956924
55	0xbe052228	-0.13001311
56	0xbd8c5c3f	-0.06853532
57	0xbd91f3dc	-0.071265906
58	0x3e52136d	0.20515223
59	0x3dc2013c	0.09472892
60	0x3c2c59f7	0.010519496
61	0x3e0f8cc6	0.14018545
62	0xbd15008e	-0.036377482
63	0x3c230245	0.009949272
64	0xbdc9310d	-0.09823809
65	0x3d5affb5	0.053466517
66	0x3dd35f58	0.1032092
67	0x3da7f6b5	0.082013525
68	0x3d81f1fd	0.06344984
69	0x3cc98356	0.024598759
70	0x3d4a55b5	0.049398143
71	0xbdd01790	-0.10160744
72	0xbd58b008	-0.05290225
73	0x3d5810f4	0.052750543
74	0x3dc33376	0.095313
75	0x3d95b6bf	0.07310247
76	0xbd265b04	-0.040614143
77	0xbdf326ab	-0.1187261
78	0x3e0a44c3	0.13502793
79	0xbdde6313	-0.10858741
80	0xbdc79731	-0.09745634
81	0xbd9ea210	-0.07745755
82	0x3e079b4b	0.13242833
83	0x3dbc7c86	0.092034385
84	0xbcc0afe9	-0.02352138
85	0xbe0e6064	-0.13903958
86	0x3c55ee7c	0.013057347
87	0x3dbb814d	0.091555215
88	0x3e00b8a8	0.12570441
89	0xbda8a2f8	-0.08234209
90	0xbd5e52ca	-0.054278173
91	0x3d80b573	0.06284609
92	0x3d0e5d61	0.03475702
93	0xbc287574	-0.010281909
94	0x3ccfaacd	0.025349999
95	0x3e0f76a9	0.14010109
96	0xbda58656	-0.08082263
97	0x3d7e3409	0.062061343
98	0x3d148e63	0.036268603
99	0xbd7dafed	-0.061935354
100	0xbdafa596	-0.08576505
101	0x3dfdcb32	0.12392272
102	0x3bdecf03	0.00679958
103	0x3c842b83	0.01613403
104	0xbdfcdb8d	-0.123465635
105	0xbddf5217	-0.10904329
106	0xbcdbab83	-0.026815182
107	0xbdfe1c53	-0.12407746
108	0x3e12c490	0.14332795
109	0x3d7626ec	0.060095713
110	0x3e075ac9	0.13218226
111	0xbde174ae	-0.11008583
112	0xbd98775c	-0.07444641
113	0xbbddc787	-0.0067681703
114	0xbdbbbbdd	-0.091666915
115	0x3ce277f0	0.027645081
116	0x3cb970a3	0.022636717
117	0x3c9c6577	0.019091351
118	0xbe032bdc	-0.128097
119	0xbe0ec540	-0.13942432
120	0x3c9f0aca	0.019414324
121	0xbe0ec7b7	-0.13943373
122	0x3cd10964	0.025517173
123	0x3d9be6b3	0.07612362
124	0xbcc90c58	-0.024542019
125	0xbc8c11cd	-0.017098332
126	0xbd6883f0	-0.05676645
127	0xbd81841d	-0.06324027
128	0x3d50eee6	0.05100908
129	0x3c5eb921	0.013593943
130	0x3d340e57	0.043958988
131	0x3b6fa4cf	0.003656674
132	0x3d900be9	0.07033522
133	0x3b233976	0.0024906076
134	0x3e16465b	0.14675276
135	0x3d8e1fcf	0.06939661
136	0xbd6aaa0c	-0.057291076
137	0x3c8ae720	0.016955912
138	0x3d586712	0.05283267
139	0x3ddf6ab0	0.10909021
140	0x3dcc00c2	0.09961082
141	0xbd760bc0	-0.0600698
142	0xbc81978b	-0.015819332
143	0x3d7557bd	0.059898127
144	0xbe036eb1	-0.12835194
145	0xbc54d672	-0.012990581
146	0xbbf27820	-0.007399574
147	0x3d3c9fe0	0.046050906
148	0xbe05317b	-0.13007157
149	0xbe32b136	-0.17450413
150	0x3d8cb0bc	0.06869647
151	0xbe1123b1	-0.14173771
152	0x3d1efa4a	0.038812913
153	0xbd6016f1	-0.05470938
154	0xbe1aaddd	-0.15105386
155	0xbd96a799	-0.073561855
156	0x3e2ee514	0.17079574
157	0x3c51b731	0.012800024
158	0x3cd2f34f	0.025750784
159	0x3d6486ab	0.055792492
160	0x3ccaa4a6	0.024736714
161	0xbe3965a3	-0.18105178
162	0x3de1446e	0.1099938
163	0xbd4e00ed	-0.05029385
164	0xbdef9de7	-0.11700039
165	0x3d58b9b8	0.05291149
166	0x3dd005e7	0.10157376
167	0x3ddcfecc	0.10790786
168	0x3c968e81	0.018378498
169	0xbb0ae550	-0.002119381
170	0xbdc0c831	-0.094131835
171	0x3b95dabe	0.0045731952
172	0x3dd45190	0.10367119
173	0xbdaf2724	-0.08552387
174	0x3d9e34be	0.077249035
175	0x3d7914d0	0.060810864
176	0xbd775a76	-0.060389005
177	0x3c111855	0.008855899
178	0xbe19b2b5	-0.15009578
179	0xbbf047a0	-0.007332757
180	0x3e0221ca	0.12708202
181	0xbd76449a	-0.060124017
182	0xbd55af5d	-0.052169193
183	0xbde00be7	-0.1093977
184	0x3daf71fc	0.08566663
185	0xbdf8f54b	-0.12156161
186	0x3def24d4	0.11676946
187	0x3bc2bd7e	0.0059429994
188	0xbce1f13a	-0.027580846
189	0x3e3345d2	0.17507103
190	0xbd432668	-0.04764405
191	0x3d8f5011	0.06997693
192	0x3d4fa6d6	0.050696217
193	0x3d6f79e2	0.058465846
194	0xbd5ef688	-0.05443433
195	0xbdd9fc55	-0.10643832
196	0xbda06934	-0.07832566
197	0x3e26919a	0.1626648
198	0xbdb3664f	-0.08759748
199	0xbe016579	-0.12636365
200	0x3d29f0b1	0.041489307
201	0xbd95aaca	-0.07307966
202	0x3e133892	0.14377049
203	0x3df28a94	0.11842838
204	0xbc43dab8	-0.011954002
205	0x3e2508f7	0.16116701
206	0x3ddeabe6	0.10872631
207	0x3db91df5	0.09038917
208	0x3d4aeac6	0.049540304
209	0x3d885682	0.06657125
210	0xbddff285	-0.10934929
211	0x3dc9aaf0	0.09847057
212	0x3cc1f185	0.023674736
213	0xbd84fde0	-0.06493735
214	0x3c1d817a	0.009613389
215	0x3d96eed4	0.073697716
216	0x3cb6cf97	0.022315783
217	0xbc88f982	-0.016720537
218	0xbd5c0fdf	-0.053726073
219	0x3ddfb383	0.10922911
220	0x3ddbdd89	0.10735614
221	0x3d8dfc2f	0.06932866
222	0xbc9d22ec	-0.019181691
223	0xbd46e72c	-0.048560306
224	0x3c2e73a3	0.010647687
225	0xbd09dfbe	-0.033660643
226	0xbc1146b6	-0.008866956
227	0x3c0cd6ef	0.008596166
228	0xbb213409	-0.0024597666
229	0xbe2bcfd0	-0.16778493
230	0x3e04cfd9	0.12969913
231	0xbd39c0fb	-0.045350056
232	0x3c93f894	0.018062867
233	0x3d93fe78	0.072262704
234	0xbbd8c340	-0.0066150725
235	0xbd4a5130	-0.049393833
236	0x3dead93e	0.11467217
237	0xbd2c6686	-0.04208996
238	0xbdc547fd	-0.09632871
239	0xbdb96ea4	-0.09054306
240	0x3daaefd1	0.083465226
241	0x3c2b4a22	0.010454686
242	0xbd81eb6f	-0.063437335
243	0x3c9f97d7	0.019481583
244	0x3d104a06	0.035226844
245	0xbe010e1d	-0.1260304
246	0x3db02892	0.08601488
247	0x3c8a70f3	0.016899562
248	0x3de138b1	0.10997141
249	0xbcc6f600	-0.024287224
250	0x3d75bb5d	0.059993137
251	0x3c1d3f3c	0.009597596
252	0x3dd66aa1	0.104695566
253	0xbdb9399e	-0.09044193
254	0xbde20ed3	-0.11037984
255	0x3c8084f0	0.01568839

rnn.bias_ih_l0 f4 [192]
0	0x3dd3f5e5	0.10349635
1	0x3dec00d0	0.115235925
2	0x3d957933	0.072985075
3	0xbdaefa01	-0.08543778
4	0xbd1b88f3	-0.0379724
5	0x3e1ac482	0.15114024
6	0xbbe692c2	-0.007036538
7	0x3dcfb6ac	0.10142264
8	0x3e03ddd7	0.12877594
9	0x3e0f1090	0.13971162
10	0x3e0a5b3a	0.13511363
11	0xbd53ab90	-0.051677287
12	0x3e2e7c4b	0.17039602
13	0x3d7ef716	0.06224736
14	0x3d945cdf	0.07244276
15	0x3e2150c9	0.15753473
16	0x3d9310af	0.071809165
17	0x3ccfec24	0.025381155
18	0xbc64a10e	-0.013954414
19	0x3d3c52d5	0.045977432
20	0x3dd7e8fd	0.10542486
21	0x3daf6cc6	0.08565669
22	0x3e535b52	0.20640305
23	0x3daf74cf	0.08567201
24	0xbd90bf97	-0.07067793
25	0x3c743b78	0.014906757
26	0xbc8f808a	-0.017517347
27	0xbda43288	-0.080174506
28	0xbcc00bd6	-0.023443144
29	0x3d29dbb4	0.04146929
30	0x3d95c7e8	0.0731352
31	0x3d955fb1	0.07293642
32	0x3d951ef3	0.07281294
33	0x3e04fc05	0.12986763
34	0x3dba8e36	0.09109156
35	0xbd045323	-0.032305848
36	0x3bcb0384	0.0061954875
37	0x3c79ecd6	0.01525422
38	0xbc62ce78	-0.013843171
39	0x3d69a885	0.05704548
40	0x3cabcee0	0.02097267
41	0x3e0aa08c	0.13537806
42	0x3de2330d	0.110448934
43	0x3c0127ad	0.007882995
44	0xbd6ca156	-0.05777105
45	0xbc5405c4	-0.012940828
46	0x3d9fa596	0.07795255
47	0x3d138f6c	0.03602545
48	0x3da38a23	0.07985332
49	0x3e03a9c6	0.12857732
50	0x3dbee6a2	0.093213335
51	0x3df9a68d	0.1218997
52	0x3d841c09	0.0645066
53	0x3e086528	0.13319838
54	0xbcdb8d68	-0.026800826
55	0x3d3a803a	0.045532443
56	0xbbc67bae	-0.0060572242
57	0xbd80bc0d	-0.06285868
58	0x3d83a968	0.06428796
59	0xbdfe8e3f	-0.12429475
60	0x3dc07f49	0.09399278
61	0x3cab8f28	0.020942286
62	0x3d88aea3	0.06673934
63	0x3cc62663	0.024188226
64	0x3e00b2ae	0.12568161
65	0xbaba9e5e	-0.0014237871
66	0xbc9f7fd7	-0.019470138
67	0xbbafbab5	-0.0053628334
68	0xbdd3c5bb	-0.103404485
69	0xbe1bd34c	-0.15217322
70	0xbe6191fd	-0.22028346
71	0xbe0c26db	-0.13686697
72	0xbe172518	-0.14760244
73	0x3d45fe32	0.048338123
74	0xbdf94181	-0.12170697
75	0xbded68e9	-0.11592276
76	0xbdca471b	-0.098768435
77	0xbcdff87b	-0.027340164
78	0xbd31f946	-0.043450616
79	0xbd251b47	-0.040309217
80	0xbc710f28	-0.014713086
81	0xbd8e58bd	-0.06950519
82	0xbe1af6e3	-0.15133242
83	0xbd838322	-0.06421496
84	0xbda9cd54	-0.08291116
85	0xbd96ca05	-0.07362751
86	0xbb98a22f	-0.0046580057
87	0xbe908892	-0.28229195
88	0xbe08a87c	-0.13345522
89	0x3d50fe58	0.05102381
90	0xbe0f205d	-0.1397719
91	0xbe359058	-0.17730844
92	0x3db33ae0	0.08751464
93	0x3dbe58c8	0.092942774
94	0x3d1a9fe7	0.03775015
95	0xbd549b21	-0.051905755
96	0x3ca0a889	0.019611614
97	0xbe23c9d2	-0.15994957
98	0xbcb507bd	-0.022098416
99	0xbc2b697f	-0.010462164
100	0x3cc4104a	0.023933548
101	0x3d94f44c	0.072731584
102	0x3d877297	0.06613653
103	0xbe8265b4	-0.25468218
104	0xbd2d3548	-0.04228714
105	0xbe626031	-0.22107007
106	0xbe8626dd	-0.26201525
107	0xbb807487	-0.003920141
108	0xbe49eae7	-0.19718514
109	0x3de77421	0.11301447
110	0xbd54c668	-0.051947027
111	0xbd40dfa7	-0.04708829
112	0xbd17ae8d	-0.0370317
113	0xbe009904	-0.12558371
114	0x3dcb8a28	0.099384606
115	0xbb82f82a	-0.0039968686
116	0xbc6a9700	-0.014318228
117	0x3cf42e39	0.029807197
118	0xbbd936e7	-0.0066288593
119	0x3d0afe36	0.03393384
120	0xbdbfcdf6	-0.09365456
121	0xbe52aa4d	-0.20572777
122	0xbde3f59d	-0.111308314
123	0xbc8d0334	-0.017213441
124	0xbddc2531	-0.10749281
125	0xbd48649f	-0.048924085
126	0x3db82fed	0.08993516
127	0xbe5f7e01	-0.2182541
128	0xbdc4a72d	-0.09602199
129	0xbdadd278	-0.08487409
130	0xbe21c35f	-0.15797184
131	0xbd1d5c8c	-0.038418338
132	0x3dcc8bf1	0.09987629
133	0xbe153b68	-0.14573443
134	0x3d130fd6	0.035903774
135	0xbdd60f9a	-0.104521945
136	0xbcea387d	-0.028591389
137	0xbba6759c	-0.005079938
138	0x3d757c81	0.05993319
139	0xbdd5b6c4	-0.104352504
140	0xbda98d8e	-0.082789525
141	0x3db2e039	0.08734173
142	0xbde642fc	-0.11243245
143	0xbc1da02a	-0.009620706
144	0xbcd7ea8c	-0.026356958
145	0xbd6f9afc	-0.058497414
146	0x3da420d2	0.080140725
147	0x3cccf041	0.025016906
148	0xbe088054	-0.13330203
149	0x3b828d9f	0.0039841677
150	0x3c3cccf3	0.011523473
151	0xbe05cea6	-0.13067111
152	0xbc0b49d8	-0.008501492
153	0xbdeadd1f	-0.11467957
154	0x3dd33b7c	0.1031408
155	0xbd7b536b	-0.06135885
156	0x3d28caa5	0.041208882
157	0xbdcbd0e2	-0.099519506
158	0xbdc1278c	-0.09431371
159	0x3e0d3551	0.1378987
160	0x3e06914c	0.13141364
161	0xbe27fc20	-0.16404772
162	0x3dfa2534	0.12214127
163	0x3dc4f186	0.096163794
164	0xbd65cd76	-0.056104146
165	0x3cab572e	0.020915594
166	0xbe087a7e	-0.13327977
167	0xbd58db50	-0.052943528
168	0xbdc53c84	-0.09630683
169	0x3cbb0cc7	0.022833241
170	0x3c7d41ce	0.015457584
171	0x3dce2aa4	0.10066727
172	0xbde51019	-0.11184711
173	0xbdcd3581	-0.10019971
174	0xbda80a48	-0.08205086
175	0xbd917674	-0.07102671
176	0x3da30240	0.079594135
177	0x3d3be4b1	0.045872394
178	0x3e056e36	0.13030323
179	0x3e116271	0.14197709
180	0x3d2268e8	0.039650828
181	0x3c55b174	0.013042796
182	0xbdd52bc8	-0.10408741
183	0x3d5189fd	0.051156987
184	0xbc74fdea	-0.014953116
185	0xbe17b357	-0.14814506
186	0x3bcaa53e	0.006184249
187	0x3d976648	0.073925555
188	0xbcdcbe4e	-0.026946213
189	0x3d2c9356	0.042132698
190	0xbda10776	-0.07862751
191	0xbe04a94e	-0.1295521

rnn.bias_hh_l0 f4 [192]
0	0xbd94daf4	-0.072683245
1	0x3dc98eec	0.09841713
2	0xbd55fde8	-0.052244097
3	0xbd39042c	-0.045169994
4	0xbcdd96e7	-0.027049495
5	0xbdb6e2b3	-0.08929958
6	0x3dc3d127	0.09561377
7	0x3e39febb	0.18163578
8	0x3cf3fd02	0.02978373
9	0x3c17eb9b	0.009272481
10	0xbd50f41d	-0.051014055
11	0x3dfb78b9	0.122788854
12	0xbd8943ab	-0.0670236
13	0xbd77e32b	-0.06051938
14	0xbbe61a09	-0.0070221466
15	0xbd2818e7	-0.041039374
16	0xbdc83d25	-0.097772874
17	0xbce811c0	-0.028328776
18	0x3dc0e714	0.09419075
19	0x3dc6584b	0.09684809
20	0x3cfb843c	0.030702703
21	0x3d240dcb	0.040052217
22	0x3d659c4d	0.056057263
23	0x3e239b12	0.15977123
24	0x3de3fb92	0.111319676
25	0x3dc2b560	0.09507251
26	0xbca055b4	-0.019572116
27	0x3e0ba6b9	0.13637818
28	0xbc3e379b	-0.011609937
29	0x3d524c2a	0.051342167
30	0x3e427687	0.18990527
31	0xbb2df0df	-0.0026541275
32	0x3e37950d	0.17927952
33	0x3e0a8510	0.13527322
34	0x3dcc663d	0.09980438
35	0x3de7a15b	0.11310073
36	0x3e081bef	0.13291906
37	0xbcf5fe5e	-0.030028518
38	0xbba9c3c4	-0.005180808
39	0x3db21b69	0.08696634
40	0x3be38266	0.006943035
41	0x3da0695a	0.07832594
42	0x3e0d0fa9	0.13775505
43	0x3d7f4cb5	0.062329013
44	0xbdd0e3c2	-0.10199691
45	0x3df15218	0.11783236
46	0xbdd27d24	-0.10277775
47	0xba23cf0b	-0.00062488083
48	0xbc9c2e9a	-0.01906519
49	0xbc8967ab	-0.016773066
50	0x3db7541e	0.08951591
51	0xbc98f24b	-0.018670222
52	0x3e3f914b	0.18707769
53	0x3e552c23	0.20817618
54	0xbcfedbab	-0.031110605
55	0x3d88cfbf	0.066802494
56	0x3e2adf6d	0.16686793
57	0x3d5b41c7	0.053529527
58	0xbd09872b	-0.03357617
59	0x3db6c7a6	0.08924799
60	0x3d3767b6	0.04477664
61	0xbc811fa6	-0.015762161
62	0x3ba3e5fd	0.005001782
63	0x3d4f1dd2	0.05056555
64	0xbce9cef1	-0.02854106
65	0xbdcf027c	-0.10107896
66	0xbdcc60d8	-0.09979409
67	0x3d94f4b5	0.07273237
68	0x3d0d928e	0.034563594
69	0xbe08dde9	-0.13365902
70	0xbd443433	-0.047901344
71	0xbd6b608e	-0.05746513
72	0xbcde9a72	-0.027173255
73	0xbdb9dd93	-0.09075465
74	0xbe18a4c1	-0.14906599
75	0xbcb094c7	-0.021555318
76	0x3d6e13e8	0.058124453
77	0x3dd97bb1	0.106192954
78	0xbc880d0d	-0.016607786
79	0x3c4bec7a	0.012446517
80	0x3d99b1bc	0.07504603
81	0xbe2d0aa1	-0.16898586
82	0xbdf32324	-0.11871937
83	0xbbf08c00	-0.007340908
84	0xbdcfccb4	-0.10146466
85	0xbde9adee	-0.114101276
86	0xbdd317b3	-0.10307255
87	0xbd937f78	-0.07202047
88	0xbd8848c1	-0.06654502
89	0x3d967730	0.07346952
90	0x3d6e928f	0.058245238
91	0xbe0bccd6	-0.13652357
92	0x3db01b9e	0.085990176
93	0xbd1ae0bc	-0.03781198
94	0x3d6d6fbc	0.057967886
95	0xbe18637b	-0.14881699
96	0xbde25f21	-0.11053301
97	0xbce591f4	-0.028023697
98	0x3e1676c9	0.1469375
99	0x3d8806fe	0.06641959
100	0xbded03e9	-0.115730114
101	0xbc01bd63	-0.0079186885
102	0xbc31f801	-0.010862351
103	0xbc845e73	-0.016158318
104	0xbda73617	-0.08164614
105	0xbda75213	-0.08169951
106	0xbe89f0b3	-0.2694145
107	0xbd53c5db	-0.05170236
108	0xbd33f7f9	-0.043937657
109	0xbddaf60e	-0.106914625
110	0xbcf3cb35	-0.029759983
111	0x3ccc2976	0.024922114
112	0x3cec8c66	0.028875541
113	0xbde016d8	-0.10941857
114	0xbd819264	-0.0632675
115	0xbdb553d9	-0.08853883
116	0xbdc89079	-0.09793181
117	0x3d0ae6be	0.03391146
118	0xbe0a0d7d	-0.13481708
119	0x3c86139f	0.016366778
120	0xbd3f34b1	-0.04668111
121	0xbd9ae786	-0.07563691
122	0x3c903049	0.01760115
123	0xbd8084a3	-0.062752984
124	0x3d81cb9e	0.06337665
125	0xbd7e480f	-0.06208044
126	0x3d5b2bb7	0.053508487
127	0xbc2ee9b7	-0.010675839
128	0x3d58f1a1	0.05296481
129	0x3d966fc1	0.07345534
130	0xbcac344c	-0.02102103
131	0xbd49236b	-0.049106043
132	0x3d886f4f	0.066618554
133	0x3d5ddbf1	0.05416483
134	0x3c910e99	0.017707156
135	0x3d039be9	0.03213111
136	0x3e0f1b2c	0.13975209
137	0xbbc9b3bd	-0.0061554597
138	0xbd1aa58b	-0.03775553
139	0xbcabb6d9	-0.020961212
140	0xbdd254bd	-0.10270069
141	0x3d93acaf	0.07210671
142	0xbd8bcff1	-0.06826771
143	0xbda55061	-0.08071972
144	0x3d8d79ee	0.06908022
145	0xbd5c62fb	-0.053805333
146	0x3cbb010c	0.022827648
147	0x3da72c45	0.081627406
148	0xbe1f4ebb	-0.15557377
149	0xbd29d2f0	-0.04146093
150	0x3d240d09	0.040051494
151	0xbdabaf87	-0.083830886
152	0x3dd1e4ec	0.102487415
153	0xbe2d113b	-0.16901104
154	0x3d16ca07	0.036813762
155	0xbd82412f	-0.06360089
156	0x3c248184	0.010040645
157	0x3c4453f1	0.011982904
158	0xbe5747fc	-0.21023554
159	0xbc93a6b6	-0.01802383
160	0x3d9b7255	0.075901665
161	0xbd6e2c49	-0.058147702
162	0xbd9d8080	-0.07690525
163	0x3c315357	0.010823092
164	0x3dc22d5f	0.0948131
165	0x3dca0646	0.09864478
166	0xbd2edd4b	-0.04269151
167	0xbcb005ca	-0.021487135
168	0x3d99188d	0.07475386
169	0x3ad75ed2	0.0016431457
170	0xbd2f48a1	-0.042793874
171	0x3ca1050a	0.019655723
172	0xbd7d6586	-0.0618644
173	0xbc8afefd	-0.016967291
174	0x3db5c107	0.08874708
175	0x3d9737c1	0.07383681
176	0x3debae28	0.11507827
177	0xbdd8a693	-0.105786465
178	0x3dc049aa	0.0938905
179	0x3db37417	0.08762377
180	0x3cf3239c	0.029680066
181	0x3dedaa70	0.11604774
182	0xbe05aa2e	-0.130532
183	0x3d8b6991	0.068072446
184	0x3d7ce824	0.061744824
185	0xbd02015e	-0.031739585
186	0x3e037b24	0.12839943
187	0xbc84ba91	-0.016202243
188	0x3c93adeb	0.018027266
189	0x3e080250	0.13282132
190	0x3dc52a08	0.096271574
191	0xbb5e5274	-0.0033923658

rnn.weight_ih_l0_reverse f4 [192, 1]
0	0x3d89b20b	0.06723412
1	0x3dc3c5a0	0.09559178
2	0xbccdee02	-0.025137905
3	0x3d1b6f29	0.037947807
4	0x3da511c5	0.0806003
5	0x3d9462f5	0.07245437
6	0x3e1bf9af	0.15231965
7	0x3d87cc5c	0.06630775
8	0x3e13896e	0.14407894
9	0xbc83240f	-0.016008405
10	0x3cba795b	0.022762945
11	0xbce4def9	-0.027938353
12	0xbd9db217	-0.076999836
13	0x3e1f5d05	0.15562828
14	0xbd9992ad	-0.07498679
15	0x3dd83790	0.10557473
16	0xbdb4f230	-0.08835256
17	0x3cecf206	0.028924
18	0xbc8d3d77	-0.017241223
19	0x3d9b6684	0.07587913
20	0xbd613e23	-0.0549909
21	0xbd1eddd4	-0.03878577
22	0x3db1ad1a	0.08675595
23	0x3dcebd34	0.100946814
24	0xbe068feb	-0.13140838
25	0x3db30c1a	0.087425426
26	0xbbec8549	-0.0072180373
27	0xbc7d4806	-0.015459066
28	0xbdcd9f54	-0.10040155
29	0xbd5cf4b5	-0.05394431
30	0x3d8caa81	0.068684585
31	0x3d90d8d3	0.07072606
32	0xbe064950	-0.13113904
33	0x3dfb1f50	0.12261832
34	0xbc6e6966	-0.014551496
35	0xbd5c50b1	-0.05378789
36	0xbdafbb75	-0.085806765
37	0xbcc09331	-0.023507686
38	0x3e09851a	0.1342968
39	0xbdb565df	-0.08857321
40	0xbdec023c	-0.11523864
41	0xbd88c466	-0.06678085
42	0x3d1339d3	0.035943817
43	0x3d5f9748	0.054587632
44	0x3c4a8f03	0.012363198
45	0xbd5e78c6	-0.054314397
46	0xbdb8b983	-0.090197586
47	0x3da98122	0.08276583
48	0x3d984aae	0.07436119
49	0xbcdf3863	-0.027248567
50	0x3d967f93	0.073485516
51	0x3da3b178	0.07992834
52	0x3d6379c6	0.055536054
53	0x3d33f8df	0.043938514
54	0x3ccdc899	0.025120066
55	0xbcb40f39	-0.021979915
56	0xbc984c60	-0.018591106
57	0xbd033638	-0.03203413
58	0x3e0eedf3	0.13957958
59	0xbd29ffb1	-0.041503612
60	0x3e122a8d	0.14274044
61	0x3dee6ac4	0.11641458
62	0x3d751152	0.05983097
63	0x3d88e1d1	0.06683696
64	0x3d76287b	0.0600972
65	0xba05cbcf	-0.0005103917
66	0xbdcb286e	-0.09919821
67	0xbb6b2455	-0.003587981
68	0x3db75c2c	0.08953127
69	0xbd7cd63e	-0.061727755
70	0xbdadb816	-0.08482377
71	0xbdfe81bf	-0.12427091
72	0xbca28c70	-0.019842356
73	0xbc6654c7	-0.014058298
74	0xbcd21a3e	-0.025647279
75	0x3d1ff9fd	0.039056767
76	0xbd6b9ba9	-0.057521496
77	0xbd674a39	-0.05646727
78	0x3cbb19b2	0.0228394
79	0x3dac2d14	0.084070355
80	0x3d2e2e5c	0.04252468
81	0xbcb7ed02	-0.022451881
82	0xbda8481a	-0.08216877
83	0x3c595200	0.013264179
84	0x3d799e3e	0.060941927
85	0x3dbd1ff2	0.09234609
86	0x3cc4bb10	0.02401498
87	0x3d095d61	0.03353632
88	0x3dcd4f31	0.1002487
89	0xbddef6ab	-0.10886892
90	0x3b590d17	0.0033119374
91	0xbdab81dc	-0.08374378
92	0x3d6a5bf4	0.0572166
93	0x3db7c9e0	0.089740515
94	0xbda9f444	-0.08298543
95	0xbd87eeac	-0.0663732
96	0xbe8e8cfb	-0.27841935
97	0xbcde90b1	-0.027168604
98	0x3df3dd45	0.11907438
99	0xbd9d1420	-0.07669854
100	0xbd879f6b	-0.066222034
101	0xbc3b3492	-0.011426108
102	0xbd57bcf2	-0.052670427
103	0x3a37288e	0.0006986939
104	0x3d98f188	0.074679434
105	0x3d8f3d29	0.06994087
106	0xbd4f61f3	-0.05063052
107	0xbd024c4a	-0.031811036
108	0xbcb7339b	-0.022363475
109	0xbda10959	-0.07863111
110	0x3db916bc	0.09037539
111	0xbe36fee1	-0.17870666
112	0xbd081b25	-0.033229012
113	0xbdb99d4f	-0.09063207
114	0xbdc6ca9c	-0.097066134
115	0xbca4bceb	-0.020109614
116	0xbdae061f	-0.08497261
117	0x3bae0303	0.0053104176
118	0xbdc14939	-0.09437794
119	0x3d8ac767	0.06776314
120	0xbe497a96	-0.19675669
121	0xbce4ae2c	-0.027915083
122	0x3df8d66b	0.12150272
123	0x3d594f2b	0.053054016
124	0xbd1bce22	-0.03803838
125	0x3dcccc8b	0.09999951
126	0xbd6d033a	-0.057864405
127	0xbd29b30d	-0.04143052
128	0x3df681d6	0.12036483
129	0x3dd30910	0.10304463
130	0xbccf7097	-0.025322242
131	0x3cae10a7	0.021248175
132	0xbe006b88	-0.1254102
133	0x3d45d45b	0.04829822
134	0xbd11eaa8	-0.035624176
135	0xbd9f0776	-0.07765095
136	0x3b98d522	0.0046640793
137	0xbd56bdf8	-0.052427262
138	0x3dc6bb8e	0.09703742
139	0x3db3f5a7	0.08787089
140	0xbda9b8c1	-0.08287192
141	0xbd86dc6b	-0.0658501
142	0x3d38ef3a	0.04515002
143	0x3b178aa5	0.002312341
144	0xbd8b462e	-0.06800495
145	0xbd39fbdf	-0.04540622
146	0x3cd1d172	0.025612567
147	0x3dc483cc	0.09595451
148	0xbe137c6e	-0.14402935
149	0x3e091583	0.13387112
150	0x3c597669	0.01327286
151	0x3dae6953	0.08516183
152	0xbd7ada2f	-0.061243232
153	0x3cea139f	0.02857381
154	0xbdbb4061	-0.09143139
155	0x3d189c9a	0.037258722
156	0xbdc8f1e6	-0.098117635
157	0x3dad6a79	0.08467574
158	0x3d90d02f	0.07070958
159	0x3e063534	0.13106233
160	0x3d7341d1	0.05938894
161	0x3d956d53	0.072962426
162	0xbce8ed1d	-0.028433377
163	0xbd17beca	-0.037047185
164	0x3d18dbff	0.03731918
165	0x3d985ab1	0.07439173
166	0xbdd5bef8	-0.10436815
167	0xbdcf9791	-0.10136331
168	0xbd6be1a7	-0.057588246
169	0x3d49d274	0.04927297
170	0xbdb54840	-0.08851671
171	0x3d622dda	0.05521951
172	0x3d7b0e69	0.06129304
173	0xbe03e0ad	-0.12878676
174	0x3da8cf51	0.082426675
175	0xbc9a3343	-0.018823272
176	0x3daf8dd7	0.08571976
177	0x3d45393f	0.048150297
178	0xbdc97df8	-0.0983848
179	0x3c49583b	0.012289102
180	0x3d64af89	0.055831466
181	0xbdc27294	-0.0949451
182	0xbc6d5e72	-0.01448785
183	0x3d43eca0	0.047833085
184	0x3d82aa99	0.06380195
185	0xbd07175d	-0.032981265
186	0x3d871015	0.06594864
187	0x3d6ca62d	0.057775665
188	0xbdbd320d	-0.09238062
189	0xbd537b84	-0.051631466
190	0x3df0e668	0.117626965
191	0xbdcc1bc2	-0.09966232

rnn.weight_hh_l0_reverse f4 [192, 64]
0	0x3cabf59d	0.020991141
1	0x3e0a4889	0.13504232
2	0x3df7be10	0.120967984
3	0xbc05ea36	-0.008173516
4	0x3d4308f2	0.047615953
5	0xbd83bc00	-0.064323425
6	0xbde39da5	-0.11114053
7	0xbd8f71fc	-0.07004163
8	0x3c6e6ff4	0.014553059
9	0x3d1de777	0.03855082
10	0xbdc11c7a	-0.094292596
11	0x3d7369d3	0.059427094
12	0xbd974de4	-0.07387903
13	0xbd748922	-0.059701093
14	0x3db71d76	0.08941166
15	0xbd59bd4d	-0.053159047
16	0x3c68a1ea	0.01419876
17	0x3d41d557	0.047322597
18	0xbda23d07	-0.07921796
19	0x3d8a098f	0.067401044
20	0xbd4c12ab	-0.04982249
21	0x3dfea5aa	0.12433942
22	0x3c5093cc	0.01273055
23	0xbc8b5695	-0.017009059
24	0xbd0027c8	-0.03128794
25	0xbdbfa98b	-0.0935851
26	0xbe01258b	-0.12611978
27	0x3d501c37	0.050808158
28	0x3d637e68	0.055540472
29	0x3d865df2	0.065608874
30	0xbde501e8	-0.11182004
31	0x3e003a45	0.12522228
32	0x3e15a397	0.14613186
33	0xbcb35edf	-0.021895824
34	0x3dfe4f4b	0.12417468
35	0xbc9e6f72	-0.01934025
36	0xbdb64122	-0.08899142
37	0x3b5283e4	0.003212207
38	0x3be50614	0.00698925
39	0xbd619161	-0.055070285
40	0xbd8d3860	-0.06895518
41	0x3e129138	0.14313209
42	0xbe25c8eb	-0.16189925
43	0x3e2df538	0.16988075
44	0xbccf30df	-0.025291858
45	0x3d800dfe	0.06252669
46	0x3db5de44	0.088802844
47	0xbdc8878f	-0.09791481
48	0x3d831248	0.06399971
49	0xbbe7571b	-0.0070599443
50	0xbd37379f	-0.04473078
51	0x3caf2b06	0.02138282
52	0xbd46f960	-0.048577666
53	0xbdf3690f	-0.11885273
54	0xbd9887ce	-0.07447778
55	0xbd41b21f	-0.04728901
56	0xbca30292	-0.019898687
57	0x3d03138a	0.032001056
58	0xbdb585d6	-0.08863418
59	0x3da366d6	0.07978599
60	0xbe097ef8	-0.13427341
61	0xbe412336	-0.18861088
62	0x3d350657	0.0441955
63	0xbdbaa7ac	-0.09114012
64	0x3cca6f8d	0.024711395
65	0xbd4a7615	-0.049429018
66	0x3dc106d6	0.09425132
67	0xbd81198f	-0.06303703
68	0x3c7ffdaf	0.015624448
69	0x3d8f4b23	0.06996753
70	0xbd419f2b	-0.047270935
71	0xbd709ce2	-0.058743365
72	0xbdcc3835	-0.09971658
73	0x3e098bf1	0.1343229
74	0x3d1275b5	0.035756785
75	0xbdc5ec97	-0.096642666
76	0xbe0c3c91	-0.13694979
77	0x3e135de6	0.14391288
78	0xbcdcf563	-0.026972478
79	0xbc194ad4	-0.009356219
80	0x3d7de6c8	0.06198767
81	0x3b2fbaaa	0.0026814141
82	0x3d472a1a	0.048624136
83	0xbbea82cb	-0.007156705
84	0x3c953ed2	0.018218432
85	0xbd0c2993	-0.034219336
86	0x3c5cd11a	0.013477588
87	0x3dd34028	0.10314971
88	0xbb261630	-0.0025342815
89	0x3dd190c7	0.10232692
90	0x3db9223b	0.09039732
91	0x3c5b888b	0.013399254
92	0x3cae13aa	0.02124961
93	0xbdb85111	-0.08999837
94	0x3d849b36	0.06474917
95	0xbda2acd3	-0.0794312
96	0xbcbae167	-0.022812558
97	0x3cde7a73	0.027157998
98	0x3d110957	0.035409298
99	0xbc458042	-0.012054505
100	0x3d97f662	0.07420041
101	0xbe013dfd	-0.12621303
102	0xbda26699	-0.07929725
103	0xbdaf93e0	-0.08573127
104	0x3e02ce88	0.12774098
105	0xbdbda317	-0.092596225
106	0x3cb4aa5d	0.022053892
107	0xbd98a72a	-0.07453759
108	0x3dff3f55	0.124632515
109	0xbd619c23	-0.055080544
110	0xbdaa5701	-0.08317376
111	0xbc50bb54	-0.012739975
112	0x3daf22f0	0.08551586
113	0x3d35d4a5	0.044392247
114	0xbd913e22	-0.07091929
115	0x3c1dfb82	0.009642484
116	0x3cab76ae	0.020930614
117	0x3db71363	0.089392446
118	0xbe05aa93	-0.1305335
119	0xbbcb470b	-0.0062035373
120	0xbdb3a597	-0.08771818
121	0xbdb67ada	-0.08910151
122	0xbd24faf5	-0.040278394
123	0xbe31a89f	-0.1734948
124	0x3cd8acc6	0.026449572
125	0x3c428168	0.011871673
126	0xbd16b1a1	-0.036790494
127	0xbcafad50	-0.021444947
128	0x3d88fa2b	0.06688341
129	0x3c6ae296	0.014336249
130	0xbd5c04a7	-0.053715374
131	0x3cae18bc	0.021252029
132	0xbd6e1bc4	-0.058131948
133	0x3dc653aa	0.096839264
134	0x3c89f99f	0.016842661
135	0xbd5fff65	-0.054686923
136	0x3e156bf9	0.1459197
137	0x3e7764fb	0.24159615
138	0x3ce4b411	0.027917894
139	0x3cba1916	0.02271704
140	0xbc8fe042	-0.01756299
141	0xbe08df95	-0.1336654
142	0xbd6e53ee	-0.05818551
143	0x3e12420e	0.1428301
144	0x39162b8a	0.00014321334
145	0xbe3e9069	-0.18609776
146	0x3d5743f8	0.052555054
147	0x3e6f759e	0.23384711
148	0xbcc85ce3	-0.024458354
149	0x3e5b2c08	0.21403515
150	0x3dcf7dc4	0.1013141
151	0x3e44f4f1	0.19234063
152	0xbe08a912	-0.13345745
153	0x3e12d4c1	0.14338972
154	0xbe1cacb1	-0.15300252
155	0x3e0f5ef2	0.14001063
156	0x3dca9213	0.09891143
157	0x3e36c8f5	0.17850097
158	0x3e539207	0.20661174
159	0x3e2f15ec	0.17098206
160	0xbe36dc2a	-0.17857423
161	0x3e30c734	0.1726349
162	0x3e5de647	0.21669875
163	0xbd3fbd06	-0.046811126
164	0x3e68c536	0.2273148
165	0x3dbb95ca	0.09159429
166	0xbded6275	-0.11591045
167	0xbe4664e1	-0.1937442
168	0x3c00b3a8	0.007855333
169	0x3e789be5	0.24278219
170	0xbe0c94c4	-0.13728625
171	0xbd289254	-0.041155174
172	0x3dd60290	0.104497075
173	0xbe3aec91	-0.18254305
174	0x3e5a0eeb	0.21294753
175	0x3c929ee8	0.017898038
176	0x3e675c31	0.22593762
177	0x3e0a6e20	0.13518572
178	0xbe37e7bb	-0.17959492
179	0x3e3937c3	0.18087678
180	0x3e127542	0.14302543
181	0xbe4ad382	-0.19807246
182	0xbc768831	-0.015047119
183	0x3ba2f0f7	0.004972573
184	0x3ca70c56	0.020391624
185	0xbdb54a54	-0.088520676
186	0xbdb4fe85	-0.08837608
187	0x3beb5633	0.0071819066
188	0xbd9068e6	-0.07051258
189	0xbc411452	-0.01178463
190	0xbc5f7969	-0.013639786
191	0xbe1e4a81	-0.15458108
192	0x3e04f96b	0.1298577
193	0x3e037bf1	0.12840249
194	0x3b90730f	0.0044082473
195	0x3c6bda10	0.014395252
196	0xbd0400b8	-0.032227248
197	0x3c57cd1f	0.013171463
198	0xbdf37e1e	-0.11889289
199	0xbcf86ce7	-0.030325366
200	0xbce63262	-0.028100196
201	0xbdce8cc5	-0.100854434
202	0xbd9d9931	-0.076952346
203	0x3def4e7f	0.11684894
204	0xbda85409	-0.082191534
205	0xbd9e4f2f	-0.07729947
206	0xbd1380a2	-0.036011346
207	0xbc53fba4	-0.012938414
208	0xbe11958a	-0.14217201
209	0x3d890eb0	0.066922545
210	0x3dcb77ee	0.09934984
211	0x3e19fc18	0.15037572
212	0xbe0e9c93	-0.13926916
213	0x3dd41d64	0.10357168
214	0x3d82b4b3	0.06382122
215	0xbbf24996	-0.007394026
216	0xbe1360be	-0.14392373
217	0x3de071bc	0.10959193
218	0x3cfd540e	0.03092387
219	0x3d69dda5	0.057096142
220	0x3d6c2579	0.057652924
221	0xbd895ca3	-0.06707122
222	0x3e063259	0.13105144
223	0x3dd6936c	0.10477337
224	0xbdd99e73	-0.10625925
225	0xbd67b000	-0.05656433
226	0xbdf56377	-0.11981862
227	0x3b22665e	0.0024780254
228	0x3dc458aa	0.09587224
229	0x3ca06f55	0.019584337
230	0xbd1f52f0	-0.038897455
231	0xbdfefc62	-0.12450482
232	0xbe267859	-0.16256846
233	0xbd316b75	-0.04331537
234	0xbe0d25b0	-0.13783908
235	0x3dbef2f6	0.09323685
236	0xbcda5392	-0.026651178
237	0xbd61d84d	-0.05513792
238	0x3c23a938	0.009989075
239	0xbd528305	-0.05139448
240	0x3dd57042	0.10421802
241	0xbcbaee1e	-0.022818621
242	0xbd1fc0ee	-0.03900235
243	0xbc978fe4	-0.01850123
244	0x3cb7491f	0.022373734
245	0x3c134996	0.008989712
246	0xbcce3b00	-0.025174618
247	0x3d9b4cdf	0.075830214
248	0xbd414835	-0.047188003
249	0xbdabb41a	-0.08383961
250	0x3d0aa1db	0.033845764
251	0x3e106a5d	0.14103074
252	0xbda466df	-0.080274336
253	0xbc921d11	-0.017836126
254	0xbcabd7c9	-0.020976918
255	0xbdf4daa9	-0.119557686

rnn.bias_ih_l0_reverse f4 [192]
0	0xbd8f923e	-0.07010315
1	0x3e0abcde	0.1354861
2	0x3d80c081	0.06286717
3	0xbcb49acc	-0.02204647
4	0x3e07e66f	0.13271497
5	0xbe00e6ed	-0.12588091
6	0xbd64e3ba	-0.05588124
7	0xbc94846b	-0.018129548
8	0x3dbf2787	0.09333711
9	0xbda0e972	-0.07857026
10	0xbcba1ade	-0.02271789
11	0xbdb10302	-0.08643152
12	0x3d626722	0.055274136
13	0x3dd2d2f1	0.1029414
14	0x3dbfd881	0.09367467
15	0xbd78101e	-0.060562246
16	0x3d876ab3	0.06612148
17	0x3dbbefe1	0.09176613
18	0x3d7a3d94	0.06109388
19	0xbdafc565	-0.08582572
20	0xbd9d87ab	-0.07691892
21	0x3dbb77e7	0.09153729
22	0x3dd9898d	0.10621939
23	0x3e1475ff	0.14498137
24	0x3d90107c	0.07034394
25	0x3dba40f6	0.090944216
26	0xbd22498e	-0.03962093
27	0xbd9f5f39	-0.07781834
28	0x3dd98550	0.106211305
29	0xbda1a5c2	-0.07892944
30	0x3def350b	0.11680039
31	0xbde7c7f5	-0.11317436
32	0xbcfc5754	-0.03080336
33	0x3c8c1100	0.01709795
34	0x3e333537	0.17500769
35	0xbd40a988	-0.047036678
36	0xbbf48735	-0.007462407
37	0x3d2c0421	0.041996125
38	0xbc85a8ff	-0.016315935
39	0xbdfbc84e	-0.122940645
40	0x3e062dbb	0.13103382
41	0xbc852c7b	-0.016256562
42	0x3df2c3b9	0.118537374
43	0x3c3339cd	0.010939074
44	0xbddb786a	-0.107163265
45	0xbdee742c	-0.11643252
46	0x3dc39fcc	0.09551963
47	0x3d84ed9c	0.06490633
48	0x3e279a37	0.16367422
49	0xbac054e5	-0.0014673738
50	0xbd82dab1	-0.06389368
51	0x3d51fbd4	0.051265553
52	0x3d018217	0.031618204
53	0x3d1be170	0.03805679
54	0x3d1fc852	0.0390094
55	0x3d9c5324	0.07633045
56	0x3d8b68a2	0.068070665
57	0xbdb46c9c	-0.08809778
58	0x3e2ca36d	0.16859217
59	0xbdd3d8af	-0.103440635
60	0x3cc7993b	0.024365058
61	0xbb60112d	-0.0034189925
62	0x3e27a1e0	0.16370344
63	0xbd58fbce	-0.052974515
64	0x3da5e349	0.08099992
65	0x3dc5fa4a	0.096668795
66	0xbd038b6e	-0.032115392
67	0xbbba7387	-0.0056900415
68	0x3d4dda7a	0.050257184
69	0xbd844521	-0.06458498
70	0xbc49823a	-0.012299115
71	0xbdd70179	-0.10498328
72	0xbbe32079	-0.0069313613
73	0xbd4afb74	-0.04955621
74	0x3d6288ea	0.055306353
75	0x3ca504d7	0.02014391
76	0x3e0f0170	0.13965392
77	0x3ce71412	0.028207812
78	0xbdc2ed47	-0.09517913
79	0x3d141e0c	0.036161467
80	0xbdd0a2b6	-0.10187285
81	0xbbf6a4c2	-0.007526965
82	0xbccd9f06	-0.025100242
83	0xbd817f31	-0.06323088
84	0xbe244e10	-0.16045403
85	0xbe0a0d89	-0.13481726
86	0x3dceb09a	0.10092278
87	0x3dc46dda	0.09591265
88	0x3d45dc30	0.04830569
89	0x3dd855ad	0.10563216
90	0x3d5832ab	0.052782696
91	0xbd8aba4b	-0.06773814
92	0x3ae52eb8	0.0017485237
93	0xbda7c27b	-0.08191391
94	0x3cf8469d	0.030307109
95	0xbdcc6ebb	-0.09982058
96	0xbe8937fb	-0.26800522
97	0xbca350ad	-0.01993593
98	0xbd5bd2e4	-0.053667918
99	0x3e200d37	0.15630041
100	0xbca6545d	-0.0203039
101	0x3d0cc122	0.034363873
102	0x3d5ab04a	0.05339078
103	0x3d2bd493	0.041950773
104	0xbdcc8eba	-0.099881604
105	0x3dc713d6	0.0972058
106	0x3d8d7eac	0.06908926
107	0x3d9dec4b	0.07711085
108	0x3da02fd1	0.0782162
109	0x3c7cc637	0.0154281175
110	0xbd3a4258	-0.045473427
111	0xbe443d4f	-0.19164012
112	0x3da2231f	0.07916855
113	0xbcf4d637	-0.029887302
114	0x3c8a00ad	0.016846025
115	0x3d38785e	0.045036666
116	0x3d8edaba	0.069753125
117	0xbcdd4f03	-0.027015215
118	0xbc4e3597	-0.012586019
119	0xbcdfbcb2	-0.027311657
120	0xbdcc9077	-0.09988492
121	0x3ddf78a7	0.109116845
122	0x3e059da0	0.1304841
123	0xbd7685a1	-0.060186032
124	0xbdd1213a	-0.102114156
125	0x3d3c63cc	0.04599361
126	0xbdad3f49	-0.08459336
127	0x3ca93fd2	0.020660315
128	0x3c78e037	0.015190176
129	0x3d9d7a2f	0.0768932
130	0x3d42903b	0.04750083
131	0x3b85120b	0.004060989
132	0xbe1c6493	-0.15272741
133	0xbe074bdf	-0.13212536
134	0x3ccdb20c	0.025109313
135	0xbdce8dd4	-0.10085645
136	0xbd4ba311	-0.04971606
137	0x3dc7f42e	0.097633705
138	0xbd28e5c0	-0.04123473
139	0xbda53d48	-0.08068329
140	0xbde2b498	-0.11069602
141	0x3d0d0b9a	0.034434892
142	0xbe2d9169	-0.16950001
143	0x3db39364	0.08768347
144	0xbd4a9725	-0.04946055
145	0xbdbff23b	-0.09372374
146	0xbd273ce0	-0.04082954
147	0xbda7e586	-0.08198075
148	0xbc3c8209	-0.011505612
149	0x3d845a72	0.064625636
150	0xbd8b5981	-0.06804181
151	0x3d37e2cc	0.044894025
152	0xbb8cd80f	-0.004298217
153	0xbddf7973	-0.109118365
154	0xbdc12405	-0.09430698
155	0x3d17bf2f	0.03704756
156	0x3e081e35	0.13292773
157	0xbda26b71	-0.07930649
158	0xbddb1174	-0.10696688
159	0x3d6da99a	0.058023073
160	0x3c81f590	0.015864164
161	0xbd7385a8	-0.059453636
162	0xbc3f2e09	-0.0116686905
163	0x3dcaed9b	0.09908601
164	0x3c1b4e9e	0.009479193
165	0xbdf92e35	-0.121670164
166	0xbd9b9e79	-0.07598586
167	0xbddd4ba6	-0.108054444
168	0xbd3c7a28	-0.046014935
169	0x3d2b900e	0.041885428
170	0x3de4b256	0.111668274
171	0xbca6dee7	-0.02036996
172	0x3b97ec6d	0.0046363384
173	0xbdfbdb0e	-0.12297641
174	0x3e028f84	0.1275006
175	0x3cf8e41a	0.030382205
176	0xbd3a4a6e	-0.045481138
177	0x3867342e	5.5123288e-05
178	0x3c7117da	0.014715159
179	0xbd9c6cc8	-0.07637936
180	0x3d8fd407	0.07022863
181	0x3dbf4836	0.09339945
182	0xbda2ab89	-0.07942874
183	0x3e1216db	0.14266531
184	0x3e0806ef	0.13283895
185	0xbdd87894	-0.105698735
186	0xbdbac425	-0.09119443
187	0xbddd76bb	-0.10813662
188	0x3e0d34ff	0.13789748
189	0xbdcf9e2d	-0.101375915
190	0x3d574833	0.05255909
191	0x3df0a2d7	0.11749809

rnn.bias_hh_l0_reverse f4 [192]
0	0xbd255bbd	-0.04037069
1	0x3d9925e4	0.0747793
2	0x3d13c81c	0.03607951
3	0xbda71992	-0.08159174
4	0x3d49baa2	0.049250253
5	0xbde499b1	-0.11162127
6	0x3daeeb35	0.08540956
7	0x3c7e64ec	0.015526991
8	0x3df56a43	0.119831584
9	0x3e095284	0.13410383
10	0x3d8c1319	0.0683958
11	0x3d9192b1	0.07108057
12	0x3d839576	0.06424992
13	0xbdcfd7ad	-0.10148559
14	0xbd9adf68	-0.075621426
15	0xbdb3d366	-0.087805554
16	0xbd658998	-0.056039423
17	0x3bff9a8d	0.0078004063
18	0x3d04cb3d	0.032420386
19	0xbc977880	-0.018490076
20	0x3e11e399	0.14246978
21	0x3dcb0be3	0.099143766
22	0xbb683c73	-0.0035436421
23	0xbd6680aa	-0.056275047
24	0x3cbcf21b	0.023064664
25	0x3d900855	0.07032839
26	0x3e0431e9	0.12909664
27	0x3da91971	0.08256806
28	0x3df52912	0.11970724
29	0x3d6ed967	0.0583128
30	0xbd533199	-0.051560972
31	0x3d47bf1e	0.048766248
32	0x3ca6fa3f	0.020382999
33	0xbda5f424	-0.08103207
34	0x3d8e776c	0.06956372
35	0xbda956db	-0.082685195
36	0x3df9956c	0.12186703
37	0xbc821a97	-0.01588182
38	0x3d9635be	0.07334469
39	0xbd7e8bae	-0.062144928
40	0x3da4e041	0.080505855
41	0x3c77e0b0	0.015129253
42	0x3d8f608a	0.07000835
43	0xbdb105f9	-0.08643717
44	0xbd7bcd14	-0.061474875
45	0x3db888fa	0.09010501
46	0xbd90a4a6	-0.07062654
47	0x3d846f42	0.06466533
48	0x3cb11ec5	0.021621117
49	0xbd9d8bb3	-0.07692661
50	0x3dd5f920	0.104479074
51	0xbdb36331	-0.08759154
52	0x3d36bae1	0.044611815
53	0xbc94dc57	-0.018171472
54	0x3d4db9a9	0.050225887
55	0x3dddfa23	0.108387254
56	0x3e00ecca	0.12590328
57	0x3c393e28	0.011306323
58	0xbd3df8a2	-0.046379693
59	0x3df7a718	0.120924175
60	0x3dba7ecf	0.09106218
61	0xbca681e5	-0.02032561
62	0xbd06f31b	-0.032946687
63	0xbcb4b55c	-0.022059135
64	0x3be9ed90	0.0071389154
65	0xbd772792	-0.06034047
66	0x3d82e965	0.06392173
67	0x3d8925e9	0.06696684
68	0xbd31cb27	-0.04340663
69	0x3e1a34b3	0.15059166
70	0xbd020a1b	-0.03174792
71	0x3d662a9a	0.05619297
72	0xbd4a255d	-0.04935204
73	0x3db3e94e	0.08784734
74	0x3d572ade	0.052531116
75	0xbdf47b25	-0.119375505
76	0x3dbd8acc	0.09254989
77	0x3dc86e7d	0.09786699
78	0xbddf0976	-0.108904764
79	0xbdec5af9	-0.11540789
80	0x3c1b2305	0.0094687985
81	0x3d33d297	0.043902006
82	0x3da37cf0	0.07982814
83	0x3da55282	0.08072378
84	0x3cb44aa4	0.022008248
85	0x3dc40755	0.09571711
86	0xbd0f2dca	-0.034955777
87	0xbd80424a	-0.06262644
88	0x3dfa4b27	0.122213654
89	0xbcd2c07b	-0.025726547
90	0x3d995fe2	0.07488991
91	0x3db1b57a	0.08677192
92	0xba7bd90c	-0.00096072326
93	0xbda537cc	-0.08067283
94	0x3e41d068	0.18927157
95	0xbe17e9aa	-0.1483523
96	0xbe844b5f	-0.25838754
97	0x3d86b99c	0.06578371
98	0x3cff1b5c	0.031140976
99	0x3d184a70	0.037180364
100	0x3db23d96	0.08703153
101	0x3d974123	0.07385471
102	0x3dd6879d	0.10475085
103	0xbd08f609	-0.033437762
104	0xbcc46b9d	-0.023977095
105	0x3d6fe802	0.05857087
106	0xbd2afd19	-0.04174528
107	0xbcabe989	-0.020985382
108	0xbc5fef70	-0.013667926
109	0xbd43c0d6	-0.047791325
110	0xbd394c37	-0.0452387
111	0xbd8e2293	-0.06940188
112	0x3d09ffd5	0.033691246
113	0x3c88f55b	0.016718557
114	0x3db4c239	0.088261075
115	0xbd1abdc0	-0.037778616
116	0xbd649560	-0.055806518
117	0x3b3b216c	0.0028553857
118	0x3c089f66	0.008338785
119	0xbde75522	-0.11295535
120	0xbe3445a5	-0.17604692
121	0x3d53fcb5	0.051754672
122	0x3d8c5903	0.06852915
123	0x3da5528e	0.08072387
124	0xbe0ac668	-0.13552248
125	0x3db297dc	0.08720371
126	0xbdf4affa	-0.11947627
127	0xbd6dbbc3	-0.05804039
128	0x3dc9d473	0.098549746
129	0xbdb28866	-0.08717422
130	0x3e186838	0.14883506
131	0xbddc44cb	-0.10755309
132	0xbc594dcf	-0.01326318
133	0xbda42234	-0.08014336
134	0x3ddccbf9	0.10781092
135	0x3d21a5db	0.039464813
136	0xbd26f05d	-0.040756572
137	0x3d1dd6cb	0.03853492
138	0xbdd26ba1	-0.10274435
139	0x3b2581f7	0.0025254467
140	0xbdf74bdf	-0.12075018
141	0x3d33d4b1	0.04390401
142	0xbe0e90a3	-0.13922362
143	0x3d8af46a	0.067848995
144	0xbdbce6c3	-0.09223702
145	0x3c88dd36	0.016707044
146	0x3d119799	0.035544965
147	0x3abb4e7f	0.0014290361
148	0xbccada02	-0.024762157
149	0x3d67b348	0.05656746
150	0xbd88e207	-0.06683736
151	0xbc05a08c	-0.008155953
152	0xbddafd13	-0.10692801
153	0xbd2b1f39	-0.041777823
154	0x3e00ebc4	0.12589937
155	0x3d984119	0.074342914
156	0xbd02f2e2	-0.031969912
157	0x3d8f87a6	0.07008295
158	0xbe44d559	-0.1922201
159	0xbd1c06c6	-0.038092397
160	0xbe093581	-0.13399316
161	0xbca5c66f	-0.020236222
162	0x3d91ce63	0.07119443
163	0x3d6456e5	0.05574693
164	0xbd019fe4	-0.031646624
165	0xbe34c76e	-0.17654201
166	0x3ddf1a27	0.1089366
167	0xbd0fa1bd	-0.035066355
168	0x3cd7ee5e	0.02635878
169	0x3dc01795	0.09379498
170	0x3d84d8c5	0.06486658
171	0xbc35b96a	-0.011091569
172	0xbba59c81	-0.005054057
173	0xbcdfceea	-0.027320344
174	0x3c8c31fc	0.017113678
175	0x3d861163	0.06546285
176	0x3d99c440	0.07508135
177	0x3d845409	0.06461341
178	0xbe08f686	-0.13375291
179	0x3de72c43	0.11287739
180	0xbd985f72	-0.0744008
181	0xbd0f855a	-0.035039283
182	0x3d72a634	0.059240535
183	0xbd2adad9	-0.041712616
184	0xb90c3aa3	-0.00013373284
185	0x3d981c00	0.074272156
186	0xbca8ad79	-0.02059053
187	0x3d33e146	0.04391601
188	0x3d398075	0.04528852
189	0xbc8b4826	-0.017002176
190	0x3dd01384	0.10159972
191	0xbddb93ad	-0.10721526
