program/deep_learning/16 - Recurrent Neural Network/model/bigru/weights_best.pth (torch, 703159 bytes, 25 tensors)

rnn.weight_ih_l0 f4 [192, 1]
0.093968086 -0.023335936 0.16081515 0.096573226 -0.11093344 0.055499606 0.003093471 -0.1501071
-0.08951183 -0.09081586 -0.11701526 -0.09416519 0.14111193 0.06531595 0.08308266 0.115863
-0.008795093 -0.023653783 -0.10358265 0.06892539 -0.016199006 0.10294966 0.009434337 0.057770777
0.014991716 0.060156874 -0.004084114 -0.017548425 -0.03139284 -0.006927614 0.2092597 -0.05127251
0.1643135 0.07875712 0.17698543 0.14218307 0.06984576 0.1343635 -0.07946542 0.080055274
-0.0860969 0.17846392 0.026819594 0.15783566 0.07052653 0.047852937 0.11752581 0.055183046
-0.04414798 0.041959446 0.11737597 -0.12072014 -0.13527447 -0.11518827 0.05914006 0.058232192
0.14704438 0.091331795 -0.008197548 0.11572453 0.11848112 0.11910945 -0.10179893 -0.010624314
-0.14945485 -0.048921444 -0.091642894 0.02639151 -0.059287947 -0.042988766 -0.14379132 -0.1585356
-0.09708007 -0.109404884 0.0098422365 0.03131558 0.15315105 0.0008406985 -0.01187175 -0.056017775
0.016317837 -0.209467 0.047042612 -0.21982966 -0.17724487 0.036944013 -0.12020811 -0.28287956
0.0129047055 0.13428389 -0.07005201 -0.004382708 0.028024442 -0.04640056 0.1642736 0.0036559792
-0.13280012 -0.1843294 -0.03628425 -0.060721032 -0.04513406 0.058297053 -0.03618177 -0.023576042
-0.121995464 -0.0575244 -0.09530096 -0.11311914 -0.23750022 -0.008080938 0.033104505 -0.21414256
-0.12792856 -0.12862957 0.011327229 0.016596034 -0.14971434 -0.1118266 -0.11570769 0.04849602
-0.11062118 -0.19484186 0.06549853 -0.16051042 0.07617894 -0.1460371 -0.018187705 -0.1423786
0.031595152 -0.029051578 0.118137784 0.08756411 0.09311837 -0.04687564 0.03931905 -0.04623052
-0.100678034 -0.06494161 0.06463114 0.08390289 0.02142879 -0.026890691 0.110388406 0.06400625
-0.051018227 0.08846834 0.15169457 0.07549231 -0.1620922 -0.026509149 -0.063328505 -0.073631704
0.080531225 -0.020796929 -0.033894587 0.0787305 0.10017615 0.00943096 -0.016906792 0.027962094
-0.094421834 -0.06503967 -0.0017774203 -0.056842998 -0.018241042 0.025889965 0.06409726 -0.029795555
-0.07894871 -0.101795085 -0.087377 -0.035257943 0.1232948 -0.0046514487 0.019628895 -0.108253814
-0.07399274 0.14159909 -0.06478592 -0.0810879 0.085806966 -0.06716949 -0.022298586 -0.0870579
0.092097536 -0.06969537 0.055808224 0.11407182 -0.097281374 0.050813615 -0.066280685 0.09534626
00000000: 5772 c03d 012b bfbc baac 243e 2fc8 c53d
00000010: 1231 e3bd 8e53 633d d5bb 4a3b adb5 19be
00000020: fa51 b7bd aafd b9bd b2a5 efbd aed9 c0bd
00000030: a57f 103e 5ec4 853d 3e27 aa3d 9549 ed3d
00000040: 4b19 10bc 94c5 c1bc 2423 d4bd c128 8d3d
00000050: c7b3 84bc 45d7 d23d 7a92 1a3c 0da1 6c3d
00000060: d09f 753c 0e67 763d 08d4 85bb b7c1 8fbc
00000070: c795 00bd 0a01 e3bb 2d48 563e 2003 52bd
00000080: cc41 283e 6a4b a13d ab3b 353e 7098 113e
00000090: 4b0b 8f3d 9696 093e c4be a2bd 05f4 a33d
000000a0: 9253 b0bd 3fbf 363e c4b4 db3c ac9f 213e
000000b0: 3770 903d 7101 443d 5fb1 f03d 9e07 623d
000000c0: 83d4 34bd abdd 2b3d d062 f03d 1f3c f7bd
000000d0: 6485 0abe d4e7 ebbd d93c 723d e184 6e3d
000000e0: cd92 163e 2a0c bb3d 024f 06bc fb00 ed3d
000000f0: 3ba6 f23d a8ef f33d f57b d0bd 9a11 2ebc
00000100: b10a 19be da61 48bd 45af bbbd 0233 d83c
00000110: ebd7 72bd fd14 30bd 083e 13be 2857 22be
00000120: ead1 c6bd ab0f e0bd 5541 213c c444 003d
00000130: a1d3 1c3e 5262 5c3a ba81 42bc e572 65bd
00000140: fcac 853c 847e 56be c1af 403d 071b 61be
00000150: ae7f 35be 9b52 173d ab2f f6bd 97d5 90be
00000160: 426e 533c b781 093e 6e77 8fbd d29c 8fbb
00000170: 8493 e53c 830e 3ebd 5737 283e 2799 6f3b
00000180: c1fc 07be d9c0 3cbe cb9e 14bd 9eb6 78bd
00000190: 7ede 38bd e4c8 6e3d 5633 14bd 8b22 c1bc
000001a0: c2d8 f9bd b59e 6bbd 262d c3bd 02ab e7bd
000001b0: 4233 73be e965 04bc 9798 073d 3048 5bbe
000001c0: b4ff 02be 78b7 03be d895 393c 68f4 873c
000001d0: b74e 19be 5805 e5bd 27f8 ecbd c3a3 463d
000001e0: 5b8d e2bd a084 47be 1824 863d d85c 24be
000001f0: b403 9c3d c08a 15be 62fe 94bc b2cb 11be
00000200: eb69 013d 93fd edbc 39f2 f13d d054 b33d
00000210: d8b4 be3d ac00 40bd 030d 213d 375c 3dbd
00000220: 4930 cebd 1b00 85bd 555d 843d 47d5 ab3d
00000230: 6e8b af3c de49 dcbc 5113 e23d b515 833d
00000240: 7df8 50bd e42e b53d d255 1b3e b69b 9a3d
00000250: 7ffb 25be b729 d9bc 60b2 81bd 38cc 96bd
00000260: 8eed a43d 525e aabc 0dd5 0abd 753d a13d
00000270: 2729 cd3d 5084 1a3c 1d80 8abc c310 e53c
00000280: 3c60 c1bd 8533 85bd 54f8 e8ba 34d4 68bd
00000290: 3d6e 95bc 3117 d43c 6d45 833d cf15 f4bc
000002a0: dcaf a1bd f179 d0bd b6f2 b2bd a26a 10bd
000002b0: fc81 fc3d 2e6b 98bb c7cc a03c 2db4 ddbd
000002c0: 8189 97bd 5aff 103e 7bae 84bd 6a11 a6bd
000002d0: 90bb af3d 2890 89bd 86ab b6bc 6a4b b2bd
000002e0: a29d bc3d 72bc 8ebd 2a97 643d 7d9e e93d
000002f0: 753b c7bd f021 503d 2bbe 87bd e644 c33d

rnn.weight_hh_l0 f4 [192, 64]
0.09106108 0.013923535 -0.02370678 0.115773104 -0.038799677 -0.24748094 0.08529876 0.060565863
-0.039928537 -0.002967392 -0.12877506 0.1055221 -0.12071358 -0.08935706 0.018574491 -0.047852993
-0.0035959461 -0.034236345 0.15559693 0.19175293 -0.16189627 -0.21198934 0.08628068 -0.24515462
0.0018190463 -0.15064798 0.0003997453 0.09076951 -0.021448918 -0.07163167 0.011659011 0.21006657
-0.012934607 -0.06080881 0.12901656 0.033081267 0.050310507 0.18701504 0.034538314 0.15065335
-0.0023679838 -0.122446425 -0.16497417 -0.030491022 -0.03864654 -0.0062340335 0.0021803402 0.026543902
-0.055687346 0.020987412 -0.02945526 -0.07414386 -0.13080837 -0.03971435 -0.18895632 -0.1209869
-0.087672934 -0.09226539 0.22235195 0.11040346 -0.005204519 0.1559583 -0.047442198 0.014552436
-0.10207983 0.053693127 0.09993531 0.085146055 0.06168206 0.018600082 0.049127832 -0.09702969
-0.048859157 0.056025673 0.09247413 0.07094764 -0.04384064 -0.124339536 0.13048173 -0.109944396
-0.10175898 -0.082202025 0.13580595 0.09542359 -0.02703027 -0.14412329 0.0146039 0.08529307
0.12973459 -0.0863859 -0.053905055 0.05961487 0.039184492 -0.013911043 0.02231225 0.14347857
-0.07979518 0.057799716 0.034198917 -0.059260763 -0.077796064 0.12883689 0.0045210123 0.012963195
-0.12516887 -0.11474942 -0.032971054 -0.12630104 0.14391786 0.05884269 0.13787206 -0.10731426
-0.07259709 -0.00447539 -0.09289275 0.032420635 0.020729618 0.020301104 -0.1329331 -0.13743034
0.01774252 -0.14577211 0.031067604 0.07892649 -0.029299175 -0.014343479 -0.06049392 -0.0649764
0.049122248 0.008915573 0.0351923 0.009174006 0.07128512 -0.0042349594 0.15131451 0.077950455
-0.051183265 0.0220402 0.047511775 0.110598415 0.08092839 -0.06728713 -0.021936633 0.06027041
-0.13596916 -0.018183943 -0.0014138366 0.054155655 -0.1381364 -0.18412519 0.0785482 -0.15568706
0.046778098 -0.07027167 -0.15489474 -0.08732038 0.17460997 -0.003375494 0.015609197 0.061761748
0.03314933 -0.18827869 0.11499409 -0.045240965 -0.11261836 0.058222428 0.091618516 0.10448387
0.0133532835 -0.005389678 -0.10918188 -0.006510718 0.10735657 -0.08751218 0.08355448 0.06928723
-0.05554091 0.014980412 -0.15167522 0.0074344804 0.11902442 -0.05196866 -0.058921054 -0.100452475
0.07962739 -0.12874101 0.13116638 0.012197815 -0.036556076 0.18212502 -0.053725105 0.062018834
0.036976453 0.05485195 -0.05261161 -0.10536072 -0.07461415 0.15739778 -0.07239063 -0.14224043
0.03238958 -0.08167423 0.14900623 0.12371086 -0.019953318 0.15926155 0.11320321 0.099973276
0.050201606 0.07753526 -0.10536468 0.10218847 0.019770887 -0.06563202 0.014871162 0.06734447
0.02394733 -0.025370335 -0.05737978 0.11098993 0.10375677 0.06448906 -0.024559004 -0.046300907
0.012690574 -0.03804035 -0.009590445 0.0115454905 -0.002848586 -0.17079152 0.1307893 -0.074550144
0.0124377115 0.06486115 -0.011895728 -0.06627344 0.116991155 -0.039770607 -0.10009284 -0.08562188
0.07958945 0.014893453 -0.059763756 0.017335974 0.04111275 -0.12814504 0.08117387 0.022492325
0.10805403 -0.031820726 0.062930174 0.013942762 0.10242534 -0.08278327 -0.11035656 0.02119715
00000000: 3b7e ba3d 8a1f 643c b934 c2bc 731a ed3d
00000010: 69ec 1ebd a56b 7dbe 1eb1 ae3d e913 783d
00000020: 1b8c 23bd 9478 42bb 9cdd 03be f91b d83d
00000030: ae38 f7bd d600 b7bd 8829 983c 8001 44bd
00000040: f7a9 6bbb 693b 0cbd cd54 1f3e e15a 443e
00000050: 23c8 25be bc13 59be edb3 b03d d009 7bbe
00000060: 116d ee3a 7743 1abe e894 d139 5de5 b93d
00000070: a4b5 afbc a0b3 92bd 7005 3f3c b11b 573e
00000080: adeb 53bc a912 79bd eb1c 043e 3980 073d
00000090: 6412 4e3d df80 3f3e 0c78 0d3d df44 1a3e
000000a0: 2d30 1bbb 31c5 fabd fdee 28be 4fc8 f9bc
000000b0: d64b 1ebd dd46 ccbb 0ae4 0e3b 9972 d93c
000000c0: 6a18 64bd cbed ab3c 284c f1bc bcd8 97bd
000000d0: a1f2 05be 84ab 22bd c47d 41be fbc7 f7bd
000000e0: de8d b3bd a3f5 bcbd 3bb0 633e 361b e23d
000000f0: ab8a aabb 88b3 1f3e c052 42bd 576d 6e3c
00000100: 3b0f d1bd 53ed 5b3d e2aa cc3d 0e61 ae3d
00000110: 54a6 7c3d 335f 983c 443a 493d 81b7 c6bd
00000120: 8a20 48bd 2d7b 653d 1463 bd3d ff4c 913d
00000130: 3e92 33bd baa5 febd 019d 053e 872a e1bd
00000140: 0367 d0bd 8959 a8bd b710 0b3e 716d c33d
00000150: 966e ddbc 0e95 13be 3245 6f3c 22ae ae3d
00000160: 25d9 043e 17eb b0bd 8ccb 5cbd b92e 743d
00000170: eb7f 203d 25eb 63bc 2ec8 b63c 0cec 123e
00000180: a86b a3bd 65bf 6c3d 2a14 0c3d 6abb 72bd
00000190: 8b53 9fbd d1ed 033e 0025 943b 9563 543c
000001a0: 452c 00be be01 ebbd a80c 07bd 0f55 01be
000001b0: 345f 133e 0805 713d 552e 0d3e 94c7 dbbd
000001c0: c8ad 94bd 4ba6 92bb 8e3e bebd 80cb 043d
000001d0: 29d1 a93c 804e a63c 9d1f 08be 8aba 0cbe
000001e0: c358 913c 4945 15be 7d81 fe3c 36a4 a13d
000001f0: d304 f0bc e900 6bbc 79c8 77bd 5912 85bd
00000200: 6934 493d a012 123c cd25 103d 924e 163c
00000210: effd 913d 6ac5 8abb 31f2 1a3e 7da4 9f3d
00000220: 8ba5 51bd a68d b43c b59b 423d 6c81 e23d
00000230: c9bd a53d d6cd 89bd 74b4 b3bc 1bde 763d
00000240: 803b 0bbe 7ef6 94bc 7c50 b9ba 52d2 5d3d
00000250: a173 0dbe 508b 3cbe e1dd a03d 6e6c 1fbe
00000260: 649a 3f3d 98ea 8fbd ba9c 1ebe 07d5 b2bd
00000270: f5cc 323e 6437 5dbb b8bd 7f3c e3f9 7c3d
00000280: 98c7 073d 21cc 40be 0582 eb3d 974e 39bd
00000290: 74a4 e6bd a47a 6e3d 7da2 bb3d a4fb d53d
000002a0: bbc7 5a3c e59b b0bb c09a dfbd dc57 d5bb
000002b0: c3dd db3d 9639 b3bd 9c1e ab3d 77e6 8d3d
000002c0: de7e 63bd 6770 753c c050 1bbe f19c f33b
000002d0: 13c3 f33d 17dd 54bd 3457 71bd 07ba cdbd
000002e0: af13 a33d afd4 03be 7b50 063e 58d9 473c
000002f0: d3bb 15bd fb7e 3a3e db0e 5cbd 7607 7e3d
00000300: 9f74 173d 70ac 603d 467f 57bd 5cc7 d7bd
00000310: 4ecf 98bd e22c 213e 8a41 94bd 7aa7 11be
00000320: f0aa 043d d244 a7bd 1795 183e 1f5c fd3d
00000330: 2475 a3bc 7615 233e 16d7 e73d cabe cc3d
00000340: 33a0 4d3d ceca 9e3d 70c9 d7bd 3048 d13d
00000350: 8ef6 a13c 156a 86bd 2da6 733c e6eb 893d
00000360: 312d c43c 73d5 cfbc 0f07 6bbd b04e e33d
00000370: 6e7e d43d d712 843d f72f c9bc 05a6 3dbd
00000380: 20ec 4f3c 33d0 1bbd 3e21 1dbc 4c29 3d3c
00000390: 58af 3abb f9e3 2ebe a1ed 053e bfad 98bd
000003a0: 8bc7 4b3c ecd5 843d 4de6 42bc 5fba 87bd
000003b0: 0f99 ef3d 81e6 22bd 7afd ccbd 865a afbd
000003c0: cbff a23d ab03 743c d7ca 74bd 2c04 8e3c
000003d0: d865 283d 7438 03be 7c3e a63d d341 b83c
000003e0: 6e4b dd3d 7356 02bd 89e1 803d 2f70 643c
000003f0: 60c4 d13d 468a a9bd 9f02 e2bd a5a5 ad3c

rnn.bias_ih_l0 f4 [192]
0.11772356 0.11823946 0.07970622 -0.08257712 -0.039807174 0.15155858 -0.0022486977 0.104833916
0.12506838 0.14927128 0.13424943 -0.047355935 0.18106584 0.061399873 0.07330881 0.15943818
0.07332399 0.018150335 -0.0120918285 0.04659178 0.12459929 0.087921634 0.20577714 0.08715226
-0.0648987 0.027576517 -0.017105782 -0.07431085 -0.022111658 0.047699444 0.085652374 0.07500777
0.078026876 0.13366036 0.100153774 -0.03247231 0.012226351 0.018937945 -0.012548543 0.059917334
0.020913618 0.14527039 0.11976048 0.008235168 -0.06521632 -0.010627073 0.07839057 0.033589114
0.08381666 0.119957566 0.09965537 0.11968295 0.0664297 0.13730447 -0.02186069 0.047856387
0.0020052465 -0.058455482 0.075666875 -0.12865214 0.10123755 0.030021064 0.06802694 0.028356237
0.123595774 -0.0017315145 -0.021018276 -0.0064643514 -0.10406293 -0.15286385 -0.22891603 -0.14994599
-0.14741303 0.050832607 -0.11769503 -0.10925132 -0.1018774 -0.021317625 -0.03724775 -0.03957846
-0.011416356 -0.075902425 -0.15210678 -0.0800092 -0.10136672 -0.07271467 -0.014118833 -0.30791473
-0.13380682 0.04470822 -0.122692004 -0.18198715 0.080389075 0.09787725 0.031001614 -0.051090643
0.015014744 -0.17298111 -0.019298166 -0.006146343 0.021972781 0.075040646 0.06202363 -0.2752298
-0.051216137 -0.2341235 -0.27861363 -0.008185454 -0.2098133 0.11265482 -0.056827992 -0.056120664
-0.035271425 -0.13122982 0.09252258 0.002822191 -0.026757974 0.02362532 -0.015519376 0.026809653
-0.09447125 -0.22031713 -0.1089957 -0.027386319 -0.1061035 -0.06074998 0.08952021 -0.22287849
-0.09519491 -0.08431093 -0.15796106 -0.038038533 0.1009739 -0.15034324 0.035752896 -0.10603045
-0.02965363 -0.0018283152 0.06070273 -0.10551601 -0.094511084 0.08537601 -0.111357145 -0.01005819
-0.02417906 -0.05559618 0.08657624 0.02854233 -0.1442216 0.003653637 0.009675193 -0.13566178
-0.003982868 -0.12720229 0.103780255 -0.060659777 0.04087412 -0.1011624 -0.1136001 0.14128502
0.13329996 -0.16995656 0.11926181 0.09786503 -0.056055754 0.020573895 -0.1333238 -0.053777367
-0.10087274 0.016501514 0.0074599897 0.10419485 -0.11103924 -0.098801486 -0.08076223 -0.080140024
0.08289391 0.04788812 0.1341102 0.14073406 0.043820772 0.015406705 -0.10835841 0.052969567
-0.017662823 -0.15516461 0.010607025 0.07575064 -0.031974062 0.04779852 -0.07931449 -0.13210873
00000000: 0d19 f13d 8827 f23d 043d a33d 311e a9bd
00000010: d90c 23bd 2c32 1b3e e35e 13bb 2ab3 d63d
00000020: ed11 003e 92da 183e af78 093e 4cf8 41bd
00000030: 5369 393e 6f7e 7b3d ee22 963d c343 233e
00000040: e32a 963d 03b0 943c ce1c 46bc 06d7 3e3d
00000050: ea2d ff3d 4210 b43d 3eb7 523e e27c b23d
00000060: 9ce9 84bd 26e8 e13c 6d21 8cbc 4930 98bd
00000070: 8223 b5bc 7e60 433d 836a af3d ac9d 993d
00000080: 8ecc 9f3d 43de 083e 6c1d cd3d af01 05bd
00000090: 0851 483c c023 9b3c 6798 4dbc e16b 753d
000000a0: 0953 ab3c c3c1 143e fc44 f53d ccec 063c
000000b0: 2290 85bd 2d1d 2ebc 3c8b a03d bd94 093d
000000c0: 12a8 ab3d 50ac f53d 1d18 cc3d 561c f53d
000000d0: 4b0c 883d 8b99 0c3e 3115 b3bc 0f05 443d
000000e0: 746a 033b 046f 6fbd 3cf7 9a3d 63bd 03be
000000f0: a255 cf3d bcee f53c b551 8b3d 574b e83c
00000100: c81f fd3d fcf3 e2ba 852e acbc e9d2 d3bb
00000110: f21e d5bd 5788 1cbe f768 6abe 718b 19be
00000120: 71f3 16be da35 503d 180a f1bd 28bf dfbd
00000130: 19a5 d0bd 4da2 aebc 1991 18bd 061d 22bd
00000140: ab0b 3bbc bb72 9bbd e1c1 1bbe dddb a3bd
00000150: 5b99 cfbd 6eeb 94bd ad52 67bc 00a7 9dbe
00000160: a804 09be f71f 373d f245 fbbd d75a 3abe
00000170: 07a3 a43d de73 c83d 19f7 fd3c 6c44 51bd
00000180: 6700 763c f621 31be 3017 9ebc 4367 c9bb
00000190: 4300 b43c e9ae 993d 7d0c 7e3d ecea 8cbe
000001a0: 03c8 51bd 12be 6fbe 72a6 8ebe 481c 06bc
000001b0: 4cd9 56be 92b7 e63d 78c4 68bd c8de 65bd
000001c0: c578 10bd 1c61 06be 7a7c bd3d 82f4 383b
000001d0: 8a33 dbbc e389 c13c fb44 7ebc eb9f db3c
000001e0: 257a c1bd d09a 61be 2339 dfbd 4659 e0bc
000001f0: cb4c d9bd f9d4 78bd 5f56 b73d 423a 64be
00000200: 8df5 c2bd 35ab acbd 8bc0 21be 4bce 1bbd
00000210: 67cb ce3d 94f3 19be a171 123d 7e26 d9bd
00000220: 2bec f2bc 14a4 efba 6da3 783d c718 d8bd
00000230: 078f c1bd 9ed9 ae3d 370f e4bd 1bcb 24bc
00000240: 2a13 c6bc d2b8 63bd e24e b13d 9bd1 e93c
00000250: d4ae 13be db71 6f3b b384 1e3c ecea 0abe
00000260: b882 82bb 5141 02be be8a d43d 6376 78bd
00000270: 9f6b 273d 3b2e cfbd 2ba7 e8bd 05ad 103e
00000280: c97f 083e 1809 2ebe 893f f43d 766d c83d
00000290: b89a 65bd 968a a83c 0986 08be a845 5cbd
000002a0: 5e96 cebd 2f2e 873c ee72 f43b 1c64 d53d
000002b0: 8b68 e3bd 6f58 cabd ab66 a5bd 7420 a4bd
000002c0: 48c4 a93d 5526 443d 2f54 093e 971c 103e
000002d0: 697d 333d 686c 7c3c 04eb ddbd 9ef6 583d
000002e0: a0b1 90bc 79e3 1ebe 16c9 2d3c 2723 9b3d
000002f0: 3cf7 02bd 62c8 433d a36f a2bd 8347 07be

rnn.bias_hh_l0 f4 [192]
-0.05809204 0.10145548 -0.0452643 -0.042392537 -0.02890679 -0.088385105 0.10018969 0.18488131
0.026280647 0.019101571 -0.051495098 0.12675017 -0.05586322 -0.061113268 -0.005991728 -0.03872646
-0.09590748 -0.035448674 0.0958301 0.097357355 0.05003155 0.042411488 0.055741858 0.16109969
0.11672306 0.10757674 -0.01915626 0.14179483 -0.0103029255 0.057551943 0.20218115 -0.00042691856
0.18427312 0.13905485 0.10884856 0.11263407 0.13868827 -0.02625125 -0.0039040735 0.08977624
0.0069129523 0.08833612 0.14701019 0.06256885 -0.10935087 0.11987611 -0.101965 -0.0029855573
-0.014897423 -0.025092583 0.09596574 -0.02059641 0.18874839 0.21212766 -0.02616156 0.069082715
0.17457333 0.057692315 -0.021995125 0.08444943 0.05212305 -0.0066075786 0.0064167734 0.054679114
-0.030308506 -0.1011807 -0.10117614 0.07146933 0.03362059 -0.13438657 -0.056889877 -0.07070817
-0.027233224 -0.087972894 -0.14499722 -0.01507887 0.054691426 0.11193972 -0.010460357 0.01306838
0.07815733 -0.17517772 -0.11956127 -0.023252577 -0.11988192 -0.11310454 -0.11233017 -0.098077856
-0.067035176 0.067107484 0.07491614 -0.14128718 0.07886773 -0.032607324 0.051177572 -0.1478014
-0.11486095 -0.0413278 0.1493889 0.0705765 -0.11740253 -0.0054430948 -0.014816347 -0.037198458
-0.09049374 -0.09504073 -0.2859974 -0.05586895 -0.0568822 -0.10681943 -0.034686804 0.01574096
0.030499645 -0.11509819 -0.06979349 -0.08154517 -0.1101989 0.027721139 -0.14344275 0.009278905
-0.047594015 -0.09049504 0.019647613 -0.0728318 0.0644126 -0.07387916 0.05316961 -0.015729241
0.05422582 0.07367212 -0.0208584 -0.049179442 0.065707006 0.05056135 0.017770993 0.034604784
0.14036332 -0.00089547597 -0.03803822 -0.023191724 -0.113983065 0.07074571 -0.06690065 -0.08114303
0.07106873 -0.05153332 0.030132592 0.08485926 -0.16961089 -0.041652642 0.040772755 -0.08989449
0.1076482 -0.18141375 0.037190933 -0.065698095 0.009379994 0.009112985 -0.22782373 -0.014680306
0.07760113 -0.063533634 -0.07795134 0.011922919 0.09429788 0.09957851 -0.04356504 -0.022666568
0.06846791 -0.0044050277 -0.052719343 0.020117778 -0.06139999 -0.016513603 0.089568675 0.08729499
0.11870514 -0.102523655 0.09693574 0.08767414 0.029349899 0.120548114 -0.13481411 0.06945455
0.05887192 -0.03815665 0.1369233 -0.012540824 0.0131970355 0.13722067 0.09473104 -0.008573725
00000000: ebf1 6dbd e4c7 cf3d 0f67 39bd cca3 2dbd
00000010: efcd ecbc 4003 b5bd 4130 cd3d 8751 3d3e
00000020: 834a d73c e67a 9c3c 86ec 52bd ccca 013e
00000030: d5d0 64bd e851 7abd 4256 c4bb a39f 1ebd
00000040: 246b c4bd a132 11bd 9242 c43d 4b63 c73d
00000050: e2ed 4c3d abb7 2d3d 9351 643d 51f7 243e
00000060: 800c ef3d 3251 dc3d 97ed 9cbc aa32 113e
00000070: 9acd 28bc 96bb 6b3d 9308 4f3e 0ad4 dfb9
00000080: 18b2 3c3e 6564 0e3e feeb de3d b1ac e63d
00000090: 4c04 0e3e dd0c d7bc 7cdb 7fbb 9bdc b73d
000000a0: 0c86 e23b 91e9 b43d d789 163e 1924 803d
000000b0: 59f3 dfbd 9b81 f53d 07d3 d0bd 57a9 43bb
000000c0: 5214 74bc f68e cdbc b089 c43d cdb9 a8bc
000000d0: 4247 413e fe37 593e c550 d6bc 3d7b 8d3d
000000e0: 5ac3 323e c74e 6c3d 1f2f b4bc d3f3 ac3d
000000f0: fb7e 553d 6384 d8bb cc43 d23b 35f7 5f3d
00000100: 8b49 f8bc d437 cfbd 7035 cfbd 835e 923d
00000110: beb5 093d a29c 09be 5c05 69bd 72cf 90bd
00000120: 3618 dfbc 222b b4bd 277a 14be 5d0d 77bc
00000130: 1e04 603d a740 e53d eb61 2bbc c21c 563c
00000140: f310 a03d ca61 33be 8adc f4bd 307c bebc
00000150: a784 f5bd 5aa3 e7bd 5c0d e6bd 0bdd c8bd
00000160: bd49 89bd a66f 893d a26d 993d 96ad 10be
00000170: 6885 a13d 428f 05bd 939f 513d 4059 17be
00000180: 383c ebbd 5747 29bd 67f9 183e 698a 903d
00000190: bd70 f0bd fd5b b2bb 43c0 72bc 695d 18bd
000001a0: c854 b9bd b7a4 c2bd 406e 92be d7d6 64bd
000001b0: 4ffd 68bd 25c4 dabd c013 0ebd 30f3 803c
000001c0: 64da f93c 9ab8 ebbd e4ef 8ebd 2701 a7bd
000001d0: f6af e1bd 7117 e33c a8e2 12be 8c06 183c
000001e0: f1f1 42bd 7755 b9bd 08f4 a03c d728 95bd
000001f0: c1ea 833d f54d 97bd 61c8 593d 9cda 80bc
00000200: e51b 5e3d 69e1 963d 3cdf aabc 6270 49bd
00000210: 6591 863d 6b19 4f3d 7994 913c bfbd 0d3d
00000220: 67bb 0f3e 60be 6aba f7cd 1bbd 92fc bdbc
00000230: f46f e9bd 20e3 903d 3503 89bd 512e a6bd
00000240: 7b8c 913d 9a14 53bd a0d8 f63c b1ca ad3d
00000250: 7aae 2dbe f69b 2abd 5501 273d 9a1a b8bd
00000260: a976 dc3d 87c4 39be 8555 183d b98c 86bd
00000270: 8cae 193c a14e 153c a04a 69be ab85 70bc
00000280: 57ed 9e3d ec1d 82bd f4a4 9fbd 5958 433c
00000290: 3f1f c13d d1ef cb3d 4171 32bd 3daf b9bc
000002a0: e738 8c3d 0d58 90bb 3df0 57bd 0ace a43c
000002b0: 8e7e 7bbd 8947 87bc c86f b73d b7c7 b23d
000002c0: ae1b f33d ecf7 d1bd 3f86 c63d 808e b33d
000002d0: 336f f03c eee1 f63d b60c 0abe 303e 8e3d
000002e0: af23 713d 264a 1cbd 9f35 0c3e 0778 4dbc
000002f0: 6138 583c 9383 0c3e 5902 c23d cf78 0cbc

rnn.weight_ih_l0_reverse f4 [192, 1]
0.06715021 0.093608856 -0.027847642 0.040402148 0.081158735 0.073677674 0.15225871 0.06675217
0.14267302 -0.017551035 0.021893261 -0.028415877 -0.07774707 0.15620998 -0.07686819 0.1069976
-0.08898531 0.029547112 -0.017199513 0.07594895 -0.0537086 -0.038507484 0.085855 0.100022696
-0.1311289 0.088202 -0.0068757236 -0.015783424 -0.098099664 -0.053809665 0.06931746 0.072073385
-0.12458753 0.124580964 -0.012048499 -0.050886933 -0.08402406 -0.023871064 0.13704856 -0.0880357
-0.11798092 -0.06604718 0.035131406 0.05440361 0.011615328 -0.054849215 -0.09005161 0.08487004
0.0750317 -0.027222019 0.07466153 0.07989805 0.055168483 0.043652777 0.03522292 -0.02213903
-0.01458195 -0.03130514 0.13911274 -0.042048022 0.14357558 0.11784193 0.07291654 0.06638738
0.05941078 -0.002290736 -0.09957298 -0.0017166943 0.08574271 -0.05572571 -0.08096618 -0.12765697
-0.019312525 -0.008376786 -0.022614256 0.039678346 -0.059045102 -0.052173868 0.023402186 0.08436007
0.04698442 -0.020778123 -0.07977047 0.012626141 0.058972314 0.091404244 0.02833693 0.035060532
0.09969765 -0.10547712 0.0045533516 -0.08110694 0.055902824 0.088311136 -0.08335171 -0.06979675
-0.27836743 -0.024003705 0.119260006 -0.07342018 -0.06292453 -0.00829953 -0.052037906 0.0012189482
0.075138524 0.06969159 -0.049385477 -0.028787354 -0.020123059 -0.07738349 0.09063959 -0.183936
-0.020922357 -0.09160757 -0.10257643 -0.017684072 -0.08339441 0.0074458322 -0.09707008 0.064799525
-0.19841832 -0.022674289 0.117668666 0.053675145 -0.03990547 0.096440464 -0.066304244 -0.039125517
0.12337329 0.1046937 -0.024379004 0.02063419 -0.12620635 0.046898022 -0.033392295 -0.07893335
0.0034919416 -0.052717872 0.09683441 0.087908246 -0.081965476 -0.0637962 0.04546636 0.0022467913
-0.067617334 -0.046140786 0.024829505 0.09596225 -0.14505678 0.13427216 0.011628079 0.08578595
-0.061541565 0.026127512 -0.09086751 0.03683141 -0.09578175 0.08184585 0.069209754 0.13166173
0.05997696 0.07401504 -0.027276326 -0.036524877 0.03691796 0.07399564 -0.10266903 -0.10099116
-0.05871224 0.049373295 -0.08642436 0.054694656 0.06070541 -0.12928888 0.082193844 -0.021768138
0.08595947 0.04837318 -0.10009506 0.010438336 0.056089804 -0.09456477 -0.011646593 0.047960043
0.06549708 -0.031651825 0.06638369 0.05732147 -0.0930014 -0.053812537 0.120696515 -0.09932548
00000000: 0d86 893d 00b6 bf3d bd20 e4bc b97c 253d
00000010: 8d36 a63d 52e4 963d b5e9 1b3e 5db5 883d
00000020: e018 123e 30c7 8fbc 7f59 b33c 6ac8 e8bc
00000030: db39 9fbd 82f5 1f3e 126d 9dbd 8f21 db3d
00000040: ee3d b6bd c90c f23c fee5 8cbc 208b 9b3d
00000050: 8dfd 5bbd 06ba 1dbd bfd4 af3d b3d8 cc3d
00000060: a846 06be 40a3 b43d c04d e1bb 3d4c 81bc
00000070: 7ae8 c8bd 8667 5cbd 50f6 8d3d 369b 933d
00000080: bf27 ffbd 4e24 ff3d 1167 45bc d16e 50bd
00000090: ce14 acbd 408d c3bc 7556 0c3e 104c b4bd
000000a0: fb9f f1bd be43 87bd f3e5 0f3d 52d6 5e3d
000000b0: 374e 3e3c 92a9 60bd fa6c b8bd 58d0 ad3d
000000c0: 38aa 993d b600 dfbc 25e8 983d 97a1 a33d
000000d0: 59f8 613d 41cd 323d e945 103d e95c b5bc
000000e0: 22e9 6ebc d239 00bd 9273 0e3e 8c3a 2cbd
000000f0: 7a05 133e 1c57 f13d 4455 953d 1bf6 873d
00000100: b858 733d 2c20 16bb ebec cbbd b402 e1ba
00000110: e099 af3d a440 64bd 99d1 a5bd 82b8 02be
00000120: 4d35 9ebc c93e 09bc 8841 b9bc c385 223d
00000130: 47d9 71bd 44b4 55bd f1b5 bf3c f9c4 ac3d
00000140: bc72 403d e236 aabc b35e a3bd e0dd 4e3c
00000150: f48c 713d 2632 bb3d d922 e83c a29b 0f3d
00000160: 482e cc3d 6304 d8bd 4834 953b 651b a6bd
00000170: 5cfa 643d 78dc b43d 4db4 aabd 99f1 8ebd
00000180: 2d86 8ebe 6ba3 c4bc 973e f43d 525d 96bd
00000190: 93de 80bd c0fa 07bc b325 55bd 1dc5 9f3a
000001a0: 3ae2 993d 77ba 8e3d 6d48 4abd 75d3 ebbc
000001b0: 1dd9 a4bc 3c7b 9ebd 40a1 b93d b859 3cbe
000001c0: 5d65 abbc c09c bbbd 9713 d2bd 30de 90bc
000001d0: b0ca aabd 2bfc f33b aecc c6bd 9db5 843d
000001e0: 2c2e 4bbe 6ebf b9bc 45fc f03d 78da 5b3d
000001f0: eb73 23bd 9482 c53d 85ca 87bd 1442 20bd
00000200: 23ab fc3d a769 d63d 7ab6 c7bc 0809 a93c
00000210: 3d3c 01be 2418 403d 5cc6 08bd cfa7 a1bd
00000220: 0fd9 643b b2ee 57bd 1f51 c63d 3d09 b43d
00000230: 84dd a7bd 95a7 82bd ef3a 3a3d e73e 133b
00000240: f57a 8abd 1ffe 3cbd 3f67 cb3c db87 c43d
00000250: c489 14be a47e 093e b383 3e3c 8bb0 af3d
00000260: 0213 7cbd 5d09 d63c bf18 babd 88dc 163d
00000270: 3929 c4bd cc9e a73d d8bd 8d3d 55d2 063e
00000280: 67aa 753d 3395 973d 9a72 dfbc 1c9b 15bd
00000290: 4937 173d 078b 973d 2444 d2bd 74d4 cebd
000002a0: 3f7c 70bd a73b 4a3d 41ff b0bd 8107 603d
000002b0: 3ca6 783d 4e64 04be 3f55 a83d 1853 b2bc
000002c0: 850b b03d f522 463d a4fe ccbd 8e05 2b3c
000002d0: 6cbe 653d 2dab c1bd 5ad1 3ebc c071 443d
000002e0: 5523 863d 58a5 01bd 2cf4 873d ebc9 6a3d
000002f0: 8577 bebd 896a 5cbd bc2f f73d 286b cbbd

rnn.weight_hh_l0_reverse f4 [192, 64]
0.022139117 0.13763733 0.1294025 -0.00031209685 0.04145331 -0.06260212 -0.09985615 -0.07834917
0.02023502 0.04989825 -0.095555685 0.06328189 -0.08105863 -0.05419417 0.072418295 -0.048878312
0.0053957696 0.038395744 -0.071885094 0.070411585 -0.056116834 0.12827381 0.02055583 -0.01306459
-0.035652783 -0.10557792 -0.12557971 0.057737518 0.07158465 0.0608734 -0.113011025 0.13361195
0.14784224 -0.01565113 0.1301487 -0.023211645 -0.10360455 -0.0030860358 0.009519028 -0.0607283
-0.058636002 0.1496665 -0.17127769 0.16957453 -0.016205428 0.054526508 0.091039754 -0.105933964
0.053256147 0.00284386 -0.055821016 0.023191128 -0.037658125 -0.12132741 -0.07144725 -0.037443284
-0.008566644 0.026330147 -0.0996876 0.075319014 -0.12954886 -0.19823647 0.053629663 -0.09017587
0.023862867 -0.04883385 0.09568061 -0.059069388 0.013651416 0.069618315 -0.03804813 -0.06000907
-0.09684822 0.1396363 0.033927295 -0.0953701 -0.13849218 0.14834571 -0.03264305 -0.007598966
0.060873963 0.0005392434 0.050440483 -0.0061239963 0.016659996 -0.032653414 0.0155414585 0.10257572
-0.0038588678 0.09495255 0.09197704 0.014259132 0.028297633 -0.09360707 0.06364439 -0.077719316
-0.024535993 0.027742341 0.03567902 -0.013362928 0.06849135 -0.13213445 -0.0753985 -0.08664609
0.1374056 -0.090106755 0.020480156 -0.07724132 0.12672192 -0.056491733 -0.08284593 -0.016673528
0.07896992 0.04622102 -0.07239526 0.010873509 0.022858607 0.088945 -0.12770367 -0.004429496
-0.08584787 -0.090488575 -0.044233527 -0.17750925 0.030523852 0.010643864 -0.03517042 -0.018648734
0.0659306 0.013465126 -0.054695945 0.020738106 -0.05721151 0.09601074 0.01479325 -0.052560918
0.14445636 0.24095808 0.027626649 0.021766653 -0.01616608 -0.13414842 -0.05653594 0.14207622
0.0023032485 -0.1845479 0.051640064 0.2328874 -0.023467774 0.21301362 0.10044233 0.19011207
-0.13216524 0.14585654 -0.15211155 0.13809508 0.09742642 0.17857143 0.20654653 0.16862184
-0.1800091 0.17096837 0.21512577 -0.046261676 0.22844367 0.09217027 -0.11450265 -0.19236407
0.007020338 0.24132779 -0.13504836 -0.042880714 0.10262126 -0.18057226 0.21189192 0.019852243
0.22562164 0.13306831 -0.17697531 0.18147223 0.14116754 -0.19668414 -0.0153271975 0.0031677624
0.018349834 -0.087491125 -0.087747976 0.0069224327 -0.070150785 -0.0100165 -0.015854217 -0.15360181
0.12891734 0.12920007 0.0031574955 0.014459071 -0.030601205 0.013982122 -0.123037845 -0.029166007
-0.028670289 -0.10597781 -0.07400257 0.11643542 -0.08049637 -0.08132243 -0.025881877 -0.01247005
-0.13908696 0.06882124 0.09863743 0.15089093 -0.13707457 0.102314085 0.06284674 -0.00772292
-0.14337341 0.11351321 0.029285775 0.056233376 0.053487316 -0.06418896 0.13387497 0.10245691
-0.10495393 -0.05707109 -0.12192486 0.0007199901 0.09878569 0.024027286 -0.039860234 -0.12344208
-0.16749716 -0.044031516 -0.13518994 0.09474553 -0.028874725 -0.05334081 0.010325424 -0.048118297
0.10632252 -0.025013076 -0.03663145 -0.014889368 0.0199422 0.007575523 -0.025765765 0.07302783
-0.04932843 -0.08349817 0.043129303 0.14344595 -0.082713425 -0.014410982 -0.023029007 -0.121777974
00000000: 185d b53c cdf0 0c3e 1782 043e eea0 a3b9
00000010: f2ca 293d 8a35 80bd 6281 ccbd 8875 a0bd
00000020: eac3 a53c 1b62 4c3d b3b2 c3bd ef99 813d
00000030: 1102 a6bd b5fa 5dbd 0b50 943d a034 48bd
00000040: ffce b03b db44 1d3d 7e38 93bd f333 903d
00000050: c4da 65bd 365a 033e b364 a83c dd0c 56bc
00000060: a708 12bd 3d39 d8bd f897 00be 2d7e 6c3d
00000070: f99a 923d 6356 793d 5372 e7bd 92d1 083e
00000080: f563 173e cc36 80bc b345 053e 5926 bebc
00000090: 9f2e d4bd 173f 4abb b2f5 1b3c 3dbe 78bd
000000a0: 4e2c 70bd 2d42 193e 6b63 2fbe f2a4 2d3e
000000b0: 3fc1 84bc 3057 5f3d 0d73 ba3d e8f3 d8bd
000000c0: 1e23 5a3d 0e60 3a3b 94a4 64bd 52fb bd3c
000000d0: 683f 1abd 817a f8bd f052 92bd 215e 19bd
000000e0: 1c5b 0cbc 52b2 d73c 0329 ccbd db40 9a3d
000000f0: 75a8 04be 80fe 4abe c7aa 5b3d 20ae b8bd
00000100: 0f7c c33c 0106 48bd 32f4 c33d bef2 71bd
00000110: 30aa 5f3c 0c94 8e3d 5bd8 1bbd 12cc 75bd
00000120: 5c58 c6bd d1fc 0e3e 59f7 0a3d 6651 c3bd
00000130: e5d0 0dbe f0e7 173e b8b4 05bd bf00 f9bb
00000140: fa56 793d 035c 0d3a ae9a 4e3d ceab c8bb
00000150: 8b7a 883c 96bf 05bd 9aa1 7e3c 3813 d23d
00000160: 0fe5 7cbb 7c76 c23d 755e bc3d 229f 693c
00000170: 70d0 e73c 10b5 bfbd fd57 823d 4e2b 9fbd
00000180: b5ff c8bc e843 e33c 2a24 123d 2ff0 5abc
00000190: 3145 8c3d 414e 07be 876a 9abd 8173 b1bd
000001a0: 0eb4 0c3e e489 b8bd 00c6 a73c b230 9ebd
000001b0: 64c3 013e e063 67bd 20ab a9bd ec96 88bc
000001c0: fbba a13d 4152 3d3d f743 94bd cd26 323c
000001d0: f941 bb3c cc28 b63d c0c4 02be 4e25 91bb
000001e0: 02d1 afbd 1352 b9bd 372e 35bd fcc4 35be
000001f0: 280d fa3c 9a63 2e3c dc0e 10bd 3bc5 98bc
00000200: 9f06 873d d59c 5c3c db08 60bd f6e2 a93c
00000210: 9e56 6abd 47a1 c43d 635f 723c 1e4a 57bd
00000220: 5eec 133e b7bd 763e 4851 e23c fb4f b23c
00000230: ba6e 84bc 345e 09be 3b92 67bd 6e7c 113e
00000240: 19f2 163b 20fa 3cbe 8884 533d 097a 6e3e
00000250: 7d3f c0bc 3e20 5a3e b5b4 cd3d bdac 423e
00000260: 5356 07be 6b5b 153e 21c3 1bbe cc68 0d3e
00000270: 8187 c73d 6edb 363e ef80 533e 34ab 2c3e
00000280: 4e54 38be 5512 2f3e ee49 5c3e e27c 3dbd
00000290: 23ed 693e c4c3 bc3d 5e80 eabd 16fb 44be
000002a0: dd0a e63b a21e 773e 1e4a 0abe b0a3 2fbd
000002b0: 182b d23d efe7 38be 32fa 583e 2ca1 a23c
000002c0: 5c09 673e 0f43 083e 0439 35be dbd3 393e
000002d0: 398e 103e 9167 49be ed1e 7bbc 3c9a 4f3b
000002e0: 6452 963c 8c2e b3bd 36b5 b3bd 93d5 e23b
000002f0: 37ab 8fbd 3f1c 24bc b4e0 81bc cb49 1dbe
00000300: e802 043e 064d 043e fced 4e3b bde5 6c3c
00000310: 61af fabc 4515 653c 44fb fbbd 8ded eebc
00000320: f4dd eabc e50a d9bd a98e 97bd b275 ee3d
00000330: 48db a4bd 608c a6bd 3b06 d4bc 2e4f 4cbc
00000340: d06c 0ebe 26f2 8c3d 6c02 ca3d 2783 1a3e
00000350: 475d 0cbe 0c8a d13d cbb5 803d 8c10 fdbb
00000360: 7bd0 12be 9d79 e83d b9e8 ef3c f854 663d
00000370: 8415 5b3d 8075 83bd 8516 093e eed4 d13d
00000380: 16f2 d6bd 60c3 69bd beb3 f9bd b8bd 3c3a
00000390: 2750 ca3d dfd4 c43c 7c44 23bd 34cf fcbd
000003a0: 6084 2bbe 645a 34bd 3b6f 0abe f209 c23d
000003b0: b08a ecbc e57b 5abd f82b 293c b117 45bd
000003c0: 9fbf d93d 39e8 ccbc dc0a 16bd 89f2 73bc
000003d0: d35d a33c 183c f83b ba12 d3bc 9d8f 953d
000003e0: 9c0c 4abd 1701 abbd 5aa8 303d 7fe3 123e
000003f0: a865 a9bd 0a1c 6cbc 54a7 bcbc bb66 f9bd

rnn.bias_ih_l0_reverse f4 [192]
-0.063808985 0.13577692 0.061843332 -0.023550345 0.1328307 -0.12548898 -0.05481427 -0.018478703
0.09313942 -0.07670172 -0.023062905 -0.086577915 0.05374122 0.10260334 0.09329712 -0.059105627
0.0721566 0.091272004 0.061067197 -0.084062815 -0.076710366 0.09386632 0.10815469 0.1448823
0.070350945 0.089738145 -0.038341217 -0.07647315 0.10781304 -0.07858912 0.118168496 -0.109917216
-0.024316728 0.015768422 0.17500561 -0.046248123 -0.0038276208 0.04226597 -0.015057269 -0.122655205
0.12933275 -0.015089494 0.11878839 0.011497161 -0.10746529 -0.11073773 0.096703805 0.06788448
0.16617703 -0.00015255064 -0.061785176 0.050748557 0.03354953 0.03820843 0.03861977 0.07844093
0.070541985 -0.08938363 0.16886505 -0.10328168 0.026085582 -7.127673e-06 0.18197726 -0.052778363
0.07916192 0.09291591 -0.035624124 -0.0037007858 0.047617447 -0.060027324 -0.010651718 -0.11548221
-0.0045608045 -0.046116464 0.05660754 0.020756226 0.1420562 0.032423373 -0.09312286 0.036958385
-0.09898061 -0.0072732777 -0.02235931 -0.06433312 -0.16110578 -0.13512097 0.10487892 0.09481961
0.0480107 0.10947738 0.053293075 -0.067570664 0.0016734966 -0.08034626 0.04106557 -0.10545805
-0.2623397 -0.021561358 -0.05198737 0.15827833 -0.020629933 0.03613045 0.054105926 0.041915596
-0.09842048 0.0969312 0.07158964 0.07839564 0.07977578 0.01570884 -0.044859994 -0.19261923
0.08429077 -0.031440835 0.005311703 0.048763815 0.07177621 -0.026084011 -0.009944668 -0.026017012
-0.10235187 0.1132618 0.12919731 -0.057880014 -0.10753121 0.04456048 -0.094963335 0.020990528
0.015074041 0.077137 0.047884233 0.0028842976 -0.15331727 -0.13365449 0.026386106 -0.102976926
-0.04984917 0.09821928 -0.041030068 -0.079188064 -0.11052526 0.035486292 -0.17025477 0.08741729
-0.05098019 -0.09421579 -0.04018858 -0.0821519 -0.011898268 0.06614429 -0.068099014 0.045303006
-0.0049585453 -0.11080908 -0.09379982 0.03850443 0.13364016 -0.080868244 -0.10991816 0.0586744
0.016449805 -0.057396002 -0.011231036 0.09927938 0.008135684 -0.12188159 -0.07498782 -0.108616814
-0.046637367 0.042285368 0.11423405 -0.02004457 0.0048656953 -0.1246877 0.12786758 0.02894266
-0.047007266 0.0011132502 0.013565252 -0.07759862 0.07121545 0.092938244 -0.07813955 0.14400823
0.13466752 -0.10485475 -0.09037211 -0.10833381 0.13817227 -0.10413717 0.055422332 0.11651169
00000000: 49ae 82bd 1b09 0b3e 6f4f 7d3d a7ec c0bc
00000010: c504 083e 2f80 00be ee84 60bd a660 97bc
00000020: e1bf be3d cb15 9dbd 6bee bcbc c34f b1bd
00000030: c11f 5c3d b321 d23d 8f12 bf3d be18 72bd
00000040: d7c6 933d d1ec ba3d 9921 7a3d 2029 acbd
00000050: 531a 9dbd fc3c c03d 3580 dd3d 075c 143e
00000060: 2814 903d a2c8 b73d ae0b 1dbd f49d 9cbd
00000070: 15cd dc3d 55f3 a0bd 5302 f23d 471c e1bd
00000080: e033 c7bc c72c 813c ac34 333e ac6e 3dbd
00000090: d2d8 7abb 151f 2d3d c3b2 76bc a732 fbbd
000000a0: ce6f 043e ed39 77bc 5447 f33d 975e 3c3c
000000b0: c316 dcbd 77ca e2bd a50c c63d 0507 8b3d
000000c0: 502a 2a3e 00f6 1fb9 7412 7dbd b8dd 4f3d
000000d0: 3b6b 093d 7180 1c3d c42f 1e3d a3a5 a03d
000000e0: 5178 903d c40e b7bd f6ea 2c3e 5885 d3bd
000000f0: 6eb1 d53c 3f2a efb6 3f58 3a3e 202e 58bd
00000100: a51f a23d b24a be3d 9aea 11bd e288 72bb
00000110: 830a 433d 36df 75bd 8b84 2ebc f081 ecbd
00000120: cd72 95bb 9ee4 3cbd 4fdd 673d f608 aa3c
00000130: 2e77 113e 5fce 043d 33b7 bebd ad61 173d
00000140: 59b6 cabd ad54 eebb df2a b7bc 15c1 83bd
00000150: eaf8 24be 275d 0abe c2ca d63d c930 c23d
00000160: dea6 443d ad35 e03d d749 5a3d 7d62 8abd
00000170: 3a59 db3a 948c a4bd 5f34 283d 64fa d7bd
00000180: 6451 86be 72a1 b0bc b5f0 54bd b713 223e
00000190: 1b00 a9bc 86fd 133d 2d9e 5d3d b0af 2b3d
000001a0: ad90 c9bd dd83 c63d 979d 923d e58d a03d
000001b0: 7c61 a33d d3af 803c 1dbf 37bd fa3d 45be
000001c0: a4a0 ac3d 1bc8 00bd cb0d ae3b 91bc 473d
000001d0: 68ff 923d 23ae d5bc f6ee 22bc a121 d5bc
000001e0: db9d d1bd cdf5 e73d 4d4c 043e 9813 6dbd
000001f0: 5339 dcbd 0d85 363d 237c c2bd 54f4 ab3c
00000200: 1cf9 763c 01fa 9d3d 4222 443d 7c06 3d3b
00000210: 34ff 1cbe b9dc 08be ad27 d83c 91e5 d2bd
00000220: a52e 4cbd 3127 c93d 250f 28bd 5a2d a2bd
00000230: 115b e2bd 135a 113d 4457 2ebe d607 b33d
00000240: 9bd0 50bd 35f4 c0bd c89c 24bd 413f a8bd
00000250: f4f0 42bc a876 873d 7f77 8bbd a58f 393d
00000260: 4b7b a2bb dfef e2bd 1f1a c0bd d2b6 1d3d
00000270: f7d8 083e 409e a5bd c61c e1bd 9154 703d
00000280: bec1 863c 1218 6bbd 6102 38bc fd52 cb3d
00000290: 884b 053c 0e9d f9bd 3793 99bd 7e72 debd
000002a0: d306 3fbd 6c33 2d3d 8bf3 e93d 8334 a4bc
000002b0: 6970 9f3b 445c ffbd b8ef 023e 2819 ed3c
000002c0: b18a 40bd 7aea 913a ca40 5e3c 06ec 9ebd
000002d0: 68d9 913d 6856 be3d a107 a0bd e576 133e
000002e0: 48e6 093e 16be d6bd 0315 b9bd 1ede ddbd
000002f0: 087d 0d3e de45 d5bd 8702 633d ae9d ee3d

rnn.bias_hh_l0_reverse f4 [192]
-0.034137927 0.0751989 0.035111 -0.08297259 0.049540687 -0.11125707 0.08618468 0.015108203
0.119579114 0.13553415 0.067861915 0.07060854 0.06269851 -0.10140209 -0.07564819 -0.0862926
-0.04975217 0.0074802563 0.032452166 -0.016866488 0.14222297 0.1014572 -0.001381268 -0.055956744
0.023168601 0.069164276 0.13002653 0.08358148 0.12128107 0.058368742 -0.049844943 0.05168887
0.026763886 -0.08215947 0.069780044 -0.08182346 0.1252347 -0.015492161 0.0744183 -0.06198519
0.078910366 0.01623151 0.070360914 -0.0856774 -0.061870772 0.09537298 -0.0690996 0.06764399
0.024417566 -0.07545584 0.106239974 -0.0878216 0.046516445 -0.017904121 0.04981294 0.11043154
0.12825489 0.009815161 -0.04566065 0.120621204 0.09264509 -0.016878812 -0.0142665915 -0.021926807
0.0054533314 -0.06376896 0.060214557 0.06880613 -0.04585293 0.15470433 -0.03006037 0.04536111
-0.046893883 0.09100336 0.05383823 -0.11847455 0.09504919 0.10193872 -0.106820375 -0.114298165
0.01213103 0.044049643 0.082352415 0.07932379 0.020980144 0.09493951 -0.03071908 -0.063392855
0.121765636 -0.021610139 0.07535422 0.08662209 -0.0010301557 -0.079107784 0.19970164 -0.15388955
-0.25274053 0.06398127 0.03264632 0.039404742 0.086484596 0.07553948 0.10535933 -0.033317547
-0.022672785 0.058374856 -0.03901572 -0.019497966 -0.0119184675 -0.047379624 -0.044625804 -0.07063551
0.038907386 0.015068761 0.076579295 -0.03388039 -0.05352417 0.0037249278 0.010936917 -0.11148355
-0.17835636 0.056018285 0.06737136 0.08273883 -0.14087056 0.08568554 -0.1297744 -0.057547603
0.09863846 -0.086298734 0.14867547 -0.10847426 -0.014116283 -0.081764325 0.10915065 0.036421634
-0.041250974 0.03938233 -0.10245929 0.003999197 -0.12127178 0.045176517 -0.14031792 0.06766665
-0.098557256 0.016042659 0.03621885 0.001151156 -0.024682576 0.057979856 -0.067357235 -0.0075126677
-0.10795884 -0.043681145 0.12610507 0.07619258 -0.031245854 0.06843166 -0.19464992 -0.037277475
-0.1342588 -0.018301817 0.07148953 0.05594212 -0.03311521 -0.17646308 0.109941036 -0.036201037
0.025741812 0.09430716 0.06763902 -0.010913258 -0.004758903 -0.03006109 0.018175373 0.06369307
0.0735822 0.06585233 -0.13522626 0.11109856 -0.073142774 -0.03522203 0.060338322 -0.03972839
0.0023739655 0.074873544 -0.020029522 0.04312817 0.045832332 -0.020331629 0.10681829 -0.107545964
00000000: 36d4 0bbd e201 9a3d 8dd0 0f3d 89ed a9bd
00000010: 2deb 4a3d bfda e3bd 9881 b03d 6588 773c
00000020: e5e5 f43d 77c9 0a3e 30fb 8a3d 369b 903d
00000030: 1468 803d e6ab cfbd 70ed 9abd 2dba b0bd
00000040: eec8 4bbd f01c f53b 90ec 043d 972b 8abc
00000050: e6a2 113e cbc8 cf3d aa0b b5ba e632 65bd
00000060: 14cc bd3c 00a6 8d3d ad25 053e c42c ab3d
00000070: 3662 f83d 1014 6f3d 362a 4cbd b5b7 533d
00000080: f03f db3c 3943 a8bd d7e8 8e3d 0f93 a7bd
00000090: 863d 003e d5d2 7dbc 9f68 983d 2fe4 7dbd
000000a0: c29b a13d f2f7 843c 6219 903d a277 afbd
000000b0: 356c 7dbd e952 c33d 1784 8dbd ef88 8a3d
000000c0: 5907 c83c 9788 9abd 5894 d93d d0db b3bd
000000d0: 0788 3e3d aaab 92bc a708 4c3d ee29 e23d
000000e0: 4055 033e c5cf 203c a906 3bbd 4008 f73d
000000f0: b5bc bd3d 6f45 8abc 6cbe 69bc d99f b3bc
00000100: dcb1 b23b 4d99 82bd 8aa3 763d 3aea 8c3d
00000110: 48d0 3bbd d06a 1e3e 2a41 f6bc 92cc 393d
00000120: cd13 40bd f85f ba3d 7a85 5c3d c9a2 f2bd
00000130: 26a9 c23d 3fc5 d03d a4c4 dabd 2815 eabd
00000140: 3ac1 463c 666d 343d 62a8 a83d 8374 a23d
00000150: 8dde ab3c a56f c23d 94a6 fbbc 1dd4 81bd
00000160: 4360 f93d bf07 b1bc 5053 9a3d ec66 b13d
00000170: 4a06 87ba 4303 a2bd 967e 4c3e 3995 1dbe
00000180: 3567 81be 9d08 833d 26b8 053d de66 213d
00000190: d61e b13d 71b4 9a3d a2c6 d73d fb77 08bd
000001a0: 47bc b9bc 791a 6f3d f3ce 1fbd 33ba 9fbc
000001b0: ad45 43bc 2311 42bd 8cc9 36bd 5aa9 90bd
000001c0: 5a5d 1f3d f7e2 763c 9bd5 9c3d 2ac6 0abd
000001d0: 293c 5bbd eb1d 743b c130 333c 7d51 e4bd
000001e0: 0da3 36be 6e73 653d fff9 893d fa72 a93d
000001f0: 5f40 10be e77b af3d 95e3 04be 09b7 6bbd
00000200: f602 ca3d 64bd b0bd 623e 183e c127 debd
00000210: fb47 67bc 0e74 a7bd 608a df3d da2e 153d
00000220: c8f6 28bd 5e4f 213d 2dd6 d1bd b20b 833b
00000230: 575d f8bd 030b 393d 80af 0fbe d094 8a3d
00000240: 63d8 c9bd e56b 833c 385a 143d 63e2 963a
00000250: 1d33 cabc 497c 6d3d 97f2 89bd d32c f6bb
00000260: 8619 ddbd 00eb 32bd b021 013e db0a 9c3d
00000270: 4ef7 ffbc e625 8c3d 4f52 47be 44b0 18bd
00000280: 247b 09be b1ed 95bc 1a69 923d 9023 653d
00000290: d0a3 07bd bdb2 34be c428 e13d 8a47 14bd
000002a0: 7ee0 d23c 1d24 c13d 5486 8a3d 86cd 32bc
000002b0: 92f0 9bbb ad42 f6bc 85e4 943c 8371 823d
000002c0: 44b2 963d 96dd 863d c178 0abe a487 e33d
000002d0: e1cb 95bd fa44 10bd 5125 773d 3cba 22bd
000002e0: 8894 1b3b 4d57 993d f414 a4bc 2aa7 303d
000002f0: afba 3b3d 848e a6bc 8cc3 da3d 0f41 dcbd

rnn.weight_ih_l1 f4 [192, 128]
-0.09572921 0.106108844 0.03950449 -0.039983105 -0.12750466 0.117852 -0.030290175 -0.07926571
0.092304185 0.12662706 0.014725799 -0.0064472924 -0.092264704 -0.03968509 0.10295346 -0.068665154
0.013736675 0.042918384 -0.043616824 -0.11823755 -0.06745027 0.04601758 -0.053036183 -0.069564104
0.005208425 0.022406785 0.12169572 -0.09128569 0.0667779 0.10965873 0.06131842 0.06774254
-0.0009161182 -0.05751338 -0.10139172 -0.0034787985 -0.072838634 -0.082452714 0.03617796 0.13699187
0.0626831 0.12985815 -0.035860807 0.038337994 -0.10894732 0.14806323 -0.013478775 -0.12071656
-0.046817202 -0.020032005 -0.035005677 0.049992304 0.010303706 -0.06964301 0.01542312 -0.10946714
-0.12631837 0.090033986 -0.046945672 -0.06527278 -0.026808849 -0.026922308 0.077421226 -0.037341427
-0.09373127 -0.046200633 0.018832987 0.033641905 -0.057231184 -0.091924705 -0.006628427 0.06893191
-0.029551972 -0.03765654 -0.088112004 -0.07026973 -0.00897896 -0.026398715 -0.0195972 -0.0059717437
0.05391145 0.03233774 -0.094626226 -0.031246498 -0.054769345 -0.030469427 -0.0488212 -0.12363325
-0.031226594 0.09472854 0.064355664 -0.13851945 -0.10734595 0.07194694 -0.039751396 -0.032040574
-0.05888149 0.043172773 0.040715054 0.12681603 0.04303934 -0.05859372 -0.010277432 -0.04704811
0.014045671 0.08378816 0.0724612 -0.10930794 -0.12448661 0.01692291 -0.06732865 -0.1323749
-0.04843652 -0.09317044 0.08377817 -0.04303754 -0.10661388 -0.092821725 -0.014602566 -0.058820765
-0.07556219 0.062149417 -0.007996902 -0.072804056 0.10892994 -0.023769243 0.09500751 -0.08263261
0.12831892 -0.05712661 -9.424514e-05 -0.11227455 -0.124971464 0.07891567 -0.08714074 0.11867838
-0.089310795 0.1390944 0.00430226 0.055014852 0.08020522 0.08098924 -0.12600993 0.060690384
-0.09139276 -0.11485452 -0.06693114 0.056954347 0.104292706 0.1138631 -0.008720111 0.013308868
-0.020772075 0.14805113 0.14022553 0.052908365 0.035522524 0.10120938 -0.06287845 -0.062357254
-0.09547235 0.07887899 -0.071203895 -0.08545569 -0.03584932 -0.09719206 0.049481675 0.07971177
-0.04144325 0.042385954 -0.021775084 0.036972973 0.08766835 -0.048590057 0.028958946 -0.03531833
0.049090493 -0.0789484 -0.02412654 0.08135032 0.019807823 -0.055747874 -0.043834977 0.025203668
-0.118264124 0.08904957 0.09120875 -0.113843866 0.095854744 -0.103074074 -0.0697311 -0.07586703
-0.03245779 0.024229491 -0.110860005 0.09078795 -0.081847586 -0.100942425 0.08956002 -0.09649401
0.082761556 0.078425124 0.07455912 -0.05151681 0.12642743 -0.04893972 -0.015218274 -0.12273757
-0.072451524 -0.09776112 -0.095857166 -0.12797895 0.04463124 -0.011184304 -0.06499956 0.04028115
-0.010755152 -0.014039742 0.09341408 -0.081071615 -0.09487456 -0.059413627 -0.109077394 0.008204521
0.052348185 0.11356782 0.026592461 0.14032264 -0.050049677 -0.028057583 0.071191855 0.1302997
0.005949165 0.051856287 -0.008404997 0.048001844 -0.023936415 0.06966968 -0.021867698 -0.09376553
-0.02310016 -0.11197916 -0.045009002 0.0052823303 0.0033035383 -0.027834347 -0.024466647 0.09805395
-0.054990984 -0.10171158 -0.027663317 -0.017167717 -0.089792326 0.08655324 0.051878933 0.084011026
00000000: ad0d c4bd 984f d93d 76cf 213d 53c5 23bd
00000010: 9590 02be 645c f13d 1a23 f8bc 1056 a2bd
00000020: fa09 bd3d 86aa 013e 7a44 713c cf43 d3bb
00000030: 47f5 bcbd d58c 22bd 43d9 d23d 51a0 8cbd
00000040: ca0f 613c 30cb 2f3d 8ea7 32bd 8726 f2bd
00000050: 5e23 8abd ee7c 3c3d 783c 59bd a077 8ebd
00000060: 70ab aa3b 6f8e b73c 9b3b f93d fef3 babd
00000070: dac2 883d c294 e03d 0629 7b3d 9abc 8a3d
00000080: a727 70ba 2693 6bbd 76a6 cfbd 8efc 63bb
00000090: 6c2c 95bd f8dc a8bd 572f 143d 9947 0c3e
000000a0: ff5f 803d 89f9 043e c8e2 12bd 4d08 1d3d
000000b0: c61f dfbd e39d 173e 14d6 5cbc 3e3a f7bd
000000c0: 65c3 3fbd 291a a4bc 1d62 0fbd bbc4 4c3d
000000d0: e0d0 283c ffa0 8ebd 41b1 7c3c 4f30 e0bd
000000e0: 9a59 01be bd63 b83d 1b4a 40bd bcad 85bd
000000f0: 3b9e dbbc 2c8c dcbc 058f 9e3d 53f3 18bd
00000100: 2ef6 bfbd e03c 3dbd a347 9a3c 18cc 093d
00000110: 3f6b 6abd 0543 bcbd 4733 d9bb 2c2c 8d3d
00000120: fa16 f2bc be3d 1abd 1174 b4bd 94e9 8fbd
00000130: 7d1c 13bc 1e42 d8bc 4f8a a0bc 9eae c3bb
00000140: 41d2 5c3d 9474 043d 65cb c1bd a8f8 ffbc
00000150: d255 60bd 059b f9bc bdf8 47bd 6e33 fdbd
00000160: eace ffbc 0901 c23d e7cc 833d 0bd8 0dbe
00000170: 32d8 dbbd eb58 933d 5cd2 22bd fa3c 03bd
00000180: b82d 71bd efd5 303d d4c4 263d 10dc 013e
00000190: 054a 303d f8ff 6fbd ad62 28bc 85b5 40bd
000001a0: d01f 663c 2099 ab3d 8a66 943d d7dc dfbd
000001b0: d6f2 febd eaa1 8a3c 9ae3 89bd 498d 07be
000001c0: 5f65 46bd 25d0 bebd e493 ab3d 2248 30bd
000001d0: 6158 dabd 5119 bebd 9a3f 6fbc 0bee 70bd
000001e0: 59c0 9abd 6390 7e3d 7005 03bc 4b1a 95bd
000001f0: a916 df3d b7b7 c2bc 4c93 c23d 493b a9bd
00000200: 0966 033e 98fd 69bd 79a5 c5b8 33f0 e5bd
00000210: 0af1 ffbd 8a9e a13d d876 b2bd a70d f33d
00000220: 94e8 b6bd c36e 0e3e f9f9 8c3b 4157 613d
00000230: a242 a43d b0dd a53d bf08 01be 7b96 783d
00000240: 212c bbbd d938 ebbd 3213 89bd f648 693d
00000250: 6a97 d53d 0f31 e93d ccde 0ebc 700d 5a3c
00000260: 332a aabc b79a 173e 4897 0f3e 71b6 583d
00000270: 1180 113d dd46 cf3d 6bc6 80bd 526a 7fbd
00000280: 0287 c3bd 4f8b a13d 59d3 91bd 6503 afbd
00000290: bdd6 12bd a10c c7bd 4cad 4a3d ed3f a33d
000002a0: 66c0 29bd e59c 2d3d a961 b2bc f970 173d
000002b0: 778b b33d 5e06 47bd 503b ed3c f4a9 10bd
000002c0: 1d13 493d b3af a1bd 06a5 c5bc ff9a a63d
000002d0: 0444 a23c e257 64bd 4e8c 33bd ec77 ce3c
000002e0: 7634 f2bd 9f5f b63d a7cb ba3d f926 e9bd
000002f0: 7e4f c43d 8018 d3bd 2ecf 8ebd 2c60 9bbd
00000300: 76f2 04bd ed7c c63c 920a e3bd 08ef b93d
00000310: b59f a7bd e7ba cebd 3e6b b73d a79e c5bd
00000320: e47e a93d 5a9d a03d 74b2 983d 4a03 53bd
00000330: 3176 013e 0475 48bd 1156 79bc d65d fbbd
00000340: 7761 94bd fb36 c8bd c350 c4bd ea0c 03be
00000350: 3fcf 363d 5f3e 37bc 7d1e 85bd d9fd 243d
00000360: 6136 30bc f206 66bc e24f bf3d e008 a6bd
00000370: 984d c2bd b45b 73bd f863 dfbd 416c 063c
00000380: 0d6b 563d 3f96 e83d 6fd8 d93c bdb0 0f3e
00000390: e400 4dbd 04d9 e5bc 09cd 913d 496d 053e
000003a0: 37f1 c23b 4267 543d 1db5 09bc 959d 443d
000003b0: 4d16 c4bc faae 8e3d e323 b3bc 2408 c0bd
000003c0: 8c3c bdbc 5455 e5bd 5c5b 38bd 6617 ad3b
000003d0: 2d80 583b db04 e4bc 476e c8bc 82d0 c83d
000003e0: 3a3e 61bd 294e d0bd 2e9e e2bc 50a3 8cbc
000003f0: 0ae5 b7bd d342 b13d 017f 543d f90d ac3d
