program/deep_learning/16 - Recurrent Neural Network/model/rnn/weights_50.pth (torch, 53033 bytes, 9 tensors)

rnn.weight_ih_l0 f4 [64, 1]
0	0x3df8bd6c	0.12145504
1	0x3d8d02a9	0.06885273
2	0xbda981c3	-0.08276703
3	0xbe016dee	-0.12639591
4	0x3d9dd241	0.077061184
5	0xbe16ec0b	-0.14738481
6	0x3e01112e	0.1260421
7	0xbdbdb45d	-0.09262917
8	0xbd86c494	-0.06580463
9	0xbe0fcc52	-0.14042786
10	0xbd5d496d	-0.054025102
11	0xbde1459f	-0.10999607
12	0x3d991819	0.074752994
13	0xbe012e54	-0.12615329
14	0xbe12525d	-0.14289232
15	0xbc6f3534	-0.014600087
16	0xbdaf3624	-0.085552484
17	0xbdf06c01	-0.1173935
18	0x3dfff00b	0.124969564
19	0xbdd715e4	-0.10502222
20	0xbe1a00c6	-0.15039358
21	0x3e0e28b0	0.13882709
22	0xbde4adde	-0.11165975
23	0x3de41d3e	0.1113839
24	0xbdac48af	-0.08412301
25	0xbdbde390	-0.0927192
26	0xbd92f5a8	-0.071757615
27	0x3d948ba8	0.072532
28	0x3e0d5561	0.138021
29	0x3e01903f	0.12652682
30	0xbe026f91	-0.12737872
31	0x3dc899af	0.09794938
32	0xbd85f71a	-0.065412715
33	0x3d31f341	0.043444876
34	0xbd84d241	-0.06485415
35	0x3df84201	0.12121964
36	0xbe1301d4	-0.14356166
37	0x3d78146d	0.060566355
38	0xbe1562a8	-0.14588416
39	0x3e1554d9	0.14583148
40	0xbe1a7e97	-0.15087353
41	0x3da3babf	0.07994603
42	0xbd24ae9d	-0.040205587
43	0xbda7d357	-0.08194607
44	0x3de2ccc6	0.11074214
45	0xbd421aee	-0.047388963
46	0xbe0bca1c	-0.13651317
47	0xbde5c16c	-0.11218533
48	0x3dff9169	0.12478907
49	0x3dadbd3f	0.084833615
50	0xbd945beb	-0.072440945
51	0xbd0ee84e	-0.03488951
52	0xbdca2f72	-0.09872331
53	0xbd49e229	-0.04928795
54	0x3d904107	0.07043653
55	0x3e0237e5	0.12716635
56	0xbd27afbe	-0.040939085
57	0xbe135873	-0.1438921
58	0x3e0cfffb	0.13769524
59	0xbc93fe94	-0.018065728
60	0x3e10612a	0.14099565
61	0xbe0bc9ee	-0.13651249
62	0xbe0a3f48	-0.13500702
63	0x3dcd8563	0.10035207

rnn.weight_hh_l0 f4 [64, 64]
0	0xbdca5221	-0.09878946
1	0x3ddf717a	0.10910316
2	0x3d97372f	0.07383572
3	0x3c54660b	0.012963782
4	0x3df4250a	0.11921127
5	0x3d5a15bf	0.053243395
6	0xbd54e440	-0.05197549
7	0xbd68840a	-0.056766547
8	0x3b38cdbf	0.0028198806
9	0x3d9b112c	0.07571635
10	0xbd2f70e9	-0.04283229
11	0x3d3dd479	0.046345208
12	0x3d953eed	0.07287393
13	0xbde99495	-0.11405293
14	0xbd2d8638	-0.04236433
15	0xbd8da3c0	-0.069159985
16	0xbd648909	-0.05579475
17	0xbdf57941	-0.11986018
18	0xbd742ce0	-0.05961311
19	0x3cf9d492	0.03049687
20	0xbdfd4b84	-0.12367919
21	0x3d664694	0.056219652
22	0xbc81d6f2	-0.015849564
23	0xbd45d7b4	-0.048301414
24	0xbda31925	-0.0796378
25	0xbd3eb653	-0.046560597
26	0xbd1bd7bf	-0.03804755
27	0xbd961adb	-0.07329341
28	0x3dee0613	0.11622252
29	0x3da6d1c6	0.0814548
30	0xbd103bb5	-0.03521319
31	0x3dec3b93	0.115348004
32	0xbd8b7a09	-0.06810386
33	0x3b175098	0.002308881
34	0x3d6d04dc	0.057865962
35	0xbd6b1434	-0.057392314
36	0xbd6ac31a	-0.05731497
37	0xbd09188d	-0.03347068
38	0xbbfd1b26	-0.0077241836
39	0x3df2ae0d	0.11849604
40	0xbdc85841	-0.09782458
41	0x3c99914f	0.018746046
42	0x3c535dde	0.012900798
43	0xbdbf6fa8	-0.093474686
44	0x3dcf4db2	0.10122241
45	0x3d6d0130	0.05786246
46	0xbad6b15f	-0.0016379765
47	0xbc8ad4fa	-0.016947258
48	0x3d017262	0.031603225
49	0x3e01dfeb	0.12683074
50	0xbddadf70	-0.106871486
51	0xbdcd0ea2	-0.100125566
52	0x3d98217f	0.07428264
53	0xbe063025	-0.13104303
54	0xbd0fdd36	-0.035123073
55	0x3d32bc2d	0.04363649
56	0xbe0457be	-0.12924096
57	0xbcf9f46c	-0.030512057
58	0x3d17b087	0.037033584
59	0xbddd7cff	-0.10814857
60	0xbab766b2	-0.0013992398
61	0x3db077e0	0.08616614
62	0x3d4c337c	0.049853787
63	0x3da5968a	0.08085354
64	0xbc7c04ff	-0.015382051
65	0xbbe0cd61	-0.0068604206
66	0x3c9f0cd8	0.019415304
67	0xbdef632e	-0.11688839
68	0x3dd44716	0.10365121
69	0x3cf56b22	0.029958311
70	0x3d06b3fc	0.03288649
71	0xbd882356	-0.06647365
72	0xbdfc12d5	-0.123082794
73	0xbd49c1f8	-0.04925725
74	0x3d443532	0.047902294
75	0xbdd59a66	-0.1042984
76	0xbd2e4122	-0.042542584
77	0xbc1e2c39	-0.009654098
78	0x3de5a839	0.112137266
79	0x3ca67d2a	0.020323355
80	0xbdaa159f	-0.08304905
81	0xbdce4334	-0.10071412
82	0x3dc7e96c	0.097613186
83	0x3daadf12	0.083433285
84	0x3d1b7c21	0.037960175
85	0xbdda11eb	-0.10647949
86	0xbc3899f3	-0.011267173
87	0x3db714ac	0.0893949
88	0xbdb1c4f4	-0.08680144
89	0x3d7c25a5	0.061559338
90	0xbdd3f4c0	-0.10349417
91	0xbccc35e0	-0.024928033
92	0x3d1f8937	0.038949218
93	0x3c0e988c	0.008703362
94	0x3d048cf1	0.032360975
95	0xb9c9c337	-0.00038483154
96	0x3db142da	0.08655329
97	0xbd379714	-0.044821814
98	0xbc3eef18	-0.011653684
99	0xbce59810	-0.02802661
100	0xbbc5f5f0	-0.006041281
101	0xbdc295f2	-0.09501256
102	0xbd318661	-0.043341044
103	0x3d4fba65	0.05071487
104	0xbd3c8c7b	-0.04603241
105	0xbdaf9212	-0.085727826
106	0x3dcae890	0.09907639
107	0xbd7266f5	-0.05918022
108	0x3d8aa6c7	0.067700915
109	0x3df6603c	0.12030074
110	0x3dec21b5	0.115298666
111	0x3dd8e8aa	0.10591252
112	0xbd754d2b	-0.059888046
113	0x3d033246	0.032030366
114	0x3b3860e2	0.0028133919
115	0x3bb848ae	0.0056238985
116	0xbd4c3c8e	-0.049862437
117	0x3d07f0cd	0.03318863
118	0xbdb1e94a	-0.086870745
119	0x3df2f994	0.118640095
120	0x3c1c7ae4	0.009550784
121	0xbdb3c4a7	-0.08777743
122	0x3ccda737	0.025104148
123	0xbdd3edc9	-0.10348088
124	0x3de77ab0	0.11302698
125	0xbce585c7	-0.028017892
126	0x3d611969	0.054955874
127	0x3d310ad0	0.043223202
128	0xbc8f3769	-0.017482476
129	0x3c87f5dd	0.016596729
130	0x3df837b5	0.1212
131	0x3cfd5ba0	0.03092748
132	0xbd008cbd	-0.03138422
133	0xbdbd050e	-0.0922948
134	0x3dc64930	0.09681928
135	0x3d221183	0.03956748
136	0x3e14a3b1	0.14515568
137	0x3d81c1b3	0.06335773
138	0xbb322681	-0.0027183595
139	0xbc93704d	-0.017997885
140	0xbe0a7091	-0.13519503
141	0x3df36ee2	0.118863836
142	0x3d39eb3c	0.045390353
143	0xbce83e77	-0.028350098
144	0x3e0c0db4	0.13677102
145	0xbcddc190	-0.027069837
146	0x3a60c7ae	0.00085746765
147	0xbc656e18	-0.014003299
148	0xbd85067a	-0.06495376
149	0xbd8c410e	-0.06848346
150	0x3d3c92d4	0.046038464
151	0x3cf6af40	0.030112863
152	0x3d71c00f	0.059021052
153	0xbdaf888a	-0.08570965
154	0xbc472cf8	-0.0121567175
155	0x3d83b636	0.06431238
156	0x3d5bd247	0.053667333
157	0x3d521680	0.05129099
158	0xbc07c433	-0.008286524
159	0x3db4853e	0.088144764
160	0x3e0b9519	0.13631095
161	0xbdf5ace7	-0.11995869
162	0xbda06ca4	-0.078332216
163	0xbe0f9db4	-0.14025003
164	0xbd237139	-0.0399029
165	0xbdc4b3f3	-0.09604635
166	0x3dce7e0f	0.100826375
167	0x3d520479	0.051273797
168	0xba7cfc69	-0.0009650649
169	0x3c72ccab	0.014819304
170	0x3d6ecab9	0.0582988
171	0x3d611bec	0.05495827
172	0xbdabcbc8	-0.083884776
173	0xbd9c9eff	-0.076475136
174	0xbd9df81a	-0.07713337
175	0x3bd8aae6	0.0066121696
176	0xbc35d80e	-0.011098875
177	0xbd9b2d52	-0.075770035
178	0x3dabe6b3	0.08393612
179	0x3e04968c	0.12948054
180	0x3d8a5045	0.067535914
181	0xbd7f1d2d	-0.062283684
182	0xbdf0d846	-0.11760001
183	0xbb234a05	-0.0024915945
184	0xbd20953b	-0.039204817
185	0xbd8b56dd	-0.06803677
186	0x3d7ea286	0.062166713
187	0x3df0eca9	0.11763889
188	0xbda938b0	-0.082627654
189	0xbdc0d4dc	-0.094156
190	0xbc954928	-0.01822336
191	0xbd172942	-0.03690458
192	0x3dbe3f1a	0.092893794
193	0x3db2e091	0.08734239
194	0xbcbe4098	-0.02322416
195	0x3de4bc87	0.11168771
196	0x3cf3d32d	0.029763782
197	0xbd1fc496	-0.03900584
198	0x3dbcb1c0	0.092135906
199	0xbd87881c	-0.06617758
200	0x3e00ff91	0.12597491
201	0xbd876c11	-0.06612409
202	0xbd8e5957	-0.06950634
203	0x3e08e7a1	0.1336961
204	0xbd26aa94	-0.04069002
205	0x3dc21430	0.09476507
206	0xbd81378a	-0.06309421
207	0x3dd16a19	0.10225315
208	0xbd898073	-0.06713953
209	0x3d775465	0.06038322
210	0xbc940cbc	-0.018072478
211	0x3d8ed6c0	0.06974554
212	0xbdaa2e34	-0.08309594
213	0xbcd96c9c	-0.026541047
214	0x3dcaee24	0.09908703
215	0x3c601694	0.013677258
216	0x3de3bc2f	0.111198775
217	0x3ddee68b	0.10883816
218	0x3c9439b6	0.018093925
219	0x3d439688	0.04775098
220	0xbcd75f56	-0.026290577
221	0xbc9278d0	-0.017879874
222	0x3b9feabf	0.004880279
223	0xbe0fb444	-0.1403361
224	0x3dd40fe2	0.10354592
225	0x3a84a923	0.0010121207
226	0xbdbe9a2e	-0.09306751
227	0x3c2df0f7	0.0106165325
228	0xbcd41f3c	-0.0258938
229	0xbe03d535	-0.12874301
230	0xbce94e1d	-0.02847963
231	0xbde2c7a2	-0.11073233
232	0xbd7e27c4	-0.062049642
233	0xbe12d5c1	-0.14339353
234	0x3e0da6ba	0.13833132
235	0xbd928cab	-0.071557365
236	0x3db98998	0.09059447
237	0xbc0f1743	-0.008733573
238	0xbd6cd3fe	-0.05781936
239	0x3dca2f70	0.09872329
240	0x3ca819d6	0.020520132
241	0x3bc9776a	0.0061482685
242	0xbd76d049	-0.06025723
243	0xbd519dc5	-0.05117585
244	0x3dd28b37	0.102804594
245	0x3e052c1e	0.1300511
246	0x3bde260d	0.0067794384
247	0x3c832a47	0.01601137
248	0x3df9a529	0.12189705
249	0xbd26da9d	-0.04073583
250	0xbd87d507	-0.066324286
251	0x3d228ac1	0.039683107
252	0x3bf7d9d2	0.007563808
253	0xbda71a14	-0.08159271
254	0x3dac5e0c	0.084163755
255	0xbc5f3433	-0.013623285

rnn.bias_ih_l0 f4 [64]
0	0x3c72a7b2	0.0148104895
1	0x3db8612c	0.09002909
2	0xbc4967df	-0.012292831
3	0xbe0af2c4	-0.1356917
4	0x3e133a98	0.1437782
5	0xbdd787eb	-0.10523971
6	0xbd92de53	-0.07171311
7	0x3d52e17d	0.051484574
8	0x3cf22dfe	0.029562946
9	0xbdfb6d81	-0.122767456
10	0x3d20e66e	0.039282255
11	0x3d12197c	0.035668835
12	0x3dc252b3	0.0948843
13	0x3bc837a4	0.0061101485
14	0xbde4e8c6	-0.111772105
15	0xbc9aed40	-0.018911958
16	0xbcfc1a75	-0.030774334
17	0x3d55d732	0.05220718
18	0xbc3b1521	-0.011418612
19	0x3d6c8a01	0.0577488
20	0x3bc5e8b0	0.0060397014
21	0x3cdb92f2	0.026803467
22	0xbdc4573f	-0.09586953
23	0x3d53b756	0.051688515
24	0xbe016570	-0.12636352
25	0xbde31a97	-0.11089056
26	0xbb7ac4d5	-0.0038264294
27	0x3e070a82	0.13187602
28	0x3e020064	0.12695462
29	0x3cb07799	0.021541404
30	0xbdf0eeb8	-0.11764282
31	0xbccf79b4	-0.025326587
32	0xbdc39e3d	-0.09551666
33	0x3e2af634	0.16695482
34	0xbd8e2793	-0.06941142
35	0x3d81a07b	0.06329437
36	0x3cfbbae0	0.030728757
37	0xbe0c6937	-0.13712011
38	0xbd5e6830	-0.05429858
39	0xbd980843	-0.07423451
40	0x3d8ff1bf	0.07028531
41	0xbd259aaa	-0.040430702
42	0xbdc13c8a	-0.09435375
43	0xbd53aa3e	-0.051676027
44	0x3ce028e8	0.027363256
45	0xbd5ac4cc	-0.053410336
46	0x3d43ae51	0.047773663
47	0xbda5bbfa	-0.08092494
48	0x3e13dcfd	0.14439769
49	0x3d5fb4fb	0.054615956
50	0xbbbd23ee	-0.0057721054
51	0xbd7de3de	-0.06198489
52	0x3d4b8836	0.049690448
53	0xbb2a4c97	-0.0025985593
54	0x3c4dc723	0.012559685
55	0x3dd55b12	0.10417761
56	0xbd26f73d	-0.04076313
57	0xbe0cfded	-0.1376874
58	0x3db27b77	0.08714955
59	0xbe0c3067	-0.13690339
60	0xbd90a59d	-0.07062838
61	0x3d249b69	0.040187273
62	0x3d36ecc0	0.044659376
63	0x3e1e7c40	0.15477085

rnn.bias_hh_l0 f4 [64]
0	0x3dd8723e	0.10568665
1	0xbd5b5ddb	-0.053556304
2	0xbdda30f1	-0.10653866
3	0xbc7c9228	-0.015415706
4	0x3d3bfe0e	0.045896582
5	0x3c903736	0.017604452
6	0xbda16125	-0.07879857
7	0xbdf24794	-0.11830059
8	0xbde9468a	-0.113904074
9	0xbddfe040	-0.10931444
10	0xbe195009	-0.14971937
11	0x3da9512c	0.082674354
12	0x3c7b8b73	0.0153530715
13	0xbd4a4956	-0.049386345
14	0x3d64612c	0.055756733
15	0xbdbf16d0	-0.09330523
16	0x3d8bc2ce	0.068242654
17	0xbd0d1603	-0.03444482
18	0xbd4bd453	-0.049763035
19	0xbddd52c8	-0.10806805
20	0xbe07f7e6	-0.1327816
21	0xbd7ee635	-0.06223126
22	0xbd7fb115	-0.062424738
23	0xbdb5095b	-0.08839675
24	0x3d510b34	0.051036075
25	0xbdbb0d3e	-0.09133385
26	0xbd74d920	-0.05977738
27	0xbd97291b	-0.07380887
28	0x3d8217e7	0.06352215
29	0x3ce5c0c9	0.028046029
30	0xbdedddf9	-0.116146035
31	0x3daf35e9	0.085552044
32	0xbd6c77f9	-0.057731602
33	0x3def5c62	0.116875425
34	0x3d79463f	0.060858008
35	0xbdc0305a	-0.09384222
36	0xbd59532d	-0.05305784
37	0xbd6a4254	-0.05719216
38	0x3d29d264	0.04146041
39	0x3d8b2a0c	0.06795129
40	0xbdaab46d	-0.08335195
41	0x3e1563eb	0.14588897
42	0x3d471ba2	0.048610337
43	0xbd994625	-0.07484082
44	0xbd9aeec5	-0.07565073
45	0xbd231db6	-0.039823256
46	0xbc82afb6	-0.015952926
47	0x39c634a0	0.00037804712
48	0x3e1b2dfb	0.15154259
49	0xbcc80ea7	-0.02442105
50	0xbdba258f	-0.09089195
51	0x3d006c4a	0.031353272
52	0x3dfea5a8	0.1243394
53	0xbe07e6be	-0.13271615
54	0xbd432792	-0.04764516
55	0xbd105c4a	-0.035244264
56	0xbbb11ae7	-0.0054048183
57	0x3c01fc72	0.007933723
58	0xbd1ed100	-0.038773537
59	0xbdf76036	-0.12078898
60	0x3cc46933	0.023975944
61	0xbd9b40fd	-0.07580755
62	0x3c227379	0.009915226
63	0x3b9b6f62	0.0047435025

rnn.weight_ih_l1 f4 [64, 64]
0	0xbe026a0b	-0.12735765
1	0xbd7f6261	-0.06234968
2	0xbd4975c1	-0.049184565
3	0x3df2338f	0.1182624
4	0xbde62333	-0.112371825
5	0xbd18e883	-0.037331115
6	0x3c87e4f8	0.016588673
7	0x3e2ed692	0.1707404
8	0x3e2e3c41	0.17015173
9	0x3e1d1c17	0.15342747
10	0x3c479ffd	0.01218414
11	0x3d543916	0.051812254
12	0x3c907a2a	0.017636377
13	0x3d5d6183	0.054048073
14	0x3e18f20b	0.14936082
15	0xbdbd6d28	-0.092493355
16	0x3dca43e7	0.098762326
17	0xbd3a35f0	-0.045461595
18	0xbe024e27	-0.12725125
19	0xbc5f524c	-0.013630461
20	0xbaf6e281	-0.0018835814
21	0xbc092214	-0.008369941
22	0xbd91f29d	-0.07126353
23	0xbdd03f30	-0.10168302
24	0x3db4cfcb	0.08828696
25	0xbbf0c9eb	-0.0073482892
26	0xbbc13016	-0.005895625
27	0x3d565518	0.052327245
28	0x3da826ff	0.08210563
29	0x3c046301	0.008080245
30	0x3d335b3c	0.04378818
31	0x3c941164	0.018074699
32	0x3e335b46	0.17515287
33	0xbd2b6935	-0.04184838
34	0x3e00de28	0.12584746
35	0xbd9fa062	-0.077942625
36	0xbd93c08d	-0.072144605
37	0xbda231d5	-0.07919661
38	0x3d9567e8	0.07295209
39	0xbd5c2c92	-0.053753443
40	0x3cbacb35	0.022801975
41	0xbc4cc0a9	-0.012497106
42	0x3d4a0143	0.04931761
43	0x3dbb898f	0.091570966
44	0xbd054131	-0.032532874
45	0x3d88e220	0.06683755
46	0x3c8b321d	0.01699167
47	0xbce372c0	-0.027764678
48	0x3cdb1b52	0.026746426
49	0xbe2cb776	-0.1686686
50	0xbd58cdaa	-0.05293051
51	0x3cd8627b	0.026414147
52	0xbc0083dd	-0.007843939
53	0x3e0e3c73	0.13890247
54	0x3d1db3d0	0.03850156
55	0xbd479eaf	-0.048735317
56	0xbd11691a	-0.035500623
57	0x3dccbb8d	0.0999671
58	0x3cba4ec9	0.022742646
59	0x3d16de85	0.036833305
60	0xbdc7c438	-0.09754223
61	0x3d175bf2	0.03695292
62	0xbc853997	-0.016262813
63	0x3c66b463	0.0140810935
64	0xbde4bd04	-0.11168864
65	0x3d8620c0	0.06549215
66	0xbc3b833f	-0.011444866
67	0xbd858885	-0.0652018
68	0xbde01ad3	-0.10942616
69	0x3cf57fcf	0.02996817
70	0xbcceb460	-0.025232494
71	0x3d861310	0.06546605
72	0x3dca19ea	0.09868224
73	0xbdb4eae9	-0.08833868
74	0x3d965d96	0.07342069
75	0xbd764cdd	-0.060131896
76	0x3d52ffd6	0.051513515
77	0x3daaecc2	0.08345939
78	0x3c21c5e7	0.009873844
79	0x39c79b37	0.00038071882
80	0x3c9016b5	0.017588953
81	0xbd56da3f	-0.05245423
82	0xbc8f877d	-0.01752066
83	0x3cb3ce68	0.021949008
84	0xbd01c6d2	-0.03168375
85	0xbb02c495	-0.0019953598
86	0xbdbd8de9	-0.09255583
87	0xbe002aa2	-0.12516263
88	0x3d12b669	0.03581849
89	0x3dc35f96	0.09539716
90	0x3e1bb58a	0.1520597
91	0xbd9f0665	-0.077648915
92	0x3d985b83	0.074393295
93	0xbe188133	-0.14893036
94	0xbcb41a3d	-0.021985168
95	0x3983e794	0.00025158806
96	0x3e1e04c0	0.154315
97	0xbde89f6f	-0.113585345
98	0x3b5e7e63	0.0033949844
99	0xbe02d160	-0.12775183
100	0x3d980c2c	0.074241966
101	0xbe16192a	-0.14658037
102	0x3dc9dafb	0.0985622
103	0x3d40415b	0.046937328
104	0x3dd6a5ac	0.10480818
105	0xbdfa5cca	-0.12224729
106	0xba95709a	-0.0011401356
107	0x3d9721e9	0.07379515
108	0xbde64d3f	-0.11245202
109	0x3e18b7e3	0.14913897
110	0x3b72a2d2	0.0037023318
111	0xbce9b135	-0.028526882
112	0xbd584e34	-0.052808955
113	0xbde17d88	-0.11010271
114	0x3e162a29	0.1466452
115	0x3db921cc	0.09039649
116	0x3e07c9a9	0.13260521
117	0x3cec1ae5	0.028821418
118	0xbe14c797	-0.14529262
119	0xbe01e6cc	-0.12685698
120	0xbcf61372	-0.03003857
121	0xbb03037b	-0.0019991088
122	0x3d7298e2	0.05922783
123	0x3de24c41	0.110497005
124	0xbde97bee	-0.11400591
125	0xbcd596f4	-0.026072957
126	0x3dbf6858	0.09346074
127	0xbc11c6c6	-0.008897489
128	0xbb657903	-0.0035014756
129	0x3d24c56b	0.040227335
130	0xbe15d54d	-0.14632149
131	0xbdb69576	-0.08915226
132	0x3dca4122	0.09875704
133	0xbdfb51a6	-0.122714326
134	0xbd9ee673	-0.077587985
135	0x3ccb16d5	0.02479116
136	0xbe158b40	-0.14603901
137	0xbe0a3cb0	-0.13499713
138	0xbd3a5bdf	-0.04549777
139	0x3d8b1b7b	0.06792351
140	0x3cda9fd2	0.026687536
141	0xbde5a8ac	-0.11213812
142	0xbe1bd29d	-0.15217061
143	0xbde132ba	-0.109960034
144	0x3d83c088	0.06433207
145	0xbcef83d0	-0.029237658
146	0xbbe30f79	-0.0069293347
147	0xbdefcc3c	-0.117088765
148	0xbdbab99f	-0.09117436
149	0x3c0d602d	0.008628887
150	0xbc464a51	-0.012102679
151	0xbb866674	-0.004101569
152	0xbbcbbe65	-0.006217765
153	0x3da883b5	0.08228246
154	0xbdd96f33	-0.10616913
155	0x3dcf64be	0.10126637
156	0x3decfb36	0.11571352
157	0x3e035c0a	0.12828079
158	0xbbaf80f5	-0.005355949
159	0xbd84b7b7	-0.06480353
160	0xbd9ff455	-0.078102745
161	0x3dc1b14b	0.09457644
162	0xbddff9a5	-0.10936288
163	0xb998a7cf	-0.00029116726
164	0xbb3073a3	-0.0026924394
165	0x3dcbac52	0.09944977
166	0xbd5899be	-0.052880995
167	0xbd0c0744	-0.034186617
168	0xbe1c33e4	-0.1525417
169	0x3ce74b9d	0.028234297
170	0x3d99e2e4	0.07513979
171	0xbe173e43	-0.14769845
172	0x3dbecabf	0.093160145
173	0xbe11edcc	-0.14250869
174	0x3d839381	0.064246185
175	0x3c96bbe1	0.018400135
176	0xbd9e7a5b	-0.07738181
177	0x3df52d5d	0.11971543
178	0xbdc6091e	-0.09669708
179	0xbdac6e1f	-0.084194414
180	0xbcae8a35	-0.021306137
181	0xbc30715e	-0.010769216
182	0x3cb91278	0.022591814
183	0xbd935b55	-0.071951546
184	0xbe048589	-0.12941565
185	0x3d3d2cd7	0.04618534
186	0xbd9e35da	-0.07725115
187	0x3d2abfdc	0.041686878
188	0x3e25d881	0.16195871
189	0x3d3596c2	0.044333227
190	0x3c45658e	0.012048138
191	0x3e229e2a	0.15880647
192	0x3c5a5689	0.013326296
193	0x3e154934	0.14578706
194	0xbb603431	-0.0034210796
195	0xbd140859	-0.036140773
196	0x3d581584	0.052754894
197	0xbde68eef	-0.11257731
198	0x3c4950de	0.012287347
199	0x3ba1f94d	0.004943049
200	0xbce51f8e	-0.027969148
201	0xbd12b092	-0.03581292
202	0xbdae3c99	-0.08507652
203	0xbe123401	-0.1427765
204	0x3e17a709	0.14809813
205	0xbde94f1e	-0.113920435
206	0x3c2893f4	0.010289181
207	0xbd7e5210	-0.06208998
208	0xbd481b92	-0.048854418
209	0x3cc03e92	0.023467336
210	0x3ccd3b9e	0.025052842
211	0xbd8473a6	-0.06467371
212	0xbdde2347	-0.10846572
213	0xbb4c9106	-0.003121437
214	0xbc11de04	-0.00890303
215	0xbc9d6af0	-0.01921603
216	0x3d73d5f2	0.059530206
217	0x3d9455f0	0.07242954
218	0xbe067387	-0.13130008
219	0x3dbbbe94	0.09167209
220	0x3ddd9c83	0.10820868
221	0x3de71eeb	0.11285194
222	0xbe01a649	-0.12661089
223	0x3df459eb	0.11931213
224	0x3d7a3b2a	0.06109158
225	0x3c1e5955	0.009664853
226	0xbdad684f	-0.08467161
227	0xbc6b5f17	-0.014365933
228	0xbce35f94	-0.027755536
229	0xbd73e7d2	-0.059547253
230	0xbc5340e5	-0.01289389
231	0x3cf9b7f6	0.030483227
232	0xbd3af9ff	-0.04564857
233	0x3d853ce0	0.065057516
234	0xbcb886b9	-0.022525178
235	0xbdedca0b	-0.11610802
236	0x3db27a38	0.087147176
237	0xbce0bfae	-0.02743515
238	0x3d52ff76	0.051513158
239	0x3d94cc77	0.07265561
240	0x3e176559	0.14784755
241	0xbc8053d5	-0.015664974
242	0xbd529eeb	-0.051421087
243	0xbddcb429	-0.1077655
244	0x3ca23776	0.019801836
245	0xbd069d38	-0.03286478
246	0xbdab082a	-0.083511665
247	0x3dee7518	0.116434276
248	0x3cbd24ce	0.023088839
249	0xbd86f1ec	-0.06589112
250	0x3d46edfb	0.0485668
251	0xbdcbc7c1	-0.099502094
252	0x3dfdf3e6	0.124000356
253	0xbd51488e	-0.051094584
254	0x3c07f9f9	0.008299344
255	0x3da5fbd2	0.081046715

rnn.weight_hh_l1 f4 [64, 64]
0	0x3bd32d77	0.006444629
1	0xbd49be89	-0.049253974
2	0xbdf0d9ac	-0.117602676
3	0xbe05267a	-0.13002959
4	0xbd315ec1	-0.043303255
5	0xbd5cb4e1	-0.053883437
6	0x3d60f631	0.054922286
7	0xbcc379b6	-0.023861747
8	0x3c2dd71e	0.01061037
9	0xbdb5defa	-0.0888042
10	0x3d2d6477	0.04233214
11	0x3d669dec	0.05630295
12	0x3d1292f7	0.035784688
13	0xbdc6c320	-0.09705186
14	0xbd5ce058	-0.05392489
15	0xbdd4f1b2	-0.10397662
16	0xbcbbc9aa	-0.02292331
17	0x3d92f778	0.07176107
18	0x3ddf93b3	0.10916843
19	0xbd593f33	-0.053038787
20	0x3c37f2e4	0.011227343
21	0x3d151977	0.03640124
22	0xbe1804bc	-0.14845556
23	0x3db14c8d	0.08657179
24	0x3d3e198a	0.046411075
25	0x3d04ef7e	0.03245496
26	0xbd08d061	-0.03340185
27	0xbd7e0310	-0.06201464
28	0x3d0b1d48	0.03396347
29	0x3de39c3c	0.11113784
30	0x3d0016d9	0.03127179
31	0x3cec6657	0.028857393
32	0xbd9cbe9d	-0.07653544
33	0x3ce14857	0.027500315
34	0xbb848891	-0.0040446003
35	0xbd979c5a	-0.074028686
36	0xbdbf97f0	-0.09355152
37	0x3e11bfb0	0.14233279
38	0x3dd54126	0.10412817
39	0xbca5f2b6	-0.020257335
40	0xbd4961b1	-0.04916543
41	0xbd8906e5	-0.06690768
42	0x3d095f00	0.033537865
43	0xbd44ba2c	-0.04802911
44	0xbce9123b	-0.028451076
45	0xbd001cb0	-0.03127736
46	0x3d86d1dd	0.06582997
47	0x3ced5ad0	0.028973967
48	0xbe181128	-0.14850295
49	0x3ddd9c28	0.108208
50	0x3dbe303b	0.09286543
51	0x3d6a5c00	0.057216644
52	0xbe141ff7	-0.14465319
53	0x3cb34e5e	0.021887954
54	0xbd01443d	-0.031559218
55	0x3e0603c1	0.1308737
56	0xbd62dd76	-0.055386983
57	0x3e0e6be5	0.13908346
58	0xbe0594b7	-0.13045011
59	0xbd17b310	-0.037036
60	0xbdf34532	-0.11878432
61	0xbe07b897	-0.13254009
62	0x3d8412f5	0.06448928
63	0x3bc99e6b	0.006152918
64	0x3da8883a	0.08229108
65	0xbcfaef76	-0.030631762
66	0xbdb54cc3	-0.08852532
67	0xbd49f586	-0.049306415
68	0x3ca3515a	0.019936252
69	0x3cc1d793	0.023662364
70	0xbdc113bb	-0.094275914
71	0x3dc2e5b7	0.09516471
72	0xbd15c41e	-0.036563985
73	0xbdbe54d6	-0.09293525
74	0x3de5839d	0.11206744
75	0x3e1aef87	0.15130435
76	0xbdf30566	-0.11866264
77	0xbdc9d485	-0.09854988
78	0xbcbad557	-0.022806806
79	0xbd688d90	-0.05677563
80	0xbd3b01dc	-0.04565607
81	0xbd17bfbd	-0.03704809
82	0x3d3fcc79	0.04682586
83	0x3dc27cd6	0.09496467
84	0xbdb4cc26	-0.08828001
85	0xbd0ed38d	-0.03486972
86	0x3dc08d60	0.09401965
87	0xbda69f9c	-0.08135912
88	0x3cfec71d	0.031100804
89	0xbd9c8857	-0.07643192
90	0xbd6074f2	-0.054799028
91	0x3e181ac7	0.14853965
92	0x3c9b8c81	0.018987896
93	0xbcc23375	-0.023706177
94	0x3c589dad	0.013221187
95	0xbc45d4fa	-0.012074703
96	0x3e0051d7	0.1253122
97	0x3d7fbb06	0.06243422
98	0x3dffe6a5	0.12495164
99	0xbdbb0d8c	-0.09133443
100	0xbe088b57	-0.13334404
101	0x3d4bb3be	0.049731962
102	0xbdc42bbf	-0.095786564
103	0x3cde38f8	0.027126774
104	0xbe0527a2	-0.130034
105	0x3df29c48	0.118462145
106	0x3d3db26a	0.046312727
107	0x3d2aee56	0.0417312
108	0x3c029cb3	0.00797193
109	0x3dd4a886	0.10383706
110	0xbe07d06f	-0.13263105
111	0xbe1e2b38	-0.15446174
112	0x3da11c54	0.07866731
113	0x3da5b7e4	0.08091715
114	0xbde6b27f	-0.11264514
115	0xbdb11a66	-0.08647613
116	0x3da5cb42	0.08095409
117	0x3c4e9f6b	0.01261125
118	0xbc3950ef	-0.0113108
119	0xbd0b1f43	-0.03396536
120	0xbc926c58	-0.017873928
121	0x3e059794	0.13046104
122	0xbbc564cf	-0.00602398
123	0x3dd23efe	0.10265921
124	0xbe069cc2	-0.13145736
125	0x3db53359	0.088476844
126	0x3de7ff46	0.113279864
127	0x3dace0b1	0.08441294
128	0xbd321264	-0.04347457
129	0x3cc1db7c	0.023664229
130	0x3c64b66e	0.01395951
131	0x3dc3ed83	0.09566786
132	0x3d8c77a7	0.068587594
133	0x3dd9b2ad	0.10629783
134	0x3d9e6d4f	0.07735693
135	0xbb8cf4ea	-0.004301657
136	0xbdd905bb	-0.10596796
137	0xbd081248	-0.03322056
138	0xbe10e8ca	-0.14151302
139	0xbc385f56	-0.011253199
140	0xbc978042	-0.018493775
141	0x3e10ab46	0.14127836
142	0x3d994041	0.074829586
143	0x3da20404	0.07910922
144	0xbdf48a2e	-0.11940418
145	0x3d581eda	0.052763797
146	0x3d08a662	0.0333618
147	0xbe11052a	-0.14162126
148	0x3dc56b1b	0.09639569
149	0xbe047f15	-0.12939103
150	0x3d9f5c62	0.077812925
151	0x3c8fe406	0.017564785
152	0xbe193c20	-0.14964342
153	0xbdcc000a	-0.09960945
154	0x3c5ec326	0.013596332
155	0x3d46a1ca	0.048494138
156	0x3d7cd906	0.061730407
157	0xbde12fe4	-0.109954625
158	0x3bb379a9	0.0054771495
159	0xbd9dfa84	-0.07713798
160	0xbe11fc69	-0.14256443
161	0x3d3b85f3	0.04578204
162	0x3d9c9ca9	0.07647068
163	0x3d734e47	0.059400823
164	0x3e10b615	0.14131959
165	0xbe08fcf0	-0.13377738
166	0xbdab81c6	-0.08374362
167	0xbd68ad1c	-0.056805715
168	0x3d373778	0.044730633
169	0x3df321a4	0.11871651
170	0x3c01ba3b	0.007917936
171	0xbd223394	-0.03959997
172	0x3c8c92b2	0.017159794
173	0xbe1e3866	-0.15451202
174	0x3e08fe8b	0.1337835
175	0x3ccf5d29	0.025312977
176	0x3dcc36c2	0.09971382
177	0x3da0daad	0.07854209
178	0x3d9cb880	0.07652378
179	0x3bdd1d5e	0.0067478856
180	0xbd97c045	-0.074097194
181	0xbd7dcbf2	-0.061962076
182	0x3da7a925	0.08186559
183	0xbe0e8237	-0.1391686
184	0xbdaf4c57	-0.085594825
185	0xbccc09ab	-0.024906954
186	0xbd79f880	-0.061028004
187	0xbb5e9db4	-0.003396851
188	0xbcee023a	-0.029053796
189	0x3d8245d4	0.06360975
190	0x3cdd47b2	0.027011726
191	0x3d84be1c	0.06481573
192	0x397d2b62	0.00024144122
193	0xbe154481	-0.14576913
194	0x3d5770bd	0.05259775
195	0x3d29879c	0.041389093
196	0x3dabdc42	0.0839162
197	0xbdcb80ec	-0.09936699
198	0xbd4860c3	-0.048920404
199	0xbdff2ea6	-0.12460069
200	0x3d3877f6	0.04503628
201	0xbded71a8	-0.11593944
202	0x3d9f54da	0.07779856
203	0xbd81f516	-0.063455746
204	0xbd98b74d	-0.07456837
205	0xbd1f5002	-0.03889466
206	0x3dede3d8	0.11615723
207	0x3cfb399c	0.030667119
208	0xbddf8c01	-0.109153755
209	0xbdb953af	-0.090491645
210	0xbd56e101	-0.052460674
211	0xbe12003c	-0.14257902
212	0xbe026732	-0.12734678
213	0xbd955fd3	-0.07293668
214	0x3ddca7ab	0.107741676
215	0xbd20eb5e	-0.039286964
216	0xbdbffbc0	-0.093741894
217	0xbdfc8620	-0.1233027
218	0x3d9f7379	0.077856965
219	0xbd8d2ebc	-0.068936795
220	0xbdbdace6	-0.092614934
221	0x3dc895f1	0.09794224
222	0x3ac47c10	0.0014990587
223	0x3cc03a31	0.023465248
224	0x3d8aca54	0.06776872
225	0xbd639a68	-0.055567175
226	0xbc959ee4	-0.018264242
227	0x3c5d583c	0.013509806
228	0xbd242eb7	-0.040083613
229	0xbd5dec5d	-0.05418049
230	0x3dd3da57	0.103443794
231	0x3d12cb43	0.035838377
232	0x3d36e35e	0.044650428
233	0xbdd8f989	-0.1059447
234	0x3d94c94c	0.07264957
235	0xbb9cb15c	-0.004781885
236	0xbd75497c	-0.059884533
237	0x3db3c119	0.08777065
238	0xbd80c1f0	-0.06286991
239	0x3d7a43aa	0.061099686
240	0xbc99fbf7	-0.018796904
241	0x3bdf9687	0.006823364
242	0xbb7ffefd	-0.0039061897
243	0xbc10fd39	-0.0088494355
244	0x3c2ab362	0.010418745
245	0x3de92d66	0.11385612
246	0x3dbb3b85	0.09142212
247	0xbbbebcc1	-0.005820841
248	0x3da53735	0.080671705
249	0x3dabaaca	0.08382185
250	0x3d40779f	0.04698908
251	0x3dc8788b	0.09788617
252	0xbd38e583	-0.045140754
253	0x3dd039d3	0.10167279
254	0x3d13adc2	0.03605438
255	0xbc38409e	-0.011245875

rnn.bias_ih_l1 f4 [64]
0	0xbc8d963d	-0.017283553
1	0xbe0ae1af	-0.13562654
2	0x3db2109e	0.08694576
3	0xbcc5a71e	-0.02412754
4	0x3ded6030	0.11590612
5	0x3d8a5b3b	0.06755682
6	0x3db5aaf5	0.08870498
7	0x3cc9dffd	0.024642939
8	0xbe11ebfa	-0.14250174
9	0xbd474497	-0.048649397
10	0x3cfa6881	0.03056741
11	0xbdc096fd	-0.09403799
12	0xbd2a2e70	-0.041548193
13	0xbdad6bae	-0.08467804
14	0x3e14c98b	0.14530008
15	0xbd949717	-0.072553806
16	0x3db19190	0.08670342
17	0x3dbcafe7	0.09213238
18	0xbd20f5c7	-0.03929689
19	0xbd78ca82	-0.06074
20	0x3da159fa	0.0787849
21	0xbe021a9d	-0.12705465
22	0xbd5c3d06	-0.053769134
23	0xbd036d54	-0.032086685
24	0x3d0305ff	0.03198814
25	0x3d7cb2ab	0.06169383
26	0x3d6f1c45	0.05837657
27	0x3d394e8c	0.045240924
28	0x3b45fec5	0.003021167
29	0xbdecd3fa	-0.11563869
30	0x3d6b55a9	0.05745474
31	0xbd96dffa	-0.07366939
32	0x3bc9de41	0.006160528
33	0xbe005578	-0.12532604
34	0x3db418cd	0.08793793
35	0x3e1a496e	0.15067074
36	0xbd6407a7	-0.05567136
37	0x3db367ef	0.08760058
38	0xbda3816a	-0.07983668
39	0xbcb7c993	-0.022434985
40	0x3d4d3602	0.050100334
41	0x3d82b8c0	0.063828945
42	0xbda7baca	-0.08189924
43	0x3cd22917	0.025654359
44	0x3d3af8e1	0.045647506
45	0x3c5db1f2	0.013531195
46	0x3d252c31	0.040325347
47	0xbc63d2c3	-0.01390523
48	0x3d9d33a4	0.07675865
49	0xbc7b1a0b	-0.015326033
50	0xbcb93454	-0.02260796
51	0x3d4fd742	0.050742395
52	0x3d9bc890	0.07606614
53	0x39bf09cb	0.00036437655
54	0x3da5e217	0.08099764
55	0xbc714b98	-0.014727496
56	0x3b23f160	0.0025015697
57	0x3e0db5c3	0.13838868
58	0x3e019f56	0.12658438
59	0xbd043ec1	-0.03228641
60	0xbbd63c11	-0.006537922
61	0xbd378b06	-0.044810317
62	0xbe1bbb28	-0.15208113
63	0xbb02a10b	-0.0019932415

rnn.bias_hh_l1 f4 [64]
0	0xbd37ebe4	-0.044902697
1	0xbe017afe	-0.12644574
2	0x3ca46bda	0.020070959
3	0xbdaf2206	-0.08551411
4	0x3db89739	0.090132184
5	0xbd5bf809	-0.05370334
6	0xbcb7e0b2	-0.02244601
7	0x3c2c0b09	0.010500678
8	0xbd09cc25	-0.033641953
9	0x3e145646	0.14486036
10	0xbdfbe2d4	-0.122991234
11	0x3cd41745	0.025890002
12	0x3e18af8f	0.1491072
13	0x3dc934c1	0.09824515
14	0x3def6161	0.116884954
15	0x3e132e77	0.14373194
16	0xbdfa8938	-0.12233204
17	0x3be414cd	0.0069604875
18	0xbe0dea75	-0.1385897
19	0x3dba41fe	0.09094618
20	0xbd934608	-0.07191092
21	0xbdfbdb3f	-0.12297677
22	0xbc8dbc60	-0.017301738
23	0x3dc295d8	0.09501237
24	0x3d95f97b	0.07322975
25	0x3d1a3b75	0.03765436
26	0xbbb15c52	-0.0054126168
27	0xbca099fa	-0.019604672
28	0x3d424070	0.047424734
29	0x3aca416a	0.0015430872
30	0x3d953908	0.072862685
31	0x3d230a81	0.03980494
32	0x3b071da6	0.0020617037
33	0x3d2223e8	0.039585024
34	0xbe1464e7	-0.14491616
35	0x3dd0bceb	0.10192283
36	0x3df18d6e	0.11794554
37	0xbc1ad1ba	-0.009449417
38	0xbd54e13f	-0.051972624
39	0xbcf0c760	-0.029391944
40	0x3db17331	0.08664549
41	0x3e188d4f	0.14897655
42	0x3d9f4dd0	0.077785134
43	0x39a13239	0.00030745732
44	0xbd52fde5	-0.051511664
45	0xbcdc0977	-0.026859982
46	0x3dc0bb7d	0.094107606
47	0xbbb40be8	-0.0054945834
48	0x3e0743c9	0.13209452
49	0xbd2b13cb	-0.041766923
50	0x3c8e8abd	0.01740014
51	0xbe22a86a	-0.15884557
52	0xbb783e1d	-0.003787882
53	0x3b86b8ec	0.0041114
54	0x3d7f0dd7	0.062269058
55	0x3db7a85b	0.08967658
56	0x3d966b99	0.073447414
57	0x3e0340fd	0.1281776
58	0x3d0e5f61	0.03475893
59	0x3d08b04d	0.03337126
60	0x3d891536	0.06693499
61	0xbc876050	-0.016525418
62	0xbbad4ff5	-0.0052890726
63	0x3d25b2c3	0.040453684

fc.weight f4 [1, 64]
0	0xbe19fb5b	-0.15037291
1	0xbe2e76f2	-0.17037562
2	0x3e259ded	0.16173525
3	0x3e369823	0.17831473
4	0x3e4d1746	0.2002841
5	0x3e578218	0.2104572
6	0xbe3b3ff0	-0.18286109
7	0xbe6c3511	-0.23067118
8	0xbe00653d	-0.1253862
9	0x3e038db9	0.12847032
10	0xbe034e59	-0.12822856
11	0xbe067f99	-0.13134612
12	0x3e50b639	0.20382012
13	0x3e288bd6	0.16459593
14	0x3ddac239	0.10681576
15	0x3e16e6a8	0.14736426
16	0xbddb2660	-0.10700679
17	0x3d948b69	0.07253153
18	0xbe3b7533	-0.18306427
19	0xbe5b2ac3	-0.21403031
20	0xbe58df26	-0.21178874
21	0xbe570823	-0.20999198
22	0x3e77b742	0.24191001
23	0x3e1c9ad5	0.15293439
24	0xbe1378f5	-0.1440161
25	0xbe1de894	-0.15420753
26	0x3e545c66	0.20738372
27	0xbe71107b	-0.23541443
28	0x3e2cf2ba	0.16889468
29	0xbe609e1b	-0.21935312
30	0x3dbdb5b1	0.092631705
31	0x3e2b0893	0.1670249
32	0xbe3fba2f	-0.18723367
33	0xbe4e4ce8	-0.20146525
34	0xbe629c60	-0.22129965
35	0x3e456155	0.1927541
36	0x3e39cf96	0.18145594
37	0xbe4ebc97	-0.20189129
38	0x3e34978e	0.17635939
39	0xbe0c62ae	-0.13709518
40	0x3e15f90f	0.1464579
41	0x3e270733	0.1631134
42	0xbe0578c8	-0.13034356
43	0x3e05be0a	0.13060775
44	0xbe2f1674	-0.17098409
45	0xbe527d3c	-0.20555586
46	0x3e026d6d	0.12737055
47	0x3e16149f	0.14656304
48	0x3e31ee61	0.1737609
49	0xbe2bec42	-0.16789344
50	0x3e276d5c	0.16350311
51	0xbe1ce4bf	-0.15321635
52	0x3e229a9d	0.15879293
53	0x3e420e3d	0.18950744
54	0xbe4e4dc9	-0.2014686
55	0xbe45c1c0	-0.19312191
56	0x3e4487df	0.19192456
57	0x3dd15955	0.10222117
58	0x3e4b6897	0.19864117
59	0x3e470a86	0.19437608
60	0x3de675d3	0.11252942
61	0x3e262ae4	0.16227299
62	0xbe3a3035	-0.18182452
63	0x3e66ec1a	0.22551003
