program/deep_learning/16 - Recurrent Neural Network/model/rnn/weights_200.pth (torch, 53040 bytes, 9 tensors)

rnn.weight_ih_l0 f4 [64, 1]
0	0x3d86fbdc	0.06591007
1	0x3d3d8130	0.04626578
2	0xbd5a2f11	-0.053267542
3	0xbdfd09ba	-0.12355371
4	0x3d7859a3	0.06063236
5	0xbdb06851	-0.08613647
6	0x3d8df7e2	0.069320455
7	0xbd84502a	-0.064606026
8	0xbd66d831	-0.05635852
9	0xbe058066	-0.13037261
10	0xbd1a57ae	-0.037681274
11	0xbd86852b	-0.065683685
12	0x3d813ee0	0.063108206
13	0xbd43b0f7	-0.04777619
14	0xbe2a6bdd	-0.16642709
15	0xbcfc932a	-0.030831892
16	0xbd47a055	-0.04873689
17	0xbd95bdb8	-0.073115766
18	0x3d565cdd	0.052334655
19	0xbd8e2a87	-0.06941705
20	0xbd641721	-0.05568612
21	0x3d7ce2fc	0.061739907
22	0xbe05eb1b	-0.13077967
23	0x3d5b53cc	0.05354671
24	0xbd8ef242	-0.06979801
25	0xbd2f5405	-0.042804737
26	0xbd3e528e	-0.04646545
27	0x3d657176	0.056016408
28	0x3e0954a0	0.13411188
29	0x3d83c654	0.064343125
30	0xbe2a325e	-0.16620776
31	0x3d668022	0.05627454
32	0xbd477191	-0.04869229
33	0x3ce6bd05	0.028166303
34	0xbd5b32d0	-0.053515255
35	0x3d71be45	0.059019346
36	0xbcf6d0c6	-0.030128848
37	0x3d8000eb	0.06250175
38	0xbd806a66	-0.06270294
39	0x3d6c67e0	0.05771625
40	0xbe45fbf4	-0.19334394
41	0x3d457595	0.048207838
42	0xbccc5214	-0.024941482
43	0xbda559e3	-0.08073785
44	0x3dbc5127	0.09195166
45	0xbd22bb3b	-0.03972934
46	0xbd96d8bf	-0.0736556
47	0xbdbe560d	-0.09293757
48	0x3df10de0	0.117702246
49	0x3d797500	0.060902596
50	0xbd8e4580	-0.0694685
51	0xbce2ed11	-0.027700933
52	0xbd8c6109	-0.068544455
53	0xbd7e654f	-0.062108334
54	0x3d83b56b	0.06431087
55	0x3da94c78	0.082665384
56	0xbd92a983	-0.07161238
57	0xbe2b2c57	-0.16716133
58	0x3d247ad1	0.04015619
59	0xbd2e6452	-0.04257614
60	0x3d81a101	0.06329537
61	0xbdc643e6	-0.09680919
62	0xbd40516a	-0.046952643
63	0x3d644e7f	0.055738922

rnn.weight_hh_l0 f4 [64, 64]
0	0xbde87222	-0.11349894
1	0x3d2c7ac2	0.04210926
2	0x3e416fc2	0.18890288
3	0x3d0b3e4d	0.03399496
4	0x3d860cbd	0.065453984
5	0x3dae9900	0.08525276
6	0xbdf81b90	-0.12114632
7	0xbcf47523	-0.029841011
8	0x3d347443	0.04405619
9	0x3e11a20c	0.14221972
10	0x3c50407f	0.01271069
11	0x3e18595e	0.14877841
12	0x3bf6ba75	0.0075295516
13	0xbd7b69c9	-0.06138018
14	0xbd1ac815	-0.03778847
15	0x3d0b120f	0.03395277
16	0x3c92b386	0.01790787
17	0xbd762531	-0.060094062
18	0xbdafa6fb	-0.08576771
19	0x3dec04e2	0.11524369
20	0xbde21251	-0.1103865
21	0xbc0e47a7	-0.008684075
22	0x3c98878c	0.018619321
23	0xbda003e2	-0.078132406
24	0xbc9d51ca	-0.01920404
25	0xbc1a26d5	-0.009408672
26	0xbcaa43d8	-0.020784304
27	0xbdce5830	-0.10075414
28	0x3dd574cc	0.10422668
29	0x3c390336	0.011292269
30	0xbc5e0101	-0.013550044
31	0x3d58a65f	0.05289304
32	0xbcf63608	-0.030055061
33	0xbbd4758e	-0.00648374
34	0x3e29450a	0.16530243
35	0xbdc83758	-0.09776181
36	0xbcb911bd	-0.022591466
37	0xbda89b82	-0.08232786
38	0xbaf8c29c	-0.0018978897
39	0x3dfc7039	0.12326092
40	0xbdbd4ded	-0.09243379
41	0xbc7931e2	-0.015209647
42	0x3da73ab5	0.08165494
43	0xbd97965f	-0.07401728
44	0x3da1b2c6	0.078954265
45	0x3dba822a	0.09106858
46	0x3dacc941	0.08436824
47	0x3c0632bb	0.008190806
48	0x3cbdeada	0.023183275
49	0x3c73ff4e	0.014892412
50	0x3e043b26	0.12913188
51	0xbd07cb04	-0.033152595
52	0x3dee72f3	0.116430186
53	0xbdb33450	-0.08750212
54	0xbdf87b29	-0.12132866
55	0x3c8dab12	0.017293487
56	0xbe1799b2	-0.14804724
57	0xba87d129	-0.0010362017
58	0x3d260ba5	0.04053845
59	0xbd4f2531	-0.050572578
60	0xbd811317	-0.06302469
61	0x3e03ecd6	0.12883314
62	0x3d798a8f	0.060923155
63	0x3d3c726e	0.046007566
64	0xbcfcbc78	-0.030851588
65	0xbba24dcf	-0.004953123
66	0x3db4876f	0.088148944
67	0xbe182ca1	-0.14860775
68	0x3dc04020	0.09387231
69	0x3cfb594f	0.030682234
70	0x3d33165c	0.043722495
71	0xbd28faee	-0.04125493
72	0xbdedfbba	-0.11620279
73	0xbd326c99	-0.043560598
74	0x3d814c75	0.06313411
75	0xbdbd6866	-0.09248428
76	0xbd280426	-0.04101958
77	0x3d0ca801	0.03433991
78	0x3e004713	0.12527113
79	0x3d19d93b	0.037560683
80	0xbdc7bd0c	-0.09752855
81	0xbe170277	-0.14747034
82	0x3d9debbf	0.077109806
83	0x3d7bb86b	0.06145517
84	0x3d704069	0.058655176
85	0xbdbfa951	-0.093584664
86	0xbd498393	-0.049197745
87	0x3db76a5e	0.08955835
88	0xbdf0db08	-0.11760527
89	0x3d918f74	0.0710744
90	0xbdb36de4	-0.08761194
91	0xbcf0b3ea	-0.029382665
92	0x3c98814c	0.018616341
93	0xbb8d7edf	-0.0043181027
94	0x3d712009	0.05886844
95	0x3ced9bb9	0.029004918
96	0x3d9fc373	0.07800951
97	0xbd89eb85	-0.06734375
98	0xbd22c98b	-0.039742988
99	0xbce508d2	-0.027958307
100	0x3d0dc5b1	0.03461236
101	0xbd05cbb1	-0.03266496
102	0xbdfd0d67	-0.12356072
103	0x3d18926e	0.03724902
104	0xbcf23c3a	-0.029569734
105	0xbdbf7e65	-0.0935028
106	0x3de2dd1b	0.11077329
107	0xbd34ce51	-0.04414207
108	0x3d5e08fc	0.054207787
109	0x3d81130d	0.06302462
110	0x3da994ee	0.08280359
111	0x3dfcf6ff	0.12351798
112	0xbda600c6	-0.08105616
113	0x3c9f5c9e	0.019453343
114	0x3b49c66c	0.0030788435
115	0x3cf337af	0.029689638
116	0xbdc95d3e	-0.09832238
117	0x3df17d16	0.117914364
118	0xbd45f046	-0.048324846
119	0x3e010d45	0.12602718
120	0xbcd99531	-0.026560398
121	0xbd599370	-0.053119123
122	0xbd276761	-0.040870074
123	0xbd92e04f	-0.0717169
124	0x3e15c84a	0.14627185
125	0xbd6c8f7b	-0.05775402
126	0x3d8be738	0.06831211
127	0x3d01cec9	0.031691346
128	0x3c2f27c7	0.010690636
129	0xbcc3808b	-0.023865005
130	0x3e6726b1	0.22573353
131	0x3d07ce0f	0.033155497
132	0xbccbfbd2	-0.02490035
133	0xbe2ef430	-0.17085338
134	0x3cdc0e70	0.026862353
135	0x3bb0a33c	0.005390553
136	0x3ddf83d3	0.10913815
137	0xb9b51899	-0.00034541337
138	0xbced4f98	-0.028968617
139	0x3dc3f2f7	0.09567826
140	0xbd9014fe	-0.07035254
141	0x3e31f5ae	0.17378876
142	0xbaa10475	-0.0012284653
143	0xbdce6bc8	-0.100791514
144	0x3e861e36	0.26194924
145	0xbd119742	-0.03554464
146	0xbc93aa00	-0.018025398
147	0x3d5e943a	0.05434058
148	0xbdaabd26	-0.083368585
149	0xbdf6f35f	-0.12058138
150	0x3d341fbb	0.043975573
151	0x3d8daebf	0.06918096
152	0x3dfad0ae	0.12246834
153	0xbde6a583	-0.112620376
154	0xbc186b7d	-0.009302971
155	0x3d8ab568	0.06772882
156	0x3dbb4f22	0.09145953
157	0x3c86088d	0.0163615
158	0xbd67ee5f	-0.056623813
159	0xbd6ac5f8	-0.057317704
160	0x3dfeebd5	0.12447325
161	0xbdc029f5	-0.09383003
162	0x3d2b6fb2	0.041854568
163	0xbdfae7ad	-0.1225122
164	0xbd209ab4	-0.039210036
165	0xbe837a78	-0.25679374
166	0x3e35a4f4	0.17738706
167	0x3d223119	0.039597604
168	0xbd333039	-0.04374716
169	0x3c81ef27	0.015861107
170	0x3cfc1e66	0.030776214
171	0x3cfbde8a	0.030745763
172	0xbdb9b6a0	-0.09068036
173	0x3de1a264	0.11017302
174	0xbd34bfbe	-0.044128172
175	0xbbd2ddb1	-0.006435119
176	0x3cd3ecba	0.025869716
177	0xbdbcc5f2	-0.092174426
178	0xbd0f98a6	-0.035057686
179	0x3de34f0d	0.11099062
180	0x3e422c8f	0.1896231
181	0xbec6597d	-0.3874015
182	0xbe745ac6	-0.23862752
183	0x3d24ad3b	0.040204268
184	0xbe4075cf	-0.1879494
185	0xbe392dfe	-0.18083951
186	0x3e7a2c89	0.24431051
187	0x3d8cbeed	0.06872354
188	0xbe2f6fc4	-0.17132479
189	0xbd9bf272	-0.07614602
190	0x3d04c621	0.032415513
191	0x3c975c3e	0.018476602
192	0x3e1677a5	0.14694078
193	0x3de79c31	0.11309088
194	0xbde61145	-0.11233763
195	0x3dbcf0cc	0.09225616
196	0x3ce84b20	0.028356135
197	0xbe0b505b	-0.13604872
198	0x3de5ac14	0.11214462
199	0xbe11365c	-0.14180893
200	0x3da732fa	0.0816402
201	0xbe25ea73	-0.16202717
202	0xbe12384e	-0.14279291
203	0x3dc5ade2	0.09652306
204	0x3cfce7ae	0.030872192
205	0x3c840f5a	0.016120601
206	0xbe011cf8	-0.12608707
207	0x3c543456	0.012951931
208	0xbd3ab9cd	-0.04558735
209	0x3d08311d	0.033249963
210	0x3d28e51a	0.041234113
211	0x3df6bd70	0.12047851
212	0xbe1c3d41	-0.15257742
213	0xbd077b1a	-0.033076383
214	0x3de75c5a	0.112969115
215	0x3d7324f6	0.05936142
216	0x3e105664	0.14095455
217	0x3d9a0287	0.07520013
218	0xbd1977a8	-0.03746763
219	0x3dbc7af2	0.092031375
220	0x3d35fb35	0.044429023
221	0x3cc72343	0.024308806
222	0xbda21a3b	-0.07915159
223	0xbe287dde	-0.16454265
224	0x3d974f94	0.07388225
225	0x3d986d2a	0.074426964
226	0xbca5a523	-0.020220345
227	0x3d746f87	0.059676673
228	0xbe15339b	-0.14570467
229	0xbe8863fb	-0.2663878
230	0x3ce4002b	0.027832111
231	0xbd7d9caf	-0.061917003
232	0xbe02f3da	-0.12788334
233	0xbdba1aea	-0.09087165
234	0x3d9375c1	0.07200194
235	0xbe18bd0d	-0.14915867
236	0x3e0ef6bb	0.13961308
237	0x3e26e352	0.16297653
238	0xbdcdba7c	-0.10045335
239	0x3d269185	0.040666122
240	0x3dbdec10	0.09273541
241	0x3d015ca8	0.031582505
242	0xbe4062ff	-0.18787764
243	0xbde9640d	-0.11396036
244	0x3e5f4822	0.2180486
245	0xbd2ebd2e	-0.042660885
246	0xbd80ec35	-0.06295053
247	0x3da233c4	0.0792003
248	0x3dee1eb6	0.116269514
249	0xbe18ecfe	-0.14934155
250	0x3cf30d5b	0.029669454
251	0xbd16c2ef	-0.036806997
252	0xbc373952	-0.0111831
253	0xbd9f3d13	-0.07775321
254	0x3cfbe549	0.03074898
255	0x3d4789a4	0.04871525

rnn.bias_ih_l0 f4 [64]
0	0xbd14ba2c	-0.03631036
1	0xbd471b55	-0.04861005
2	0x3e0f341a	0.13984719
3	0x3b9b176f	0.004733018
4	0xbc877b07	-0.016538156
5	0x3c911373	0.01770947
6	0xbe9a163c	-0.30095088
7	0x3db06556	0.08613078
8	0x3d655d44	0.05599715
9	0x3c8da686	0.017291319
10	0x3d53e8bf	0.051735636
11	0x3e7b5e0b	0.24547593
12	0x3d4c548a	0.04988531
13	0x3e661930	0.22470546
14	0xbdcd4803	-0.10023501
15	0x398e6775	0.00027161432
16	0x3e194487	0.14967547
17	0x3e2374dc	0.15962547
18	0xbdc52d4c	-0.0962778
19	0x3e9661f3	0.29371604
20	0x3d9e7d38	0.07738727
21	0xbe771556	-0.24129233
22	0x3da866e1	0.082227476
23	0xbd884ff1	-0.066558726
24	0x3ceec1ec	0.029145204
25	0x3cf02839	0.029316055
26	0x3c9d9ecb	0.019240757
27	0x3df28f34	0.1184372
28	0x3e14d498	0.14534223
29	0xbe8209ef	-0.25398204
30	0xbe138ac5	-0.14408405
31	0xbe79f272	-0.24408892
32	0xbd0efe1a	-0.0349103
33	0x3e08bc08	0.13352978
34	0x3d6b41a5	0.05743565
35	0xbdad605a	-0.08465643
36	0x3e8ec161	0.2788191
37	0xbe656753	-0.22402696
38	0x3e5cdedc	0.21569389
39	0xbe49fe8c	-0.19726008
40	0x3cbffaec	0.023435079
41	0xbd918c08	-0.07106787
42	0xbd6624fd	-0.05618762
43	0xbd60aea0	-0.054854035
44	0x3d1bf6e5	0.038077254
45	0x3d80fd42	0.06298305
46	0x3ea518ba	0.32245427
47	0xbd9ef555	-0.07761637
48	0x3e1975cc	0.14986342
49	0xbe1f1026	-0.15533504
50	0x3e12992c	0.14316243
51	0xbd3f9372	-0.046771474
52	0x3e60d3fa	0.21955863
53	0x3c835692	0.01603249
54	0xbe029170	-0.12750793
55	0x3c2b7d85	0.010466938
56	0xbd953191	-0.07284845
57	0xbcb90edf	-0.022590099
58	0xbd19ed4f	-0.03757983
59	0xbe27ccaa	-0.16386667
60	0xbeab37d2	-0.33441025
61	0x3e546584	0.2074185
62	0x3e6307ee	0.22170994
63	0x3dc65417	0.096840076

rnn.bias_hh_l0 f4 [64]
0	0x3d5cb783	0.053885948
1	0xbe43b53f	-0.19112109
2	0x3d3dab83	0.046306144
3	0x3dfe2cd0	0.12410891
4	0xbde8d4f8	-0.113687456
5	0x3e0efc5c	0.13963455
6	0xbe9db005	-0.30798355
7	0xbda8b8fa	-0.082384065
8	0xbdb0f0ae	-0.08639656
9	0x3cfb088a	0.03064372
10	0xbe0b1cbd	-0.13585182
11	0x3e9591fb	0.29212937
12	0xbcedfbfa	-0.029050816
13	0x3e2db1f3	0.16962413
14	0x3d87403a	0.06604047
15	0xbd96a948	-0.073565066
16	0x3e7de706	0.2479516
17	0x3d96c6af	0.07362115
18	0xbe098f23	-0.13433509
19	0x3e043d4a	0.12914005
20	0xbd77613b	-0.06039546
21	0xbea8c95b	-0.32966122
22	0x3dec6265	0.11542205
23	0xbe5287b6	-0.20559582
24	0x3e52248f	0.20521758
25	0x3d479561	0.048726443
26	0xbd14a67b	-0.03629158
27	0xbdaf8826	-0.0857089
28	0x3da8b911	0.082384236
29	0xbe7d777c	-0.24752611
30	0xbe120555	-0.14259847
31	0xbe0941bc	-0.13403982
32	0x3b29df8a	0.0025920593
33	0x3dabac4c	0.083824724
34	0x3e3f3656	0.18673071
35	0xbe766462	-0.2406173
36	0x3e485af4	0.19565946
37	0xbe142afd	-0.14469524
38	0x3e9f1935	0.3107392
39	0xbd65f177	-0.056138482
40	0xbe04265a	-0.12905255
41	0x3de92e34	0.11385766
42	0x3daf86f7	0.085706644
43	0xbd9f6d7e	-0.07784556
44	0xbd83696b	-0.06416591
45	0x3d9c9b9e	0.07646869
46	0x3e84b65c	0.2592038
47	0x3b49be19	0.0030783473
48	0x3e20b8c2	0.1569548
49	0xbe6f642a	-0.23378053
50	0x3d7059e7	0.058679488
51	0x3d3be070	0.045868337
52	0x3e965927	0.29364893
53	0xbde7a6f7	-0.11311143
54	0xbe3fc180	-0.18726158
55	0xbe02fb3e	-0.12791154
56	0xbd1aa49b	-0.037754636
57	0x3df9bc94	0.121941715
58	0xbe267641	-0.16256048
59	0xbe176c05	-0.147873
60	0xbe76494a	-0.24051395
61	0x3dbd0356	0.09229152
62	0x3e3fb811	0.1872256
63	0xbd5541b7	-0.052064624

rnn.weight_ih_l1 f4 [64, 64]
0	0xbdfb89bc	-0.1228213
1	0xbd85640b	-0.06513222
2	0xbd752314	-0.059847906
3	0x3dcac353	0.099005364
4	0xbdca71d9	-0.09884996
5	0xbd406eb4	-0.046980575
6	0x3c16dc00	0.0092077255
7	0x3e28a5a6	0.1646944
8	0x3e2df06f	0.1698625
9	0x3e06f42c	0.13179082
10	0x3c2480f4	0.01004051
11	0x3d6c1afe	0.05764293
12	0x3cf7a3e6	0.03022952
13	0x3d56151c	0.052266225
14	0x3e0cbe9b	0.13744585
15	0xbdabd79b	-0.08390733
16	0x3ddd8850	0.10817015
17	0xbd503cbf	-0.050839182
18	0xbe00c027	-0.125733
19	0xbc9b8318	-0.018983409
20	0xbc10aa9d	-0.00882974
21	0xbc03b902	-0.008039715
22	0xbdc1f35f	-0.094702475
23	0xbdcc7742	-0.09983684
24	0x3da67787	0.08128267
25	0xbbb9dd67	-0.005672145
26	0xbb262c36	-0.0025355942
27	0x3d4a893c	0.049447283
28	0x3dc31005	0.0952454
29	0x3c4aaf56	0.012370905
30	0x3ceb8177	0.028748257
31	0x3c611cc3	0.0137397675
32	0x3e2ef610	0.17086053
33	0xbd3308e6	-0.043709658
34	0x3e05e6aa	0.13076273
35	0xbd98582e	-0.07438694
36	0xbd9dfe68	-0.0771454
37	0xbdcb41d0	-0.09924662
38	0x3da0799b	0.078356944
39	0xbd55936c	-0.052142546
40	0x3c4015b9	0.011723929
41	0xbc13d4be	-0.00902289
42	0x3d835a2b	0.064136826
43	0x3db1de29	0.08684952
44	0xbce1509c	-0.027504258
45	0x3d9f9c38	0.07793468
46	0x3c94642c	0.018114172
47	0xbd1bba3d	-0.038019408
48	0x3d190b8c	0.037364528
49	0xbe25d747	-0.16195403
50	0xbd92f5bc	-0.07175776
51	0x3d0886e1	0.033331756
52	0xb9df99db	-0.00042648506
53	0x3ddb2e84	0.107022315
54	0x3d0a7281	0.033800606
55	0xbd21fb6b	-0.03954641
56	0xbcf8056e	-0.030276027
57	0x3da09d0a	0.07842453
58	0x3cf37b1e	0.029721793
59	0x3d15da44	0.036585107
60	0xbdcdce8f	-0.100491636
61	0x3cb27766	0.02178545
62	0xbc0f4a79	-0.008745783
63	0x3ca1c0fc	0.019745342
64	0xbdb904fb	-0.09034153
65	0x3d6aa3bc	0.057285056
66	0xbcc73a9c	-0.02431994
67	0xbde1af08	-0.11019713
68	0xbdc1f292	-0.09470095
69	0x3bbfb579	0.0058504906
70	0xbd5d3757	-0.054007854
71	0x3ce8f50b	0.028437158
72	0x3d94da4b	0.072681986
73	0xbe04a689	-0.12954153
74	0x3d47e281	0.048799995
75	0xbd043526	-0.03227725
76	0x3d97ad45	0.074060954
77	0x3db6e8d4	0.08931127
78	0xbd101ac8	-0.03518179
79	0xbcbce2e8	-0.023057416
80	0x3d41a46a	0.047275938
81	0xbd8e9579	-0.069621034
82	0xbc3ed3a6	-0.011647141
83	0x3cdf499d	0.027256781
84	0xbd5e75ef	-0.05431169
85	0xbc969c8f	-0.0183852
86	0xbe14fe21	-0.14550067
87	0xbdf4eb69	-0.119589634
88	0x3cc517ae	0.024059143
89	0x3db874bb	0.090066396
90	0x3e09f70a	0.13473144
91	0xbd58af2c	-0.052901432
92	0x3df6f6ab	0.12058767
93	0xbe1fe163	-0.15613322
94	0xbd8fc451	-0.07019866
95	0xbc61b793	-0.013776678
96	0x3e047e01	0.12938692
97	0xbdabf7c5	-0.08396868
98	0x3c5aa8ab	0.013345878
99	0xbdfce501	-0.123483665
100	0x3da779e2	0.08177544
101	0xbe311ed2	-0.17296913
102	0x3de52341	0.11188365
103	0x3d63a249	0.05557469
104	0x3d69dcba	0.057095267
105	0xbdd7ec25	-0.10543088
106	0xbadd420d	-0.0016880647
107	0x3d006c01	0.031353
108	0xbdaa4ceb	-0.08315452
109	0x3e172ae1	0.14762451
110	0x3ca23101	0.019798758
111	0xbd88b9e1	-0.066760786
112	0xbc49e4d8	-0.012322627
113	0xbdf3f21a	-0.119114116
114	0x3dd0df7a	0.10198875
115	0x3d9b0d67	0.07570916
116	0x3e182a23	0.14859824
117	0xbd660c5e	-0.056164138
118	0xbe1e37fd	-0.15451045
119	0xbdd6b437	-0.10483592
120	0xbd5e566e	-0.054281645
121	0xbd463f3a	-0.04840014
122	0x3d8f7612	0.07004942
123	0x3d3e8df1	0.046522085
124	0xbe0a744d	-0.13520928
125	0xbd5f1643	-0.05446459
126	0x3dd1c1ea	0.10242064
127	0x3c718176	0.014740339
128	0xbb99751f	-0.0046831514
129	0x3d13e380	0.036105633
130	0xbe03e50c	-0.12880343
131	0xbd9ade04	-0.07561877
132	0x3daf11a0	0.085482836
133	0xbde99d7c	-0.11406991
134	0xbda8c71c	-0.08241102
135	0x3ccb5744	0.024821885
136	0xbe159ed2	-0.14611366
137	0xbdf2bd38	-0.11852497
138	0xbd2941c1	-0.041322473
139	0x3d994fb6	0.07485907
140	0x3c696511	0.0142452875
141	0xbdd6454b	-0.10462435
142	0xbe19ff67	-0.15038835
143	0xbdf6d190	-0.120516896
144	0x3d8c935d	0.06864045
145	0xbcad3662	-0.021144096
146	0xbc1c8970	-0.009554252
147	0xbdd6a08f	-0.10479843
148	0xbdb3b204	-0.08774188
149	0x3ab61df4	0.0013894425
150	0x3be3823d	0.006943016
151	0xbc05f034	-0.008174945
152	0x3ba2ea44	0.0049717743
153	0x3da94843	0.08265736
154	0xbddf647e	-0.10907839
155	0x3dd0fd3c	0.102045506
156	0x3de21c0b	0.11040505
157	0x3def13a2	0.116736665
158	0x3a8cb938	0.0010736352
159	0xbd97617b	-0.0739164
160	0xbd9c7fa8	-0.07641536
161	0x3dcd3c90	0.10021317
162	0xbdcac781	-0.099013336
163	0xbbb890e6	-0.0056325076
164	0x3bfa2634	0.0076339487
165	0x3dd712ee	0.105016574
166	0xbd50e431	-0.05099887
167	0xbd0ea701	-0.034827236
168	0xbe1a57c6	-0.15072545
169	0x3cd0c345	0.025483737
170	0x3d818c11	0.06325544
171	0xbe17cf83	-0.14825253
172	0x3db838c6	0.08995204
173	0xbe113ba6	-0.1418291
174	0x3d930fd1	0.07180751
175	0x3cc2cdc9	0.023779767
176	0xbda2932b	-0.07938226
177	0x3dd6dd10	0.10491383
178	0xbd86b36b	-0.0657719
179	0xbdaf42c9	-0.0855766
180	0xbc9ae37f	-0.018907307
181	0x3c7d0034	0.015441943
182	0x3c826653	0.015917933
183	0xbda30429	-0.07959778
184	0xbe0ae010	-0.13562036
185	0x3d796009	0.060882602
186	0xbda6fd4a	-0.0815378
187	0x3d0faf6b	0.0350794
188	0x3e1efadf	0.15525387
189	0x3d6e7e3e	0.058225863
190	0x3c1da7a2	0.009622486
191	0x3e1f3356	0.15546927
192	0x3c33cd79	0.0109742815
193	0x3e12939f	0.14314125
194	0x3c0a45d0	0.008439496
195	0xbcd4c58d	-0.025973106
196	0x3d324b83	0.043529045
197	0xbdd6db1a	-0.10491009
198	0x3c37d742	0.011220755
199	0x3bf8dee2	0.007594929
200	0xbcd9bac2	-0.02657831
201	0xbccc074c	-0.024905823
202	0xbda7609c	-0.08172724
203	0xbe0f138d	-0.13972302
204	0x3e0e1281	0.13874246
205	0xbde05e15	-0.10955445
206	0x3c636af8	0.013880484
207	0xbd848871	-0.06471337
208	0xbd46dcf9	-0.04855058
209	0x3cee204f	0.02906814
210	0x3cbcc142	0.023041371
211	0xbd6eb4ad	-0.058277775
212	0xbdd5cd6e	-0.10439573
213	0xbbcd8a8d	-0.00627262
214	0x3a9be23c	0.0011892985
215	0xbcb5081e	-0.022098597
216	0x3d831b2d	0.06401668
217	0x3d944ece	0.07241593
218	0xbe0625bd	-0.13100334
219	0x3dbac65c	0.09119865
220	0x3dd1791e	0.102281794
221	0x3dd96d16	0.106165096
222	0xbdf620a2	-0.12017943
223	0x3dea8591	0.11451257
224	0x3d851260	0.064976454
225	0x3c2e625c	0.010643568
226	0xbda8dad6	-0.08244865
227	0xbc993369	-0.018701272
228	0xbcb0bb1d	-0.021573598
229	0xbd5c156d	-0.05373137
230	0xbc58e3d7	-0.013237915
231	0x3ce7c1fd	0.028290743
232	0xbd2a7e92	-0.041624613
233	0x3d7cdeb9	0.061735842
234	0xbceb61a7	-0.028733088
235	0xbde88100	-0.1135273
236	0x3dab8983	0.08375838
237	0xbce10641	-0.027468802
238	0x3d5ed26d	0.054399896
239	0x3d9d648f	0.07685196
240	0x3e124ea1	0.14287807
241	0xbcbd9227	-0.02314098
242	0xbc6bf40a	-0.014401445
243	0xbdde9f9d	-0.108702876
244	0x3c9f5551	0.019449862
245	0x3bdf8437	0.006821181
246	0xbdae3c8a	-0.08507641
247	0x3de0681d	0.10957358
248	0x3cc1ae16	0.023642581
249	0xbd6230ff	-0.055222508
250	0x3d26e7e4	0.040748492
251	0xbdcdf949	-0.10057313
252	0x3df8c431	0.121467955
253	0xbd2e07a6	-0.042487763
254	0x3bdc9157	0.006731193
255	0x3d9e2b97	0.07723158

rnn.weight_hh_l1 f4 [64, 64]
0	0x3cd30966	0.025761317
1	0xbd20cb5c	-0.03925644
2	0xbe07facc	-0.13279265
3	0xbe102a2b	-0.14078586
4	0xbd5f6d0c	-0.054547355
5	0xbd2c3303	-0.042040836
6	0x3d7bd1af	0.061479267
7	0xbbf324f9	-0.007420179
8	0x3b8a7251	0.0042250534
9	0xbd090aff	-0.033457752
10	0x3d76b377	0.060229745
11	0x3d6cc554	0.057805374
12	0x3c644509	0.013932475
13	0xbdcda632	-0.10041465
14	0xbd87951c	-0.06620237
15	0xbddfe29f	-0.109318964
16	0xbd2e6bf5	-0.042583425
17	0x3db6d127	0.089266114
18	0x3dfa03af	0.12207734
19	0xbd2d4bf7	-0.042308774
20	0x3cde6c2f	0.027151195
21	0x3d54c75e	0.051947944
22	0xbe0a52b4	-0.13508111
23	0x3d82153a	0.06351705
24	0x3d8f4220	0.06995034
25	0x3c37cc8c	0.011218201
26	0xbd061bb3	-0.03274126
27	0xbd41c1c4	-0.04730393
28	0x3a583c71	0.00082487526
29	0x3e02ab27	0.12760602
30	0x3d227829	0.039665375
31	0x3b1c1000	0.0023813248
32	0xbdb0c581	-0.08631421
33	0x3d50a607	0.050939586
34	0x3c424d5b	0.011859263
35	0xbdac21fe	-0.08404921
36	0xbdc7652e	-0.09736095
37	0x3df7ee32	0.12105979
38	0x3db77387	0.08957582
39	0xbd21d298	-0.03950748
40	0xbd826b53	-0.06368127
41	0xbda35ea5	-0.079770364
42	0x3c46db1f	0.0121372035
43	0xbd50b954	-0.050957993
44	0xbc996a54	-0.018727459
45	0xbbf8cde6	-0.0075929044
46	0x3d147065	0.03624
47	0x3c64b409	0.013958939
48	0xbe29295a	-0.1651968
49	0x3ddbcce2	0.10732438
50	0x3d84d9e8	0.06486875
51	0x3da63ee1	0.08117462
52	0xbe21a08d	-0.15783902
53	0x3b168570	0.0022967719
54	0xbc2861b3	-0.0102772
55	0x3e183522	0.14864019
56	0xbd98a04a	-0.07452448
57	0x3dfaa312	0.122381344
58	0xbe16c1b8	-0.14722335
59	0xbd789693	-0.060690474
60	0xbddcc02d	-0.10778842
61	0xbe0f8a01	-0.14017488
62	0x3da40314	0.080083996
63	0xbc022ea4	-0.00794569
64	0x3dc047f9	0.09388728
65	0xbcd61b39	-0.026136028
66	0xbdcedd25	-0.10100774
67	0xbd6a0188	-0.057130367
68	0x3c39464f	0.011308267
69	0x3c8df322	0.017327849
70	0xbda7afcc	-0.081878275
71	0x3dd93e1d	0.1060755
72	0xbcee7f26	-0.029113363
73	0xbdc1283c	-0.09431502
74	0x3dfc3183	0.12314131
75	0x3e17f59f	0.14839791
76	0xbe098c70	-0.13432479
77	0xbdeea237	-0.11652034
78	0xbd00aea2	-0.031416543
79	0xbd82976f	-0.0637654
80	0xbd33406a	-0.043762602
81	0xbd231f76	-0.039824925
82	0x3d6567b5	0.056007106
83	0x3dce2b5f	0.10066866
84	0xbd9f2cf1	-0.07772244
85	0xbcbc81ef	-0.023011176
86	0x3dacd543	0.08439114
87	0xbdcd29ab	-0.10017713
88	0x3d4717bf	0.04860663
89	0xbd73059e	-0.05933153
90	0xbd622543	-0.055211317
91	0x3e235944	0.15952021
92	0x3a24dd1c	0.00062890514
93	0xbc181079	-0.009281271
94	0x3c5d6684	0.013513211
95	0xbd08c34b	-0.03338937
96	0x3df51848	0.11967522
97	0x3db1efe9	0.08688337
98	0x3e09c269	0.13453068
99	0xbe0348ac	-0.12820691
100	0xbe0ba365	-0.13636549
101	0x3d812760	0.06306338
102	0xbdcde3ce	-0.10053216
103	0x3d0e8a75	0.03480001
104	0xbe0ea147	-0.1392871
105	0x3dd8f3d7	0.10593384
106	0x3d5126f8	0.051062554
107	0x3cda44f9	0.026644217
108	0x3c339d7e	0.010962842
109	0x3dfff6ef	0.12498271
110	0xbe206734	-0.15664369
111	0xbe248d71	-0.1606958
112	0x3d84d5be	0.064860806
113	0x3da22f8b	0.07919224
114	0xbe0754f2	-0.13215998
115	0xbd8d5d81	-0.069026
116	0x3d90966e	0.07059942
117	0xbb8bbd4b	-0.004264509
118	0x3b856a71	0.0040715267
119	0xbca49d44	-0.020094521
120	0xbd040be5	-0.032237906
121	0x3dd2b6f8	0.10288805
122	0xbc902c42	-0.017599229
123	0x3db4da3d	0.08830688
124	0xbe09530d	-0.13410588
125	0x3da87098	0.082246006
126	0x3e027370	0.12739348
127	0x3d8d1f86	0.06890778
128	0xbd57fc0a	-0.052730598
129	0x3c85cc9d	0.016332919
130	0x3cb8c776	0.022556048
131	0x3dd2adaa	0.1028703
132	0x3d9a2035	0.07525674
133	0x3dbe84f3	0.09302702
134	0x3dadbfd4	0.08483854
135	0xbc715661	-0.014730067
136	0xbdcb7fde	-0.09936498
137	0xbdb08ab2	-0.08620204
138	0xbe1b9db9	-0.15196885
139	0xbc176a2d	-0.009241623
140	0xbbc96b06	-0.0061467914
141	0x3e116e02	0.14202121
142	0x3da8dc2b	0.08245119
143	0x3d96b95e	0.07359575
144	0xbdce8b30	-0.10085142
145	0x3d12f06a	0.035873808
146	0x3cc390b6	0.023872714
147	0xbe165a30	-0.14682841
148	0x3db72267	0.089421086
149	0xbe0d3b82	-0.13792232
150	0x3d774832	0.060371585
151	0x3d0d38ad	0.03447788
152	0xbe271c5a	-0.16319409
153	0xbd93a9f8	-0.07210153
154	0x3c2dc95a	0.010607088
155	0x3d23061f	0.03980076
156	0x3dc2e633	0.09516563
157	0xbdf82c1f	-0.121177904
158	0xbb67858f	-0.003532741
159	0xbd741a0a	-0.059595145
160	0xbe08be5d	-0.13353868
161	0x3d1692a4	0.03676094
162	0x3d86fa04	0.065906554
163	0x3d8020a9	0.062562294
164	0x3e0fca3f	0.14041995
165	0xbde78096	-0.11303823
166	0xbd92f52a	-0.071756676
167	0xbd0d142a	-0.034443058
168	0x3d5507e0	0.052009463
169	0x3dfa887a	0.12233062
170	0x3cf1c4e2	0.029512826
171	0xbceebf75	-0.029144028
172	0x3c278e0b	0.010226737
173	0xbe2943a6	-0.16529712
174	0x3e196445	0.14979656
175	0x3d0a4a54	0.03376229
176	0x3dd94c97	0.106103115
177	0x3da21c98	0.0791561
178	0x3db878b3	0.090073965
179	0xbc09ee9d	-0.008418706
180	0xbd833123	-0.064058565
181	0xbd53d435	-0.05171605
182	0x3d8e408f	0.06945907
183	0xbe199d29	-0.15001358
184	0xbd9488d5	-0.07252661
185	0xbcb48d0e	-0.022039916
186	0xbd5357cd	-0.051597405
187	0x3ca03e1c	0.019560866
188	0xbd1cd6e5	-0.038290877
189	0x3d866df1	0.065639384
190	0x3c98f1b5	0.018669942
191	0x3d8aab7a	0.06770988
192	0xbca25f00	-0.01982069
193	0xbe1963cd	-0.14979477
194	0x3d8548ee	0.06508051
195	0x3d479e1c	0.04873477
196	0x3dbb218b	0.09137257
197	0xbdd15539	-0.10221333
198	0xbd59551e	-0.05305969
199	0xbe0a8729	-0.13528122
200	0x3d394188	0.04522851
201	0xbe0c033a	-0.13673106
202	0x3d826cf7	0.0636844
203	0xbd88d71c	-0.06681654
204	0xbd6c4f61	-0.05769289
205	0xbd0acd55	-0.033887226
206	0x3dfd7934	0.12376633
207	0x3d3074f9	0.043080304
208	0xbdcc3676	-0.09971325
209	0xbdcca5bf	-0.09992551
210	0xbd7ac4af	-0.06122273
211	0xbe18150e	-0.14851782
212	0xbe102f69	-0.14080586
213	0xbdadf59c	-0.08494112
214	0x3dd2730a	0.10275848
215	0xbcd46fba	-0.025932182
216	0xbded36b8	-0.115827024
217	0xbdec6c70	-0.1154412
218	0x3d9eb7f0	0.07749927
219	0xbda12884	-0.07869056
220	0xbd986e6d	-0.07442937
221	0x3dae4b16	0.08510415
222	0xbb766021	-0.0037593918
223	0x3d45d1e8	0.048295885
224	0x3d9a538d	0.07535467
225	0xbdabaed6	-0.08382957
226	0xbcf38457	-0.02972619
227	0x3cdfeec3	0.02733553
228	0xbd1088fa	-0.03528688
229	0xbd3551b0	-0.044267356
230	0x3ddf8e62	0.10915829
231	0x3d2d2b39	0.04227755
232	0x3d652f1f	0.05595314
233	0xbdc2f78f	-0.09519874
234	0x3da0b757	0.07847469
235	0xbc202d23	-0.009776386
236	0xbd856612	-0.06513609
237	0x3d7c6745	0.061621923
238	0xbd0943db	-0.033511978
239	0x3d94181a	0.072311595
240	0xbafb057f	-0.0019151418
241	0x3bd74548	0.0065695383
242	0x3c9a81f2	0.01886079
243	0xbcffdd71	-0.031233521
244	0x3ca574f1	0.020197364
245	0x3e01526e	0.126291
246	0x3d925865	0.07145766
247	0xbcb8504a	-0.022499222
248	0x3dc4fe8f	0.09618866
249	0x3dbc6588	0.09199053
250	0x3d80603b	0.062683545
251	0x3de353ef	0.110999934
252	0xbd460871	-0.048347894
253	0x3dde78b0	0.10862863
254	0x3cb28d85	0.021795997
255	0x3b186b33	0.0023257255

rnn.bias_ih_l1 f4 [64]
0	0xbb9218f8	-0.004458543
1	0xbdb474cc	-0.0881134
2	0x3db0f90a	0.086412504
3	0xbce10100	-0.027466297
4	0x3decde41	0.11565829
5	0x3d5ae65b	0.05344234
6	0x3dce8899	0.10084648
7	0x3cee4b2e	0.029088583
8	0xbdfdb144	-0.12387326
9	0xbdab0e48	-0.08352333
10	0x3d0fc743	0.03510214
11	0xbd84be9e	-0.0648167
12	0xbd346544	-0.044041887
13	0xbdb1267a	-0.08649917
14	0x3e177d02	0.1479378
15	0xbd94d216	-0.07266633
16	0x3e09793f	0.13425158
17	0x3d427616	0.047475897
18	0xbd331d58	-0.043729156
19	0xbd60b8a2	-0.05486358
20	0x3da7f222	0.0820048
21	0xbe012217	-0.1261066
22	0xbd83c16e	-0.06433378
23	0xbd1e7f5a	-0.03869567
24	0x3d01459c	0.031560525
25	0x3daff006	0.08590703
26	0x3c0bfe2a	0.008544484
27	0x3d3bcfb8	0.045852393
28	0x3af8ac6f	0.0018972288
29	0xbdce5560	-0.10074878
30	0xbcc42347	-0.023942603
31	0xbda86b29	-0.08223564
32	0x3dfdae0a	0.12386711
33	0xbe030654	-0.12795383
34	0x3dbb1084	0.091340095
35	0x3e0bfa4b	0.13669698
36	0xbd7a9d7e	-0.061185353
37	0x3dd8371b	0.105573855
38	0xbdb97fbb	-0.09057566
39	0x3bdfb89b	0.0068274266
40	0x3d45c724	0.04828562
41	0x3d74f338	0.059802264
42	0xbd4daf3f	-0.050215956
43	0xbdae56df	-0.08512663
44	0x3d97f3d6	0.07419555
45	0x3c5b6328	0.01339034
46	0x3d25de4f	0.040495213
47	0xbd1efa0a	-0.038812675
48	0x3da56752	0.080763474
49	0x3d1dc453	0.038517307
50	0xbd4bf6d8	-0.049795955
51	0x3d81d09a	0.06338616
52	0x3d8c1a1a	0.06840916
53	0xbb6a8f6d	-0.0035791055
54	0x3db22366	0.08698158
55	0xbc02ab7c	-0.007975455
56	0xba8bc1b6	-0.0010662589
57	0x3dc17788	0.09446627
58	0x3e004903	0.12527852
59	0xbd3ef466	-0.046619795
60	0xbd27247a	-0.04080627
61	0xbd446d48	-0.04795578
62	0xbe16a096	-0.14709696
63	0xbbaef1b0	-0.00533887

rnn.bias_hh_l1 f4 [64]
0	0xbd028b37	-0.031871047
1	0xbda1cb68	-0.07900125
2	0x3ca42700	0.020038128
3	0xbdb507af	-0.08839356
4	0x3db87a47	0.090076976
5	0xbd890861	-0.06691051
6	0xbc1b3365	-0.009472703
7	0x3c769d65	0.015052174
8	0xbc81a9c6	-0.015828025
9	0x3dde49a4	0.108538896
10	0xbdf03ef3	-0.117307566
11	0x3d5e0f9c	0.054214105
12	0x3e14abb2	0.14518622
13	0x3dc2ac69	0.09505541
14	0x3df537f1	0.119735606
15	0x3e1168cc	0.14200133
16	0xbd95f4a2	-0.07322051
17	0xbd17cabb	-0.037058573
18	0xbe11b1a8	-0.14227927
19	0x3dc3f7e4	0.09568766
20	0xbd8a5eca	-0.06756361
21	0xbdf9fa04	-0.1220589
22	0xbce68506	-0.028139602
23	0x3db31a49	0.08745248
24	0x3d947770	0.072493434
25	0x3d7e258d	0.06204753
26	0xbd6053e0	-0.05476749
27	0xbc979e42	-0.01850808
28	0x3d3c497d	0.04596852
29	0x3c7edfd8	0.015556298
30	0xbc0db856	-0.008649906
31	0x3cf8f383	0.030389553
32	0x3df55922	0.11979891
33	0x3d1252a2	0.035723336
34	0xbe0f2088	-0.13977253
35	0x3db4ddc3	0.0883136
36	0x3de39985	0.11113266
37	0x3c178e7a	0.009250278
38	0xbd80dc4e	-0.0629202
39	0xb8a27b13	-7.747686e-05
40	0x3dad2c70	0.084557414
41	0x3e13c6a1	0.1443124
42	0x3dddbe7f	0.1082735
43	0xbde1dc83	-0.110283874
44	0xbcb62987	-0.022236599
45	0xbcdab71b	-0.02669864
46	0x3dc0418a	0.093875006
47	0xbcf9920a	-0.030465145
48	0x3e0af106	0.13568506
49	0x3c4919f0	0.01227425
50	0xbc2544bf	-0.010087191
51	0xbe141a92	-0.14463261
52	0xbc31b8d8	-0.010847293
53	0x3912acd0	0.00013988023
54	0x3d8c11be	0.068393216
55	0x3dc3e2d9	0.09564752
56	0x3d8e069b	0.06934854
57	0x3dacb604	0.08433154
58	0x3d0bd661	0.034139995
59	0x3c97ef11	0.018546613
60	0x3d038ce8	0.0321168
61	0xbca2e0c8	-0.019882575
62	0xbab7f8ba	-0.0014035918
63	0x3d16b1a3	0.0367905

fc.weight f4 [1, 64]
0	0xbe6243af	-0.22096132
1	0xbe6e664f	-0.23281215
2	0x3e68e7be	0.22744653
3	0x3e75fbdc	0.24021858
4	0x3e85444d	0.26028672
5	0x3e8f75ab	0.2801946
6	0xbe844f3c	-0.258417
7	0xbe988f83	-0.2979699
8	0xbe4b8fd0	-0.19879079
9	0x3e5ee7a5	0.21768053
10	0xbe49eedc	-0.19720024
11	0xbe4c8b25	-0.19974954
12	0x3e8b25ee	0.27177376
13	0x3e6d1f83	0.23156552
14	0x3e2cc4da	0.16871968
15	0x3e617c3d	0.2202005
16	0xbe47bb84	-0.19505125
17	0x3e434c84	0.19072157
18	0xbe7a6587	-0.24452792
19	0xbe8d78ce	-0.2763123
20	0xbe8eaf6a	-0.27868205
21	0xbe8ce70b	-0.27520022
22	0x3ea17348	0.31533265
23	0x3e6c9d13	0.23106794
24	0xbe594a00	-0.21219635
25	0xbe7281a3	-0.23682265
26	0x3e895781	0.26824573
27	0xbe9a11ea	-0.30091792
28	0x3e7de6f9	0.2479514
29	0xbe91c491	-0.2847028
30	0x3e242550	0.16029859
31	0x3e713af4	0.23557645
32	0xbe8609cc	-0.2617935
33	0xbe8c1b6a	-0.27364665
34	0xbe920a2b	-0.28523383
35	0x3e87e883	0.2654458
36	0x3e7964bb	0.24354832
37	0xbe8ff5b1	-0.28117135
38	0x3e81d215	0.25355592
39	0xbe5e62b8	-0.21717346
40	0x3e5a2afa	0.21305457
41	0x3e6f4533	0.23366241
42	0xbe6b620d	-0.22986622
43	0x3e670296	0.2255958
44	0xbe72ae5b	-0.23699324
45	0xbe8d2763	-0.27569112
46	0x3e4a5bb6	0.19761547
47	0x3e5e2cf1	0.21696831
48	0x3e75ab05	0.2399102
49	0xbe6baea2	-0.23015836
50	0x3e74becd	0.2390091
51	0xbe65acbc	-0.22429174
52	0x3e652851	0.2237866
53	0x3e8674f7	0.26261112
54	0xbe8a0905	-0.26960006
55	0xbe84a7c2	-0.2590924
56	0x3e83def1	0.25756028
57	0x3e516283	0.20447735
58	0x3e87d491	0.26529363
59	0x3e894acf	0.26814887
60	0x3e3aa469	0.1822678
61	0x3e693bd3	0.22776727
62	0xbe7e96c6	-0.24862203
63	0x3e959ec5	0.29222694
