program/deep_learning/16 - Recurrent Neural Network/model/rnn/weights_100.pth (torch, 53040 bytes, 9 tensors)

rnn.weight_ih_l0 f4 [64, 1]
000000 1b 2c bf 3d 9a fa 63 3d 69 7f 86 bd 5e ff db bd
       0.09334584 0.055658914 -0.0656727 -0.10742067
000010 3d 49 58 3d 81 02 ab bd 9b 45 8e 3d 38 5f cd bd
       0.05280422 -0.08350087 0.0694687 -0.10027927
000020 39 26 72 bd 85 6d bb bd 39 6e 6b bd 35 c9 89 bd
       -0.059118483 -0.091517486 -0.057478163 -0.0672783
000030 06 6e 71 3d ea ad 6c bd cb de 33 be 5d 53 07 bd
       0.058942817 -0.057783045 -0.17565458 -0.033038486
000040 5b 37 57 bd ce 9d b4 bd f4 00 cb 3d a0 50 b6 bd
       -0.052543025 -0.08819161 0.09912291 -0.08902097
000050 63 ff f0 bd e0 05 a1 3d 2d cc 05 be 9b ad a3 3d
       -0.11767461 0.07862449 -0.13066168 0.07992097
000060 0b 6b a2 bd 21 d9 25 bd 1f ac 96 bd 3f 52 88 3d
       -0.07930573 -0.040490273 -0.07357048 0.06656312
000070 e4 b1 02 3e c6 b7 ab 3d 1c e6 22 be 50 75 91 3d
       0.12763172 0.083846614 -0.15908092 0.07102454
000080 8d 23 48 bd 21 b4 34 3d ee 63 73 bd a0 7b a5 3d
       -0.04886203 0.044117097 -0.059421472 0.0808022
000090 3f 70 87 bd 3f 2f 86 3d a6 ac 92 bd 08 86 dd 3d
       -0.06613206 0.0655198 -0.07161836 0.1081658
0000a0 04 25 2a be 16 45 8e 3d 68 82 50 bd 56 e3 b0 bd
       -0.16615683 0.06946771 -0.050905615 -0.08637111
0000b0 fe eb cf 3d 0c d5 59 bd ab 21 a5 bd 8a 59 d0 bd
       0.10152434 -0.053181693 -0.08063062 -0.10173328
0000c0 f7 1a ec 3d 61 7d 87 3d ee ea 6b bd 75 93 68 bd
       0.11528581 0.06615711 -0.057597093 -0.05678125
0000d0 97 36 ad bd 59 a2 2f bd e4 85 92 3d f1 c9 ac 3d
       -0.08457678 -0.042879436 0.07154444 0.08436955
0000e0 32 cd 12 bd b8 15 f0 bd 7f a4 84 3d 16 5c 0d bd
       -0.03584022 -0.117228925 0.06476688 -0.034511648
0000f0 00 e2 8d 3d 77 0a e4 bd 65 58 a9 bd 65 1b ae 3d
       0.06927872 -0.111348085 -0.08268813 0.08501319

rnn.weight_hh_l0 f4 [64, 64]
000000 a7 83 d3 bd 8f 2f c0 3d 23 1f c6 3d 67 3a aa 3c
       -0.10327845 0.09384071 0.096739076 0.020779802
000010 3c b8 c7 3d 1c 01 83 3d 51 94 90 bd 53 52 4a bd
       0.09751937 0.06396696 -0.07059539 -0.049394917
000020 41 8c 84 3c 36 cb b6 3d 5e 0d d1 bc c5 11 73 3d
       0.01618016 0.08925478 -0.02551907 0.05934312
000030 55 c5 22 3d 76 78 da bd fb af 1e bd 63 8f 2c bd
       0.03973897 -0.10667507 -0.038742047 -0.04212893
000040 08 5f 21 bd c4 10 e1 bd 28 a7 85 bd ce 11 3b 3d
       -0.03939727 -0.10989526 -0.06526023 0.045671277
000050 6c 23 ef bd 86 9b 3e 3d 7b c9 9c bb c3 69 6d bd
       -0.11676678 0.046535037 -0.0047847605 -0.05796219
000060 99 99 82 bd 67 e4 23 bd c6 a0 0c bd 60 c0 a5 bd
       -0.06376953 -0.040012743 -0.034333013 -0.08093333
000070 a5 2c de 3d f1 31 87 3d 09 55 f4 bc b6 97 da 3d
       0.10848359 0.066013224 -0.029825704 0.10673468
000080 8d f1 47 bd 82 ad 07 bb da 5e 98 3d 23 18 88 bd
       -0.048814345 -0.0020702784 0.074399665 -0.06645229
000090 f0 a7 1b bd 27 a7 08 bd bd 23 f0 bb dd 59 ed 3d
       -0.038001955 -0.033362534 -0.007328479 0.11589406
0000a0 b6 13 c0 bd 0b f1 16 3c 2f c6 d1 3c c6 42 b7 bd
       -0.093787596 0.009212743 0.025607197 -0.08948283
0000b0 40 dd c1 3d bd 08 4b 3d 4d 3b 64 3c 0c fc 06 bc
       0.09466028 0.04956888 0.013930154 -0.008238804
0000c0 3a 6e d0 3c e0 5b d1 3d 91 a2 ef bc c6 87 b0 bd
       0.025443185 0.10222602 -0.029252322 -0.08619647
0000d0 4d 0d 9f 3d 7e 12 ad bd a6 dd 36 bd eb 6a 0a 3d
       0.07766209 -0.08450793 -0.044644974 0.03379337
0000e0 f3 d8 01 be 80 09 49 bc ee a6 e9 3c 47 ac b8 bd
       -0.12680416 -0.012270331 0.028521981 -0.09017234
0000f0 a7 ba 53 bc 83 40 c1 3d 1c b2 50 3d 63 b4 92 3d
       -0.012922919 0.09436133 0.05095111 0.07163312
000100 e0 4d f6 bc 09 ae 93 bb b4 42 6f 3d 6e 87 02 be
       -0.03006643 -0.0045068306 0.058413222 -0.12746975
000110 4a 8d b6 3d f9 86 54 3d 30 e6 eb 3c 64 b7 3b bd
       0.089136675 0.051886532 0.028796285 -0.04582919
000120 8b 0e e4 bd 96 8f cb bc 5b c6 8a 3d 9b 53 c2 bd
       -0.11135586 -0.02484874 0.067761146 -0.09488603
000130 e1 bd 93 bd ae 5d 22 3b d3 b3 ff 3d a8 43 34 3d
       -0.07213951 0.0024775076 0.124854706 0.044009835
000140 7e 26 d0 bd a3 2e cd bd 49 3f af 3d 7d a7 89 3d
       -0.10163592 -0.10018661 0.085569926 0.06721399
000150 4b 45 64 3d 0a ce c8 bd 79 a9 c6 bc e6 cd aa 3d
       0.055730145 -0.09804924 -0.024250733 0.08340053
000160 17 d3 c6 bd b0 43 8c 3d a3 bb c0 bd 68 49 03 bd
       -0.09708231 0.06848848 -0.09410789 -0.032052428
000170 31 20 96 3c b6 0f 8f bc 36 ba 58 3d 1e 8e 00 3d
       0.018325897 -0.017463546 0.05291196 0.031385534
000180 ef 67 c7 3d e8 7b 80 bd 1f 53 14 bd 9e 00 00 bd
       0.09736621 -0.06273633 -0.036212083 -0.03125059
000190 59 9b cc 3c c4 77 39 bd 69 01 86 bd 46 0e 2f 3d
       0.02497642 -0.045280233 -0.06543238 0.04273822
0001a0 9f a8 00 bd f6 2b c9 bd cb 9d f1 3d 17 e9 3e bd
       -0.03141081 -0.09822838 0.11797675 -0.04660901
0001b0 ed 00 6e 3d 1c e3 72 3d d0 7b f4 3d b8 0a f5 3d
       0.05810635 0.05929862 0.11937678 0.11964935
0001c0 60 c0 a3 bd 6a cd 79 3c 9b 6e 31 3d d3 d7 bf 3c
       -0.07995677 0.015246728 0.043318372 0.023418343
0001d0 59 79 ac bd 26 7b e4 3d c6 de 7a bd 60 24 db 3d
       -0.08421583 0.11156301 -0.06124761 0.10700297
0001e0 05 5a 06 3c 2c 6e 5d bd ee 01 c7 bc f7 2b 8f bd
       0.008200173 -0.054060146 -0.024292912 -0.069908075
0001f0 3f e9 0a 3e bb a8 2a bd ab 17 77 3d 71 60 e5 3c
       0.13565539 -0.04166482 0.060325306 0.028000088
000200 da 9d 13 3d e7 77 1f 3c bc d5 bf 3d 67 c2 0c 3d
       0.03603921 0.009733177 0.093669385 0.034365084
000210 cc 07 06 bd 7a 13 1f be 22 d4 bc 3d bd 86 17 bd
       -0.03272228 -0.15534773 0.092201486 -0.03699373
000220 8e bd bc 3d 2d ff 9f 3c 15 d5 91 bd 5c 62 a4 3c
       0.09215842 0.019530857 -0.0712072 0.020066433
000230 8f d7 77 bd b3 05 a6 3d 15 aa 89 bc fe a3 05 be
       -0.060508307 0.08106556 -0.016804734 -0.1305084
000240 5b cc 41 3e 4a f5 26 bd 70 ba 35 3d 26 b3 28 3d
       0.18925612 -0.04076127 0.044367254 0.041186474
000250 1c 2b fa bd b8 e4 d0 bd 8e 30 72 3d 00 ab 8b 3d
       -0.12215254 -0.10199875 0.059128337 0.06819725
000260 a0 0b b4 3d 61 ec f4 bd 37 6d 85 bd 2b c9 de 3d
       0.0879128 -0.11959148 -0.06514972 0.108782135
000270 72 47 e7 3d 83 f2 48 3d 39 51 a0 bd b0 de dd 3c
       0.11292924 0.049059402 -0.07827992 0.027083725
000280 af a5 d1 3d ea 5a 2e bd 9e 1d 51 bc 1b 31 e5 bd
       0.1023668 -0.04256717 -0.012763409 -0.11191007
000290 0f 5e 9b bd 5f c5 41 be d9 86 14 3e f7 6c bb 3d
       -0.075863 -0.18922947 0.14504565 0.09151643
0002a0 a8 1d 7b bd 17 77 6c 3d 65 f8 b4 bc c0 e4 1b bc
       -0.06130758 0.05773076 -0.0220911 -0.0095149875
0002b0 0b f4 34 bd f0 86 1c 3d 83 7d 95 bd a9 59 23 bd
       -0.04417805 0.038214624 -0.0729933 -0.03988043
0002c0 66 6f 50 3d 80 ed ac bd bd 6b 06 bd da 7d 51 3d
       0.050887488 -0.08443737 -0.03281759 0.051145412
0002d0 bd 0f 0f 3e e0 49 86 be a8 19 3c be c8 5d 40 3d
       0.13970847 -0.26228237 -0.18369162 0.046964437
0002e0 cc f3 f4 bd 28 01 11 be 3f c7 08 3e 85 05 37 3c
       -0.11960563 -0.14160597 0.13357256 0.01117075
0002f0 72 e4 00 be 46 5c 84 bd e3 0f 5d bd 62 a4 a0 3c
       -0.12587145 -0.06462912 -0.05397023 0.019609634
000300 aa 55 18 3e 96 11 d0 3d f3 0d a9 bd c9 d9 bc 3d
       0.14876428 0.10159604 -0.08254614 0.09221227
000310 0e 27 84 3d 70 8c dd bd 9f aa ce 3d 7a 5b 07 be
       0.064527616 -0.10817802 0.10091137 -0.1321849
000320 6d 59 9a 3d e9 18 06 be 52 39 06 be 16 61 17 3e
       0.07536588 -0.1309544 -0.13107803 0.14783129
000330 67 31 39 3d 8c 20 57 3d 24 e7 f2 bd 66 e6 2c 3d
       0.04521313 0.052521273 -0.11860493 0.042211913
000340 e8 38 49 bd aa 42 20 3d 81 4b e8 3c fa 8f e1 3d
       -0.049126536 0.039126076 0.028356316 0.110137895
000350 ee 37 14 be d2 cc 09 bd da 51 f2 3d 6a b2 66 3d
       -0.1447446 -0.033642597 0.11832018 0.056322493
000360 68 5f 11 3e 4b 20 95 3d 12 45 e6 bc b7 b3 b4 3d
       0.14196551 0.0728155 -0.028109107 0.088233404
000370 6d c3 25 3d 9f f0 1f 3c 53 7d 87 bd fd 45 28 be
       0.040469576 0.009761958 -0.066157006 -0.16432948
000380 5b 6d 67 3d 2a 4c 86 3d f2 65 75 bc df c6 3f 3d
       0.056500774 0.06557496 -0.014977919 0.046820518
000390 b4 9b b5 bd 92 db 86 be ab 84 44 bc 08 49 8a bd
       -0.08867589 -0.26339394 -0.011994521 -0.06752211
0003a0 7d b5 f7 bd 35 94 c4 bd 53 d6 a8 3d d1 8d 13 be
       -0.12095163 -0.09598581 0.08244004 -0.14409567
0003b0 dc a6 09 3e 52 f3 21 3e 61 73 8d bd f3 c6 42 3d
       0.13442558 0.15815476 -0.069067724 0.047553014
0003c0 5a b0 b3 3d 31 97 14 3d d0 ed 2a be 42 73 cd bd
       0.08773871 0.036277 -0.16692281 -0.10031749
0003d0 b9 3d 43 3e c2 5e 66 bd a0 be 7a bd c2 d3 98 3d
       0.19066514 -0.05624271 -0.06121695 0.074622646
0003e0 19 1d 86 3d b9 1c 07 be 02 33 d7 3c ba c5 0c bd
       0.06548519 -0.1319455 0.02626944 -0.034368254
0003f0 b4 c2 c6 bc 0c de 90 bd 48 82 3b 3d 41 58 36 3d
       -0.024262764 -0.07073602 0.045778543 0.04451776

rnn.bias_ih_l0 f4 [64]
000000 dc e6 13 bd a6 ab 5d bc 44 67 bc 3d b9 87 57 3b
       -0.036108837 -0.013529694 0.09199384 0.0032887293
000010 a2 a0 d0 3c b3 16 49 bc 14 ad 84 be e3 1d 6d 3d
       0.02546722 -0.012273478 -0.25913298 0.05788983
000020 5f 1e 51 3d 44 33 44 bc 54 22 28 3d 9f b6 4e 3e
       0.051054355 -0.011975113 0.041048363 0.20186852
000030 3e 83 58 3d 64 af 04 3e d4 7d e3 bd c0 d4 c4 bc
       0.052859537 0.12957531 -0.11107984 -0.024027228
000040 2c 71 f8 3d 8e bb 0b 3e f1 ec 6a bd bc 5a 85 3e
       0.12130961 0.13645765 -0.05735487 0.26045787
000050 43 2f 5c 3d ae 03 38 be 4c a0 a7 3d e6 d0 47 bc
       0.05375601 -0.17970154 0.08184871 -0.012195801
000060 54 0a 4d 3c ab 2c 82 3c 7e c6 26 3b d3 4a ef 3d
       0.012514669 0.01589044 0.00254479 0.116841935
000070 a9 d8 e4 3d c1 ef 31 be 96 a9 0f be ce e8 53 be
       0.11174137 -0.17376615 -0.14029536 -0.20694277
000080 97 c1 2f bd 4b 8d 1b 3e fc 28 0b 3d 09 9a 67 bc
       -0.04290923 0.15190618 0.033974633 -0.014135846
000090 9c 95 3e 3e fd 1b 58 be df 59 37 3e e9 ff 0c be
       0.18611759 -0.21104427 0.17905377 -0.13769497
0000a0 b8 0f 88 3d 26 32 88 bd b7 59 b8 bd 94 bf 48 bd
       0.06643623 -0.0665019 -0.09001487 -0.04901083
0000b0 0b 29 13 3c 06 9a 33 3d 5e 20 86 3e d5 05 7f bd
       0.008981953 0.04384806 0.2619657 -0.06226142
0000c0 61 2a fd 3d ac c0 aa bd bd 97 b0 3d 19 74 a8 bd
       0.12361599 -0.083375305 0.08622692 -0.08225269
0000d0 0e 78 4a 3e 67 ff 9d 3c c2 4b da bd d6 c3 b5 3c
       0.1977236 0.019286824 -0.10658981 0.022188108
0000e0 e0 ac 07 bd 18 fc 25 bd 5d 02 4a bc 2b 92 18 be
       -0.03312385 -0.04052362 -0.012329665 -0.14899509
0000f0 de 57 95 be 32 ff 4f 3e c2 cd 05 3e 08 1c 00 3e
       -0.291686 0.20312193 0.13066772 0.12510693

rnn.bias_hh_l0 f4 [64]
000000 77 65 5f 3d a4 84 20 be eb 24 04 bb dd 71 fc 3d
       0.054540124 -0.15675598 -0.0020163606 0.12326405
000010 a8 cd 93 bd e2 d1 e1 3d 78 4b 88 be d6 4a e4 bd
       -0.0721696 0.1102636 -0.26620078 -0.11147086
000020 ca 86 bc bd 87 4e bd 3a 2d 05 17 be 01 ba 7e 3e
       -0.092053965 0.0014442959 -0.14748068 0.24875642
000030 7b dd d8 bc 5d ff 97 3d ee 7f 65 3d 2f 2f c9 bd
       -0.026472798 0.074217536 0.056030206 -0.09823453
000040 66 5c 61 3e 20 e4 4c 3d bd cb c3 bd 88 ac c2 3d
       0.22007903 0.050022244 -0.09560344 0.09505564
000050 c0 80 ad bd 9d 7a 89 be 31 f3 eb 3d bc 93 1b be
       -0.08471823 -0.2685136 0.115209945 -0.15193075
000060 98 04 42 3e c7 fd 10 3d be 2d 5a bd af e5 b4 bd
       0.18947065 0.03539827 -0.05326628 -0.08832871
000070 ef 85 46 3d dc 4a 2b be 32 22 0e be 91 4e c5 bd
       0.048467573 -0.16727775 -0.13880232 -0.09634126
000080 12 01 ab bb 27 cc d0 3d 32 da 27 3e 0a fb 2e be
       -0.0052186335 0.10195189 0.16391829 -0.17087951
000090 c5 00 d2 3d bf 77 06 be e0 94 8c 3e 64 82 87 3b
       0.10254053 -0.13131617 0.27457333 0.004135417
0000a0 0b cd b1 bd b9 6e f4 3d 70 6a 57 3d 78 b2 93 bd
       -0.08681687 0.11935181 0.05259174 -0.072117746
0000b0 c9 0c c0 bd 7e 1d 6b 3d f6 28 4b 3e c8 52 9a 3c
       -0.093774386 0.057401173 0.19839844 0.018838301
0000c0 82 e1 05 3e 98 1b 26 be f2 fe ac 3a 14 cd 31 3c
       0.13074306 -0.16221464 0.0013198538 0.010852117
0000d0 f5 5b 8b 3e ad 50 e2 bd c4 a4 2a be 7e 61 ef bd
       0.27218595 -0.11050544 -0.16664416 -0.11688517
0000e0 6d a4 0c 3b 82 7e d6 3d 94 3f 0d be 73 1c 08 be
       0.002146031 0.10473348 -0.13793784 -0.13292103
0000f0 c5 0d 4a be c0 07 b3 3d 18 a1 c4 3d 0a 13 c9 bc
       -0.19731815 0.087417126 0.09601039 -0.024545211

rnn.weight_ih_l1 f4 [64, 64]
000000 84 24 ee bd 6e 37 66 bd dd a3 81 bd 25 7a d8 3d
       -0.116280586 -0.056205206 -0.063300826 0.10570172
000010 9f ad cb bd 59 a9 42 bd d8 5a 92 3c 02 86 20 3e
       -0.09945225 -0.047524784 0.017865583 0.1567612
000020 f6 af 21 3e 2e c4 0d 3e 5d a6 1e bb 4b 49 4e 3d
       0.1578978 0.13844368 -0.0024208047 0.050362866
000030 a7 7c 08 3d 70 4a 3f 3d 10 2b 0d 3e 35 0e f1 bd
       0.033322003 0.04670185 0.13785958 -0.11770288
000040 38 bc c7 3d 0e bd 5c bd 71 4f f2 bd e1 75 b4 bc
       0.09752697 -0.053891234 -0.118315585 -0.022028865
000050 6d 9a 6c bc d9 4d 6c bb 99 05 ae bd 77 8e bf bd
       -0.014441115 -0.0036057143 -0.084971614 -0.09353345
000060 08 6b 9d 3d 4f e4 62 bc fc 9f 70 bc fd 55 80 3d
       0.0768643 -0.013848378 -0.014686581 0.06266401
000070 25 ca c7 3d 50 d0 82 3c fc 68 ec 3c 6e 31 c8 3c
       0.09755353 0.015968472 0.028858654 0.024437632
000080 f2 37 25 3e 2b c1 e2 bc 58 46 f2 3d 46 6c 8e bd
       0.16134623 -0.02768 0.11829823 -0.06954245
000090 49 df a4 bd 55 b2 ad bd 3c 8a 93 3d 88 ff 38 bd
       -0.08050401 -0.0848128 0.072041005 -0.04516557
0000a0 43 21 2b 3c ea dc 17 bb bc f5 1b 3d dc 0d 9f 3d
       0.010444942 -0.0023172447 0.038076147 0.07766315
0000b0 fb 21 bf bc 60 20 70 3d 4d f4 61 3c 06 85 28 bd
       -0.023331633 0.058624625 0.013791156 -0.041142486
0000c0 5a b7 27 3d c0 b1 22 be d4 1c a0 bd 8a 64 5e 3c
       0.040946342 -0.15888119 -0.078179985 0.013573775
0000d0 2a 3e eb bb b9 89 ec 3d 25 19 2e 3d e7 df 1f bd
       -0.0071790414 0.11549706 0.04250445 -0.03903189
0000e0 09 45 1c bd 79 6b b2 3d 1e 1a f1 3c ac 30 1b 3c
       -0.038151775 0.08711905 0.029431399 0.0094720535
0000f0 27 a9 c1 bd 70 21 df 3c 6c 21 b3 bc ba 35 d7 3c
       -0.094560914 0.027237624 -0.021866523 0.026270736
000100 35 93 c3 bd 1d 03 9a 3d a2 f8 09 bd 3f 60 a8 bd
       -0.09549562 0.07520125 -0.03368438 -0.082214825
000110 8a 08 c0 bd 49 bd 82 3c 7c ea b9 bc b3 3e 2e 3d
       -0.09376629 0.015959399 -0.022694819 0.042540263
000120 3b 49 a0 3d 74 dd d8 bd 49 d6 4e 3d 8c c4 82 bd
       0.078264676 -0.10589114 0.050497327 -0.063851446
000130 98 20 8e 3d 90 0a 94 3d ae ac ce bb 9d c4 58 bd
       0.069398105 0.07228577 -0.006307206 -0.05292188
000140 cf fe 4c 3c d2 9b 87 bd 70 90 89 bb ba 65 3b 3c
       0.012511923 -0.06621517 -0.0041981265 0.011437828
000150 a5 3d 46 bd 09 b6 a4 3b c2 26 df bd fd 30 e6 bd
       -0.048398633 0.005026583 -0.10896064 -0.112398125
000160 8e f1 b2 3c 66 04 ad 3d 7a f5 0a 3e d5 f0 6d bd
       0.021843698 0.084481046 0.13570204 -0.058091003
000170 85 54 c1 3d 2e 95 0d be 2c bb 2a bd c4 45 75 3c
       0.09439949 -0.13826439 -0.041682407 0.014970247
000180 3c 1c 08 3e 81 35 b7 bd 78 81 fc bb 34 89 ea bd
       0.1329202 -0.08945752 -0.0077058636 -0.11451951
000190 16 66 83 3d 94 39 17 be 06 e3 c0 3d 99 03 78 3d
       0.06415956 -0.14768058 0.09418301 0.060550306
0001a0 8a 41 b2 3d 87 b8 dc bd ea 7f d1 bc 18 ed 52 3d
       0.08703907 -0.10777383 -0.02557369 0.05149564
0001b0 a5 e1 c8 bd 67 e1 06 3e 99 94 4c ba 26 f6 3f bd
       -0.09808663 0.13171922 -0.0007804125 -0.046865605
0001c0 ba 6e 0b bd a8 15 c7 bd 52 fe d1 3d 38 fb 87 3d
       -0.034041144 -0.097209275 0.10253586 0.06639713
0001d0 b6 85 05 3e da 54 46 bc 53 9f 0c be df 8a e7 bd
       0.13039288 -0.012105191 -0.13732652 -0.113057844
0001e0 88 71 20 bd 9d 16 88 bc db f5 8f 3d bb 6f 7f 3d
       -0.03917077 -0.016612345 0.07029315 0.062362414
0001f0 d0 cc df bd eb 4e 20 bd f3 d5 a7 3d 02 b5 05 3c
       -0.10927737 -0.039137762 0.081951044 0.008160831
000200 12 53 0d bc 6d 3c 0e 3d f8 6e 0b be f5 e0 a6 bd
       -0.008625763 0.034725595 -0.1361655 -0.08148376
000210 42 33 b5 3d 70 97 ed bd 5b e4 a6 bd 71 3b f8 3c
       0.08847667 -0.1160115 -0.08149024 0.030301781
000220 b8 d9 0e be 7b e9 ff bd c5 2f 1a bd e8 9a 93 3d
       -0.1395024 -0.12495705 -0.037643213 0.072072804
000230 44 dd 6b 3c f6 e8 db bd 82 d9 16 be 86 8c c3 bd
       0.014396016 -0.10737793 -0.1473141 -0.09548287
000240 3b 78 8b 3d 7e 50 c3 bc 93 aa 38 bc 23 82 df bd
       0.068100415 -0.023842093 -0.011271137 -0.109134935
000250 e2 07 ad bd 89 96 75 3b b0 89 5e bb f2 8a 0d bc
       -0.08448769 0.003747376 -0.003395658 -0.008639084
000260 1e ed 4b 3b 1f 5e b0 3d 3d 4a d2 bd a4 ef c5 3d
       0.0031116675 0.08611702 -0.10268066 0.096648484
000270 e8 da db 3d 89 20 f7 3d 6b 44 d4 3a ee c9 8f bd
       0.107351124 0.120667525 0.0016194707 -0.07020937
000280 29 ef 8e bd b0 11 b5 3d 5a cc d0 bd fe 13 af bb
       -0.0697921 0.08841264 -0.10195227 -0.0053429594
000290 25 c0 a5 3b b3 78 d4 3d 87 a2 52 bd 36 6b 1a bd
       0.005058306 0.10374584 -0.05142453 -0.0376999
0002a0 61 53 16 be a3 d6 b5 3c 89 7c a3 3d c9 d5 10 be
       -0.14680244 0.022197073 0.079827376 -0.14144053
0002b0 ce bb b4 3d 76 9d 0e be 51 20 8d 3d d0 9c d0 3c
       0.088248834 -0.13927254 0.068909295 0.025465399
0002c0 7f f9 ac bd a9 6b e1 3d 52 bf 9a bd c8 9f 9f bd
       -0.08446025 0.11006863 -0.07556023 -0.07794148
0002d0 10 36 aa bc 3f cf 38 3b 45 d0 98 3c 09 0e 9f bd
       -0.020777732 0.00281997 0.018653998 -0.07766349
0002e0 03 a1 04 be f6 d0 61 3d 96 fa a5 bd be 6a 61 3d
       -0.12952046 0.05513092 -0.08104436 0.055033438
0002f0 49 71 21 3e 78 d6 50 3d c1 1e 66 3c 10 bd 1b 3e
       0.15765871 0.050985783 0.014045418 0.1520884
000300 50 a1 fe 3b 45 12 13 3e ce 1a 04 3b 11 a1 03 bd
       0.007770695 0.14362438 0.0020157578 -0.032136027
000310 aa c9 47 3d a7 3d dd bd e6 6e 47 3c d4 52 5a 3c
       0.048776306 -0.10802775 0.012172436 0.013325412
000320 9d 0d ad bc 5a 37 fa bc 7b a7 9b bd 36 87 12 be
       -0.021124655 -0.030543972 -0.07600304 -0.14309391
000330 8e 95 10 3e d5 4b e1 bd 7c 4d 81 3c 95 42 1d bd
       0.1411955 -0.11000792 0.015784018 -0.038393576
000340 d4 d4 4b bd 3c 83 da 3c 85 a1 a7 3c 98 52 81 bd
       -0.049763516 0.026673906 0.02046276 -0.06314582
000350 ef 2e d1 bd c3 b1 6e bb fa 06 ac bb 40 d7 bd bc
       -0.1021403 -0.0036421872 -0.005249855 -0.023173928
000360 90 4b 7e 3d 2b c1 9a 3d 6e a6 00 be 06 19 ae 3d
       0.06208378 0.07556375 -0.12563488 0.085008666
000370 24 6a ce 3d a4 1f e2 3d 68 5b f4 bd bc 62 f1 3d
       0.100788385 0.11041191 -0.11931497 0.1178641
000380 89 ba 8a 3d ad f6 9e 3a 54 75 aa bd 8d f2 92 bc
       0.0677386 0.0012127958 -0.0832316 -0.017937923
000390 90 6f cc bc 92 b4 68 bd dd b5 5a bc 44 a1 d4 3c
       -0.02495554 -0.05681283 -0.013349024 0.025955804
0003a0 83 d7 21 bd 7e b0 75 3d 29 be 51 bc 65 8b de bd
       -0.03951217 0.05998277 -0.012801685 -0.10866431
0003b0 fb 5c a8 3d d1 40 d7 bc 1f 8a 54 3d 6e 52 a1 3d
       0.082208596 -0.026276024 0.051889535 0.0787705
0003c0 d4 36 10 3e ee 67 92 bc 81 56 04 bd 78 ed c8 bd
       0.14083415 -0.017871823 -0.03230906 -0.098109186
0003d0 8d 06 96 3c 8e c2 8d bc 57 fb aa bd b2 bb e5 3d
       0.01831367 -0.017304685 -0.083487205 0.11217441
0003e0 0a 9e ce 3c f6 42 7a bd 0d da 39 3d 25 81 9f bd
       0.025221843 -0.061099015 0.045373965 -0.07788304
0003f0 97 72 fd 3d f8 47 47 bd 38 2e 43 3c c4 51 99 3d
       0.12375372 -0.04865262 0.011912875 0.07486299

rnn.weight_hh_l1 f4 [64, 64]
000000 bf df 2e 3c ca f3 3b bd e6 8d f4 bd 4e cf 07 be
       0.010673462 -0.045886792 -0.119411275 -0.13262674
000010 66 9a 36 bd d6 3b 27 bd 87 9e 70 3d 59 c1 a4 bc
       -0.04458084 -0.04082855 0.058744933 -0.020111727
000020 1c a7 1e 3b dc 07 24 bd ba 7c 41 3d a2 86 5c 3d
       0.0024208492 -0.040046558 0.04723809 0.053839333
000030 d0 56 fb 3c 3e fd b9 bd d8 53 64 bd 3b 29 cc bd
       0.030681044 -0.09081505 -0.055744022 -0.099688016
000040 72 0a 18 bd 46 6f b0 3d 5e f7 e4 3d 7b f6 4f bd
       -0.037119336 0.08614974 0.11179994 -0.05077217
000050 ad 67 6b 3c 98 96 1c 3d 19 15 08 be ab 3d a0 3d
       0.01436798 0.038229555 -0.13289298 0.07824262
000060 1c 4e 53 3d 93 f4 1b 3c 4a a7 ff bc 53 d9 71 bd
       0.051588163 0.00951876 -0.0312077 -0.059045147
000070 cb a3 cc 3c 0f 6a ec 3d be e9 1b 3d f3 a0 b7 3c
       0.024980446 0.115436666 0.03806471 0.022415614
000080 6b 6a a6 bd e9 2a f8 3c fb c6 81 39 b7 f3 8c bd
       -0.08125766 0.030293899 0.0002475305 -0.068824224
000090 3d b0 ba bd 8f ae f8 3d 06 34 c9 3d 3c a2 22 bd
       -0.09115646 0.121426694 0.09824376 -0.0397055
0000a0 b1 18 50 bd 50 b3 8f bd 6f 4a 99 3c ce c1 56 bd
       -0.050804798 -0.07016623 0.01871225 -0.05243092
0000b0 0d 1d c3 bc 90 8c e0 bc bd 66 70 3d c1 fa bf 3c
       -0.023817563 -0.027410775 0.05869173 0.023434998
0000c0 1d c7 1a be 12 a1 dc 3d 78 f5 ae 3d df 3d 84 3d
       -0.15115018 0.10772909 0.08542913 0.064571135
0000d0 c5 83 17 be 0f 4b 8b 3c 82 78 d3 bc a6 57 0a 3e
       -0.1479636 0.017003564 -0.025814299 0.13509998
0000e0 aa 9c 76 bd 10 92 07 3e 1e 7b 08 be d1 58 37 bd
       -0.060208 0.13239312 -0.13328215 -0.044762436
0000f0 2c 2e de bd c1 ff 07 be 69 c5 86 3d bc 76 ac 3b
       -0.1084865 -0.13281156 0.06580622 0.0052631777
000100 d4 fc a5 3d 1e 55 f8 bc f6 44 b2 bd 17 69 49 bd
       0.08104864 -0.030314025 -0.087045595 -0.049172487
000110 cc 16 a9 3c 51 91 00 3d cf bd c2 bd 00 cd c1 3d
       0.020640753 0.031388585 -0.09508859 0.09462929
000120 b5 2d 29 bd bc d1 6a bd 3a 91 e5 3d 3e d7 16 3e
       -0.041303355 -0.057328925 0.112093404 0.14730546
000130 ad 3b f2 bd f9 00 bd bd 37 4a b6 bc 15 88 4f bd
       -0.118277885 -0.09228701 -0.022252185 -0.050666887
000140 8c 10 60 bd d5 5a d0 bc 0b 0b 3f 3d 79 1f c1 3d
       -0.05470328 -0.025433937 0.04664139 0.09429831
000150 45 cc b5 bd 87 8d 12 bd 57 92 d3 3d 5f 36 a7 bd
       -0.08876852 -0.035779502 0.103306465 -0.08164667
000160 9a f5 fe 3c 4c b9 b5 bd fd 6b 56 bd 6c 42 17 3e
       0.031122971 -0.08873233 -0.05234908 0.14771432
000170 3c 00 92 3c dc f2 be bc f0 cf 8d 3c 62 8f 4b bc
       0.017822377 -0.023309164 0.017311066 -0.012424322
000180 ac 6d f9 3d 00 ef 6f 3d 6d cf ff 3d 96 ed ab bd
       0.121791214 0.058577538 0.12490735 -0.08394925
000190 9b 87 05 be 39 b6 0a 3d c9 18 c5 bd 00 47 79 3c
       -0.1304001 0.033865187 -0.09623868 0.015214682
0001a0 35 6e 03 be 2f 39 f4 3d ba a6 1b 3d 57 25 36 3d
       -0.1283501 0.119249694 0.0380008 0.044469204
0001b0 35 9d 11 3c 60 42 d0 3d e6 4c 08 be 66 76 1e be
       0.008887579 0.1016891 -0.13310584 -0.15474853
0001c0 e5 b0 a2 3d 52 04 a3 3d 93 56 e3 bd ef c0 ae bd
       0.07943896 0.079598084 -0.11100497 -0.08532893
0001d0 39 20 a5 3d 70 59 5a 3c f6 1c 32 bc 2a 1e 0a bd
       0.080627866 0.013326988 -0.010871163 -0.033720173
0001e0 2f 3c 95 bc a8 a7 05 3e be 84 ab bb c9 fe cf 3d
       -0.018217174 0.13052237 -0.00523433 0.10156018
0001f0 93 70 fe bd 24 47 b8 3d 23 db e3 3d eb 4b b1 3d
       -0.124238156 0.08997944 0.111257814 0.08657058
000200 cb aa 40 bd 5d 14 a6 3c 34 53 85 3c 09 aa c9 3d
       -0.04703788 0.020273382 0.016275026 0.09846885
000210 44 8e 8f 3d ee 1a bf 3d 98 c8 94 3d b0 ed 00 bc
       0.07009557 0.09331308 0.07264823 -0.007869169
000220 3b 31 c9 bd 06 81 a1 bd 54 56 15 be a2 64 0f bc
       -0.09823843 -0.078859374 -0.14583713 -0.00875202
000230 94 e4 5a bc 07 c3 0a 3e 45 3d 9d 3d de 1e 99 3d
       -0.013360161 0.1355096 0.07677702 0.074765906
000240 b8 9c d9 bd 23 d6 25 3d fb b7 f6 3c 01 df 12 be
       -0.10625595 0.04048742 0.030117026 -0.14342882
000250 5d 0d bf 3d f9 6d 06 be e6 23 77 3d b1 5a ef 3c
       0.09328721 -0.13127889 0.06033697 0.02921805
000260 3e 0d 1e be 8b 89 89 bd fe 70 39 3c 3e 6f 3a 3d
       -0.15434739 -0.06715687 0.011318443 0.045516245
000270 30 d9 98 3d 29 85 e9 bd 13 63 bf ba d2 30 91 bd
       0.074633 -0.114023514 -0.001460167 -0.0708939
000280 6d 9e 0c be 6d e1 2d 3d ed b5 93 3d 87 e7 60 3d
       -0.1373231 0.04245131 0.07212434 0.0549083
000290 77 1e 0e 3e 35 ae e7 bd 96 81 9b bd 23 19 11 bd
       0.13878809 -0.11312524 -0.07593076 -0.035424363
0002a0 bf ed 3d 3d 7e c4 fa 3d 66 36 bf 3c f5 cd 0a bd
       0.04636931 0.12244509 0.023341369 -0.033887822
0002b0 c8 e5 59 3c 32 ba 21 be ed 0d 0f 3e 6d 1e f2 3c
       0.013299413 -0.15793684 0.13970156 0.029555524
0002c0 9b a0 d1 3d e8 3b a1 3d 96 45 ac 3d 84 47 0b b8
       0.10235711 0.07872754 0.0841171 -3.3206787e-05
0002d0 4e 03 90 bd 1b 84 65 bd 02 66 9c 3d 98 7b 12 be
       -0.0703188 -0.05603419 0.07636644 -0.1430496
0002e0 1a 33 a5 bd 74 fb 96 bc 53 66 6d bd 2c 5b ca 3b
       -0.080663875 -0.018430449 -0.057958912 0.0061754193
0002f0 ad da 1d bd bf dd 82 3d 85 c0 cf 3c 2f d7 86 3d
       -0.038538624 0.06389951 0.025360355 0.06584012
000300 0e 9a 3d 3a 3a f6 14 be 06 80 52 3d 2b 32 28 3d
       0.0007232734 -0.14547053 0.051391624 0.04106347
000310 d9 d2 a9 3d 1a ca d6 bd cf 01 46 bd 87 38 fe bd
       0.08292169 -0.104877666 -0.04834157 -0.124131255
000320 c4 4b 43 3d 76 61 0d be d1 f7 9e 3d 33 aa 7b bd
       0.047679678 -0.1380671 0.07762111 -0.06144161
000330 ff 81 99 bd 92 0d 32 bd 69 32 ec 3d fa f4 d2 3c
       -0.07495498 -0.043469973 0.115330525 0.02575158
000340 d6 92 d4 bd 76 bf c9 bd 7c 39 55 bd 36 53 11 be
       -0.10379569 -0.098509714 -0.052056774 -0.14191899
000350 8b 6c 01 be a8 e4 92 bd 8a 2f ce 3d 81 fd 1f bd
       -0.12639062 -0.07172519 0.10067661 -0.03906012
000360 00 f9 be bd 0d bf e7 bd fb 6e 9c 3d 6e f5 8b bd
       -0.09324837 -0.11315737 0.07638355 -0.068339214
000370 2f 60 bc bd c7 43 c8 3d f3 08 a4 ba c0 d3 bc 3c
       -0.09198033 0.097785525 -0.0012514874 0.023050189
000380 fa 33 8e 3d 18 40 55 bd 9e 22 94 bc be fd c7 3b
       0.069435075 -0.052063078 -0.018082913 0.0061032465
000390 91 29 2a bd 99 00 2c bd 5e 80 d4 3d 8f 20 35 3d
       -0.041543547 -0.041992757 0.103760466 0.044220503
0003a0 5d 62 32 3d 07 b8 d9 bd 9d 85 9d 3d 93 74 e4 bb
       0.043550838 -0.106308036 0.076915 -0.0069719045
0003b0 81 c4 78 bd f4 d5 b6 3d c1 73 80 bd 25 50 7d 3d
       -0.060734276 0.08927527 -0.06272078 0.06184401
0003c0 2c f9 a1 bc b2 91 f0 3b 9a ee af bb bf 42 14 bc
       -0.019772135 0.007341587 -0.0053690197 -0.009049117
0003d0 36 9f 29 3c 78 77 e7 3d f0 77 ba 3d 55 a7 ba bb
       0.0103529 0.11302084 0.091049075 -0.005696217
0003e0 97 97 a4 3d cb 33 a8 3d 05 6b 3d 3d cd c1 c8 3d
       0.08036726 0.08213004 0.04624464 0.098025896
0003f0 fb ca 4a bd e2 b6 cd 3d 47 47 19 3d 10 49 5b bc
       -0.049509984 0.10044648 0.03742149 -0.013384119

rnn.bias_ih_l1 f4 [64]
000000 ba ba 29 3b 80 64 e3 bd bc 3b 9d 3d 2f 6c 06 bd
       0.0025898651 -0.11103153 0.07677409 -0.032818016
000010 27 e5 dd 3d 67 5c 5e 3d 5c 12 c3 3d c2 bc f9 3c
       0.10834723 0.05428734 0.09524986 0.030485515
000020 66 69 e0 bd f9 a8 71 bd b9 7f 33 3d be bb 93 bd
       -0.10957603 -0.058999036 0.043822978 -0.07213543
000030 cf 47 42 bd 3e 72 c5 bd 07 d5 08 3e ea 27 a3 bd
       -0.047431763 -0.096409306 0.13362513 -0.079665974
000040 15 84 fc 3d 31 92 c1 3d 20 1d 0e bd 4e a1 51 bd
       0.1232988 0.09451712 -0.034695745 -0.051179223
000050 0a 49 ae 3d 0d b9 f7 bd fa 18 78 bd ac b6 1d bd
       0.08510025 -0.120958425 -0.060570695 -0.038504288
000060 47 ce 30 3d e6 e3 b4 3d cb 85 0a 3d 54 15 53 3d
       0.04316547 0.08832531 0.033819 0.051534012
000070 57 64 7f ba f0 5f da bd 88 60 9b 3c 5f 18 be bd
       -0.000974243 -0.1066283 0.018966928 -0.09281992
000080 5a b1 51 3d 8f 8e fb bd 1d c8 be 3d bd a9 11 3e
       0.051194526 -0.1228305 0.09315512 0.14224906
000090 f4 bf 85 bd b4 79 cf 3d 49 a1 ae bd 3d 70 01 3c
       -0.06530753 0.10130635 -0.085268565 0.007900295
0000a0 46 30 30 3d fc aa 66 3d 8e 5c 4c bd f4 b5 58 3b
       0.043014787 0.056315407 -0.049892955 0.0033067437
0000b0 4e b0 8a 3d 9e 97 9c 3c 4f 60 05 3d 2b 46 11 bd
       0.06771909 0.019115265 0.03256255 -0.035467308
0000c0 98 3e 98 3d 3c 3b 74 3c c3 b5 10 bd 22 75 87 3d
       0.07433814 0.014906701 -0.03532959 0.06614138
0000d0 8b 51 7f 3d 9b 01 ad bb 07 90 bb 3d 7e 8a 22 bb
       0.062333625 -0.0052797324 0.091583304 -0.0024801786
0000e0 0a 17 b5 bb 18 7e 0a 3e 17 59 f9 3d 3c 95 26 bd
       -0.005526428 0.13524663 0.12175196 -0.040669665
0000f0 6b 91 ed bc 15 50 59 bd 38 73 15 be 63 b3 ea bb
       -0.029000005 -0.053054888 -0.14594734 -0.007162498

rnn.bias_hh_l1 f4 [64]
000000 63 79 cc bc 21 a3 d0 bd e8 ed 24 3c e3 9d c0 bd
       -0.024960225 -0.10187364 0.010066487 -0.094051145
000010 f7 3d a9 3d 1b 8a 88 bd 75 f8 7f bc 78 2c 86 3c
       0.08263772 -0.066669665 -0.015623202 0.016378626
000020 58 8d 81 ba 6f 3e 09 3e d1 f3 df bd a3 87 42 3d
       -0.0009884043 0.13402723 -0.10935176 0.047492635
000030 40 2c 12 3e 6f 3e b0 3d 9c 9d d7 3d 53 58 0b 3e
       0.14274693 0.08605658 0.105281085 0.13607912
000040 ac 84 ae bd 12 9a 1c 3c 34 f3 08 be c5 0f cd 3d
       -0.08521399 0.009558218 -0.13374025 0.100127734
000050 70 91 85 bd 63 64 ef bd 94 33 c6 bc 90 ca b4 3d
       -0.065218806 -0.11689069 -0.024194516 0.08827698
000060 7f a7 ac 3d c9 c7 83 3d 9c 35 f4 bc c1 70 57 bc
       0.08430385 0.0643459 -0.02981072 -0.013149441
000070 81 6e 31 3d d1 1b 28 3c 4c a4 0c 3d 60 e0 a6 3c
       0.043318275 0.010260538 0.034336373 0.020370662
000080 2d f2 40 3d 32 ac 2a 3d 9d 74 0e be 66 bd bf 3d
       0.047105957 0.041668124 -0.13911672 0.09362297
000090 c3 ed dc 3d ee 6c 93 3b 16 6a 6b bd ed d9 7b 3a
       0.10787537 0.0044990694 -0.05747422 0.00096073636
0000a0 68 c0 a2 3d e0 a3 10 3e fd 08 e0 3d a1 08 b4 bc
       0.07946855 0.14125013 0.109392144 -0.02197677
0000b0 fb 2e ef bc 0c 77 ad bc 0e 8f b0 3d 11 d2 dd bc
       -0.029197207 -0.02117493 0.086210355 -0.027077707
0000c0 08 a5 04 3e 98 e4 3b bc 3c 07 96 3b 40 5a 12 be
       0.1295358 -0.011468075 0.004578499 -0.1429224
0000d0 2f e4 8d bc 8e 1f ca ba 6a 4d 95 3d a0 34 d0 3d
       -0.01732072 -0.0015420781 0.07290156 0.101662874
0000e0 9d 9d 85 3d 0c 10 00 3e fc 09 f7 3c 50 5b cb 3c
       0.06524203 0.12506121 0.030156128 0.024823815
0000f0 90 68 35 3d c4 7e cb bc 73 74 fa 39 1e 17 10 3d
       0.04428917 -0.02484072 0.00047770477 0.035178296

fc.weight f4 [1, 64]
000000 2e b9 39 be 47 02 4a be f0 f1 42 3e 03 7a 52 3e
       -0.18137047 -0.19727431 0.19037604 0.20554356
000010 37 03 68 3e a8 bf 76 3e 47 ad 5c be d8 3f 85 be
       0.22657476 0.24096549 -0.21550475 -0.2602527
000020 58 35 23 be 5d d9 2b 3e 4b 2e 22 be d2 ef 24 be
       -0.15938318 0.16782136 -0.15837972 -0.16107109
000030 4f 14 6f 3e 97 ec 46 3e 96 0d 09 3e e7 3f 38 3e
       0.23347591 0.1942619 0.13384089 0.17993127
000040 fd cb 1a be 74 a4 fb 3d 7b f7 56 be 9d 52 77 be
       -0.15116878 0.12287226 -0.20992844 -0.24152608
000050 41 0b 77 be 65 73 74 be 0c 86 8c 3e 3e 13 40 3e
       -0.24125387 -0.23872145 0.2744602 0.1875734
000060 66 1e 32 be 1f 9f 43 be cd 1d 6f 3e 72 5b 87 be
       -0.17394409 -0.19103669 0.23351212 -0.26436955
000070 75 7a 50 3e c9 c3 7d be 1b ad f6 3d a2 cd 49 3e
       0.20359214 -0.24781717 0.12044736 0.19707349
000080 0b fe 5d be b4 a7 6e be 9b 4c 7f be f6 86 65 3e
       -0.21678941 -0.23306161 -0.24931566 0.22414765
000090 50 c3 55 3e 3f dd 73 be ba 39 57 3e 03 1e 31 be
       0.20875287 -0.23814867 0.21018115 -0.17296605
0000a0 14 c3 33 3e f7 f2 46 3e 44 10 3d be 53 b2 2d 3e
       0.17554885 0.19428621 -0.18463236 0.16962557
0000b0 08 9a 4c be 59 0d 72 be 9c e2 21 3e 31 af 35 3e
       -0.19980633 -0.23637904 0.15809101 0.17742611
0000c0 30 6f 4f 3e cc ab 47 be 30 0d 49 3e 11 a8 3c be
       0.20257258 -0.19499129 0.19633937 -0.18423487
0000d0 6e df 3f 3e d9 04 63 3e 30 14 6d be 7a 8e 63 be
       0.18737575 0.22169818 -0.23152232 -0.22222319
0000e0 b3 13 62 3e cc b9 14 3e 8b 70 69 3e dc 2d 68 3e
       0.22077827 0.14524001 0.22796838 0.22673744
0000f0 8f 1c 11 3e 2b 93 43 3e 32 07 58 be 25 62 82 3e
       0.1417105 0.19099109 -0.21096495 0.25465503
