program/deep_learning/16 - Recurrent Neural Network/model/jkse/weights_best.pth (torch, 936183 bytes, 25 tensors)

rnn.weight_ih_l0 f4 [256, 1]
-0.10898418 0.0012685173 -0.065616146 -0.023163175 -0.1301497 0.12739849 0.09263763 -0.03749866
0.040324464 0.1539569 0.015851846 0.14115004 -0.12008959 -0.036853198 -0.08086503 0.09879862
0.092887424 0.03760278 -0.12218971 0.022517035 0.017617159 -0.080732614 0.060144562 -0.13474777
-0.040722847 -0.120123774 0.14184141 -0.043348525 -0.025118375 0.058733135 0.033179067 -0.07583147
-0.12480317 -0.052551243 0.001752927 0.013698738 0.049434133 0.030539421 0.013186332 -0.005740598
0.0013929935 -0.048906002 -0.13171817 0.0468493 -0.052262276 -0.0023494647 0.0601275 -0.047661766
-0.016495058 0.05999257 -0.12472044 -0.13920645 -0.02360067 0.056689177 -0.011761971 -0.020649659
-0.11277429 0.005760735 0.059073735 -0.12261166 0.025162235 0.05016097 -0.12282505 -0.032024883
0.06398499 0.12174909 0.046251334 -0.011584023 0.06807153 -0.07380525 0.044273913 0.10992491
-0.079500265 -0.05434309 -0.10493251 0.11960111 0.10947127 0.008354083 0.13721484 -0.07753974
0.07076059 0.113781594 0.087911576 -0.062656485 0.15245712 -0.09024758 -0.10901892 -0.11767809
0.06500686 0.07154807 -0.05890772 -0.091140345 0.00214767 0.033573348 -0.09122869 0.021807658
0.0058908206 -0.103827484 0.023724448 -0.055395126 0.04075224 0.09368384 -0.039639782 -0.10895719
-0.071907826 -0.11428628 -0.074072875 -0.062447593 -0.04563864 -0.011898244 0.050408464 -0.057110827
0.0029256186 -0.060786743 -0.076232 0.0690845 0.06622161 -0.10885932 0.09037254 0.06279721
0.0397567 -0.10662962 -0.06528831 -0.03555733 -0.07523645 -0.021874413 -0.076405145 -0.012228496
0.02082749 0.048211027 0.10739248 0.084662 -0.011493343 -0.08820652 -0.16092922 0.11526754
-0.13082695 -0.062462714 0.13739765 -0.032317583 0.06748809 -0.11999004 -0.14035574 -0.12749083
0.037281 0.059724085 -0.07964486 0.021413228 -0.080058485 -0.15105458 -0.11424607 -0.13177665
-0.1363485 -0.08016368 0.10692443 -0.13285026 -0.05570257 0.15291312 -0.10297052 -0.097380355
-0.11597381 -0.09732932 0.0853882 0.13655928 -0.013301942 0.12258843 0.039867427 -0.059727456
0.107503146 0.034901384 -0.15373044 0.098046884 0.14836447 0.10853976 0.025714424 -0.105440505
0.06550543 -0.10877777 0.06320425 -0.051479906 0.08646468 -0.045619436 -0.15624787 0.10909362
0.14446656 -0.064108156 0.12892157 0.032110702 0.11050781 -0.061907656 0.023794232 -0.12497149
-0.0138484845 -0.057997663 -0.118653715 -0.054213412 -0.11420992 -0.015172957 -0.056191575 0.106053
-0.059338715 0.1496718 -0.05288886 0.12123973 -0.07260639 -0.08765061 -0.036909122 0.04976758
0.022711778 0.042215254 -0.07516499 0.047388624 0.107740685 0.014807236 0.01768053 0.01384713
-0.010551583 -0.02689233 0.11696441 -0.0322153 -0.012742318 0.013051114 0.030394187 0.091901034
-0.040883787 -0.11398628 0.021773594 0.025829094 0.03648194 -0.040567286 0.068451725 -0.09649697
-0.052187294 0.0017573904 0.018041838 -0.10942062 -0.06227267 0.097398624 0.03236641 -0.08715429
0.008267544 0.098790646 0.05029958 0.056286927 0.07628512 0.11437626 0.097422265 0.092088915
0.09944959 0.0032631247 -0.09569957 0.08452284 -0.05415165 -0.09844924 0.026161058 -0.047470074
00000000: 1933 dfbd 6144 a63a c261 86bd b3c0 bdbc
00000010: f745 05be c074 023e ccb8 bd3d 3298 19bd
00000020: 442b 253d e1a6 1d3e bbdb 813c a389 103e
00000030: 88f1 f5bd 61f3 16bd 919c a5bd ee56 ca3d
00000040: c33b be3d 5f05 1a3d 993e fabd a575 b83c
00000050: dc51 903c 2457 a5bd 255a 763d 52fb 09be
00000060: 00cd 26bd 7403 f6bd e03e 113e 398e 31bd
00000070: 0dc5 cdbc 2892 703d c6e6 073d 884d 9bbd
00000080: ce98 ffbd f93f 57bd 78c2 e53a ac70 603c
00000090: 727b 4a3d cf2d fa3c 7c0b 583c a01b bcbb
000000a0: 1b95 b63a a951 48bd 21e1 06be 0de5 3f3d
000000b0: f810 56bd 7af9 19bb 4148 763d fc38 43bd
000000c0: a520 87bc c5ba 753d 6e6d ffbd 238c 0ebe
000000d0: 3156 c1bc e932 683d 48b5 40bc 7929 a9bc
000000e0: 35f6 e6bd 8cc4 bc3b 4df7 713d d21b fbbd
000000f0: 0821 ce3c 9775 4d3d b38b fbbd 862c 03bd
00000100: 900a 833d 9657 f93d 0a72 3d3d eaca 3dbc
00000110: 1669 8b3d 3527 97bd 9058 353d 5020 e13d
00000120: 09d1 a2bd dc96 5ebd dbe6 d6bd 6df1 f43d
00000130: 7932 e03d 90df 083c 0c82 0c3e 28cd 9ebd
00000140: eeea 903d 5306 e93d fc0a b43d 0b52 80bd
00000150: b81d 1c3e b9d3 b8bd 5045 dfbd 3601 f1bd
00000160: 5122 853d cb87 923d 3949 71bd caa7 babd
00000170: ecbf 0c3b 3584 093d 1cd6 babd f9a5 b23c
00000180: c907 c13b 81a3 d4bd c659 c23c 00e6 62bd
00000190: d2eb 263d 50dd bf3d 535d 22bd f224 dfbd
000001a0: 6944 93bd ed0e eabd 85b3 97bd 0cc9 7fbd
000001b0: 95ef 3abd daf0 42bc 1b79 4e3d 0bed 69bd
000001c0: bcbb 3f3b 85fb 78bd 861f 9cbd 2d7c 8d3d
000001d0: 329f 873d a3f1 debd 3d15 b93d d39b 803d
000001e0: ecd7 223d a160 dabd e1b5 85bd 90a4 11bd
000001f0: 9115 9abd f831 b3bc 4d7a 9cbd 085a 48bc
00000200: 6a9e aa3c ed78 453d 97f0 db3d 4563 ad3d
00000210: 934e 3cbc 9fa5 b4bd a1ca 24be 6311 ec3d
00000220: 80f7 05be e7d8 7fbd f8b1 0c3e 715f 04bd
00000230: 3237 8a3d 57bd f5bd 6ab9 0fbe f58c 02be
00000240: f6b3 183d 3ea1 743d d81c a3bd cb6a af3c
00000250: b4f5 a3bd 0dae 1abe d8f9 e9bd 75f0 06be
00000260: f19e 0bbe db2c a4bd 32fb da3d e609 08be
00000270: 6128 64bd 4295 1c3e 35e2 d2bd 5a6f c7bd
00000280: ad83 edbd 9854 c7bd 02e0 ae3d 32d6 0b3e
00000290: 63f0 59bc a50f fb3d 074c 233d c7a4 74bd
000002a0: 9c2a dc3d c1f4 0e3d 836b 1dbe cecc c83d
000002b0: dbec 173e 184a de3d 0ea7 d23c 31f1 d7bd
000002c0: b627 863d e1c6 debd 3b71 813d 98dc 52bd
000002d0: 6514 b13d 72db 3abd 71ff 1fbe 7a6c df3d
000002e0: 0bef 133e 234b 83bd 0404 043e 8386 033d
000002f0: eb51 e23d e292 7dbd 1fec c23c 0df1 ffbd
00000300: c1e4 62bc f58e 6dbd b800 f3bd e20e 5ebd
00000310: e4e6 e9bd ff97 78bc 2329 66bd 5132 d93d
00000320: 270d 73bd 9043 193e fda1 58bd 894c f83d
00000330: a9b2 94bd 2a82 b3bd 052e 17bd 17d9 4b3d
00000340: 0d0e ba3c e7e9 2c3d 1af0 99bd 931a 423d
00000350: 26a7 dc3d 0d9a 723c c2d6 903c 13df 623c
00000360: 8ce0 2cbc 4e4d dcbc 098b ef3d 31f4 03bd
00000370: 28c5 50bc 57d4 553c 3bfd f83c 9c36 bc3d
00000380: c275 27bd a471 e9bd 895e b23c 8997 d33c
00000390: 166e 153d e229 26bd 6b30 8c3d 34a0 c5bd
000003a0: 58c2 55bd 3d58 e63a 7acc 933c eb17 e0bd
000003b0: a111 7fbd ee78 c73d a492 043d f37d b2bd
000003c0: 9874 073c c052 ca3d ef06 4e3d 1f8d 663d
000003d0: 5f3b 9c3d 1a3e ea3d 5385 c73d 1d99 bc3d
000003e0: 3aac cb3d 26da 553b 23fe c3bd 501a ad3d
000003f0: 1fce 5dbd c19f c9bd b74f d63c fb6f 42bd

rnn.weight_hh_l0 f4 [256, 64]
0.12459355 -0.0401631 -0.08262334 0.03948207 0.09292821 -0.05871684 0.13034143 0.089881726
-0.022468496 0.08431963 0.049618676 0.09555731 0.0010424023 0.069767684 -0.073150344 -0.075548224
0.03710149 -0.012723746 0.02815981 -0.094102085 0.05122892 0.03631624 0.076735675 -0.08040075
0.043844987 -0.031134749 0.013783728 0.1070155 0.053934157 0.04691127 0.043192077 -0.032598536
-0.06494342 -0.10138941 -0.08102988 0.06425461 0.085580595 0.084968105 -0.04493885 0.12886886
0.00520542 -0.057893984 -0.011985178 -0.07308309 0.041831624 0.057340324 0.03663889 0.09593333
0.092363335 -0.0238773 -0.08302326 0.08130211 -0.07337485 -0.0032412263 0.09311149 -0.031705856
-0.04273645 0.014865776 -0.12408669 0.095075525 0.034532726 0.06964651 0.08310095 -0.08571388
0.045324776 -0.12418407 -0.07302384 -0.011036486 -0.110370144 -0.014627282 -0.035123818 0.107289165
0.0015565209 0.09216162 0.0006834576 -0.012808293 -0.033828117 0.043901365 0.022714952 -0.06007561
0.09191241 -0.038156275 -0.0698357 0.06256723 0.12508942 0.06300675 -0.0064610136 -0.060014576
-0.019766135 -0.0571454 -0.07623116 -0.073561996 -0.12891482 0.101614036 0.010781986 -0.042669334
0.06184902 -0.113333456 -0.09422372 -0.081376955 0.07329341 0.11193301 0.09831144 0.08107003
0.08321393 0.07300964 -0.08051276 0.07264366 0.1169977 0.037643194 0.021799427 -0.024553211
-0.0059255613 -0.066137314 0.1301237 -0.089217104 -0.07535023 -0.01319682 0.06580773 -0.10355488
0.061915744 0.03067281 -0.03676129 0.11694864 0.11121353 -0.090441465 -0.002798776 -0.022318477
0.07118782 0.05936148 0.09444409 -0.092090935 0.06952336 0.101248115 -0.07827912 0.0408264
-0.08818976 0.062413175 -0.08813953 -0.060456246 0.123415515 0.042655908 0.0015883473 -0.03317567
0.015638787 0.1143119 -0.024419064 -0.019794354 0.0045323097 -0.052217104 0.06375857 0.102745235
0.0064401687 -0.010891596 -0.025695127 -0.0586594 -0.060856562 0.055193685 0.0536803 -0.06731756
0.060820796 0.0017757985 -0.006185216 0.08381106 -0.1177351 -0.032457367 -0.044215668 0.12393923
-0.044980075 0.05850335 -0.11121436 0.07433205 -0.11958572 -0.060641255 -0.037023716 -0.11824183
-0.046941902 -0.06828366 -0.00808602 0.0835526 0.08286812 -0.051409096 0.09710703 -0.010546457
-0.051793564 -0.0153704155 -0.08260095 -0.0668781 0.053232923 0.09512755 -0.12307153 -0.10866407
0.038542707 -0.05029567 0.10610285 0.089360684 -0.015614444 -0.03574924 0.025941404 0.1146623
0.1122109 -0.02667328 -0.022501666 -0.030541178 0.08272615 0.11672966 0.008276243 -0.062070787
0.04314877 -0.08352182 -0.047886606 -0.0024035987 -0.028912319 0.045337416 0.0880141 0.03483942
0.06485892 -0.014273816 0.063998 -0.03748788 0.07696913 -0.12421927 -0.02536903 0.093998015
-0.083447285 -0.0016890923 -0.05374509 -0.10299737 0.01478978 0.053615868 0.1053155 0.06228326
-0.12975265 0.093162954 0.10186891 -0.1095531 -0.058989093 0.09480518 0.115457945 -0.07568433
-0.054764595 0.02363666 0.065710396 -0.007245085 0.03782358 0.031714186 -0.028998205 -0.06097486
0.11016943 -0.06682198 -0.02440876 -0.10162112 0.106294364 0.0025577722 -0.12472181 -0.085232586
00000000: e72a ff3d 1082 24bd 6d36 a9bd f3b7 213d
00000010: 2551 be3d 1281 70bd 3978 053e e913 b83d
00000020: da0f b8bc c5af ac3d f43c 4b3d 8db3 c33d
00000030: 38a1 883a 5ce2 8e3d d9cf 95bd 07b9 9abd
00000040: bbf7 173d 4277 50bc 67af e63c 98b8 c0bd
00000050: 6bd5 513d 56c0 143d 9827 9d3d 26a9 a4bd
00000060: cd96 333d 4d0e ffbc 25d5 613c f12a db3d
00000070: 10ea 5c3d 0826 403d 2dea 303d 0b86 05bd
00000080: 0e01 85bd 40a5 cfbd fef2 a5bd ec97 833d
00000090: e144 af3d c203 ae3d cd11 38bd 33f6 033e
000000a0: 3a92 aa3b 3e22 6dbd 7b5d 44bc 96ac 95bd
000000b0: a357 2b3d b0dd 6a3d a912 163d b278 c43d
000000c0: fd28 bd3d 549a c3bc 1908 aabd b881 a63d
000000d0: 8e45 96bd c16a 54bb 3db1 be3d 00de 01bd
000000e0: 6a0c 2fbd 958f 733c 2a21 febd f5b6 c23d
000000f0: 3072 0d3d d4a2 8e3d d530 aa3d c28a afbd
00000100: 79a6 393d 3854 febd 868d 95bd 61d2 34bc
00000110: be09 e2bd 44a7 6fbc fedd 0fbd 6cba db3d
00000120: 2d04 cc3a 3bbf bc3d 102a 333a e0d9 51bc
00000130: 5a8f 0abd ebd1 333d b514 ba3c d811 76bd
00000140: 933c bc3d c149 1cbd 0506 8fbd 3f23 803d
00000150: 7117 003e af09 813d e9b6 d3bb d8d1 75bd
00000160: 97ec a1bc 4c11 6abd 151f 9cbd aca7 96bd
00000170: 3f02 04be 051b d03d eda6 303c 0ac6 2ebd
00000180: 6655 7d3d 5f1b e8bd 5ef8 c0bd f6a8 a6bd
00000190: db1a 963d 223d e53d 8257 c93d 0b08 a63d
000001a0: 116c aa3d 1486 953d e0e3 a4bd 33c6 943d
000001b0: 7d9c ef3d c02f 1a3d b694 b23c d123 c9bc
000001c0: 362b c2bb 0073 87bd 263f 053e 75b7 b6bd
000001d0: 3951 9abd 7a37 58bc 34c6 863d 9514 d4bd
000001e0: 5d9b 7d3d 8b45 fb3c 0293 16bd c582 ef3d
000001f0: ebc3 e33d 6039 b9bd ab6b 37bb 3dd5 b6bc
00000200: ebca 913d 0625 733d e76b c13d 2c9a bcbd
00000210: 4362 8e3d 2c5b cf3d ce50 a0bd 9539 273d
00000220: d59c b4bd f5a4 7f3d 7f82 b4bd f8a0 77bd
00000230: 46c1 fc3d f6b7 2e3d 1730 d03a 36e3 07bd
00000240: ea1c 803c 5c1c ea3d 7d0a c8bc c527 a2bc
00000250: c583 943b 9ae1 55bd da93 823d 186c d23d
00000260: 0d08 d33b aa72 32bc 967e d2bc d744 70bd
00000270: bb44 79bd c612 623d e0df 5b3d cadd 89bd
00000280: 3a1f 793d e9c1 e83a 5aad cabb 22a5 ab3d
00000290: 1a1f f1bd 04f2 04bd 7d1b 35bd dad3 fd3d
000002a0: 073d 38bd 35a1 6f3d 5bc4 e3bd 673b 983d
000002b0: 5ce9 f4bd f762 78bd 2ea6 17bd c628 f2bd
000002c0: 2746 40bd 4ed8 8bbd 3a7b 04bc a01d ab3d
000002d0: c3b6 a93d 5892 52bd 0de0 c63d 0ccb 2cbc
000002e0: 7d25 54bd 32d4 7bbc b02a a9bd 63f7 88bd
000002f0: c40a 5a3d 3cd2 c23d ed0c fcbd 458b debd
00000300: f5de 1d3d d502 4ebd 734c d93d bc02 b73d
00000310: bad3 7fbc cc6d 12bd 1183 d43c 11d4 ea3d
00000320: d4ce e53d ec81 dabc 6a55 b8bc 7e31 fabc
00000330: 546c a93d f60f ef3d 1499 073c f03d 7ebd
00000340: c4bc 303d 7d0d abbd bf24 44bd b285 1dbb
00000350: 87d9 ecbc bab3 393d bd40 b43d c8b3 0e3d
00000360: c1d4 843d b9dc 69bc 6211 833d e48c 19bd
00000370: fea1 9d3d ac66 febd b6d2 cfbc 0882 c03d
00000380: 69e6 aabd 8864 ddba d023 5cbd 49f0 d2bd
00000390: d550 723c 509c 5b3d a7af d73d bb1c 7f3d
000003a0: e1dd 04be 38cc be3d a6a0 d03d 605d e0bd
000003b0: 8c9e 71bd 3829 c23d 3775 ec3d 6300 9bbd
000003c0: d750 60bd aba1 c13c 2c93 863d 2e68 edbb
000003d0: e6ec 1a3d bce6 013d a58d edbc c6c0 79bd
000003e0: 83a0 e13d f6d9 88bd e1f4 c7bc bc1e d0bd
000003f0: dcb0 d93d 4ca0 273b 266e ffbd 6c8e aebd

rnn.bias_ih_l0 f4 [256]
-0.11442938 -0.109283574 -0.06182898 -0.10733474 0.09259135 -0.08432075 0.10422898 -0.05265403
0.11976339 0.064953856 0.0018171929 -0.077519245 -0.0715614 0.073267214 -0.012613834 -0.0659801
0.09625645 -0.11431595 -0.00677486 -0.06914505 -0.057245646 0.13009517 0.101745665 -0.031228872
-0.03274328 0.13443008 0.08807098 -0.056265905 -0.026962174 0.109137975 0.086784475 0.13049279
-0.059503905 0.0046797213 0.083451435 0.09171365 0.052405678 -0.0073503028 0.082282774 0.09554087
0.0794104 -0.04918411 0.035790946 0.050850913 0.120648935 -0.037123874 0.0464816 0.017336061
0.03807653 -0.082942754 -0.033453543 -0.02176542 -0.015382393 0.010415313 -0.08817198 -0.017708309
-0.04552259 -0.09310406 0.08681712 -0.057306368 -0.039949816 -0.061464142 0.008414337 0.11385501
0.09076702 0.04374669 -0.07291202 -0.089212105 0.039564963 0.086285435 -0.0719491 -0.0005171858
0.017863242 0.09059507 0.026899016 -0.018630704 -0.09995561 0.05408996 -0.017232958 0.09278649
-0.023604693 -0.02185675 0.068530336 -0.05608054 0.04016944 -0.03173167 -0.09207449 -0.040561914
0.10392504 -0.042356677 -0.08069998 0.072308995 -0.054083876 -0.08712476 -0.111616775 -0.109737016
0.10290999 -0.045136616 -0.10642488 -0.050036743 0.054213457 -0.1002281 0.025001667 -0.0060618566
0.051101133 -0.09903056 -0.10059985 0.028191151 -0.036526594 0.08420109 0.007710187 0.075519495
-0.11456826 -0.014107053 -0.060879666 -0.05976698 -0.013332512 -0.019902242 0.018895177 -0.079650305
0.019632034 -0.122779 -0.06084805 -0.12303871 -0.005906396 -0.03058241 -0.0628267 -0.06869566
-0.09866309 0.10496279 0.05967765 0.07240844 0.09951671 -0.10591487 0.10266731 -0.013839196
0.09009292 -0.116857246 -0.08548884 -0.010776734 0.10934269 0.111118056 -0.10287811 0.10915828
0.0374178 0.058297306 -0.08672225 -0.06847031 -0.10125465 0.05032459 0.077321194 0.06611173
-0.0036076633 -0.09198308 0.1019221 -0.034848254 0.088420756 0.094623886 -0.069095515 0.059802208
0.005022725 0.11019179 0.010041102 0.06255052 0.04900905 -0.018381879 0.02539748 0.016234614
0.11631971 -0.08144464 0.034326825 -0.08859811 -0.092149764 0.04411775 0.10604948 -0.06664928
-0.00878939 0.02788873 0.039379768 0.03989073 0.04321443 -0.07024864 -0.03887884 0.014202256
-0.10272782 0.08241506 -0.018185744 0.04405118 -0.12472135 -0.050537102 0.048840847 -0.08881468
0.010277047 0.08887605 -0.094716795 0.1151242 0.047987953 0.0845991 0.12720382 -0.08691592
0.035195615 0.11612261 0.044783738 -0.0327378 -0.08560267 0.112636365 -0.032236833 -0.11749468
-0.006371073 -0.058236375 -0.000317502 -0.068017 0.12097692 0.12064333 0.0613915 0.018223235
0.10886272 0.032817632 0.1198911 -0.030174386 0.11817712 -0.05091757 -0.026136909 0.034008283
-0.082999215 -0.09144095 0.09631668 0.008329607 0.023829265 0.0007840318 -0.07865613 0.10066285
0.09020239 0.008513484 0.15996826 -0.0012403871 -0.04887615 -0.04232224 -0.013609214 0.12662344
-0.099666186 0.12805133 0.019516079 -0.07268386 -0.013820197 -0.03730145 -0.03405027 -0.007015189
0.068241484 -0.07401566 -0.098675594 0.07660924 0.1350114 -0.04050612 -0.11515105 0.020352501
00000000: f359 eabd 11d0 dfbd 6240 7dbd 51d2 dbbd
00000010: 89a0 bd3d 5bb0 acbd 0176 d53d c1ab 57bd
00000020: 8246 f53d 8706 853d e02e ee3a 69c2 9ebd
00000030: c98e 92bd 1f0d 963d 41aa 4ebc 9320 87bd
00000040: 1a22 c53d 7b1e eabd a5ff ddbb ec9b 8dbd
00000050: 697a 6abd ab37 053e 0860 d03d b1d3 ffbc
00000060: d11d 06bd 0aa8 093e 8f5e b43d 1477 66bd
00000070: c7df dcbc bb83 df3d 0fbc b13d e79f 053e
00000080: 5eba 73bd 5958 993b 96e8 aa3d 5ed4 bb3d
00000090: 56a7 563d cfda f0bb df83 a83d efaa c33d
000000a0: eba1 a23d 4775 49bd 8799 123d 0c49 503d
000000b0: ca16 f73d 340f 18bd 7d63 3e3d 5b04 8e3c
000000c0: 23f6 1b3d e4dd a9bd 9506 09bd 654d b2bc
000000d0: 6f06 7cbc fda4 2a3c 8393 b4bd 0411 91bc
000000e0: e575 3abd 57ad bebd 2dcd b13d 15ba 6abd
000000f0: 6ba2 23bd d3c1 7bbd 4adc 093c d12c e93d
00000100: 0fe4 b93d bb2f 333d e652 95bd d6b4 b6bd
00000110: df0e 223d 6bb6 b03d 0d5a 93bd c093 07ba
00000120: ef55 923c e889 b93d 535b dc3c 6b9f 98bc
00000130: 87b5 ccbd 6f8d 5d3d 222c 8dbc d806 be3d
00000140: a15e c1bc ed0c b3bc a259 8c3d b5b4 65bd
00000150: b688 243d 11f9 01bd 8d91 bcbd 4024 26bd
00000160: a7d6 d43d 327e 2dbd 0846 a5bd bd16 943d
00000170: 0e87 5dbd 776e b2bd 5697 e4bd cdbd e0bd
00000180: 79c2 d23d 2ce1 38bd 4af5 d9bd 54f3 4cbd
00000190: ee0e 5e3d 6444 cdbd 4cd0 cc3c 8aa2 c6bb
000001a0: 6c4f 513d 89d0 cabd 4b07 cebd 21f1 e63c
000001b0: e99c 15bd 9f71 ac3d bda5 fc3b f7a9 9a3d
000001c0: c4a2 eabd 4521 67bc f55c 79bd 39ce 74bd
000001d0: 9c70 5abc 070a a3bc 0fca 9a3c b31f a3bd
000001e0: 5cd3 a03c 8e73 fbbd ce3b 79bd b8fb fbbd
000001f0: 718a c1bb f687 fabc 49ab 80bd 4fb0 8cbd
00000200: e00f cabd bbf6 d63d 8d70 743d e04a 943d
00000210: 6bcf cb3d e5e9 d8bd 3d43 d23d ccbd 62bc
00000220: a382 b83d da52 efbd c614 afbd e690 30bc
00000230: 0fef df3d dd91 e33d c2b1 d2bd 608e df3d
00000240: 6843 193d 28c9 6e3d 6f9b b1bd 293a 8cbd
00000250: 995e cfbd 2821 4e3d 935a 9e3d 9665 873d
00000260: 8c6e 6cbb a061 bcbd 89bc d03d 0bbd 0ebd
00000270: f115 b53d 2bca c13d f381 8dbd 29f3 743d
00000280: ac95 a43b 3cac e13d 6f83 243c 7d1a 803d
00000290: b7bd 483d 9895 96bc 600e d03c 74fe 843c
000002a0: 0739 ee3d 73cc a6bd 499a 0c3d ed72 b5bd
000002b0: 04b9 bcbd d0b4 343d 7830 d93d 6b7f 88bd
000002c0: 6001 10bc e876 e43c ae4c 213d 7664 233d
000002d0: 9d01 313d 85de 8fbd 6b3f 1fbd 94b0 683c
000002e0: f762 d2bd 3ac9 a83d 45fa 94bc 036f 343d
000002f0: e86d ffbd feff 4ebd 570d 483d 79e4 b5bd
00000300: 0f61 283c a604 b63d e1fa c1bd 3dc6 eb3d
00000310: 048f 443d 4b42 ad3d b841 023e f900 b2bd
00000320: 4729 103d b1d1 ed3d 276f 373d 1218 06bd
00000330: 7450 afbd e5ad e63d c50a 04bd 0da1 f0bd
00000340: 6fc4 d0bb 4489 6ebd 6676 a6b9 7f4c 8bbd
00000350: bfc2 f73d da13 f73d a775 7b3d e548 953c
00000360: 6bf3 de3d c86b 063d 7789 f53d 4630 f7bc
00000370: d906 f23d f18e 50bd 121d d6bc 454c 0b3d
00000380: 7efb a9bd 6545 bbbd ae41 c53d e778 083c
00000390: 9735 c33c 7c87 4d3a 7716 a1bd 5328 ce3d
000003a0: 08bc b83d 247c 0b3c b8ce 233e 7c94 a2ba
000003b0: 5c32 48bd 165a 2dbd 2ef9 5ebc 93a9 013e
000003c0: c91d ccbd e31f 033e 2fe0 9f3c 47db 94bd
000003d0: 1c6e 62bc 68c9 18bd 4c78 0bbd acdf e5bb
000003e0: 31c2 8b3d 8695 97bd 6e16 cabd 4ee5 9c3d
000003f0: 6e40 0a3e bfe9 25bd 50d4 ebbd 4aba a63c

rnn.bias_hh_l0 f4 [256]
-0.12896469 -0.07357203 0.12614444 -0.089021176 0.008281219 0.1277808 0.14152117 -0.08951184
0.08339589 -0.09490698 0.06265048 0.11997491 0.084413834 0.046615522 0.0876606 -0.115962155
-0.12005613 0.051023457 -0.032265 -0.040943358 0.03253616 0.021706881 -0.029136587 0.035120167
0.040682234 -0.031067338 -0.10874963 0.09688648 0.054207694 0.00066752615 -0.022922598 0.0751846
0.012597202 -0.09769984 0.07638056 -0.029550709 -0.04096002 -0.03375201 -0.04883825 -0.1105173
-0.019927857 0.065355405 0.050124887 -0.050737526 0.056722626 -0.10757936 0.031154916 -0.09575334
0.015776101 -0.09403476 0.08026891 0.11908251 -0.055943888 0.09980452 0.15543425 -0.106052585
-0.07660753 -0.014247912 0.08171446 -0.019661982 -0.10087541 0.096770436 0.10781361 -0.020398326
0.03608549 -0.0012739429 0.014585908 0.007890881 -0.055362575 -0.03431639 -0.01865747 -0.05187686
0.1284004 0.029811176 0.00028213052 -0.108238004 -0.036786 0.05369781 0.0027334646 -0.12583071
-0.027320681 0.09749016 0.04693206 -0.032043878 -0.0041697854 0.035775352 -0.12355164 0.11465246
0.031082321 -0.11118649 0.11112367 0.09060805 0.025700081 -0.01154539 0.057317473 0.10763744
-0.036582142 -0.04445542 -0.07221386 0.12062423 -0.062063254 0.06212555 -0.04677637 0.07641116
0.05665761 -0.059773687 -0.08793795 0.10843098 -0.061499283 -0.026841756 -0.04506902 -0.007491969
0.048785195 0.08987575 -0.045182217 -0.104356624 -0.002002402 -0.0074410965 0.06891204 0.050427128
-0.046411607 -0.12643097 0.06745807 -0.010241092 0.103927754 0.04732535 -0.04270932 -0.04029872
-0.10213403 0.073672466 0.018117718 -0.100526474 0.08677183 -0.06923128 -0.04023297 -0.0029775174
-0.0045096744 -0.07561208 0.026583323 -0.056585502 -0.11220646 0.05272994 -0.05854359 -0.08406212
0.08664948 -0.052124318 -0.06635816 0.07180485 -0.060477044 0.089644685 -0.052870817 0.08332897
0.027514596 0.098716915 0.0605243 0.10741167 0.0893976 -0.03708015 0.054236405 0.012474087
0.03313263 -0.0027178195 0.123270266 0.007831107 -0.10188199 0.022703355 -0.05702495 0.04835848
-0.08904239 0.10040991 -0.059195854 -0.049176633 -0.03054253 0.013751466 -0.008196506 -0.0674001
-0.06916049 0.06812821 -0.055699416 -0.03699821 -0.020207284 0.028249621 0.011517605 0.036618397
-0.1207858 -0.090907246 -0.01044033 0.043309554 0.06336695 0.06531138 -0.08755136 0.09855628
0.104253896 -0.09459723 0.084291995 -0.0032268222 -0.113186866 0.03522431 0.12777327 -0.09333798
-0.065964065 0.11298712 -0.053412493 -0.091349036 -0.09919679 0.088978566 0.101521835 -0.06318113
0.11448102 0.060151476 -0.014928909 0.02031646 0.10254189 0.12876138 -0.093074515 0.08172133
-0.08852806 0.11495553 0.0926892 0.15361069 -0.031098828 0.008071059 -0.07972934 -0.032154284
-0.1206847 -0.014699401 -0.0052438625 -0.011206821 -0.0061575496 -0.020813603 0.09237399 0.067452535
0.054401528 -0.031544294 0.053035103 0.01347463 0.1268229 -0.093116164 -0.084717974 0.042275075
0.12130588 -0.08461249 0.11953143 -0.031410262 0.09689854 0.09420445 -0.087837435 0.015476739
0.07102873 -0.05303311 0.0028105688 0.003410225 -0.011562785 0.019924093 0.013204545 0.046279356
00000000: 520f 04be efac 96bd 022c 013e bc50 b6bd
00000010: f3ad 073c f8d8 023e edea 103e fc51 b7bd
00000020: 77cb aa3d 975e c2bd e54e 803d 68b5 f53d
00000030: 29e1 ac3d ebef 3e3d 6787 b33d 917d edbd
00000040: fddf f5bd f9fd 503d 4e28 04bd 39b4 27bd
00000050: a344 053d a1d2 b13c daaf eebc 2ada 0f3d
00000060: 6aa2 263d ee80 febc 20b8 debd 6b6c c63d
00000070: e308 5e3d ecfc 2e3a 2cc8 bbbc 62fa 993d
00000080: 7f64 4e3c db16 c8bd 696d 9c3d 5414 f2bc
00000090: b2c5 27bd 8c3f 0abd 9e0a 48bd e556 e2bd
000000a0: bf3f a3bc 0ed9 853d c14f 4d3d 27d2 4fbd
000000b0: fc55 683d 9152 dcbd 9838 ff3c 541a c4bd
000000c0: e23c 813c 4c95 c0bd 0764 a43d 88e1 f33d
000000d0: 6b25 65bd 5066 cc3d 282a 1f3e 1932 d9bd
000000e0: 69e4 9cbd 1370 69bc e959 a73d 2a12 a1bc
000000f0: c497 cebd 942f c63d 62cd dc3d 641a a7bc
00000100: 61ce 133d 6efa a6ba bbf9 6e3c c148 013c
00000110: dec3 62bd 588f 0cbd 8dd7 98bc d57c 54bd
00000120: 657b 033e 9136 f43c ebea 9339 e3ab ddbd
00000130: ebac 16bd 3cf2 5b3d ed23 333b c4d9 00be
00000140: 9fcf dfbc eca8 c73d d53b 403d 7140 03bd
00000150: b2a2 88bb 2d89 123d a408 fdbd e9ce ea3d
00000160: 5aa0 fe3c beb5 e3bd cf94 e33d b790 b93d
00000170: fa88 d23c e028 3dbc bac5 6a3d 0571 dc3d
00000180: 28d7 15bd e316 36bd dce4 93bd d609 f73d
00000190: 0a36 7ebd 5c77 7e3d 9498 3fbd 747d 9c3d
000001a0: cf11 683d 41d5 74bd d018 b4bd 1011 de3d
000001b0: ace6 7bbd 3ee3 dbbc 4b9a 38bd 317f f5bb
000001c0: fcd2 473d c710 b83d fd10 39bd edb8 d5bd
000001d0: bb3a 03bb 71d4 f3bb c121 8d3d ad8c 4e3d
000001e0: 191a 3ebd 1f77 01be 7527 8a3d 41ca 27bc
000001f0: 13d8 d43d 3ad8 413d f8ef 2ebd 4510 25bd
00000200: a52b d1bd 97e1 963d 9c6b 943c d3e0 cdbd
00000210: 6eb5 b13d 21c9 8dbd 54cb 24bd 7422 43bb
00000220: e4c5 93bb 82da 9abd 45c5 d93c 33c6 67bd
00000230: 80cc e5bd 59fb 573d 67cb 6fbd c328 acbd
00000240: 4875 b13d 4f80 55bd c9e6 87bd 6c0e 933d
00000250: c7b6 77bd a297 b73d 128f 58bd 61a8 aa3d
00000260: 4a66 e13c 182c ca3d 54e8 773d a6fa db3d
00000270: 1716 b73d 5be1 17bd fe26 5e3d 1d60 4c3c
00000280: 15b6 073d 721d 32bb 1f75 fc3d 0b4e 003c
00000290: 81a7 d0bd 63fc b93c fe92 69bd 8b13 463d
000002a0: db5b b6bd b6a3 cd3d 5a77 72bd 706d 49bd
000002b0: 5434 fabc d44d 613c a34a 06bc 1009 8abd
000002c0: 04a4 8dbd ce86 8b3d 1225 64bd 6f8b 17bd
000002d0: bf89 a5bc c06b e73c 56b4 3c3c 2cfd 153d
000002e0: 8c5e f7bd 942d babd eb0d 2bbc 5c65 313d
000002f0: 88c6 813d f9c1 853d 214e b3bd e0d7 c93d
00000300: 1183 d53d 31bc c1bd 48a1 ac3d 1879 53bb
00000310: 84ce e7bd 5e47 103d ffd6 023e fc27 bfbd
00000320: 2b18 87bd cb65 e73d 0fc7 5abd 3415 bbbd
00000330: b027 cbbd 653a b63d aeea cf3d 1c65 81bd
00000340: 0675 ea3d 6561 763d 6298 74bc b46e a63c
00000350: 7c01 d23d 06da 033e da9d bebd 835d a73d
00000360: 334e b5bd ce6d eb3d d6d3 bd3d 1f4c 1d3e
00000370: f8c2 febc 7a3c 043c 2349 a3bd 36b4 03bd
00000380: 8a29 f7bd c2d5 70bc b5d4 abbb d09c 37bc
00000390: 45c5 c9bb 4a81 aabc 932e bd3d 8e24 8a3d
000003a0: 23d4 5e3d 9734 01bd 563b 593d b2c4 5c3c
000003b0: dddd 013e b0b3 bebd 9e80 adbd a128 2d3d
000003c0: 386f f83d 5049 adbd e5cc f43d 0ca8 00bd
000003d0: be72 c63d 43ee c03d 1de4 b3bd 2692 7d3c
000003e0: 8377 913d 3f39 59bd 8531 383b 157e 5f3b
000003f0: d671 3dbc da37 a33c e057 583c 6c8f 3d3d

rnn.weight_ih_l0_reverse f4 [256, 1]
-0.057312865 0.0075616715 0.044928852 -0.11120659 0.06240607 0.083974555 -0.05784414 -0.08453657
-0.011369381 0.084585354 -0.011008422 -0.0047755535 -0.03612383 -0.067258544 -0.03156075 -0.055390526
0.010300472 -0.09928123 0.12787583 -0.121487804 0.030809794 -0.06543424 -0.10537302 -0.024951914
0.025254952 0.076211676 -0.06814583 -0.13574037 0.054914493 0.0023179047 0.09063393 -0.117853396
-0.08232335 -0.11021436 0.1457027 0.087940395 -0.091299854 -0.09711718 0.08041173 -0.030466694
0.02690388 -0.10404519 -0.0046121716 -0.12645225 -0.08449412 0.034437783 0.0026193366 0.016215501
-0.022327263 0.07376518 -0.056520198 0.024521891 0.08005412 0.063178435 -0.13923573 0.0142161865
0.0017311533 -0.12229264 0.06450797 0.02217047 0.07484818 0.046485532 -0.01590727 0.08453419
-0.0998375 -0.021165824 -0.013283473 0.06939163 -0.13315801 0.03228647 0.073029816 0.045096505
-0.00016878969 0.0028379005 0.021187268 0.06733794 -0.0062347674 0.0988006 -0.08920961 -0.14381732
0.062488034 -0.10604293 -0.05600943 0.106893785 0.035319045 -0.08166051 -0.070984595 -0.06230644
0.026725726 -0.016234986 0.051788606 -0.120099984 0.07132419 0.119257405 -0.072784185 -0.08573081
0.11875008 0.08839237 -0.005572005 -0.14008024 -0.05602762 0.070142 -0.10121087 0.0693799
-0.037601434 0.054695066 -0.029947635 0.02939947 0.09837164 -0.11829995 0.054575995 -0.047901504
-0.021775082 0.005678567 -0.060843322 0.08300168 -0.05876858 -0.1186873 0.10657052 0.030971237
-0.07161805 -0.088526055 -0.09547936 -0.0861879 0.08591802 -0.014923582 0.0451963 0.02950432
0.10384725 -0.08585613 0.10549885 0.12669829 0.022162102 -0.063348316 -0.1485264 -0.053705353
-0.075182155 0.13280225 -0.047711547 0.12648086 -0.11543915 0.03659191 -0.15155092 -0.11070383
0.09331029 -0.10598201 -0.12393216 -0.12027169 0.096225046 -0.07504977 0.13010475 -0.07435765
0.13685255 -0.086271286 0.12892462 0.12063905 0.07000577 0.042317457 0.027057804 -0.13121763
0.111444704 -0.05203944 0.025251314 0.04879497 -0.112088606 -0.11477711 0.04521103 -0.09978686
-0.110311456 -0.13409415 -0.14859964 -0.123625495 0.045567162 0.1539108 0.1462903 0.017440444
-0.030718487 -0.01209807 0.061536305 -0.021051442 -0.12859294 -0.09430886 -0.13746671 -0.10899865
0.05116429 -0.021295462 -0.06820431 -0.09055677 0.15434985 0.069836155 0.028147455 0.014310616
0.060478363 0.11809132 -0.078863725 -0.08729612 0.08026221 -0.11715515 0.09696753 -0.07757226
0.008173461 -0.0024170189 0.04178526 -0.00795424 0.008386903 -0.120608315 -0.11130972 0.082838684
0.02780246 -0.056756366 0.09832354 -0.08207341 -0.08653281 -0.13560994 -0.08199035 0.025092281
0.03140633 -0.11475263 0.011690713 -0.012877044 -0.03870577 -0.1091231 -0.058206342 -0.07417946
-0.07558991 -0.058169372 -0.003860087 -0.11082006 -0.12214208 0.09729204 0.06843891 -0.0023092334
-0.120164596 -0.015300532 0.043341395 0.08234547 0.0028098242 0.014934643 0.09179918 0.06909494
0.11319154 -0.030323578 -0.018104948 -0.046745606 -0.10752112 -0.09610941 -0.04588508 0.09419423
-0.10943683 -3.798217e-05 0.1358144 0.047816824 -0.07979539 0.0940887 -0.08212079 -0.11536439
00000000: e5c0 6abd e6c7 f73b 5107 383d 48c0 e3bd
00000010: 829d 7f3d dafa ab3d faed 6cbd 8221 adbd
00000020: a446 3abc 163b ad3d ab5c 34bc 3f7c 9cbb
00000030: 95f6 13bd d9be 89bd d845 01bd 2de1 62bd
00000040: 50c3 283c f553 cbbd e2f1 023e 99ce f8bd
00000050: d264 fc3c 6302 86bd cfcd d7bd f567 ccbc
00000060: 79e3 ce3c de14 9c3d 0a90 8bbd 86ff 0abe
00000070: 05ee 603d fde7 173b 489e b93d 1f5d f1bd
00000080: 2599 a8bd 11b8 e1bd 1733 153e 181a b43d
00000090: 6bfb babd 5fe5 c6bd e8ae a43d 4a95 f9bc
000000a0: 8765 dc3c a515 d5bd b321 97bb b37c 01be
000000b0: 410b adbd a20e 0d3d 2da9 2b3b 5fd6 843c
000000c0: aae7 b6bc 3312 973d b981 67bd 22e2 c83c
000000d0: 6af3 a33d b263 813d d093 0ebe 02eb 683c
000000e0: dee7 e23a 9074 fabd c11c 843d d89e b53c
000000f0: 014a 993d 9d67 3e3d f74f 82bc 4320 ad3d
00000100: 9a77 ccbd f363 adbc eda2 59bc 331d 8e3d
00000110: 935a 08be d13e 043d a890 953d 1db7 383d
00000120: 23fd 30b9 12fc 393b ec90 ad3c 79e8 893d
00000130: 054d ccbb f857 ca3d 87b3 b6bd d944 13be
00000140: 74f3 7f3d 092d d9bd 256a 65bd 21eb da3d
00000150: b4aa 103d a03d a7bd 5f60 91bd 0a35 7fbd
00000160: e9ef da3c 3cff 84bc 4a20 543d fbf6 f5bd
00000170: 6b12 923d 3a3d f43d e00f 95bd a393 afbd
00000180: 3e33 f33d 0f07 b53d 5e95 b6bb 3271 0fbe
00000190: 387d 65bd 9ca6 8f3d a547 cfbd 0d17 8e3d
000001a0: f603 1abd ef07 603d be54 f5bc 28d7 f03c
000001b0: 1277 c93d 3f47 f2bd 148b 5f3d 5e34 44bd
000001c0: a861 b2bc 4613 ba3b d936 79bd c9fc a93d
000001d0: 53b7 70bd 5412 f3bd a541 da3d 64b7 fd3c
000001e0: 7cac 92bd 264d b5bd af8a c3bd 4883 b0bd
000001f0: c9f5 af3d 0a82 74bc c11f 393d 0bb3 f13c
00000200: dead d43d 57d5 afbd c80f d83d 32bd 013e
00000210: 4c8d b53c c3bc 81bd 4e17 18be 25fa 5bbd
00000220: 1af9 99bd 50fd 073e 2f6d 43bd 3384 013e
00000230: 5c6b ecbd 66e1 153d 2a30 1bbe b1b8 e2bd
00000240: 7719 bf3d 190d d9bd 25d0 fdbd 0151 f6bd
00000250: a311 c53d b2b3 99bd 2e3a 053e d348 98bd
00000260: 1323 0c3e 00af b0bd d104 043e 9b11 f73d
00000270: 2f5f 8f3d 1255 2d3d 54a8 dd3c ea5d 06be
00000280: 1f3d e43d 4f27 55bd d8db ce3c 3cdd 473d
00000290: b68e e5bd 4310 ebbd 332f 393d 0e5d ccbd
000002a0: f9ea e1bd fa4f 09be 812a 18be 5d2f fdbd
000002b0: a2a4 3a3d cb9a 1d3e 20cd 153e 43df 8e3c
000002c0: 56a5 fbbc fc36 46bc 7e0d 7c3d 1374 acbc
000002d0: dead 03be 0125 c1bd 13c4 0cbe af3a dfbd
000002e0: a691 513d d273 aebc b4ae 8bbd d475 b9bd
000002f0: e30d 1e3e 4206 8f3d 7e95 e63c 1377 6a3c
00000300: 29b8 773d ddd9 f13d 4e83 a1bd 4fc8 b2bd
00000310: 8360 a43d 0aef efbd ea96 c63d 34de 9ebd
00000320: fbe9 053c d966 1ebb 0527 2b3d 8052 02bc
00000330: 3969 093c 7e01 f7bd 5af6 e3bd 54a7 a93d
00000340: fcc1 e33c 5d79 68bd da5d c93d 1b16 a8bd
00000350: 1d38 b1bd 55dd 0abe 8eea a7bd 548e cd3c
00000360: eda3 003d 6d03 ebbd 688a 3f3c 3dfa 52bc
00000370: f189 1ebd ef7b dfbd c669 6ebd 67eb 97bd
00000380: e2ce 9abd 0243 6ebd 83f9 7cbb a1f5 e2bd
00000390: a025 fabd 0d41 c73d b329 8c3d 8256 17bb
000003a0: db18 f6bd 15af 7abc bf86 313d bea4 a83d
000003b0: 0725 383b 6fb0 743c 3501 bc3d a681 8d3d
000003c0: f7d0 e73d 2769 f8bc d450 94bc 5278 3fbd
000003d0: 0834 dcbd 03d5 c4bd fef1 3bbd e8e8 c03d
000003e0: 6b20 e0bd 0b4f 1fb8 ee12 0b3e 93db 433d
000003f0: c46b a3bd 94b1 c03d f22e a8bd 2a44 ecbd

rnn.weight_hh_l0_reverse f4 [256, 64]
-0.048596572 -0.12275128 -0.041044753 -0.09156443 0.04971926 0.019616922 -0.09646155 0.104514524
0.07718845 -0.017333206 -0.10473001 -0.010302305 -0.074966125 0.004660321 0.10105778 0.055507362
-0.081502035 -0.020275991 -0.1123362 -0.0944388 0.10967458 0.1121527 -0.050300077 0.11722769
-0.033181336 -0.04267568 -0.111871 -0.07856422 -0.12871276 0.051593114 0.0785575 0.107072935
-0.004691048 -0.097213805 0.06277422 0.0739426 -0.035924487 0.10571476 0.08820225 -0.0030352564
0.058470223 0.07015816 -0.0068315957 -0.09992611 0.09345879 -0.015413791 0.005462172 -0.042505674
0.07854806 -0.12405661 -0.09296434 0.06488371 -0.07642518 -0.04696091 0.12705263 0.10087517
0.08415586 0.026209963 -0.08358438 -0.026072558 0.0793943 -0.01940267 -0.080568485 0.11590882
-0.04157675 -0.10960982 0.11531501 -0.070934325 -0.016731761 0.09633258 -0.114719145 0.101539746
-0.06006977 -0.014427844 -0.004756478 0.12888066 0.010717599 0.12608543 -0.15267876 -0.028653147
0.07286713 0.09691282 -0.0968441 0.023196876 0.05530057 -0.025812028 0.0486472 0.019134264
0.08978651 -0.119297124 -0.08123863 0.028324556 0.08145134 0.022642504 -0.025226323 -0.1459325
-0.03706734 -0.14695783 -0.06745235 0.030241635 0.08319674 -0.094765685 0.029543744 0.058470752
-0.02427532 0.013603665 -0.0085489275 -0.054684598 -0.030803777 0.060825717 -0.08757024 0.007151105
0.05334088 -0.045874692 -0.03253953 -0.11040718 0.01731005 -0.015958527 -0.05315977 -0.14401932
-0.0076159444 0.068934634 0.024210094 0.0029302724 0.0008534483 0.07886033 0.016981442 0.0012983714
0.11922072 0.09065588 0.0850446 0.06308157 -0.10192874 0.032455985 -0.09130194 0.09967296
0.058064993 0.08299247 -0.09394179 0.062024113 -0.05231374 -0.070154496 0.093981735 -0.13306083
0.13285477 0.05974238 0.08396052 -0.12034639 -0.011312743 -0.0011119113 0.051566128 -0.06459224
0.003331282 -0.0938183 0.047856126 0.10817007 0.10863098 -0.025356706 0.028387362 -0.084501356
0.06975335 -0.08133546 0.10967535 -0.11223458 0.08358696 -0.068750486 0.11975554 -0.015586854
-0.012771505 0.022725897 0.0023726863 -0.049964394 -0.08616402 -0.027493412 -0.071641475 0.091075644
0.038164075 0.102276936 0.10474735 -0.112303585 0.015047511 -0.098239586 -0.004078262 -0.013787054
-0.10033891 0.07540206 0.096149005 0.0026534032 0.06254186 -0.10787821 0.006027782 0.10427417
0.039016105 0.08412899 0.10528323 0.09043678 0.08488527 0.023659902 -0.0950992 0.01442971
0.07002155 -0.13802849 -0.037310388 0.048233844 0.13030344 -0.022294464 -0.08926653 -0.05274214
-0.056959357 0.043867122 0.11040044 -0.03740474 -0.081818186 0.0030491564 -0.10462877 0.053547654
-0.079018764 0.07092848 0.030112263 -0.056485556 0.0942171 -0.13526645 0.12838058 -0.027749443
0.09142544 0.107571885 -0.05946819 -0.08939684 -0.027077932 -0.025273927 0.079108655 0.007236296
0.046146914 0.121751055 0.1339541 -0.04548945 -0.0045564068 -0.06912175 -0.09549508 0.026722431
0.08913731 -0.07364832 0.07512106 0.0060456484 0.07954798 -0.003417647 -0.05187184 0.03434907
0.024954531 0.13358079 -0.05864895 0.10665756 0.031470165 0.02493789 -0.0889355 -0.068764314
00000000: 330d 47bd 0665 fbbd 8b1e 28bd 2286 bbbd
00000010: 6ca6 4b3d abb3 a03c a28d c5bd b60b d63d
00000020: fa14 9e3d 5efe 8dbc b07c d6bd 00cb 28bc
00000030: d787 99bd 9bb5 983b 62f7 ce3d b05b 633d
00000040: 8aea a6bd d619 a6bc 8610 e6bd 2169 c1bd
00000050: 119d e03d 51b0 e53d 7407 4ebd 1215 f03d
00000060: 27e9 07bd b2cc 2ebd 9f1c e5bd 47e6 a0bd
00000070: 47cd 03be 4d53 533d c1e2 a03d 0e49 db3d
00000080: 5db7 99bb 0818 c7bd c58f 803d 386f 973d
00000090: 8e25 13bd fb80 d83d 62a3 b43d 27eb 46bb
000000a0: 797e 6f3d 15af 8f3d 94db dfbb 0fa6 ccbd
000000b0: 5267 bf3d 208a 7cbc 05fc b23b 6e1a 2ebd
000000c0: cedd a03d 6411 febd 1664 bebd c0e1 843d
000000d0: ce84 9cbd 155a 40bd 161a 023e a497 ce3d
000000e0: e859 ac3d 47b6 d63c 4a2e abbd 1e96 d5bc
000000f0: 7b99 a23d 59f2 9ebc 1701 a5bd 9a61 ed3d
00000100: 624c 2abd 1d7b e0bd 472a ec3d 0446 91bd
00000110: 0c11 89bc 044a c53d dff1 eabd 12f4 cf3d
00000120: b80b 76bd c462 6cbc 3bdc 9bbb 4bf9 033e
00000130: de98 2f3c 8a1c 013e d257 1cbe 01ba eabc
00000140: 5d3b 953d 3b7a c63d 3356 c6bd 6007 be3c
00000150: da82 623d bf73 d3bc 4942 473d 76bf 9c3c
00000160: fde1 b73d 0d52 f4bd 7060 a6bd e608 e83c
00000170: f6cf a63d c67c b93c 6fa7 cebc 546f 15be
00000180: ecd3 17bd 1d7c 16be 7524 8abd 4ebd f73c
00000190: 0d63 aa3d 8314 c2bd b905 f23c 077f 6f3d
000001a0: 09dd c6bc e8e1 5e3c cd10 0cbc f5fc 5fbd
000001b0: 3458 fcbc 6324 793d 0758 b3bd d153 ea3b
000001c0: f77b 5a3d 1ae7 3bbd 2c48 05bd 291d e2bd
000001d0: cecd 8d3c 75bb 82bc 0fbe 59bd cd79 13be
000001e0: 2c8f f9bb 9a2d 8d3d 3f54 c63c d009 403b
000001f0: f2b9 5f3a 8681 a13d aa1c 8b3c 1d2e aa3a
00000200: fe29 f43d caa9 b93d dd2b ae3d e930 813d
00000210: 04c0 d0bd 91f0 043d 83fc babd 5621 cc3d
00000220: 8fd5 6d3d f5f7 a93d 8e64 c0bd ff0c 7e3d
00000230: ef46 56bd 29ad 8fbd 7f79 c03d 1941 08be
00000240: 150b 083e 6db4 743d 7ef3 ab3d 2b78 f6bd
00000250: 1559 39bc 8dbd 91ba 0137 533d f048 84bd
00000260: a351 5a3b cf23 c0bd c904 443d 4588 dd3d
00000270: eb79 de3d deb8 cfbc 9d8c e83c 0c0f adbd
00000280: d8da 8e3d 3593 a6bd 789d e03d 3edb e5bd
00000290: a42f ab3d 0ecd 8cbd 6442 f53d 0160 7fbc
000002a0: 933f 51bc a92b ba3c 127f 1b3b 77a7 4cbd
000002b0: c376 b0bd dd39 e1bc c4b8 92bd de85 ba3d
000002c0: ef51 1c3d 9276 d13d c785 d63d 6cff e5bd
000002d0: d689 763c d631 c9bd f1a2 85bb 19e3 61bc
000002e0: 7d7e cdbd 656c 9a3d c5e9 c43d b8e4 2d3b
000002f0: f215 803d 40ef dcbd b384 c53b b28d d53d
00000300: 5acf 1f3d d24b ac3d bc9e d73d eb36 b93d
00000310: 54d8 ad3d 69d2 c13c 5fc3 c2bd 976a 6c3c
00000320: 7567 8f3d 5757 0dbe c7d2 18bd da90 453d
00000330: 446e 053e e1a2 b6bc 5fd1 b6bd 2408 58bd
00000340: 374e 69bd 03ae 333d a019 e23d b635 19bd
00000350: 4b90 a7bd 5bd4 473b 9c47 d6bd c954 5b3d
00000360: 97d4 a1bd f342 913d fead f63c 665d 67bd
00000370: e5f4 c03d 4a83 0abe 3376 033e cd52 e3bc
00000380: 433d bb3d a64e dc3d eb94 73bd b115 b7bd
00000390: 8ad2 ddbc 440b cfbc b803 a23d 731e ed3b
000003a0: 8c04 3d3d 9e58 f93d 432b 093e 2553 3abd
000003b0: e94d 95bb b48f 8dbd ed92 c3bd 00e9 da3c
000003c0: 9f8d b63d eed4 96bd 12d9 993d 931a c63b
000003d0: 0dea a23d 9afa 5fbb 9177 54bd 9cb1 0c3d
000003e0: 726d cc3c 67c9 083e e239 70bd 476f da3d
000003f0: dce6 003d 8c4a cc3c d123 b6bd 4ed4 8cbd

rnn.bias_ih_l0_reverse f4 [256]
-0.06653811 0.13439529 0.086316474 0.005695685 -0.037762355 -0.059674047 0.10328686 -0.12404172
-0.08853947 0.09044726 -0.09971468 -0.04373959 0.004050504 0.10076485 -0.053853124 -0.017883087
-0.056881305 0.067228466 -0.12340977 0.07085803 -0.0899455 -0.006969756 0.06860008 0.13051197
-0.07653189 0.0827733 0.0110044675 -0.030932717 -0.11018365 -0.12882887 -0.13602065 0.08067464
-0.096968405 0.0737484 -0.015063551 0.07579949 0.08586678 -0.06924491 -0.010846591 -0.023491424
0.14274439 0.03921815 0.10742878 -0.003473049 0.09709971 0.028744709 0.014407565 0.07440888
-0.024394577 -0.072831206 -0.043841828 -0.013102649 0.11631739 0.10022316 0.093253195 -0.04382129
-0.11318731 0.036997166 0.06465605 0.062535375 -0.014271235 0.02072294 0.053667177 0.08988525
-0.06548678 0.002876706 0.10652917 -0.104313344 -0.023371344 0.107397705 0.029471617 -0.13277645
0.0020431434 -0.09858265 0.09207251 0.0728186 -0.06441403 -0.09946741 0.06568407 -0.069649644
0.030941064 0.074897945 -0.10261705 0.045817837 0.04229956 -0.10005078 0.034579378 0.09231388
0.104337074 0.04733801 0.008721079 0.053899582 -0.08759532 -0.092457496 -0.061132856 -0.027377702
-0.06089275 0.060384583 -0.10960916 0.120109394 -0.10046746 -0.007923967 0.029929033 0.06252183
0.061504662 0.06500172 -0.09850079 0.07955919 -0.09231799 0.110618636 -0.041395333 -0.074499816
0.012401441 0.060103897 0.04843684 -0.0844159 -0.06682723 -0.09569575 -0.10254381 -0.059770327
0.03717849 -0.005189342 -0.10965679 0.009655883 -0.0075192032 0.09575396 0.031544317 -0.1470012
0.06889324 0.08875033 0.10544678 0.074031636 0.0669454 0.11615516 -0.09469891 -0.062436625
-0.031324733 0.12243562 0.07857024 -0.09262634 0.07288126 -0.10057402 -0.08716277 0.05249084
-0.103318244 0.056539364 -0.023450691 -0.09514129 0.09439386 0.026609229 -0.062138814 0.058829952
0.027176129 0.04037912 -0.0361434 0.00888174 0.0816499 0.04071005 0.10598433 -0.044846024
0.04036395 -0.010743858 -0.020813202 -0.08186644 0.06333428 0.043029852 -0.024633702 -0.067011006
-0.119288124 -0.105385624 -0.09286389 0.00861604 0.05857886 0.11970165 -0.09147215 -0.09887478
0.108528696 0.011601023 0.026778925 -0.003647968 0.015231773 -0.05228626 0.02903186 -0.03221034
0.044472612 0.10911065 -0.01921524 -0.065063275 -0.019772338 0.02381505 0.013732039 0.04219242
0.0053944634 0.03695889 -0.0745961 0.10175294 -0.12388896 -0.074494824 0.08898633 -0.014062604
-0.020520784 0.120776676 -0.10172432 -0.09398519 0.034142643 -0.0887529 0.079774484 -0.08130344
0.10873163 0.11154077 0.093672894 -0.06317247 0.13365994 0.10686193 0.021917932 0.0018705613
-0.06621202 -0.034474257 -0.059321553 0.048299078 0.084296785 0.07460856 -0.0855684 -0.058913786
0.023483794 0.07387839 -0.07205209 0.002229487 0.100838825 0.018436892 -0.06987458 0.045450985
0.042880908 -0.080849044 0.12868744 0.031348724 0.0836014 0.0056572068 0.014193789 -0.117983095
0.05439085 0.044542644 -0.08617415 -0.110024035 -0.08959782 0.13484389 0.028454859 -0.0010617425
0.11076498 -0.08015077 -0.031482443 0.11104333 0.04063235 0.016209038 0.07812127 -0.045810916
00000000: 2245 88bd eb9e 093e b1c6 b03d dea2 ba3b
00000010: b3ac 1abd c66c 74bd 1088 d33d 9609 febd
00000020: 2f54 b5bd 6a3c b93d 3637 ccbd 4928 33bd
00000030: 17ba 843b cd5d ce3d 1895 5cbd 8d7f 92bc
00000040: 5ffc 68bd 14af 893d 43be fcbd 041e 913d
00000050: 5935 b8bd 8d62 e4bb 337e 8c3d eea4 053e
00000060: c0bc 9cbd 0c85 a93d 154c 343c 9c66 fdbc
00000070: f7a7 e1bd b7eb 03be ff48 0bbe bf38 a53d
00000080: 5f97 c6bd 6709 973d 1dcd 76bc c33c 9b3d
00000090: ecda af3d 46d0 8dbd e6b5 31bc 1671 c0bc
000000a0: 962b 123e 36a3 203d 9f03 dc3d 189c 63bb
000000b0: 36dc c63d 067a eb3c b50d 6c3c af63 983d
000000c0: 23d7 c7bc 8728 95bd 7d93 33bd 7eac 56bc
000000d0: d037 ee3d cd41 cd3d 88fb be3d f47d 33bd
000000e0: c0ce e7bd 578a 173d 646a 843d 8c12 803d
000000f0: e6d1 69bc 28c3 a93c 1dd2 5b3d c215 b83d
00000100: ef1d 86bd 1e87 3c3b f72b da3d 3ca2 d5bd
00000110: 4375 bfbc 54f3 db3d 766e f13c 8df6 07be
00000120: 42e6 053b b3e5 c9bd 8390 bc3d eb21 953d
00000130: 81eb 83bd 92b5 cbbd 5f85 863d 79a4 8ebd
00000140: 1d78 fd3c 1864 993d e328 d2bd 7cab 3b3d
00000150: 4e42 2d3d 6ce7 ccbd 1ba3 0d3d 0f0f bd3d
00000160: adae d53d 80e5 413d dbe2 0e3c cfc5 5c3d
00000170: 2d65 b3bd 5b5a bdbd 7266 7abd 3447 e0bc
00000180: ad6a 79bd d355 773d c47a e0bd eafb f53d
00000190: e2c1 cdbd 87d3 01bc bb2d f53c 720b 803d
000001a0: 50ec 7b3d 9f1f 853d c8ba c9bd eeef a23d
000001b0: 3711 bdbd 068c e23d 278e 29bd 5c93 98bd
000001c0: 6a2f 4b3c 812f 763d b565 463d 3ee2 acbd
000001d0: b7dc 88bd 22fc c3bd 7d02 d2bd bbd1 74bd
000001e0: 7948 183d 5b0b aabb bd93 e0bd b533 1e3c
000001f0: a663 f6bb a71a c43d 9d34 013d 7c87 16be
00000200: e617 8d3d bcc2 b53d 7bf4 d73d e69d 973d
00000210: ab1a 893d c2e2 ed3d 81f1 c1bd 8cbd 7fbd
00000220: 5d4e 00bd 87bf fa3d 6fe9 a03d e1b2 bdbd
00000230: c542 953d c0f9 cdbd 6582 b2bd a300 573d
00000240: 8498 d3bd d295 673d aa1b c0bc 70d9 c2bd
00000250: 9151 c13d 99fb d93c 4585 7ebd adf7 703d
00000260: 79a0 de3c 9364 253d 1a0b 14bd b884 113c
00000270: 1038 a73d 95bf 263d 500e d93d 77b0 37bd
00000280: ab54 253d 0207 30bc 7380 aabc 98a9 a7bd
00000290: 67b5 813d 1240 303d 9ecc c9bc 113d 89bd
000002a0: 554d f4bd 6bd4 d7bd 6c2f bebd 4b2a 0d3c
000002b0: 63f0 6f3d 2426 f53d c055 bbbd dc7e cabd
000002c0: 4b44 de3d 3812 3e3c 7a5f db3c bf12 6fbb
000002d0: b08e 793c 1e2a 56bd 39d4 ed3c fdee 03bd
000002e0: ea28 363d 6875 df3d 4769 9dbc e53f 85bd
000002f0: 99f9 a1bc c817 c33c 59fc 603c f6d1 2c3d
00000300: 0ac4 b03b 3462 173d d7c5 98bd d863 d03d
00000310: 7fb9 fdbd be90 98bd 773e b63d d666 66bc
00000320: 341b a8bc c359 f73d d754 d0bd 4f7b c0bd
00000330: 28d9 0b3d 15c4 b5bd ce60 a33d 6b82 a6bd
00000340: b0ae de3d 7d6f e43d 93d7 bf3d 9160 81bd
00000350: 27de 083e 6dda da3d 3c8d b33c 9f2d f53a
00000360: 2b9a 87bd e134 0dbd 28fb 72bd 41d5 453d
00000370: cba3 ac3d 5fcc 983d 7c3e afbd 954f 71bd
00000380: 1661 c03c 8e4d 973d 0c90 93bd 961c 123b
00000390: 9684 ce3d f708 973c 671a 8fbd d02a 3a3d
000003a0: e4a3 2f3d 2f94 a5bd a4c6 033e 8567 003d
000003b0: 3637 ab3d 1760 b93b 118d 683c 1fa1 f1bd
000003c0: f1c8 5e3d 5972 363d 137c b0bd 4854 e1bd
000003d0: 107f b7bd 8414 0a3e 2a1a e93c 2b2a 8bba
000003e0: c0d8 e23d 1626 a4bd bcf3 00bd af6a e33d
000003f0: 1b6e 263d d1c8 843c 0bfe 9f3d 3aa4 3bbd
