program/tugas ML/model/weights_200.pth (torch, 3888 bytes, 6 tensors)

0.weight f4 [8, 30]
00000000: f941 883e b648 9d3e 3f4b af3e 1236 643e
00000010: 9e56 70bd ab6f 1d3d f914 593e 7534 503e
00000020: 89f1 db3d 0726 903b fd87 de3c 7f2f d13d
00000030: 81ca 31be ff2b cabd b1b5 373e 2876 cd3e
00000040: 76c6 1fbe 74db 8d3e 6fe6 3b3e 5563 babd
00000050: 4bfd a53e 4cdd c7bc 2c6c b6be 7e43 26be
00000060: 7103 353e 602e 53be d9e8 bebd ce56 263d
00000070: 589b 61be 436a 61be a07e 86bb 4103 2ebe
00000080: 4d8c eabd 1a49 933b 58a6 c7bd cc17 1b3e
00000090: 1733 a7bc 239b 193e d3e2 3bbd e7d3 30be
000000a0: aed0 283e 6777 38be ec67 873d b829 26bb
000000b0: 17b4 08bd dfef 183e c1fa ea3d 92fd 2ebe
000000c0: 4568 1fbe 9e4a 7a3c caae 20be 6152 4f3c
000000d0: de94 bebd 1a1e 833d 6089 b83c 2721 cc3d
000000e0: 03a4 28be 5aec 09be 19d5 803d 248d 6dbc
000000f0: 62cd c7bc 0b20 aa3e 44ab 1e3e 1f64 6c3e
00000100: 6d8e d53d cc36 1cbd 6c3c a93e 4028 333e
00000110: 5656 67be d461 3bbd d8a1 853d 0499 16be
00000120: 2960 783d 8c84 45be e2a6 97bd 6d94 343f
00000130: deea 80be ccb2 053f bc30 883e 6c95 c3be
00000140: 98b4 d73e e2d3 333e 1b40 73be ea73 223e
00000150: f33f 053f d324 93be e780 97be 425d 16bd
00000160: b0b7 34be 728c 9fbe 7c55 7d3e 41a6 073e
00000170: a0d8 313e f57e 933e 90b9 8dbd 947b 4bbe
00000180: 68a0 7e3e 6a07 d9bc 6336 bb3d 1f46 2bbe
00000190: 8dd4 073e bb77 553b ea10 a4bb 3581 e33d
000001a0: f780 8d3d 20af c73e f1ea 65bd 6298 8b3e
000001b0: 8b9e af3e bb94 3cbe dc54 903e 4049 383c
000001c0: 39bb b6be 6a9f 353e 2183 a33e 0902 3bbe
000001d0: 6782 c1bd 7504 0d3d 81c5 febd c352 abbd
000001e0: 4ca9 af3d a752 8f3e 55b8 8a3e 5634 a33c
000001f0: a068 b8bc 9bb8 1ebe 9eb3 283e 77c7 693e
00000200: 6452 eabd 3ada 923a 56cd 463e 78d1 e3bc
00000210: 3e8a 993d 3548 14bc 3df1 14be ea3d 223f
00000220: becb a13d a610 103e 1d56 983e 9930 43be
00000230: 70ff eb3d b043 c83d de69 cbbd 56f4 0d3c
00000240: e1b5 303e 6824 993d b19b 2ebe 70df 573b
00000250: dc1a 1abe e569 e2bd 7786 923e 7a12 a4bd
00000260: 3a51 34bd ed51 133e 2d27 5f3d c688 c13e
00000270: 7ddc 69bd e10c 163d 5f82 de3e d5f2 d93d
00000280: 7de2 083e b343 053e 7fa1 373e 5e14 5c3e
00000290: 72a4 003e 50af 17bf b351 463e d659 96be
000002a0: 10f9 05be 324c ea3e 30d6 41be 1173 4a3d
000002b0: 1cda b33e f88e 07be b575 cdbe db60 023c
000002c0: 5a49 923e 7ff8 3f3e 97dc c23e 7293 d93e
000002d0: 0efa d53d eabe 633e 4327 223e 70a6 093d
000002e0: 35aa 903d 8cbc 5d3c 8ff4 033e 396d 193d
000002f0: b16e bebd fa71 39be 15e5 ed3c 27d0 043d
00000300: bae6 3b3c 64c3 37be 994b 353e 64b0 153f
00000310: 660e babc 8c2f d83e 1b26 a33e ae9d aebe
00000320: d650 c63e db3c 103c c501 2bbe 320b e9bd
00000330: bc1b ef3e b810 81bc 47a7 aebe db6c 15bc
00000340: 1ce4 08bd 65f4 d8bd 542d 8e3d 9553 cebe
00000350: 88a8 cabd 565b e03d 3802 393e 942b 553e
00000360: c089 8abe 860e ae3d b9c4 1c3f 5442 a73e
00000370: bd57 ba3d eeb5 c53d 9cab 4f3d 4490 663e
00000380: f60a 113e 20ab eabe 4513 b5bc ed40 3abe
00000390: 8668 7dbf 00bf 773e 9e6e 6fbf acc9 01bc
000003a0: eed3 2a3e 42ee 21be f86d 56be c14e e33d
000003b0: 07f8 843e ee8f 56be 4103 0a3e ad61 6a3e
0.26612833 0.30719537 0.34237096 0.22286251 -0.058676355 0.038436573 0.21199407 0.20332511
0.107394286 0.0043990645 0.027164454 0.10214137 -0.17362405 -0.09871673 0.17940404 0.4012921
-0.1560305 0.27706492 0.18349622 -0.09100977 0.3241981 -0.024397515 -0.35629404 -0.16236684
0.17677094 -0.2062316 -0.09321756 0.040610127 -0.22031915 -0.22013192 -0.0041044503 -0.16993429
-0.114525415 0.0044947984 -0.097485244 0.15145797 -0.020410104 0.15000586 -0.045870613 -0.17268334
0.16485855 -0.18014298 0.066116184 -0.0025354456 -0.033374872 0.14935254 0.11473609 -0.17088917
-0.1556712 0.015276579 -0.15691677 0.012653918 -0.09305738 0.06402226 0.022526443 0.09967261
-0.16468816 -0.13469067 0.06290645 -0.014498983 -0.024389926 0.33227572 0.1549502 0.23085068
0.10427556 -0.038138196 0.3305391 0.17495823 -0.22591528 -0.045747593 0.0652501 -0.14706808
0.06063858 -0.19288844 -0.07404877 0.7053898 -0.2517919 0.5222595 0.2659968 -0.38199937
0.4212997 0.17561296 -0.23754923 0.1586453 0.52050704 -0.28739032 -0.29590532 -0.03671003
-0.17648196 -0.3116184 0.24739641 0.13247015 0.17367792 0.28807798 -0.06920159 -0.1987136
0.24865878 -0.026492793 0.09141233 -0.16725968 0.13264675 0.0032572586 -0.005006899 0.11108629
0.06909364 0.39000797 -0.05613226 0.27264696 0.34300646 -0.18416111 0.28189743 0.011247933
-0.35689715 0.17736593 0.3193598 -0.18262495 -0.094487004 0.03442808 -0.12440015 -0.08365395
0.08577213 0.27992746 0.2709376 0.019922417 -0.022510827 -0.15500109 0.16474769 0.22829996
-0.11441496 0.0011203953 0.19414267 -0.027809843 0.07497071 -0.009050419 -0.1454515 0.63375723
0.07900189 0.14068851 0.297532 -0.19061507 0.1152333 0.09778535 -0.09932302 0.008664211
0.17256881 0.07477647 -0.17051579 0.0032939576 -0.15049309 -0.11055354 0.28618214 -0.080113366
-0.044022776 0.14386721 0.05448072 0.37799662 -0.05709504 0.036633376 0.4345884 0.1064202
0.13367648 0.13014106 0.179327 0.21492144 0.12562731 -0.5925188 0.19367103 -0.29365414
-0.13083291 0.45761257 -0.18929362 0.049426142 0.35127342 -0.13238132 -0.40128866 0.007957662
0.28571588 0.18747137 0.38058922 0.42495304 0.10448085 0.22240797 0.1583529 0.033605993
0.070637144 0.013533723 0.1288626 0.03745768 -0.092984565 -0.18109885 0.029039899 0.032425072
0.011468584 -0.1794563 0.1770462 0.58472276 -0.022711944 0.42223775 0.3186501 -0.34104675
0.38733548 0.008803572 -0.16699894 -0.113790885 0.46700847 -0.015755042 -0.34111997 -0.009120191
-0.033420667 -0.105934896 0.069422394 -0.40298143 -0.09895426 0.10954921 0.18067253 0.20817405
-0.2705822 0.08498864 0.61237675 0.32667792 0.09098766 0.09653841 0.05070077 0.2251597
0.14164338 -0.45833683 -0.022103915 -0.1818883 -0.98987615 0.24193954 -0.93528163 -0.0079216175
0.16682407 -0.15813544 -0.20940387 0.110990055 0.2597048 -0.20953342 0.13477804 0.22888823

0.bias f4 [8]
00000000: 82fc ed3e 2016 f7bd 23fc ef3e 5745 d93e
00000010: 2624 cd3e 4768 40be 2835 be3e 2805 24be
0.4648171 -0.12064767 0.46872053 0.42435715 0.40066642 -0.18789779 0.3714993 -0.16017592

3.weight f4 [8, 8]
00000000: 9b89 0cbe a392 0bbe bf94 3cbe 7378 403c
00000010: 623b b8be 982c a83e fd8f 38be c81a 703e
00000020: 4bcf 543e 91cc b4bb 9acc 2cbe 59a3 59be
00000030: dbc7 48be 2a43 aebe 41e0 6dbc 994e 373e
00000040: 9ce8 b83e d181 ef3c 24cf 3e3e cfa0 153f
00000050: 77d9 a13e 9a2b f8be e7a1 c83e 2781 e5bd
00000060: 24a1 19be ed60 2b3e 4721 143f d6ad 18be
00000070: d441 7fbd 1c5a 98be 2a77 e33e 9e79 ccbe
00000080: 8dec 973e 0f7d 643e 7463 873d 3c82 823e
00000090: 9bfa 7ebd 4d9c c0be f560 2f3d 5b75 33bf
000000a0: a24c 7cbd 7e5d 533e 414f af3e 4950 943e
000000b0: 759f c63e 2e26 27bf f87f ea3e 4ed4 fdbe
000000c0: 330b cc3e bb0d 843e 6d1c 193d 4e61 0c3f
000000d0: 216a 063f c3a9 41bd 9a6a 323e 6f21 d1be
000000e0: cb02 eb3e fb0f a1be d9cd f03e bdd2 0e3f
000000f0: 3d4d 863e 992b 8ebd 5231 253f 36bb 98be
-0.13724367 -0.13630156 -0.18416117 0.011747467 -0.35982805 0.32846522 -0.18023677 0.23447716
0.20782201 -0.0055175503 -0.16874924 -0.21253718 -0.19607489 -0.34035617 -0.014518798 0.17901076
0.36114967 0.029236706 0.18633705 0.584485 0.31611225 -0.48470765 0.39186022 -0.112062745
-0.15002877 0.16736193 0.5786328 -0.14910063 -0.062318638 -0.29756248 0.44426852 -0.39936537
0.2967266 0.22313331 0.06610766 0.25489986 -0.062250715 -0.37619248 0.042817075 -0.70100945
-0.06159652 0.20641133 0.34240153 0.28967503 0.3879353 -0.6529263 0.45800757 -0.49576038
0.39852294 0.25791726 0.037380625 0.54835975 0.5250569 -0.047281038 0.17423478 -0.4084582
0.45900568 -0.31457505 0.4703205 0.5579031 0.26230803 -0.06941909 0.6452838 -0.2983033

3.bias f4 [8]
00000000: 47cc e63d 8f65 8fbe c64b fa3e b939 123f
00000010: 4a72 fd3e d09c 043f 239f 073f c546 f63e
0.112694316 -0.2800717 0.48885936 0.5711933 0.49501258 0.51801777 0.529772 0.48100868

6.weight f4 [4, 8]
00000000: c7f3 a4bd c153 983d b026 ccbe a309 cebe
00000010: 2c4a 62bd 94e1 23be 6e66 16bf 5757 11bf
00000020: e6e5 8cbd feaf 853e 1b2f bebe f109 07bf
00000030: 8eaf 0ebf 6053 f9bd b5b2 00be d4e1 96be
00000040: 2b18 1e3e d4ab 543e 854f a7bd af20 c4be
00000050: 4b87 0f3d 0b72 11bf 2037 02bf f9eb 8fbe
00000060: ffb6 393d 8137 9bbe 0432 e4be c162 cbbe
00000070: 2803 96be 2d9c 02bf 86a2 09be 7efb a9be
-0.08054309 0.0743785 -0.39873266 -0.40241727 -0.055246517 -0.1600402 -0.58750045 -0.56773895
-0.06879787 0.26110834 -0.37145314 -0.52749544 -0.55736625 -0.12174106 -0.12568171 -0.29469168
0.15438907 0.20768672 -0.08169464 -0.38306186 0.035041135 -0.5681464 -0.50865364 -0.2810972
0.045340534 -0.30315784 -0.4456941 -0.3972378 -0.29299283 -0.51019555 -0.13440904 -0.33199686

6.bias f4 [4]
00000000: 4124 d0bd dada e0bd 0464 f5be b64c e6bd
-0.10163165 -0.109792426 -0.47927868 -0.112451
