program/tugas ML/model/weights_best.pth (torch, 3898 bytes, 6 tensors)

0.weight f4 [8, 30]
000000 e6 e0 86 3e e4 5b 9c 3e bc ac ae 3e 29 40 61 3e
       0.2634346 0.30538857 0.3411616 0.21997131
000010 36 d6 79 bd 78 aa 0d 3d 83 5c 5b 3e d6 ee 4d 3e
       -0.060995303 0.0345864 0.21422009 0.2011064
000020 bc bb d4 3d 4f 2e 1f 3b 03 56 d8 3c dc f5 cf 3d
       0.1038737 0.0024289077 0.026408201 0.10154316
000030 f5 a3 32 be 31 96 cb bd f5 ad 37 3e c9 a9 cf 3e
       -0.17445357 -0.09940756 0.17937453 0.40559223
000040 d6 83 20 be 5a 67 8f 3e 8d 22 41 3e e2 4e c1 bd
       -0.15675291 0.28008538 0.18860836 -0.09438874
000050 24 05 a7 3e ca d4 c7 bc f0 a7 b7 be 67 3c 26 be
       0.3262111 -0.024393458 -0.35870314 -0.16233979
000060 c1 b2 39 3e 3d 63 53 be f4 14 bd bd 5c e3 2a 3d
       0.18134595 -0.20643325 -0.09232512 0.041720733
000070 55 ec 60 be a5 c6 5f be b0 31 de ba 34 9d 27 be
       -0.21965154 -0.2185312 -0.0016952064 -0.16368562
000080 33 83 e9 bd 1f 48 51 3c ee b9 b2 bd b9 b2 29 3e
       -0.114019774 0.012773543 -0.087268695 0.16572084
000090 99 d6 48 bc 2e 43 1c 3e 78 d6 2a bd 06 cd 32 be
       -0.012258195 0.15260002 -0.04170844 -0.17461023
0000a0 1e 3e 28 3e 7f 0a 38 be 1f 2b 89 3d 37 41 08 bb
       0.16429946 -0.17972754 0.06697678 -0.0020790824
0000b0 4a ae 08 bd 38 32 20 3e 2e e1 eb 3d 41 58 33 be
       -0.03336934 0.15644157 0.11517559 -0.17514135
0000c0 91 18 23 be 02 d0 3e 3c f7 5e 24 be 9d 49 4f 3c
       -0.1592734 0.011646273 -0.16051851 0.012651828
0000d0 98 d1 bf bd 8f 18 83 3d 7f c9 9a 3c dc 25 cd 3d
       -0.09366149 0.064011686 0.018894909 0.10016987
0000e0 ec 9c 28 be 8d e6 09 be af cf 80 3d 16 83 6d bc
       -0.16466111 -0.13466854 0.062896125 -0.014496585
0000f0 18 bf ea bc 18 38 a9 3e 29 53 1c 3e 7a ca 67 3e
       -0.028655574 0.3305061 0.15266098 0.22635832
000100 d0 c6 d2 3d 45 01 2d bd 52 43 aa 3e 51 f6 30 3e
       0.10291827 -0.04223754 0.33254486 0.17281462
000110 4c 3b 6c be 4c be 41 bd 30 2a 85 3d 04 01 16 be
       -0.23069495 -0.047300622 0.06502187 -0.14648825
000120 25 c9 70 3d 39 21 48 be 70 a0 97 bd fb e8 35 3f
       0.058785576 -0.19543923 -0.07403648 0.71058625
000130 43 42 82 be 23 c2 05 3f 05 7c 8a 3e 93 7c c5 be
       -0.2544118 0.52249354 0.27047744 -0.38571605
000140 9a 0c d9 3e 47 cc 33 3e b4 9d 72 be 15 6d 22 3e
       0.42392427 0.17558394 -0.23692971 0.15861924
000150 7f 6f 06 3f 83 35 94 be b4 ab 96 be c7 c9 0f bd
       0.5251388 -0.28947076 -0.29427874 -0.03510454
000160 16 bf 33 be 2e d2 9d be 1d 15 7a 3e b3 f2 05 3e
       -0.17553362 -0.30824417 0.24422117 0.13080864
000170 a1 09 30 3e 05 0f 92 3e 5d 1e 8c bd 69 b0 4c be
       0.17191173 0.28527084 -0.06841729 -0.1998917
000180 81 c5 81 3e 8f 8e f4 bc 7c d9 b0 3d 4a ef 2e be
       0.25345996 -0.029853133 0.08635232 -0.17083469
000190 4d 58 07 3e d8 60 34 3b 91 55 d4 bb 0a 50 e1 3d
       0.13217278 0.0027523544 -0.006479927 0.11001594
0001a0 09 7b 8d 3d fb e0 c9 3e 8f 6f 6a bd 3a 14 8c 3e
       0.06908233 0.3942946 -0.057235297 0.27359182
0001b0 bf f2 b0 3e c9 d2 40 be 73 2d 91 3e 84 41 38 3c
       0.345602 -0.18830408 0.28354988 0.011246089
0001c0 cb ef b7 be ae 97 35 3e d4 bd a5 3e 2a d7 3c be
       -0.35925135 0.17733642 0.3237139 -0.18441454
0001d0 b4 1c c3 bd 4f 9a 0f 3d a1 36 00 be 04 9f ab bd
       -0.09526959 0.03505927 -0.1252084 -0.08379939
0001e0 ed f0 ab 3d 43 8f 8e 3e bd 10 8a 3e 05 d3 8c 3c
       0.08395562 0.27843675 0.26965895 0.017190466
0001f0 69 b3 c6 bc e9 2f 22 be cf b4 2b 3e 35 41 67 3e
       -0.024255471 -0.15838589 0.16768192 0.22583468
000200 89 4d f0 bd 7e 69 1f 3b 4d b7 4a 3e 30 78 f0 bc
       -0.11733539 0.0024324353 0.19796486 -0.029354185
000210 dd 3d 96 3d c1 b7 2c bc ec ea 14 be 56 1f 23 3f
       0.07336018 -0.010541857 -0.1454274 0.6371969
000220 b3 9c 9e 3d b1 6b 13 3e a8 9e 9a 3e 17 97 47 be
       0.07744732 0.1439655 0.3019917 -0.1949123
000230 52 44 f4 3d 2e 3b c8 3d 10 29 d0 bd 47 ee 0d 3c
       0.119270936 0.09776913 -0.10164082 0.008662767
000240 82 62 33 3e 35 ef 97 3d ff af 2f be 12 3d a1 3b
       0.17518046 0.07418672 -0.17156981 0.00492061
000250 d4 2d 1b be f8 ed e2 bd a6 a9 93 3e 27 b6 ac bd
       -0.15154201 -0.11080545 0.2884037 -0.0843318
000260 77 1c 2a bd c9 cd 14 3e 18 ab 62 3d c5 4b c3 3e
       -0.041531052 0.14531626 0.05533895 0.38143745
000270 be f4 77 bd 9c ef 19 3d a6 86 e1 3e 58 2b df 3d
       -0.06053614 0.037582025 0.4404804 0.10896939
000280 ea 3a 09 3e 83 70 06 3e 97 b1 38 3e 76 7c 5d 3e
       0.1340138 0.13128857 0.18036495 0.2162951
000290 08 9f 00 3e f7 4e 18 bf f8 bd 47 3e 61 3f 98 be
       0.12560666 -0.5949549 0.19506061 -0.29735854
0002a0 98 74 06 be 49 6e eb 3e 8f 39 42 be 8f 6a 4a 3d
       -0.13130414 0.45982578 -0.1896727 0.04941803
0002b0 1a 30 b4 3e 4c 89 07 be fa 97 cf be ca fa f1 3b
       0.3519295 -0.13235968 -0.40545636 0.0073846327
0002c0 1e 0e 91 3e e6 f9 3d 3e a5 20 c1 3e dc 65 d8 3e
       0.28331083 0.1855236 0.37720218 0.42265213
0002d0 3b be cf 3d 06 2a 62 3e 7d 36 22 3e 4d df fd 3c
       0.101437055 0.22086343 0.15841098 0.030990267
0002e0 5f 3b 8c 3d 05 40 0f 3c d7 1b 06 3e 6d 35 11 3d
       0.06847262 0.008743291 0.13096558 0.03545134
0002f0 f9 26 c9 bd 89 cb 3b be ef 94 ec 3c 4b 65 03 3d
       -0.098218866 -0.18339361 0.02887961 0.032079022
000300 f8 c2 24 3c 97 13 39 be fe 43 35 3e d6 2e 17 3f
       0.01005625 -0.18073879 0.17701718 0.5905584
000310 fb 39 c5 bc 34 68 d9 3e b7 95 a4 3e b3 db b0 be
       -0.024075499 0.42462313 0.32145473 -0.34542617
000320 00 3e c9 3e cc 36 10 3c de 17 2d be 66 01 e9 bd
       0.39305115 0.008802127 -0.16903636 -0.1137722
000330 e8 14 f1 3e be 92 8d bc 0b bf ac be 7b 98 38 bc
       0.47086263 -0.017281886 -0.33739504 -0.011266823
000340 e6 bc ef bc 45 d3 d4 bd 74 47 8e 3d 94 11 d1 be
       -0.029264878 -0.10391859 0.06947222 -0.40833724
000350 64 fc c9 bd 9c ba dc 3d 80 fa 34 3e c4 bd 54 3e
       -0.09862593 0.107777804 0.17673683 0.20775515
000360 2c c6 8e be 83 bb a9 3d f3 10 1e 3f ca 7b a7 3e
       -0.27885568 0.08287718 0.6174461 0.3271163
000370 69 81 b2 3d 48 93 c9 3d 38 ef 60 3d 68 c9 6a 3e
       0.08716089 0.09842545 0.054915637 0.22928393
000380 c6 04 11 3e 58 1d ec be 74 86 92 bc 34 a9 36 be
       0.14161977 -0.46116138 -0.017886378 -0.17837983
000390 2c 39 7f bf c4 0a 7c 3e d5 3f 71 bf 21 c4 01 bc
       -0.9969661 0.24613482 -0.94238025 -0.007920296
0003a0 43 c0 2b 3e 6d e7 21 be e6 72 5b be 53 b8 e7 3d
       0.16772561 -0.15810938 -0.21430549 0.11314454
0003b0 c9 bb 85 3e a2 8a 5a be 3f 44 0b 3e c8 97 69 3e
       0.2611983 -0.21341947 0.13600253 0.22811806

0.bias f4 [8]
000000 45 9e ed 3e f0 12 f1 bd 19 29 ef 3e e1 c3 d8 3e
       0.46409813 -0.1177119 0.46711043 0.42336944
000010 0b aa cc 3e c6 37 40 be fa 9e be 3e 28 dd 26 be
       0.39973482 -0.18771276 0.37230664 -0.16295302

3.weight f4 [8, 8]
000000 58 87 0c be c6 90 0b be 78 3a 3d be 72 69 54 3c
       -0.13723505 -0.13629445 -0.18479335 0.012964593
000010 02 a6 b7 be d9 d6 a9 3e 84 1e 38 be 16 f4 72 3e
       -0.3586884 0.33171728 -0.17980391 0.23725924
000020 b1 92 54 3e f6 c4 b4 bb 41 c5 2c be 32 9a 59 be
       0.20759083 -0.0055166436 -0.16872121 -0.21250227
000030 59 bf 48 be d1 3b ae be 34 27 70 bc 4e e0 36 3e
       -0.19604243 -0.3403001 -0.014657784 0.17859003
000040 e8 63 b8 3e 7a 96 1a 3d ab 31 3e 3e f4 87 15 3f
       0.36013722 0.037741162 0.18573634 0.58410573
000050 52 c1 a1 3e 42 95 f8 be 4a 49 c9 3e a4 f5 eb bd
       0.31592804 -0.48551375 0.39313728 -0.115214616
000060 3d a3 1a be c0 0f 32 3e a3 b9 13 3f 13 1a 19 be
       -0.15101333 0.1738882 0.57705134 -0.14951353
000070 2e 96 79 bd d3 68 99 be 1e 4a e4 3e 0a d3 ce be
       -0.060934238 -0.29962787 0.44587797 -0.40395385
000080 71 66 97 3e cc 82 64 3e 6e c3 85 3d 79 93 82 3e
       0.29570344 0.2231552 0.06531416 0.25503138
000090 c7 34 7b bd 16 38 c2 be fc 51 38 3d e5 9b 34 bf
       -0.06132963 -0.37933415 0.04500006 -0.70550376
0000a0 a1 0e 81 bd ac b3 59 3e 25 b2 ae 3e 51 a4 93 3e
       -0.06301618 0.21259946 0.34120288 0.288363
0000b0 10 98 c6 3e 30 21 28 bf f6 7a ea 3e 86 40 00 bf
       0.3878789 -0.6567564 0.45796937 -0.50098455
0000c0 e1 5f cb 3e ca 9f 85 3e 1d a4 15 3d 64 2e 0c 3f
       0.39721587 0.26098472 0.036533464 0.54758286
0000d0 55 2b 06 3f 81 d8 3e bd 00 8c 32 3e 69 98 d2 be
       0.5240987 -0.046593193 0.17436218 -0.41131905
0000e0 97 87 ea 3e 45 07 a0 be 83 69 f0 3e 63 b2 0e 3f
       0.45806572 -0.31255546 0.469555 0.55740947
0000f0 5b b4 85 3e d7 26 91 bd a4 50 25 3f 24 9e 99 be
       0.26114163 -0.07087486 0.6457617 -0.30003464

3.bias f4 [8]
000000 9d c9 e7 3d 45 78 8f be f2 c4 fb 3e 15 8b 13 3f
       0.113177516 -0.28021446 0.49173695 0.576341
000010 d6 70 ff 3e 35 3d 05 3f b3 32 08 3f 8e 09 f7 3e
       0.49890774 0.5204652 0.5320236 0.48249477

6.weight f4 [4, 8]
000000 7e c2 ab bd 4a 10 98 3d 59 eb cc be 9e 60 d0 be
       -0.08386706 0.07424982 -0.40023306 -0.40698713
000010 a2 c6 6e bd 52 31 26 be bb a4 16 bf 73 5f 11 bf
       -0.0582949 -0.16229752 -0.5884511 -0.5678627
000020 a4 6a 8f bd 8f 96 85 3e 8a 28 be be dc af 07 bf
       -0.07002762 0.2609143 -0.37140304 -0.53002715
000030 c3 20 0f bf 38 8a fd bd 89 b3 01 be 93 cf 96 be
       -0.55909365 -0.12379879 -0.12666143 -0.29455242
000040 81 e6 1f 3e 29 70 54 3e f5 80 ab bd c2 94 c5 be
       0.15615274 0.2074591 -0.08374206 -0.38590056
000050 d1 f4 09 3d ea 84 11 bf 04 ea 01 bf f9 6a 90 be
       0.03368074 -0.56843436 -0.50747705 -0.28206614
000060 62 13 33 3d c6 44 9b be 14 81 e4 be 02 cd cc be
       0.043719657 -0.30325907 -0.4462973 -0.4000016
000070 95 ce 97 be ce f3 02 bf 94 84 0a be eb c2 a9 be
       -0.29649797 -0.51153266 -0.13527137 -0.33156523

6.bias f4 [4]
000000 b8 2b d5 bd fd 7d e4 bd 43 39 f6 be 4c 71 ea bd
       -0.10408729 -0.11156843 -0.48090562 -0.11447391
