program/tugas ML/model/weights_50.pth (torch, 3878 bytes, 6 tensors)

0.weight f4 [8, 30]
0	0x3ec63739	0.38714007
1	0x3e957d4b	0.29197153
2	0x3eaf7ad4	0.34273398
3	0x3ea897d1	0.32928327
4	0x3d968eae	0.07351433
5	0x3e8ff22f	0.2811446
6	0x3e379856	0.17929205
7	0x3eafb6e8	0.34319234
8	0x3eadb2c8	0.33925462
9	0x3e4696c7	0.19393454
10	0x3da59404	0.08084872
11	0x3e54fd3a	0.20799723
12	0xbd2550b9	-0.040360186
13	0xba2522bb	-0.0006299426
14	0x3e393bfe	0.18089291
15	0x3e04673b	0.12930004
16	0xbd57b78d	-0.052665282
17	0x3e74a15d	0.2388968
18	0x3d3251ca	0.04353503
19	0x3dea5bca	0.114432886
20	0x3e3825f9	0.17983235
21	0xbcc986b0	-0.024600357
22	0xbe0cb0be	-0.13739297
23	0xbe27a5fc	-0.16371912
24	0xbd70a759	-0.058753345
25	0xbd4921bd	-0.04910444
26	0x3d8a86c3	0.06763985
27	0x3e146d6a	0.14494863
28	0xbd22e460	-0.039768577
29	0xbd820764	-0.06349066
30	0xbcb6ca3d	-0.022313232
31	0xbe38bf74	-0.18041784
32	0xbdde9ac7	-0.10869365
33	0xbc359299	-0.011082315
34	0xbdce6610	-0.100780606
35	0x3e1861d6	0.14881071
36	0xbcb901b6	-0.022583824
37	0x3e16a90c	0.14712924
38	0xbd5d94a6	-0.05409684
39	0xbe3249be	-0.17410943
40	0x3e2a3818	0.1662296
41	0xbe3ba5cc	-0.18324965
42	0x3d84495f	0.06459307
43	0xbb88eb6d	-0.0041784556
44	0xbd09d621	-0.033651475
45	0x3e168da6	0.14702472
46	0x3de99abc	0.11406466
47	0xbe30724a	-0.17231098
48	0xbe20baf5	-0.15696318
49	0x3c7c5e08	0.015403278
50	0xbe220464	-0.15821987
51	0x3c5109b0	0.012758657
52	0xbdc02aec	-0.09383187
53	0x3d843340	0.06455088
54	0x3cba128a	0.022713918
55	0x3dca821f	0.098881
56	0xbe2a0a9d	-0.16605611
57	0xbe0b109c	-0.13580555
58	0x3d81e609	0.06342704
59	0xbc6f84c9	-0.014619061
60	0x3e183cb7	0.14866911
61	0x3ebac9ff	0.36482236
62	0x3e00b854	0.12570316
63	0x3ec4756d	0.3837084
64	0x3e8e347a	0.2777441
65	0x3e71c4c0	0.2361021
66	0x3e8c1e30	0.2736678
67	0x3eb36a75	0.35042158
68	0x3dc6a63f	0.09699678
69	0x3e3e07e2	0.18557695
70	0x3e08f87f	0.13376044
71	0xbd4f8ead	-0.050673176
72	0x3e663353	0.22480516
73	0xbd29f656	-0.04149469
74	0xbd98e926	-0.074663445
75	0x3e9b22f1	0.30300096
76	0xbdbdff5c	-0.092772216
77	0x3eb6b273	0.3568302
78	0x3d4891d1	0.048967186
79	0xbe217398	-0.15766752
80	0x3e6168ad	0.22012587
81	0x3e355028	0.17706358
82	0xbd12130a	-0.03566269
83	0x3e23cd17	0.15996204
84	0x3e7d1b74	0.24717504
85	0xbdc62e00	-0.096767426
86	0xbe48a46b	-0.1959397
87	0x3ab6bcf0	0.0013941806
88	0xbd65f3d0	-0.05614072
89	0xbe696834	-0.22793657
90	0x3ec02e6b	0.37535414
91	0x3e1690de	0.147037
92	0x3e3f0e24	0.18657738
93	0x3eceb572	0.40372807
94	0x3d8b83f0	0.068122745
95	0x3cbcdf5e	0.023055729
96	0x3e47d011	0.19512965
97	0x3dddac45	0.108238734
98	0x3eab6aca	0.3347991
99	0x3c310895	0.010805269
100	0x3e2f172e	0.17098686
101	0x3df9a8e8	0.121904194
102	0x3e0f6ad3	0.14005594
103	0x3e6e1d77	0.23253427
104	0x3d8eaeba	0.0696692
105	0x3dbfc1bd	0.093631245
106	0x3d8ef6d1	0.0698067
107	0x3e52a1a2	0.2056947
108	0x3e4f37d0	0.20236135
109	0x3c953ef5	0.018218497
110	0x3e0137df	0.1261897
111	0x3c39d203	0.011341575
112	0xbe2239cd	-0.15842362
113	0x3e372222	0.17884114
114	0x3da10b0c	0.07863435
115	0xbcf4dc43	-0.029890185
116	0x3d87601e	0.0661013
117	0x3e240bc0	0.16020107
118	0x3d55f7bc	0.05223821
119	0x3dae259e	0.08503269
120	0x3e25531a	0.16144982
121	0x3e900b1a	0.2813347
122	0x3e84978d	0.25896874
123	0x3dae6c06	0.085166976
124	0x3d9c4d63	0.07631948
125	0x3d025c4d	0.031826306
126	0x3d3a9873	0.045555543
127	0x3eb939f6	0.36177033
128	0x3deda888	0.116044104
129	0x3e168194	0.14697868
130	0x3e347be5	0.17625387
131	0x3cbaf394	0.022821225
132	0x3e221004	0.15826422
133	0x3d6b0975	0.057382066
134	0xbe162d0f	-0.14665626
135	0x3e99fb1e	0.300744
136	0x3e1af0d7	0.15130936
137	0xbc101fb4	-0.008796621
138	0x3e0d7e4e	0.13817713
139	0x3c2890b6	0.010288408
140	0xbd12abee	-0.035808496
141	0x3dc9ed14	0.09859672
142	0x3da2a6de	0.07941984
143	0x3c0f2344	0.008736435
144	0xbdafd883	-0.08586218
145	0x3e270378	0.16309917
146	0xbbac3bd2	-0.0052561546
147	0x3d813409	0.06308753
148	0x3d04f4b9	0.03245995
149	0x3d717ce6	0.058957003
150	0x3e00607a	0.12536803
151	0x3e1db41d	0.15400739
152	0xbda147ce	-0.07875024
153	0x3d6a8a79	0.057260964
154	0xbd87b04d	-0.066254236
155	0x3df4fbde	0.11962102
156	0x3ddcdc58	0.10784215
157	0x3d8cdb45	0.0687776
158	0x3e1ccf58	0.1531347
159	0xbd9e03a5	-0.07715539
160	0x3dde253f	0.10846948
161	0x3e222e04	0.15837866
162	0x3e388d21	0.18022586
163	0x3e5aacf1	0.21355034
164	0x3e01b439	0.12666406
165	0xbe053e52	-0.13012055
166	0x3e3b4789	0.18289007
167	0x3d9d41ca	0.07678564
168	0x3df2f77c	0.1186361
169	0x3e558342	0.20850852
170	0x3cf9f734	0.030513383
171	0x3d4c2210	0.049837172
172	0x3e48838b	0.1958143
173	0xbe08b0a8	-0.13348639
174	0xbdcc37f2	-0.09971608
175	0xbcd741f8	-0.026276574
176	0x3e216182	0.15759853
177	0x3d0717b7	0.0329816
178	0x3e744a27	0.23856412
179	0x3e876b02	0.26448828
180	0x3e804f7e	0.25060648
181	0x3e7d98cf	0.24765323
182	0x3e0944cb	0.13405149
183	0x3e1be541	0.15224172
184	0x3e7ea668	0.24868166
185	0x3e8dfb74	0.27730906
186	0x3d889154	0.06668344
187	0x3e437afe	0.19089887
188	0x3e5a0b22	0.2129331
189	0x3afbe609	0.0019218336
190	0x3d99ba3c	0.075062245
191	0x3dedffba	0.116210416
192	0x3df0c726	0.117567345
193	0xbdd59da9	-0.10430462
194	0x3e36ce27	0.17852078
195	0x3e591db5	0.21202739
196	0x3d7903e9	0.060794745
197	0x3e8dc0de	0.27686208
198	0x3e0ad25c	0.13556808
199	0xbe001e3a	-0.1251153
200	0x3e4a5a52	0.19761017
201	0x3c116f61	0.008876652
202	0x3d2d7b00	0.04235363
203	0xbdeafb27	-0.11473685
204	0x3e4fb116	0.20282397
205	0x3deba769	0.1150654
206	0xbe64e6e9	-0.2235371
207	0x3e059c28	0.1304785
208	0x3db315be	0.08744381
209	0x3cf39ae5	0.029736945
210	0xbe080ac0	-0.13285351
211	0xbe254424	-0.16139275
212	0xbe33f779	-0.17574872
213	0x3d854f44	0.06509259
214	0x3d7eb10b	0.06218056
215	0xbd8dfa83	-0.06932547
216	0xbe0429a2	-0.12906507
217	0x3d187ad7	0.037226524
218	0x3e617363	0.22016673
219	0x3df55e09	0.119808264
220	0x3df14adf	0.11781859
221	0x3d43b6ca	0.047781743
222	0xbd3a3572	-0.045461126
223	0x3e1166d6	0.14199385
224	0x3e124056	0.14282355
225	0xbc8af74d	-0.016963625
226	0xbdf60b84	-0.12013915
227	0x3d39d67b	0.04537056
228	0xbe1adaac	-0.15122479
229	0xbd4ac84d	-0.049507428
230	0xbdc4f8ab	-0.09617742
231	0xbc02ded2	-0.007987695
232	0xbda5cac3	-0.08095314
233	0xbe2344e9	-0.15944256
234	0x3dec2d4e	0.11532079
235	0xbb67188e	-0.0035262438
236	0x3ccf1f60	0.025283515
237	0xbe1144c3	-0.14186387
238	0xbdf603f7	-0.12012475
239	0x3cf17716	0.02947573

0.bias f4 [8]
0	0x3edf2c5a	0.43588525
1	0xbe00e498	-0.12587202
2	0x3ecf088a	0.40436202
3	0x3ed119d2	0.40840012
4	0x3eb37bc5	0.35055366
5	0xbd9bcb74	-0.07607165
6	0x3e9d1cb4	0.3068596
7	0xbd2c8709	-0.042120967

3.weight f4 [8, 8]
0	0xbe03c5f6	-0.12868485
1	0xbe0cae66	-0.13738403
2	0xbe1b0076	-0.15136895
3	0x3d1734d8	0.03691563
4	0xbeb6a0f1	-0.35669664
5	0x3e98c80b	0.2984012
6	0xbce69ea7	-0.028151823
7	0x3e6aff28	0.22948897
8	0x3e6c84b9	0.23097505
9	0xbb8a8597	-0.004227351
10	0xbe2a9694	-0.16659003
11	0xbe5462a9	-0.20740761
12	0xbe476d60	-0.19475317
13	0xbea7190c	-0.32636297
14	0x3c20cfde	0.009815184
15	0x3e620675	0.22072776
16	0x3ec46e3b	0.3836535
17	0xbc96120c	-0.018319152
18	0x3e3e34f3	0.18574886
19	0x3f170d66	0.5900482
20	0x3e92d14c	0.28675306
21	0xbe88b64b	-0.26701578
22	0x3ec31dab	0.38108572
23	0x3e5d3308	0.21601498
24	0xbea2eab4	-0.3181969
25	0x3e114dc5	0.14189823
26	0x3eb98b7e	0.36239237
27	0xbebaf350	-0.36513758
28	0xbeb20a44	-0.34773457
29	0xbe991490	-0.298985
30	0x3e37b169	0.1793877
31	0xbd24aede	-0.04020583
32	0x3eae59c8	0.34052873
33	0x3e658366	0.22413406
34	0x3d82d6bf	0.06388616
35	0x3e8f6db2	0.28013378
36	0xbdf4b11a	-0.11947842
37	0xbdc0fc84	-0.094231635
38	0x3cd2e644	0.025744565
39	0xbea350f0	-0.31897688
40	0xbd8ecdae	-0.06972824
41	0x3e2c2e6e	0.16814587
42	0x3ebd0233	0.3691574
43	0x3eab619a	0.33472902
44	0x3ed937de	0.42425436
45	0xbefe0288	-0.49611306
46	0x3ef6fb98	0.48238826
47	0xbe1026fd	-0.14077373
48	0x3ec6b2cd	0.3880829
49	0x3e7a87e3	0.24465899
50	0x3ca04e4a	0.019568581
51	0x3f090048	0.53516054
52	0x3f047f3c	0.51756644
53	0x3d9b07be	0.07569836
54	0x3e05dae3	0.1307178
55	0xbdfa2808	-0.122146666
56	0x3ef53480	0.47891617
57	0xbea578ab	-0.32318625
58	0x3ef949e4	0.48689187
59	0x3f124c0b	0.5714728
60	0x3e876938	0.26447463
61	0x3e01612e	0.12634727
62	0x3f273b2f	0.6532468
63	0xbc29f8c0	-0.010374248

3.bias f4 [8]
0	0x3e001f97	0.1251205
1	0xbe86f143	-0.26355943
2	0x3eb8feac	0.361318
3	0x3dd61e3f	0.10454988
4	0x3ebbd67e	0.36687082
5	0x3eb1b11b	0.34705433
6	0x3ed407c6	0.4141218
7	0x3ece2ac2	0.40266997

6.weight f4 [4, 8]
0	0x3c88bc65	0.016691396
1	0x3d961fbc	0.073302716
2	0xbe8c9ac5	-0.2746183
3	0x3ddbd3c6	0.10733752
4	0x3e03ee3e	0.12883851
5	0x3c4aaee8	0.012370802
6	0xbf00607b	-0.5014722
7	0xbf089101	-0.5334626
8	0xbd9cd80a	-0.07658394
9	0x3e86ba6f	0.26314113
10	0xbeb411f2	-0.3516994
11	0xbe4f1d40	-0.20226002
12	0xbef07c7d	-0.46969977
13	0xbb854e68	-0.0040681846
14	0xbd33b11e	-0.043870084
15	0xbe92a488	-0.28641152
16	0x3e173a48	0.14768326
17	0x3e74baa9	0.2389933
18	0x3cdc0698	0.026858613
19	0xbdd84ec1	-0.10561896
20	0x3e3847b4	0.17996103
21	0xbf135902	-0.5755769
22	0xbf0abc2b	-0.5419337
23	0xbe82e780	-0.25567245
24	0x3d8c6456	0.06855075
25	0xbe9ba0ed	-0.30396214
26	0xbef2c980	-0.47419357
27	0xbd1c8dfc	-0.038221344
28	0xbe400c1f	-0.18754624
29	0xbef08275	-0.4697453
30	0xbd87f195	-0.06637875
31	0xbeba7d09	-0.3642352

6.bias f4 [4]
0	0x3bbba84b	0.005726849
1	0xbcff6a7e	-0.03117871
2	0xbed1aa15	-0.40950075
3	0xbd14af08	-0.036299735
