program/tugas ML/model/weights_150.pth (torch, 3888 bytes, 6 tensors)

0.weight f4 [8, 30]
00000000: e11c 9e3e 2b3e 9d3e 0a60 b73e 40f2 873e
00000010: bcb8 a5bc a075 d73d aa80 2f3e c7ba 803e
00000020: 3e57 303e 9631 163d 3517 a63c 0972 d53d
00000030: ca6c 23be 313d c5bd 9936 383e 0043 a63e
00000040: d52b 1cbe 7ec0 883e 729f 0b3e 7e53 12bd
00000050: a826 923e 186b c8bc 3a9f 9cbe a8b9 26be
00000060: 0107 d53d 1a23 3ebe 63f7 aabd 5525 483d
00000070: 1474 4ebe 0d9b 59be aeaf 7bbc 9495 33be
00000080: d3f0 e4bd 72d6 c2bb 9843 cdbd fe8a 173e
00000090: 45fd b7bc 72ec 163e 2a9d 53bd 8350 31be
000000a0: 7847 293e c89e 3abe 9b90 833d 112a 88bb
000000b0: c514 09bd 1abb 153e a352 e83d 1279 2fbe
000000c0: fdd7 1fbe cafa 7a3c a820 21be 79e4 4f3c
000000d0: 381c bfbd 7c7a 833d 6e0c b93c 8766 c93d
000000e0: 2d1a 29be 084d 0abe 552f 813d b834 6ebc
000000f0: d59d 1d3d 02cd b83e 95dc 333e e59e 983e
00000100: d0e7 1a3e afbb cf3c 33d0 8d3e 8fac 6c3e
00000110: fac4 1cbe 278e 8fbc d95c 393d d2a1 17be
00000120: 33fb b83d 64fb 2abe 4e12 98bd 08d8 1a3f
00000130: ec89 65be 1b34 033f b81a 563e f3bd a3be
00000140: fdb7 b63e a452 343e 5efa 4fbe c8e5 223e
00000150: b5c8 e13e ec13 7bbe bbb5 a6be 7b9f 36bd
00000160: 702f 48be 9507 adbe 93ac 943e 6926 133e
00000170: 1dc0 463e 3a5c aa3e bcf2 23bd d18c 18be
00000180: dffa 473e 83d1 913c 05a4 1f3e c4de 18be
00000190: 0a44 d73d 7c4d c5ba d0b6 873b 2b77 eb3d
000001a0: c6e4 8d3d 6dcb 9c3e 91c3 51bd e297 8a3e
000001b0: 404b 973e 522f 05be 773b 763e e7cb 383c
000001c0: 0523 a9be 5220 363e 627b 763e 514d 33be
000001d0: 2d35 adbd 07f1 423d 7eaf debd f423 92bd
000001e0: 5a47 e43d 4178 913e 45e3 913e 7133 503d
000001f0: e8d7 5bba 0e1f e8bd 01b7 bb3d 9de3 8c3e
00000200: a58c 7fbd 698f 7b3b ee91 173e 9981 3ebd
00000210: b45a 8e3d 2949 96bc 835a 15be c52c 0c3f
00000220: 6de2 913d 677f e43d 205c 7b3e 686a 0dbe
00000230: 4841 923d 7cd1 c83d d44e 95bd 5059 0e3c
00000240: 0578 b23d 7f50 913d 9fb8 25be e148 1ebb
00000250: f3d9 08be 0398 ccbd 8093 973e 5a3c 163d
00000260: d3aa b8bc 09c7 293e 7752 633d e1b6 af3e
00000270: d301 2a3d 9378 873d 564f c43e d997 ef3d
00000280: 2667 363e 4403 373e 929b 5b3e 956c 813e
00000290: aefe 003e 69ee 02bf 78d3 6b3e c469 91be
000002a0: 1f53 90bd 7fef c83e db03 2fbe 2c02 4b3d
000002b0: 17fd b13e 4cef 07be aabb a2be 300c 173d
000002c0: 085b 9d3e c5d1 283e 5031 cc3e 76c3 da3e
000002d0: 5f18 1e3e a708 783e 54c5 2d3e d092 a13d
000002e0: 57cb dc3d 3f3a 8f3d 1610 793d a2c7 b13d
000002f0: 5809 a9bc 573e 28be 1ae2 d83b c857 b13c
00000300: 26d6 543c 729d 3dbe 57cc 353e 668d f63e
00000310: c36f d5bc 816c cb3e 5a9a 8a3e ac0b 91be
00000320: b382 ab3e d5a1 103c c085 08be 4bb0 e9bd
00000330: 5c63 c73e 9331 28bc 67e0 b7be 2ee6 823c
00000340: 7f2a 6bbd 74fb e6bd e7aa 4b3d 0909 9dbe
00000350: 0055 fbbd cd77 ea3d 46de 293e bb9f 253e
00000360: b737 3bbe 0ab3 a33d 52f8 043f f2bd 9f3e
00000370: a3c0 0b3e f30e dc3d c637 423d 185a 6c3e
00000380: 1672 113e f35a bdbe 4d3d a1bc d9b1 3bbe
00000390: e7d7 5ebf 3912 1f3e 26d4 50bf 0e26 02bc
000003a0: ee9e 0d3e 2060 22be 19c9 f1bd 5777 f03d
000003b0: 83dc 853e bc82 3abe 8596 063e 2c85 703e
0.30881408 0.30711493 0.3581546 0.2655201 -0.02022969 0.10520482 0.17138925 0.251425
0.1722078 0.036668383 0.020274738 0.10422141 -0.15959468 -0.09630812 0.17989577 0.32472992
-0.15251096 0.2670936 0.13635042 -0.035724156 0.28545117 -0.024465129 -0.3059023 -0.1628176
0.104017265 -0.18568078 -0.083479665 0.048863728 -0.20161468 -0.21250553 -0.0153617095 -0.17537528
-0.11178746 -0.005945974 -0.10022658 0.14799115 -0.022459636 0.14738634 -0.051663555 -0.17315869
0.1653117 -0.18224633 0.06424066 -0.0041554053 -0.033467073 0.14622155 0.11343887 -0.17136028
-0.15609737 0.015318582 -0.15735114 0.0126887495 -0.09331554 0.064198464 0.022588935 0.09834009
-0.16513892 -0.13505948 0.06307856 -0.014538936 0.0384806 0.3609391 0.17564614 0.29808727
0.15127492 0.02535805 0.27697906 0.23112701 -0.15309516 -0.017523838 0.045254562 -0.14807823
0.090322874 -0.1669746 -0.07425366 0.6048589 -0.22415894 0.5125138 0.2090863 -0.31980857
0.35687247 0.1760965 -0.20310351 0.15907967 0.4409844 -0.24519318 -0.32560524 -0.044585686
-0.19549346 -0.33794847 0.29037914 0.14370121 0.19409223 0.33273488 -0.04002641 -0.14897467
0.19529293 0.017800098 0.15589912 -0.14928728 0.10511024 -0.0015052999 0.004141666 0.11497339
0.06928401 0.30623952 -0.051211897 0.27069002 0.295496 -0.13006333 0.24046122 0.011279083
-0.3303453 0.17785767 0.24070504 -0.17509963 -0.08457408 0.047593143 -0.10873316 -0.07135764
0.11146422 0.2841206 0.28493705 0.05083031 -0.00083863596 -0.11334048 0.091657646 0.27517405
-0.06238999 0.003838504 0.14801762 -0.046510313 0.06950894 -0.018345432 -0.14585309 0.5475581
0.071232654 0.111571126 0.24546862 -0.13810122 0.07141358 0.09805581 -0.07290426 0.008688286
0.08714298 0.070954315 -0.16183709 -0.0024152326 -0.13364391 -0.099899314 0.2960472 0.03667865
-0.022542393 0.16579832 0.055498566 0.34319213 0.041505646 0.066147946 0.3834178 0.116988845
0.17812786 0.1787234 0.21446064 0.25278154 0.12597153 -0.51145035 0.23029888 -0.28401005
-0.07047104 0.3924522 -0.17091314 0.049562618 0.34763405 -0.13274878 -0.317838 0.036876857
0.30733514 0.1648627 0.39881372 0.4272725 0.15438984 0.2422205 0.16969806 0.078893304
0.107809715 0.069935314 0.060806356 0.08680655 -0.020634338 -0.16430031 0.0066187503 0.021648303
0.01299051 -0.18517092 0.1775373 0.48154753 -0.026054269 0.3973122 0.27070886 -0.28329217
0.33498153 0.008827646 -0.13332272 -0.11410578 0.38942993 -0.010265726 -0.35913393 0.015978899
-0.057413574 -0.112784296 0.049723532 -0.30670956 -0.12272072 0.114486314 0.16588697 0.16174214
-0.18282972 0.07993133 0.51941407 0.31199604 0.13647704 0.10745039 0.04741647 0.23081243
0.14203677 -0.3698345 -0.01968255 -0.18329562 -0.8704819 0.15534295 -0.8157371 -0.007943643
0.13830158 -0.15856981 -0.118059345 0.11741512 0.261448 -0.18213934 0.13143356 0.23488301

0.bias f4 [8]
00000000: 158d f03e 4a3a febd a087 f73e 610e de3e
00000010: e010 cd3e c95e 07be 485b bd3e 7ab5 0dbe
0.46982637 -0.124134615 0.4834566 0.43370345 0.40051937 -0.13219751 0.36983705 -0.13838759

3.weight f4 [8, 8]
00000000: a5b9 0bbe ddf3 0bbe a2b6 2cbe cdb4 693c
00000010: bd60 b6be f754 a43e 36bb 05be e6e3 603e
00000020: 2cab 5b3e 534b b5bb 2e49 2abe 133d 5abe
00000030: 4f42 49be 6f13 aebe db72 34bc ec12 4d3e
00000040: 0135 be3e aa2e ce3b 6795 4d3e 6650 173f
00000050: 00a0 a03e fe9c f6be 9977 c93e ea5e a3bd
00000060: f2fc 26be 6480 1c3e cde8 163f af69 20be
00000070: dffd acbd 6375 8fbe 6a39 dc3e b6c1 9dbe
00000080: f4d0 9d3e 3bf2 643e 626d 963d cb39 883e
00000090: 2f72 8ebd 203e a9be cb3a 103d a4ee 18bf
000000a0: 1b28 93bd d2c3 3c3e 1785 b73e af5c 983e
000000b0: 89b3 c73e 661b 2abf 3c3d ed3e ac50 e7be
000000c0: 0da9 d03e 12f9 7f3e b8f7 563d 6418 0e3f
000000d0: a87f 093f 71d7 93bd 81da 353e 0bec c3be
000000e0: 1016 f13e af24 a3be 0957 fb3e 7368 113f
000000f0: 3da6 8a3e 880d 9bbd a42d 283f 2ef5 89be
-0.13645037 -0.13667245 -0.16866544 0.014264298 -0.3562068 0.32096073 -0.13059697 0.21961936
0.21452016 -0.005532661 -0.16629478 -0.2131236 -0.19654201 -0.33999202 -0.011013712 0.2002675
0.37149814 0.006292184 0.20076524 0.59107053 0.3137207 -0.4816665 0.39349058 -0.07977088
-0.16307428 0.15283352 0.58948976 -0.15665315 -0.084468596 -0.28019246 0.43012553 -0.30811852
0.3082348 0.22358029 0.07345082 0.26606593 -0.069553725 -0.3305521 0.03521232 -0.59739137
-0.07185384 0.18434075 0.35843727 0.29758212 0.39004162 -0.66448057 0.4633578 -0.45178735
0.40753976 0.24997357 0.052482337 0.5550597 0.5371041 -0.072188266 0.17759134 -0.38266024
0.47087145 -0.31863925 0.4908984 0.568 0.27079955 -0.0757094 0.6569464 -0.2694487

3.bias f4 [8]
00000000: 389a ec3d 6b88 8cbe d764 e93e b485 f83e
00000010: 01ea e93e bc26 f13e 2511 003f 559a ec3e
0.115528524 -0.2744783 0.45584747 0.48539507 0.45686343 0.47099864 0.5002616 0.46211496

6.weight f4 [4, 8]
00000000: 4276 d1bc 38b9 863d 971e c0be 092b a8be
00000010: 0979 12bc bfcf f6bd 4a87 13bf 6f45 12bf
00000020: 8c7c 77bd 7f4b 833e 81ee bfbe 1579 ffbe
00000030: e3e1 08bf cee7 bebd cf4f e2bd a261 99be
00000040: 64d2 143e ef2b 613e c91e 55bd 8250 b0be
00000050: d2b1 a23d 292f 15bf a82c 06bf bd6f 8dbe
00000060: b13b 7e3d edfb 9ebe b70a e7be 9104 aebe
00000070: d813 81be 7c14 febe cc94 dfbd 387e acbe
-0.025569085 0.065782964 -0.37523338 -0.32845333 -0.00893999 -0.12051343 -0.5762831 -0.571372
-0.06042151 0.25643536 -0.37486652 -0.49897066 -0.53469676 -0.09321557 -0.110503785 -0.299573
0.14533383 0.21989416 -0.052031312 -0.34436423 0.07944073 -0.58275086 -0.5241189 -0.27624312
0.062068645 -0.3105158 -0.45125362 -0.3398786 -0.25210452 -0.49625003 -0.109170526 -0.33690047

6.bias f4 [4]
00000000: 234e 8abd 4bfc b1bd 4d13 e9be fb20 adbd
-0.06753185 -0.08690699 -0.45522538 -0.08453556
